src/Saved_models/apple_lstm_autoencoder.pth (torch, 222964 bytes, 13 tensors)

encoder.lstm.weight_ih_l0 f4 [256, 1]
0	0xbdc6be5e	-0.097042784
1	0x3c18a495	0.009316583
2	0xbd04aaca	-0.03238944
3	0x3d19b175	0.03752275
4	0x3e184dcd	0.14873429
5	0x3dcaa820	0.098953485
6	0xbe56550e	-0.20930883
7	0x3de512c2	0.111852184
8	0xbd88f085	-0.066865005
9	0x3e1f63ff	0.15565489
10	0xbdf7cb88	-0.120993674
11	0x3da0c3f6	0.078498766
12	0x3e3811c8	0.17975533
13	0x3dadb7f1	0.0848235
14	0xbe517d6a	-0.20457998
15	0xbdb21f78	-0.086974084
16	0xbeea3b21	-0.45748237
17	0xbcef1198	-0.029183194
18	0xbe1fa22a	-0.15589204
19	0x3d8099c2	0.06279327
20	0xbe92a009	-0.28637722
21	0xbd1ff294	-0.0390497
22	0xbde0667d	-0.10957048
23	0xbd544049	-0.05181912
24	0xbce41667	-0.027842714
25	0x3c228003	0.009918216
26	0x3e0be2ed	0.13660784
27	0xbd88c91b	-0.06678983
28	0x3d8faff5	0.07015983
29	0xbcf6fde6	-0.030150365
30	0xbdb187d1	-0.08668483
31	0xbd41ec35	-0.047344405
32	0x3c4f1d2b	0.0126412315
33	0x3dbb238a	0.09137638
34	0x3e18f3ff	0.14936827
35	0x3df467c5	0.11933855
36	0x3d362b1c	0.044474706
37	0xbc19c2cb	-0.009384821
38	0x3d628f42	0.055312403
39	0x3d8e0baf	0.06935822
40	0x3e127653	0.1430295
41	0xbd3099ae	-0.04311531
42	0xbe695619	-0.2278675
43	0x3d6af748	0.057364732
44	0xbe5d2a4e	-0.21598169
45	0xbbfe9282	-0.00776893
46	0xbc22f64e	-0.009946419
47	0x3de5d6bd	0.11222599
48	0x3e137a3e	0.144021
49	0xbe16c5fc	-0.14723963
50	0x3e23f439	0.16011132
51	0xbe804315	-0.2505118
52	0x3e20f8fe	0.15719983
53	0xbd36e45b	-0.04465137
54	0xbd5d02d2	-0.053957768
55	0xbe2e4fd7	-0.17022644
56	0x3c8cff8a	0.017211694
57	0x3dc04cb4	0.0938963
58	0xbecd91a4	-0.40150177
59	0x3d91613f	0.07098626
60	0x3e079a3f	0.13242434
61	0xbdda02ba	-0.10645051
62	0xbe9ccba4	-0.30624115
63	0x3e278861	0.16360618
64	0x3c2906c8	0.010316558
65	0x3e481437	0.19538961
66	0xbc34db56	-0.011038622
67	0x3e09fc57	0.13475166
68	0x3e3dbc53	0.18528871
69	0x3dec551f	0.11539673
70	0xbdf65677	-0.120282106
71	0xbc8e886a	-0.017399032
72	0x3e1ed190	0.15509629
73	0x3e2bda6a	0.16782537
74	0x3cd77294	0.026299752
75	0xbd61c0a1	-0.055115346
76	0x3dc1b7e3	0.09458902
77	0xbce1320a	-0.02748968
78	0x3d9c92b5	0.0764517
79	0x3ce3277e	0.027728792
80	0xbd6e5410	-0.058185637
81	0x3d2165e0	0.039403796
82	0xbd89a184	-0.0672026
83	0x3d89ea9b	0.067342006
84	0xbe7602d9	-0.24024524
85	0x3d338012	0.04382331
86	0xbd7aaec6	-0.061201833
87	0x3e452621	0.19252826
88	0x3e3f4d06	0.18681726
89	0xbd1d0d41	-0.038342718
90	0x3d70a29b	0.058748823
91	0x3b702d16	0.0036647967
92	0xbb2f4a2e	-0.0026747095
93	0x3cb254c9	0.021768944
94	0x3cc5c5d2	0.02414218
95	0x3ca94a67	0.02066536
96	0x3db56fc4	0.08859208
97	0x3c94eff5	0.018180827
98	0x3dca6a84	0.098835975
99	0x3cfe3eef	0.031035868
100	0x3d30d2bc	0.043169722
101	0xbbd8dfd8	-0.006618481
102	0x3dc1e8da	0.09468241
103	0x3c9c580b	0.01908495
104	0x3e2e1da9	0.17003502
105	0xbdb8ca6e	-0.090229854
106	0x3d7d5081	0.061844353
107	0x3e2aaea3	0.16668181
108	0xbe11de54	-0.14244968
109	0xbd36bda4	-0.04461445
110	0x3d55f5b4	0.052236274
111	0xbb8af157	-0.0042401957
112	0x3df80535	0.12110368
113	0xbd17060f	-0.036871012
114	0x3e1b0131	0.15137173
115	0xbdcf2c57	-0.10115879
116	0x3c72a312	0.014809387
117	0xbd835265	-0.064122
118	0x3e00a9a4	0.12564713
119	0xbe2fee43	-0.17180733
120	0x3cc39070	0.023872584
121	0x3e0e1291	0.1387427
122	0xbeff9bd0	-0.49923563
123	0x3e4a00a7	0.19726811
124	0x3d3c901d	0.046035875
125	0x3deb7879	0.11497588
126	0x3d3be405	0.045871753
127	0x3e11b157	0.14227806
128	0xbe0aa114	-0.13538009
129	0xbe3cccda	-0.1843752
130	0xbd152ff7	-0.036422696
131	0x3e2bc3c2	0.16773894
132	0x3e304a28	0.17215788
133	0x3dfad981	0.12248517
134	0xbd049aaf	-0.03237408
135	0x3e4d3293	0.20038824
136	0x3e38a7e4	0.18032795
137	0xbde20526	-0.11036138
138	0xbe21a291	-0.1578467
139	0xbe34fee2	-0.17675355
140	0xbdd3ff2a	-0.10351403
141	0x3e3172d1	0.17328955
142	0xbe4f25e1	-0.20229293
143	0x3d0c9207	0.03431895
144	0x3e487886	0.19577226
145	0x3db027c9	0.086013384
146	0xbe0768bd	-0.13223548
147	0xbde2b41f	-0.110695116
148	0x3ee2fd4e	0.4433388
149	0x3d8cf021	0.068817385
150	0x3d498fb9	0.04920933
151	0x3dde827d	0.108647324
152	0x3de9a84a	0.11409052
153	0x3da2b30e	0.07944308
154	0x3dfc051c	0.12305662
155	0x3e28a8f7	0.16470705
156	0x3def348a	0.11679943
157	0x3dc2e824	0.095169336
158	0xbdd0f959	-0.10203809
159	0xbe356b64	-0.17716748
160	0x3e256e5a	0.16155377
161	0x3ded7518	0.115945995
162	0xbe07c070	-0.13257003
163	0x3e26f848	0.1630565
164	0x3d6610f7	0.056168523
165	0xbe51f04e	-0.20501825
166	0x3e0a73f5	0.13520797
167	0xbc76c6b4	-0.015062023
168	0x3dc8b0c6	0.09799342
169	0xbdeaedeb	-0.114711605
170	0xbe1750d6	-0.1477693
171	0xbdfad72c	-0.12248072
172	0xbe9b9760	-0.30388927
173	0xbdb5ee6c	-0.08883366
174	0x3bbba93a	0.0057269605
175	0xbdea7dff	-0.11449813
176	0xbe351658	-0.17684305
177	0xbd0484c1	-0.032353166
178	0xbd6fd111	-0.05854899
179	0xbe71a200	-0.23596954
180	0xbe19abe1	-0.15006973
181	0x3df1a151	0.11798347
182	0xbe1d224b	-0.15345113
183	0xbe2ffdd1	-0.17186667
184	0xbd31f2b3	-0.043444347
185	0xbe58bc7c	-0.21165651
186	0x3ec36715	0.38164583
187	0x3e254697	0.16140209
188	0x3dd2d91e	0.10295318
189	0xbddf0ce8	-0.108911335
190	0xbe5d558e	-0.21614668
191	0x3cb09809	0.021556871
192	0xbd1b7f8a	-0.037963428
193	0x3dd482c2	0.103765026
194	0xbdca205b	-0.098694526
195	0xbd91e075	-0.0712289
196	0x3df58931	0.11989058
197	0x3df57e8f	0.1198703
198	0xbd429e3c	-0.047514185
199	0xbcc32d07	-0.023825182
200	0xbb9f5718	-0.0048626773
201	0x3e1fad8a	0.15593544
202	0xbeb7efaa	-0.35925037
203	0x3da7f805	0.08201603
204	0xbb4494b7	-0.0029995868
205	0xbd9a062f	-0.07520711
206	0xbe65a8ee	-0.22427723
207	0x3dbb8484	0.09156135
208	0xbeba2558	-0.36356616
209	0xbdac0a7a	-0.08400436
210	0xbc856a19	-0.016285943
211	0x3dbbc2a3	0.091679834
212	0xbf10470f	-0.56358427
213	0xbc36c62a	-0.011155644
214	0x3d1b48d3	0.037911247
215	0xbd04deb0	-0.032438934
216	0x3d6f8fe9	0.058486853
217	0x3d3e976d	0.04653113
218	0x3d2e54dc	0.042561397
219	0x3cfd25c0	0.03090179
220	0xbd9d6f48	-0.07687241
221	0xbde6eea0	-0.11275983
222	0xbcfbb7f2	-0.03072736
223	0xbbf9ce53	-0.0076234727
224	0xbcd26bd4	-0.025686182
225	0x3e0dbc58	0.13841379
226	0x3dafccba	0.0858397
227	0x3c378db9	0.011203223
228	0x3cf08fab	0.029365381
229	0x3c5e7a21	0.0135789225
230	0xbd6d4e89	-0.057936225
231	0x3dbe175f	0.092818014
232	0x3d33d29a	0.043902017
233	0x3d5282ec	0.051394388
234	0xbeb4b094	-0.35290968
235	0xbc8d7308	-0.017266765
236	0xbe2626d7	-0.16225754
237	0xbda79f9a	-0.081847385
238	0xbc77aceb	-0.01511691
239	0x3e23c15b	0.15991728
240	0x3dcb0014	0.09912124
241	0xbd417966	-0.047234915
242	0x3d462282	0.048372753
243	0xbe99a7d8	-0.30010867
244	0xbdb5729f	-0.08859753
245	0x3da40e5a	0.0801055
246	0x3db6cd42	0.089258686
247	0xbda34d96	-0.07973783
248	0xbd2bd70e	-0.04195314
249	0x3e433ba4	0.1906572
250	0xbea7e792	-0.32793862
251	0x3e4a2f05	0.19744499
252	0xbd788606	-0.06067469
253	0xbdd3ab9d	-0.10335467
254	0xbe22aeeb	-0.15887038
255	0xbcb10dde	-0.021613058

encoder.lstm.weight_hh_l0 f4 [256, 64]
0	0xbd2c8fec	-0.042129442
1	0xbd160623	-0.036626946
2	0x3dee0db3	0.11623707
3	0x3d954353	0.07288232
4	0xbda20a54	-0.07912126
5	0x3de29ae1	0.11064697
6	0xbbaaf5be	-0.005217283
7	0x3e09042f	0.13380502
8	0xbd8101ef	-0.06299197
9	0x3d5ff9f4	0.054681733
10	0x3d952f98	0.072844684
11	0xbdc30fa5	-0.09524468
12	0xbdb25367	-0.08707314
13	0x3db32ed7	0.08749168
14	0x3cc99fe5	0.024612376
15	0xbde1f0e6	-0.11032276
16	0xbe2fe7ed	-0.17178316
17	0xbca815ec	-0.020518266
18	0x3dc66a47	0.096882395
19	0x3d962b6b	0.073325
20	0xbe0663a5	-0.13123949
21	0xbd2665f0	-0.04062456
22	0xbd96f1cb	-0.07370337
23	0x3d9920c7	0.07476955
24	0x3e06179c	0.13094944
25	0x3d675e6f	0.056486543
26	0xbd80bd17	-0.06286066
27	0xbd361283	-0.044451248
28	0xbe0a3cd5	-0.13499768
29	0x3e06984c	0.13144034
30	0xbd40176f	-0.046897348
31	0xbd3c3fba	-0.045959212
32	0x3d399776	0.04531046
33	0xbda12714	-0.07868782
34	0x3cce8e48	0.02521433
35	0x3cf222ce	0.029557612
36	0x3d380237	0.044923987
37	0x3cc0dd4e	0.023543026
38	0xbd56342e	-0.052295856
39	0xbd87b7c0	-0.066268444
40	0x3d229cac	0.039700195
41	0x3c11442a	0.008866349
42	0x3d49b34b	0.049243253
43	0x3d8b48a6	0.06800966
44	0xbced75c0	-0.028986812
45	0xbd910a7c	-0.07082078
46	0x3d5a8cd9	0.05335698
47	0xbde8e637	-0.11372035
48	0x3d2424ca	0.040074147
49	0xbd117765	-0.035514254
50	0x3d04ce3c	0.032423243
51	0x3d447191	0.047959868
52	0x3d56954a	0.052388467
53	0x3ca7df79	0.020492302
54	0x3d545e71	0.05184788
55	0x3e0acf40	0.13555622
56	0xbd79ade1	-0.06095684
57	0xbda7b43a	-0.08188672
58	0x3d4a658b	0.049413245
59	0xbded2c50	-0.115807176
60	0x3d305da4	0.043058053
61	0x3e031bcb	0.12803571
62	0xbdbdd091	-0.092682965
63	0xbdea706f	-0.11447226
64	0x3cb1b4ea	0.021692712
65	0xbdf60a0e	-0.120136365
66	0xbc8b523d	-0.017006988
67	0xbc0d240c	-0.008614551
68	0x3d9e33f5	0.07724754
69	0x3b93ea81	0.004514039
70	0x3d0d6034	0.034515575
71	0x3db936c7	0.09043651
72	0x3d9890ac	0.07449469
73	0xbd9cb05c	-0.076508254
74	0xbd98a7e9	-0.07453901
75	0xbe16a800	-0.14712524
76	0xbe08de4e	-0.13366053
77	0xbd7eea42	-0.062235124
78	0xbd963ab6	-0.07335417
79	0xbdfe4c6f	-0.12416922
80	0xbd280a13	-0.041025233
81	0x3ce5a1e6	0.0280313
82	0x3c7bccb7	0.015368632
83	0x3dd69dba	0.10479303
84	0x3c0e0464	0.008668039
85	0x3d021d6a	0.031766333
86	0x3deaf08b	0.11471661
87	0x3dc03d6e	0.09386717
88	0xbdd6f015	-0.10495011
89	0x3da426a3	0.08015182
90	0xbca5f187	-0.02025677
91	0x3c1a48cb	0.009416769
92	0x3dceeb61	0.10103489
93	0x3cbbaab4	0.022908546
94	0x3c6ebcb7	0.01457136
95	0x3d97aa90	0.07405579
96	0x3ca3d66f	0.01999971
97	0xbd85c718	-0.06532115
98	0xbd14c8f1	-0.036324445
99	0x3cbc194d	0.022961283
100	0xbe1931fc	-0.14960474
101	0xbbf042c4	-0.007332178
102	0x3cee6ffd	0.029106135
103	0x3c87d6e8	0.016581967
104	0xbbebe70d	-0.0071991743
105	0x3dea8821	0.11451746
106	0xbb97f9b0	-0.0046379194
107	0x3d16fa13	0.036859583
108	0xbb346eaf	-0.0027531793
109	0xbde708c6	-0.1128097
110	0xbe1f1ec3	-0.15539078
111	0xbe00d2b3	-0.12580375
112	0xbdaef9a3	-0.08543708
113	0x3d2b639a	0.041843034
114	0xbd23cdfb	-0.03999136
115	0x3d9175af	0.071025245
116	0xbdabd1b5	-0.08389608
117	0xbda9d6db	-0.082929336
118	0x3d17fd4f	0.03710681
119	0xbd2e4769	-0.04254857
120	0x3d1d46da	0.038397647
121	0xbdacfc1f	-0.08446526
122	0x3e0b974c	0.13631934
123	0xbd2263f0	-0.03964609
124	0x3d664658	0.05621943
125	0xbb9a141e	-0.004702105
126	0x3d4869c3	0.048928987
127	0xbda72e53	-0.081631325
128	0x3b916f77	0.0044383365
129	0x3d59e973	0.05320115
130	0x3a3d5d2d	0.0007223662
131	0x3d679d82	0.056546696
132	0xbddab7a2	-0.106795564
133	0xbd676b48	-0.056498796
134	0x3df6c386	0.12049012
135	0xbd9da038	-0.07696575
136	0xbdaa7165	-0.083224095
137	0x3dcd4c4a	0.100243166
138	0xbca72844	-0.020404942
139	0x3c2af3bb	0.010434086
140	0x3a830a11	0.0009997507
141	0xbdd5b4b9	-0.10434861
142	0xbd89bbb0	-0.06725252
143	0xbd9e6670	-0.07734382
144	0x3db0afe7	0.08627301
145	0xbd6eed05	-0.05833151
146	0x3dbe942f	0.093056075
147	0xbdfba73e	-0.12287758
148	0x3e00a817	0.12564121
149	0x3dec99a4	0.11552742
150	0xbda2a005	-0.079406776
151	0x3e183abe	0.14866158
152	0x3d6629f7	0.056192365
153	0x3cdb7558	0.026789352
154	0xbdc8f7e1	-0.09812904
155	0x3d2b1791	0.04177052
156	0x3d6423bd	0.055698145
157	0xbd3ee2aa	-0.046602882
158	0xbcde18c5	-0.02711142
159	0x3da44694	0.08021274
160	0xbd6ef8ae	-0.05834263
161	0x3ddae03a	0.10687299
162	0x3ddcb972	0.107775584
163	0x3d84eb89	0.06490237
164	0xbdae921a	-0.085239604
165	0x3ad095ac	0.0015913746
166	0x3e073497	0.13203655
167	0x3d373b38	0.04473421
168	0xbd5f8af7	-0.054575887
169	0x3d8d2633	0.068920515
170	0xbd178a2e	-0.036997013
171	0xbcc6b149	-0.024254458
172	0x3d2e4024	0.042541638
173	0xbe001b13	-0.12510328
174	0x3d94d0b9	0.07266373
175	0xbcade10b	-0.021225473
176	0xbe203ac5	-0.15647419
177	0x3e46f70a	0.19430175
178	0x3d619df1	0.055082265
179	0xbe12aba5	-0.1432329
180	0xbd87f698	-0.06638831
181	0xbd4792a3	-0.048723828
182	0xbddece76	-0.10879223
183	0xbd4578af	-0.048210796
184	0x3dd0ffa4	0.102050096
185	0xbd20328f	-0.039110716
186	0x3e739031	0.23785473
187	0xbc6f04af	-0.014588519
188	0x3e107c41	0.14109899
189	0x3d0d6874	0.034523442
190	0xbdd3b1a7	-0.10336619
191	0xbc807199	-0.015679168
192	0x3dd37817	0.1032564
193	0xbd053eff	-0.03253078
194	0x3e049886	0.12948808
195	0x3cd85c4f	0.026411204
196	0x3e0ef3c2	0.13960174
197	0x3e29b5fb	0.16573326
198	0x3b73e0e7	0.003721291
199	0x3b6d8539	0.0036242737
200	0x3cbd0db0	0.023077816
201	0x3d426937	0.047463622
202	0x3b80f446	0.0039353697
203	0xbd8b94ee	-0.068155155
204	0x3d66914e	0.056290917
205	0x3e0234d5	0.12715466
206	0x3d95b0a5	0.07309083
207	0xbe7651e0	-0.2405467
208	0xbd5e7c28	-0.054317623
209	0xbcfac129	-0.030609684
210	0x3e73ea90	0.23819947
211	0x3d916192	0.07098688
212	0x3d70e45c	0.05881153
213	0xbdd414b5	-0.10355512
214	0xbcadfea2	-0.021239582
215	0x3d9f3b3b	0.07774969
216	0xbdb602fa	-0.088872865
217	0x3e28f516	0.16499743
218	0x3e0646ac	0.13112897
219	0xbd15fdc6	-0.03661897
220	0xbc853277	-0.016259415
221	0x3cceb27c	0.025231592
222	0x3e312c9e	0.17302176
223	0x3d7cca8b	0.061716598
224	0x3e17e8e2	0.14834931
225	0x3d93bd8a	0.07213886
226	0x3e2adad9	0.16685046
227	0x3caf1063	0.021370118
228	0xbe11815f	-0.14209507
229	0xbdb5e994	-0.08882442
230	0xbc626a40	-0.013819277
231	0x3c75fee5	0.015014385
232	0xbd8a44b9	-0.06751389
233	0xbbd85ef0	-0.0066031143
234	0x3e0b4bde	0.1360316
235	0x3a8287d3	0.0009958692
236	0xbdff9e88	-0.12481409
237	0xbe3400d4	-0.17578441
238	0x3a61063f	0.00085839996
239	0xbd005c63	-0.031338107
240	0xbdddbd00	-0.108270645
241	0x3e2f5147	0.17120849
242	0xbca49e20	-0.020094931
243	0xbe375369	-0.17902912
244	0xbbe0bcd7	-0.006858449
245	0xbd49fe6e	-0.04931491
246	0xbbf94a63	-0.0076077445
247	0x3dcc3a9a	0.09972115
248	0xbd80330a	-0.06259735
249	0xbe1c07c7	-0.15237342
250	0x3d6cb4e9	0.057789717
251	0x3cc0f861	0.023555936
252	0xbcdd904e	-0.027046349
253	0xbdac3206	-0.08407979
254	0xba4b067e	-0.0007744803
255	0xbd7019f4	-0.0586185

encoder.lstm.bias_ih_l0 f4 [256]
0	0x3e2afb81	0.16697504
1	0x3ad6a0f5	0.0016374873
2	0x3dbaf788	0.09129244
3	0x3e1a9ab1	0.15098073
4	0x3d49dda9	0.049283657
5	0x3cdfc6d1	0.027316483
6	0x3e1afff7	0.15136705
7	0xbd54cacd	-0.05195122
8	0xbc9118b0	-0.017711967
9	0x3d8127c4	0.06306413
10	0xbc0299ca	-0.0079712365
11	0x3e137924	0.1440168
12	0xbdc84095	-0.09777943
13	0x3e031df0	0.12804389
14	0xbc84e0af	-0.016220419
15	0x3dbbc783	0.09168913
16	0x3e40e849	0.1883861
17	0xbd7283dc	-0.059207782
18	0x3c79ec47	0.015254087
19	0xbde8c847	-0.11366325
20	0x3dccd947	0.1000238
21	0xbd2838a7	-0.041069653
22	0x3d99ba65	0.07506255
23	0xbd06b9a1	-0.032891873
24	0xbdcdb150	-0.10043585
25	0xbdb48e95	-0.08816258
26	0x3dc46ee2	0.09591462
27	0xbc5655f6	-0.013082018
28	0x3d57d72e	0.052695446
29	0x3d81fdc1	0.06347228
30	0x3d60a99a	0.054849245
31	0x3d51d715	0.05123051
32	0xbc264745	-0.010148828
33	0x3dbd65bc	0.0924792
34	0xbdbc5ac4	-0.09197
35	0xbda61b1a	-0.08110638
36	0x3c952502	0.018206123
37	0x3db2ffa1	0.087401636
38	0xbde64f00	-0.11245537
39	0xbdcc0e16	-0.09963624
40	0x3d700d50	0.058606446
41	0x3dda538b	0.10660466
42	0xbd1420ee	-0.036164217
43	0xbc980eb4	-0.018561698
44	0x3c849d20	0.016188204
45	0xbb09be28	-0.0021017883
46	0x3cde07c2	0.027103309
47	0x3d81b511	0.06333364
48	0x3defee4b	0.11715373
49	0x3e5828cf	0.21109317
50	0xbc922543	-0.017840033
51	0x3ecc05b2	0.39848095
52	0xbcf11bcc	-0.0294322
53	0x3dd32a1f	0.10310768
54	0xbc8d7858	-0.017269298
55	0x3dd6865a	0.10474844
56	0xbd09cb03	-0.033640873
57	0x3b9fceb4	0.004876936
58	0x3ea49610	0.3214574
59	0xbd8423f4	-0.0645217
60	0x3cf898f2	0.030346368
61	0xbd75fd74	-0.060056165
62	0x3d331708	0.043723136
63	0x3d937f47	0.072020106
64	0x3d83dcc9	0.06438596
65	0xbc41ca22	-0.011827977
66	0x3dbd6eec	0.09249672
67	0x3e2aa0be	0.16662881
68	0x3d857672	0.06516732
69	0xbc18690c	-0.009302389
70	0x3d8616e9	0.065473385
71	0xbc28c284	-0.010300282
72	0x3c479526	0.012181556
73	0x3da63302	0.08115198
74	0xbded0015	-0.11572281
75	0x3dd5100f	0.104034536
76	0xbc8e8b70	-0.017400473
77	0x3d11fd09	0.035641704
78	0x3e0f72ff	0.14008711
79	0x3d2f3cb7	0.04278251
80	0xbe25ea3a	-0.16202632
81	0xbc18c9ea	-0.009325484
82	0x3d19e7e3	0.03757466
83	0x3dad996b	0.08476528
84	0x3d804343	0.06262829
85	0x3dedd4bb	0.11612841
86	0xbd28d50a	-0.041218795
87	0x3de08443	0.10962727
88	0xbd518f35	-0.051161963
89	0x3de01799	0.10942001
90	0x3d3b41d3	0.04571707
91	0x3c8e8548	0.017397538
92	0xbd35299e	-0.044229142
93	0xbde4c912	-0.111711636
94	0xbd982dfb	-0.07430645
95	0xbd04eccc	-0.03245239
96	0x3c912f34	0.017722704
97	0xbd8a81c3	-0.06763031
98	0x3e00af45	0.1256686
99	0xbd5078bb	-0.050896388
100	0xbe09aa7b	-0.1344394
101	0x3d276875	0.040871102
102	0xbc1d0345	-0.009583299
103	0xba02e914	-0.0004993838
104	0xbbde1dcc	-0.0067784544
105	0x3df16692	0.11787142
106	0xbe17d8c6	-0.14828786
107	0x3db0e5c8	0.08637577
108	0x3cff6ac9	0.031178849
109	0xbd0c8170	-0.03430313
110	0x3cf86e7c	0.03032612
111	0x3de5045e	0.111824736
112	0xbd44ae5a	-0.048017837
113	0xbdb6045a	-0.08887549
114	0x3dccf979	0.10008521
115	0xbdda5039	-0.106598325
116	0x3d846493	0.064644955
117	0x3e04dfdc	0.1297602
118	0xbdd03161	-0.10165668
119	0xbddfc00b	-0.10925301
120	0xbd618b84	-0.055064693
121	0x3d88dab8	0.06682342
122	0xbd9ac195	-0.07556454
123	0xbc90e018	-0.017684981
124	0x3def02a0	0.116704226
125	0x3d463062	0.048385985
126	0x3cadabf1	0.021200152
127	0xbd6541a4	-0.055970803
128	0x3d7d0dbc	0.061780676
129	0x3dc8e88c	0.0980998
130	0x3d876578	0.066111505
131	0x3b92851a	0.0044714333
132	0x3dd10b96	0.10207288
133	0x3df4cffe	0.11953734
134	0xbcc4a950	-0.024006516
135	0x3cf883c7	0.030336274
136	0xbc43bb34	-0.011946488
137	0xbd59ab07	-0.05314162
138	0x3d1af3ef	0.03783029
139	0xbd45f78d	-0.048331786
140	0xbd18be3c	-0.037290797
141	0xbdc9c5dc	-0.09852192
142	0x3dd45a36	0.10368769
143	0xbd9c6e2a	-0.076381996
144	0xbd086f99	-0.033309553
145	0x3d7c11d0	0.061540425
146	0x3d4c9e61	0.04995573
147	0xbdc698fe	-0.0969715
148	0xbd8e425d	-0.069462515
149	0xbd4691c3	-0.048478853
150	0x3da3e69f	0.08002972
151	0x3dce4b39	0.10072941
152	0x3d099674	0.03359075
153	0x3de5f023	0.11227443
154	0x3bc60516	0.0060430868
155	0xbad7409d	-0.0016422455
156	0x3cbc3f99	0.022979544
157	0xbd809880	-0.06279087
158	0x3deab0bf	0.11459493
159	0xbd7d4d25	-0.06184115
160	0x3d38ad99	0.04508743
161	0xbc0c2682	-0.008554103
162	0x3d49dc28	0.049282223
163	0x3d062828	0.03275314
164	0xbdd163b2	-0.102240935
165	0xbcb8b7a1	-0.022548499
166	0x3bf0879c	0.0073403846
167	0xbc3977bc	-0.011320051
168	0x3dbc2bbf	0.091880314
169	0x3de2c150	0.11072028
170	0x3d80196d	0.062548496
171	0x3cff9479	0.031198727
172	0xbd479a42	-0.048731096
173	0xbdd6e220	-0.10492349
174	0xbde2cc7f	-0.11074161
175	0x3c3d7aae	0.011564894
176	0x3a2fd338	0.0006707194
177	0xbd4136be	-0.047171347
178	0xbd9ce5fd	-0.07661054
179	0xbd0af35b	-0.033923488
180	0x3d597687	0.053091552
181	0xbd998891	-0.07496751
182	0xbd01dc8f	-0.03170448
183	0x3d913bd7	0.07091492
184	0xbdc77747	-0.09739547
185	0xbd5c1ce8	-0.053738505
186	0x3ca11bef	0.01966664
187	0x3dd3ebb1	0.10347689
188	0x3980f6ad	0.0002459785
189	0x3db820e0	0.089906454
190	0xbce98a39	-0.028508293
191	0xbd54f7c8	-0.051994115
192	0x3daca0ad	0.08429084
193	0x3e28cde1	0.16484787
194	0x3b21fe59	0.0024718253
195	0xbd4a3569	-0.049367342
196	0xbd0d1a3b	-0.034448843
197	0x3d4c444c	0.04986982
198	0x3d1df4b4	0.038563445
199	0x3c45b358	0.012066685
200	0x3d8c9d2e	0.06865917
201	0x3d23a903	0.039956104
202	0x3c3db854	0.011579592
203	0x3d6729b6	0.056436263
204	0xbc885491	-0.016641887
205	0xbc72c1c0	-0.014816701
206	0xbda17a89	-0.078847
207	0xbdac76c2	-0.08421089
208	0x3e8169e6	0.25276107
209	0x3d488a15	0.04895981
210	0x3c0c2e14	0.008555908
211	0x3df1ee1f	0.11812996
212	0x3e23fe31	0.16014935
213	0xbcb56b3b	-0.022145858
214	0x3d814d8b	0.06313618
215	0x3dccedbe	0.10006283
216	0xbd510253	-0.051027607
217	0xbdf94881	-0.12172032
218	0xbd839c55	-0.06426302
219	0xbce12286	-0.027482282
220	0x3e0a37fe	0.13497922
221	0x3d70f541	0.058827642
222	0x3d9d6d3d	0.07686851
223	0x3de68468	0.11255723
224	0x3ce202db	0.027589252
225	0xbc905037	-0.017616374
226	0x3dd8396f	0.105578296
227	0xbd890d82	-0.066920295
228	0xbdd171dd	-0.10226796
229	0x3e05fa7a	0.1308383
230	0x3d9ce60a	0.07661064
231	0x3d4a3868	0.0493702
232	0xbd97054b	-0.073740564
233	0xbde697db	-0.11259433
234	0x3db0aac6	0.086263224
235	0xbd55b407	-0.05217364
236	0x3e05e7fd	0.13076778
237	0xbdf2bf44	-0.11852887
238	0xbd83f2bf	-0.064427845
239	0xbdb59ac2	-0.08867408
240	0xbcbf66e0	-0.023364484
241	0x3e0bec1c	0.13664287
242	0xbb9f4d91	-0.0048615416
243	0x3edda574	0.43290293
244	0x3cf4f7ed	0.029903376
245	0xbcee1db5	-0.0290669
246	0xbd57d48e	-0.052692942
247	0xbd531d84	-0.05154182
248	0x3dfa32de	0.122167334
249	0x3d27e766	0.040992163
250	0x3eb74e33	0.3580185
251	0xbd262c32	-0.04056949
252	0xbbad1756	-0.005282323
253	0xbd69e79c	-0.057105646
254	0x3e2302ca	0.15919033
255	0xbdbdb026	-0.09262113

encoder.lstm.bias_hh_l0 f4 [256]
0	0x3ba1bd08	0.0049358644
1	0x3c036690	0.008020058
2	0x3da642da	0.0811822
3	0x3e3c268d	0.18374081
4	0x3cbf08a6	0.023319554
5	0xbd6bd480	-0.057575703
6	0xbc98a9d7	-0.018635673
7	0x3c987732	0.018611524
8	0x3d893ba9	0.067008324
9	0xbdf5f6ee	-0.12009989
10	0xbd50abbe	-0.050945036
11	0xbd040ea0	-0.03224051
12	0xbd09fc0f	-0.033687647
13	0x3d42b011	0.04753119
14	0xbd318426	-0.043338917
15	0xbd3a7021	-0.04551709
16	0x3e232967	0.15933762
17	0xbc91c5c0	-0.01779449
18	0xbd4b7323	-0.04967035
19	0x3da3284c	0.079666704
20	0x3e2cf458	0.16890085
21	0x3d15f3b0	0.03660935
22	0x3d8f6d99	0.07003326
23	0xbde218e1	-0.110399015
24	0x3dfbc584	0.122935325
25	0x3dbd739b	0.092505656
26	0x3dcfcd3e	0.10146569
27	0x3ded8021	0.11596704
28	0x3d8507eb	0.06495651
29	0xbd950a2a	-0.07277329
30	0x3deb3aad	0.11485801
31	0x3dde4afe	0.108541474
32	0xbd22f186	-0.039781116
33	0x3de87ad4	0.113515526
34	0x3c96303e	0.01833355
35	0x3d98973c	0.07450721
36	0x3d484c4a	0.04890088
37	0xbd989c43	-0.074516796
38	0xbdf3270c	-0.11872682
39	0x3d8eef92	0.06979288
40	0x3d7f4d70	0.06232971
41	0x3d99cfb4	0.07510319
42	0xbd185ddd	-0.03719889
43	0xbdee471c	-0.11634657
44	0xbd865470	-0.06559074
45	0xbdedf3a5	-0.11618737
46	0xbdd6fd91	-0.10497583
47	0x3dcf0b12	0.10109533
48	0xbcdbe31b	-0.02684169
49	0x3ea36f10	0.3192067
50	0x3e1f2f78	0.15545452
51	0x3e9d253e	0.30692476
52	0x3c2c2322	0.010506423
53	0xbca3a24a	-0.019974846
54	0x3b161303	0.0022899515
55	0x3d1323a5	0.035922665
56	0x3d9acdf7	0.07558816
57	0x3df31579	0.1186933
58	0x3ed47245	0.4149343
59	0x3c607294	0.013699193
60	0xbdb11260	-0.08646083
61	0x3c9d8f7d	0.01923346
62	0x3ddfaedd	0.109220244
63	0xbda12dae	-0.07870041
64	0xbd109b99	-0.03530464
65	0x3dc99b5f	0.09844088
66	0xbda8f504	-0.08249858
67	0x3e504b1b	0.2034115
68	0x3d9128a0	0.07087827
69	0x3e0e5fb5	0.13903697
70	0x3d51e2f8	0.051241845
71	0x3de48b59	0.11159391
72	0x3d6282c6	0.055300497
73	0x3e0beaa0	0.13663721
74	0xbd3ab19f	-0.04557955
75	0x3cec4890	0.028843194
76	0xbcf5e174	-0.030014731
77	0x3e1fd5f0	0.15608954
78	0xbd90ab23	-0.07063892
79	0xbd86caca	-0.06581648
80	0xbe33f09d	-0.17572255
81	0xbd9cf031	-0.076630004
82	0x3dec05ae	0.11524521
83	0xbb20bc70	-0.002452638
84	0xbe10f57d	-0.14156146
85	0x3bbe8cd6	0.005815129
86	0x3d98207f	0.07428073
87	0x3d5935f0	0.053029954
88	0x3c74c4d0	0.014939502
89	0x3d5be861	0.05368841
90	0x3c58f419	0.013241791
91	0xbcfa685b	-0.030567339
92	0x3ba534a6	0.0050416766
93	0xbb81d195	-0.0039617517
94	0x3d390809	0.04517368
95	0x3de5708e	0.11203109
96	0x3cdac13d	0.026703471
97	0x3d54b39c	0.0519291
98	0x3acd284e	0.001565227
99	0xbddba7a0	-0.10725331
100	0xbda8d548	-0.08243805
101	0x3ca9d33b	0.020730605
102	0xbd0db5aa	-0.034597076
103	0x3d430f8f	0.04762226
104	0xbd7259d4	-0.059167698
105	0x3deb538c	0.11490545
106	0xbd9b1926	-0.07573156
107	0xbcb25b1b	-0.021771958
108	0xbc6f9998	-0.014624022
109	0x3cad9f72	0.021194194
110	0x3d472fa5	0.04862942
111	0xbda4529a	-0.080235675
112	0x3d7dbcfe	0.061947815
113	0xbd7a8e2c	-0.061170742
114	0x3dc8d100	0.098054886
115	0xbe169051	-0.1470349
116	0x3e2d0d58	0.16899621
117	0xbdc437ae	-0.095809326
118	0xbd70e43d	-0.058811415
119	0xba7a7f12	-0.0009555678
120	0xbd9e0ac4	-0.07716897
121	0x3de2ac3e	0.11068009
122	0x3df8e34b	0.12152728
123	0xbdf6bc65	-0.12047652
124	0x3a7a1e3e	0.00095412496
125	0x3c5a5a6a	0.01332722
126	0xbe222e9c	-0.15838093
127	0x3cdaa423	0.026689595
128	0x3b08cc6b	0.0020873796
129	0xbdbd3e94	-0.092404515
130	0x3dd3a446	0.10334067
131	0x3ce37b7c	0.027768843
132	0x3dc90dee	0.0981711
133	0x3db9d05d	0.09072945
134	0xbdfb0ea4	-0.12258652
135	0x3cce2c98	0.025167748
136	0xbbd6717e	-0.006544291
137	0xbca4f542	-0.02013648
138	0x3dde5896	0.1085674
139	0xbc11f0b1	-0.008907483
140	0xbdd28645	-0.10279516
141	0x3dce9b9a	0.100882724
142	0x3dad24c0	0.08454275
143	0xbd4644de	-0.04840552
144	0xbdc70d1e	-0.09719299
145	0x3cbda8f2	0.023151848
146	0x3db1fd77	0.08690923
147	0x3bcf9cc0	0.0063358247
148	0xbc184b4f	-0.009295299
149	0xbdacf26c	-0.08444676
150	0x3d3c6ce8	0.0460023
151	0xbdb0addb	-0.0862691
152	0xbcfa1863	-0.030529207
153	0x3d0549a0	0.032540917
154	0x3db80f8b	0.089873396
155	0xbdaa77b3	-0.08323612
156	0xbd26f3a6	-0.040759705
157	0x3d94d37c	0.072669
158	0xbd6e79e6	-0.05822172
159	0xbcc07318	-0.023492381
160	0x3dc7c92d	0.09755168
161	0x3d8925f0	0.06696689
162	0x3d9abdb6	0.07555716
163	0xbda6b30d	-0.0813962
164	0x3d8ad759	0.067793556
165	0xbc2a3322	-0.010388168
166	0xbd836f15	-0.064176716
167	0x3df18fea	0.117950276
168	0xbd62791c	-0.05529128
169	0x3caf719c	0.021416478
170	0x3d133cc8	0.035946637
171	0xbda71e00	-0.08160019
172	0xbd56469d	-0.052313436
173	0xbd63a803	-0.05558015
174	0xbc5284dd	-0.01284906
175	0x3d070edb	0.03297315
176	0xbd35f6ee	-0.044424944
177	0x3c90c802	0.017673496
178	0xbcc3c3a3	-0.023896998
179	0xbbf3db46	-0.007441911
180	0xbd8058f6	-0.06266968
181	0x3c44e1c3	0.012016716
182	0xba098601	-0.00052461034
183	0x3de13eb4	0.10998288
184	0x3e0aff22	0.13573888
185	0x3d0040c3	0.03131176
186	0xbcea3e2b	-0.028594097
187	0xbde0d0e7	-0.10977345
188	0x3cab3315	0.020898381
189	0x3cd4c526	0.025972914
190	0xbc90aa33	-0.017659282
191	0xbc8d1438	-0.017221555
192	0x3afe9016	0.0019421603
193	0xbccd4a65	-0.025059888
194	0x3db0adba	0.08626886
195	0x3d6c075b	0.057624202
196	0x3d3b0d7e	0.045667164
197	0xbd9c6a44	-0.07637456
198	0x3d782856	0.060585342
199	0x3c1ba02c	0.009498637
200	0x3c0422c1	0.008064927
201	0xbdc44f14	-0.095853955
202	0xbd34e834	-0.04416676
203	0xbd98ea53	-0.07466569
204	0xbdcba473	-0.099434756
205	0xbd149834	-0.036277965
206	0x3ddc55d1	0.10758556
207	0xbde338fe	-0.11094855
208	0x3e172699	0.14760818
209	0xbd7e4caf	-0.06208485
210	0xbd998710	-0.07496464
211	0x3ce9534c	0.028482102
212	0x3e2587e6	0.16165122
213	0x3ccc21b7	0.02491842
214	0xbd3d0fbb	-0.04615758
215	0xbdcb282c	-0.099197716
216	0x3ddee325	0.10883168
217	0x3c2ecc16	0.010668775
218	0xbc59230a	-0.013252983
219	0xbd76aa12	-0.060220785
220	0x3e0bab24	0.13639504
221	0x3d22ec5c	0.03977619
222	0x3c6a17f3	0.0142879365
223	0x3d3f48e6	0.04670038
224	0xbcaf1f79	-0.021377312
225	0xbdc9c7b6	-0.09852545
226	0xbe08dc5a	-0.13365307
227	0x3dbfae00	0.0935936
228	0xbde9b79f	-0.11411976
229	0x3e0d8918	0.13821828
230	0xbbffd882	-0.007807792
231	0x3d210aad	0.03931682
232	0xbd5c5a79	-0.05379722
233	0x3bf817de	0.0075712046
234	0xbd0915c3	-0.03346802
235	0xbbbfb61f	-0.005850568
236	0x3d794bde	0.06086337
237	0xbdd97dfb	-0.10619732
238	0xbd90380a	-0.070419386
239	0x3d0c4348	0.034243852
240	0x3e0cc474	0.13746816
241	0x3e509e82	0.20372966
242	0xbdaadd5b	-0.083430015
243	0x3e8c8ca7	0.2745106
244	0x3e1168bd	0.1420011
245	0xbd97adf9	-0.074062295
246	0xbcc91c67	-0.024549676
247	0x3ddd39e8	0.1080206
248	0xbcf4a3ee	-0.029863324
249	0x3da0a4e6	0.07843952
250	0x3eeeddee	0.46653694
251	0x3ce3986c	0.027782641
252	0xbd943c60	-0.07238078
253	0x3d83e619	0.06440372
254	0x3e3445d1	0.17604758
255	0xbddb4d3a	-0.10708089

encoder.linear.weight f4 [32, 64]
0	0x3e19fee4	0.1503864
1	0xbb38d66a	-0.0028203973
2	0x3d87e9ec	0.06636414
3	0xbd18e19d	-0.037324537
4	0xbdf1755f	-0.11789965
5	0xbd913f60	-0.07092166
6	0x3ca19eec	0.0197291
7	0xbe15a9ec	-0.14615601
8	0x3da15d68	0.07879144
9	0x3c8c12d8	0.01709883
10	0xbe1c2c0b	-0.15251176
11	0xbcb984d1	-0.02264634
12	0xbd19efeb	-0.03758232
13	0xbd91c851	-0.071182854
14	0xbda2e553	-0.079538964
15	0xbd09184b	-0.033470433
16	0x3cd7297f	0.026264904
17	0xbdfecaf5	-0.12441055
18	0x3e1d3835	0.15353473
19	0xbd32934a	-0.043597497
20	0x3dcc14ff	0.09964942
21	0xbd9333d0	-0.07187617
22	0x3e1e1499	0.15437545
23	0xbc5e1f6f	-0.013557299
24	0xbe1a1ae4	-0.1504932
25	0xbc843fe4	-0.016143747
26	0xbccd1cfa	-0.025038231
27	0xbe2a217b	-0.16614334
28	0xbda79c31	-0.08184088
29	0xbd2461a6	-0.040132187
30	0x3d100544	0.03516127
31	0x3e276ddb	0.163505
32	0xbda0b74d	-0.07847462
33	0x3d920472	0.07129754
34	0xbd718e0f	-0.05897337
35	0xbd91d900	-0.071214676
36	0xbd6605c3	-0.05615784
37	0x3d417753	0.047232937
38	0x3da60a08	0.08107382
39	0x3cd3a4d1	0.025835427
40	0x3d8459d4	0.06462446
41	0x3bf27189	0.0073987884
42	0xbceba05e	-0.028762992
43	0x3dbe07d1	0.092788346
44	0x3daf363b	0.085552655
45	0x3d9b7649	0.075909205
46	0x3ce4deb5	0.027938226
47	0xbd821488	-0.06351572
48	0x3d00529c	0.031328782
49	0x3e557015	0.20843537
50	0x3de76dd8	0.11300248
51	0xbe8458f8	-0.25849128
52	0x3d91eead	0.07125602
53	0xbd91514a	-0.07095583
54	0x3dca0730	0.09864652
55	0x3d3d65e6	0.046239756
56	0xbd1c6d6f	-0.0381903
57	0xbd896f50	-0.06710684
58	0x3e03a4ac	0.12855786
59	0x3dceb4a4	0.10093048
60	0xbe24f523	-0.16109137
61	0x3dd80cd7	0.10549324
62	0xbe05e89d	-0.13077016
63	0x3cda2576	0.02662919
64	0xbd80d7e3	-0.06291177
65	0x3df777e2	0.12083413
66	0xbdacd7eb	-0.084396206
67	0xbc2a0a93	-0.010378498
68	0xbe146cb3	-0.1449459
69	0x3da6ac43	0.08138325
70	0x3dc1a4a9	0.094552346
71	0x3ca211fd	0.019783968
72	0xbdca946e	-0.09891592
73	0x3d25e12d	0.040497947
74	0x3d57dd4a	0.052701272
75	0x3e2958dc	0.16537803
76	0x3caeb75c	0.021327667
77	0xbe145b31	-0.14487912
78	0x3ccc3812	0.02492908
79	0x3c3e1b98	0.011603259
80	0xbaaa0364	-0.0012970981
81	0xbd097572	-0.03355927
82	0x3d5c2b86	0.053752445
83	0x3dde08a6	0.10841493
84	0x3d868833	0.06568947
85	0x3cf70c6c	0.03015729
86	0xbc0b1343	-0.008488479
87	0x3d39b7e2	0.04534138
88	0xbd86864d	-0.065685846
89	0x3dd9d43f	0.10636186
90	0x3db7f9b1	0.08983172
91	0xbe15cb6d	-0.14628382
92	0x3d381bd3	0.04494841
93	0xbd9b9fe6	-0.075988576
94	0x3dcf3250	0.10117018
95	0x3df832c6	0.12119059
96	0x3c9b4f0c	0.01895859
97	0xbe0b1b4e	-0.13584635
98	0xbd622a5e	-0.055216186
99	0xbe04647a	-0.12928954
100	0xbdb74ef5	-0.08950607
101	0x3e18368f	0.14864562
102	0x3b664b84	0.0035140226
103	0x3de58349	0.11206681
104	0x3ca0afcc	0.019615076
105	0x3e0021c5	0.12512882
106	0xbdb62027	-0.08892851
107	0xbd82eb89	-0.06392581
108	0xbc8656e5	-0.016398856
109	0x3e153472	0.14570788
110	0xbd825499	-0.06363792
111	0xbcabb889	-0.020962017
112	0xbd277ad9	-0.04088864
113	0x3d90eb97	0.07076185
114	0x3e3ac324	0.18238503
115	0x3c8f59b4	0.017498828
116	0xbd311680	-0.04323435
117	0xbde5cde4	-0.11220911
118	0xbb82ec7c	-0.0039954763
119	0xbc53b2f4	-0.012921084
120	0xbc83f3f3	-0.016107535
121	0x3e0b162d	0.13582678
122	0x3d9fee1c	0.07809088
123	0x3dde539d	0.10855792
124	0x3c92a1be	0.01789939
125	0x3d856793	0.06513896
126	0xbc03a230	-0.008034274
127	0xbd0e7eb3	-0.0347888
128	0x3d50f1e6	0.051011942
129	0x3cdcfa7c	0.026974909
130	0x3e12af75	0.14324744
131	0x3d5d4ebc	0.054030165
132	0x3dd54076	0.104126856
133	0x3d930830	0.07179296
134	0xbe2b8709	-0.1675073
135	0x3e1bafc3	0.15203767
136	0xbcb2893e	-0.021793958
137	0x3d797974	0.060906842
138	0xbcd5673f	-0.026050208
139	0x3de6d006	0.11270146
140	0x3ba3ef1e	0.00500287
141	0xbdda79b5	-0.10667745
142	0x3dea80ea	0.1145037
143	0xbd2c9797	-0.042136755
144	0xbdf2ab94	-0.11849132
145	0x3d7b4ae4	0.06135072
146	0xbd30cec9	-0.043165956
147	0xbd071193	-0.032975744
148	0x3c92d15a	0.017922092
149	0xbd89c1ec	-0.06726441
150	0x3dbd2a44	0.09236577
151	0x3dd488c8	0.103776515
152	0x3d9afcf5	0.07567779
153	0xbd9782ec	-0.07398018
154	0xbcffb47e	-0.031213995
155	0x3c5736e2	0.013135644
156	0xbd013edd	-0.03155409
157	0xbd065cbe	-0.03280329
158	0x3b3510b4	0.0027628364
159	0x3ce15582	0.027506594
160	0xbd04a562	-0.032384284
161	0x3d71441e	0.058902852
162	0x3daee89d	0.08540461
163	0x3e0a834a	0.13526645
164	0xbe2d2a21	-0.16910602
165	0x3da8955b	0.08231612
166	0x3da57794	0.08079448
167	0x3cbee946	0.023304593
168	0x3dcaf8b5	0.09910718
169	0x3dcbb654	0.09946886
170	0x3dcec62b	0.10096391
171	0x3dc5713e	0.0964074
172	0x3b2d2282	0.0026418273
173	0xbdbb19f6	-0.09135811
174	0xbdf7b8c8	-0.12095791
175	0xbdb683d9	-0.08911867
176	0xbc8bd018	-0.017067
177	0xbe9661b5	-0.2937142
178	0xbd563585	-0.052297134
179	0x3e181e5a	0.14855328
180	0x3dd626ba	0.10456605
181	0x3d593c32	0.053035922
182	0x3d09fe2d	0.033689667
183	0xbccc72d8	-0.024957106
184	0xbd00fbe8	-0.031490237
185	0xbd95071b	-0.07276746
186	0x3b5c48f6	0.0033612824
187	0xbcd9669a	-0.026538182
188	0xbded9199	-0.11600036
189	0xbd8d7c8e	-0.069085225
190	0x3e199e24	0.15001732
191	0xbbd38bc7	-0.0064558717
192	0xbe4238f7	-0.18967043
193	0xbd7e3717	-0.062064257
194	0x3d01dbfe	0.03170394
195	0x3e0c42d6	0.13697371
196	0xbd55f3ec	-0.052234575
197	0x3bfceb53	0.0077184825
198	0xbdbe0d33	-0.09279861
199	0x3c5d9b58	0.013525806
200	0x3d488888	0.04895833
201	0x3daf248b	0.08551892
202	0x3df76c62	0.12081219
203	0x3d60deb7	0.054899897
204	0xbd848168	-0.06469995
205	0xbc788dbb	-0.01517051
206	0x3d89eb6c	0.06734356
207	0x3dd2585e	0.10270761
208	0xbe5d565d	-0.21614976
209	0x3da0598f	0.07829582
210	0xbdeff8d9	-0.11717386
211	0xbd904a39	-0.07045407
212	0xbd66a13d	-0.056306113
213	0xbb87a201	-0.0041391854
214	0xbc748261	-0.014923663
215	0x3cebbe87	0.028777374
216	0x3d89f544	0.06736234
217	0x3d121c79	0.035671685
218	0x3ceb5b16	0.028729957
219	0x3e4aed69	0.19817127
220	0xbce65b49	-0.0281197
221	0x3dbf76b4	0.09348813
222	0xbddca5ae	-0.107737884
223	0xbccca556	-0.024981182
224	0xbca41a03	-0.020031935
225	0xbe01ad23	-0.12663703
226	0xbd61453d	-0.05499767
227	0xbc949a9a	-0.018140126
228	0xbdecd1f2	-0.115634814
229	0xbd0af7f6	-0.03392788
230	0x3da13bcb	0.07872733
231	0xbcdad04e	-0.026710656
232	0x3e098da4	0.13432938
233	0x3df12896	0.11775319
234	0x3d381d3e	0.044949763
235	0x3d596531	0.05307502
236	0xbd0793f3	-0.03310008
237	0xbcd4eaed	-0.025990928
238	0xbdc4fd81	-0.096186645
239	0xbdde1d1c	-0.10845396
240	0xbd1f0162	-0.038819678
241	0xbedd293b	-0.4319552
242	0x3d270125	0.040772576
243	0x3e68eb48	0.22746003
244	0xbe10b514	-0.14131576
245	0xba8395bd	-0.0010039132
246	0x3cbaa211	0.022782357
247	0x3deeec9a	0.11666222
248	0xbdd9964b	-0.10624369
249	0xbd3a16a4	-0.045431748
250	0xbd9b0964	-0.075701505
251	0xbe62608c	-0.22107142
252	0xbcfc3ca1	-0.030790629
253	0xbe0274e6	-0.12739906
254	0x3e605688	0.21908009
255	0xbd03d28f	-0.032183226

encoder.linear.bias f4 [32]
0	0xbcdd7e02	-0.027037624
1	0xbda19dbb	-0.07891413
2	0x3d493a2c	0.049127743
3	0x3cdc0742	0.02685893
4	0x3d98282c	0.07429537
5	0x3cda38cf	0.026638417
6	0xbe0497d8	-0.12948549
7	0x3bb1ba25	0.0054238015
8	0x3e052d54	0.13005573
9	0x3d2f2791	0.042762343
10	0xbcc40197	-0.02392654
11	0x3cbacc11	0.022802385
12	0xbda0162e	-0.078167304
13	0xbdb88987	-0.09010606
14	0xbdaef820	-0.0854342
15	0x3d938266	0.07202606
16	0xbd0fcfe3	-0.035110366
17	0xbb611a3d	-0.0034347915
18	0x3e04e65f	0.12978505
19	0xbdde0320	-0.1084044
20	0xbd3d24e4	-0.04617776
21	0x3cd7beb1	0.026336046
22	0x3d13bb8e	0.036067538
23	0xbc1213df	-0.00891587
24	0xbd604f3d	-0.054763068
25	0xbe0ef830	-0.13961864
26	0x3d5cb179	0.05388019
27	0xbc882a06	-0.0166216
28	0xbdd8dd9d	-0.105891444
29	0x3ddaec5b	0.106896125
30	0xbdd233ae	-0.10263763
31	0x3dcdf09d	0.10055659

decoder.linear.weight f4 [64, 32]
0	0xbd90c8d4	-0.07069555
1	0xbe43b144	-0.1911059
2	0xbc6270fa	-0.013820881
3	0x3d856c82	0.06514837
4	0x3e19a8eb	0.15005843
5	0x3d3c0be0	0.045909762
6	0x3e02107d	0.12701602
7	0x3dd0ba4e	0.10191785
8	0xbd4673ec	-0.048450395
9	0x3e26a858	0.16275156
10	0xbe03dd76	-0.1287745
11	0xbde233b6	-0.11045019
12	0xbe1d06ec	-0.15334672
13	0x3d1bd772	0.03804726
14	0xbdc82297	-0.097722225
15	0x3e13fa8a	0.14451042
16	0xbdefb824	-0.11705044
17	0xbde184e7	-0.11011677
18	0x3da16869	0.07881243
19	0x3cdbfba7	0.026853396
20	0xbdf290d6	-0.118440315
21	0x3e41bb7a	0.18919173
22	0xbd97960c	-0.07401666
23	0xbe1fd4a0	-0.15608454
24	0x3e2a581e	0.16635177
25	0xbe246a12	-0.16056088
26	0xbea358a4	-0.31903565
27	0x3da17078	0.0788278
28	0x3d192b43	0.037394773
29	0xbdea4d12	-0.11440481
30	0x3de98348	0.11401993
31	0x3db1ffca	0.08691366
32	0xbca64a6d	-0.02029916
33	0x3e037751	0.12838484
34	0x3e240442	0.16017249
35	0x3ddfa81e	0.10920738
36	0x3dd4f8c3	0.1039901
37	0x3b9188d1	0.0044413586
38	0x3d78f647	0.060781743
39	0x3e116f53	0.14202623
40	0x3d560800	0.052253723
41	0x3e2b1bcf	0.16709827
42	0xbdd3df98	-0.103453815
43	0x3e381062	0.17975
44	0xbe298a78	-0.16556728
45	0x3d04862c	0.03235452
46	0x3d21bbf2	0.03948588
47	0x3e3fa166	0.18713912
48	0x3c83cd46	0.016089093
49	0xbd8554ea	-0.06510337
50	0x3e0c759f	0.13716744
51	0xbdb4665c	-0.08808586
52	0x3e335230	0.17511821
53	0x3d88cf15	0.06680123
54	0x3da81440	0.082069874
55	0x3d2d31a5	0.042283673
56	0x3e4208e3	0.18948703
57	0xbd0f556b	-0.03499357
58	0xbde2450d	-0.11048327
59	0x3e30bc8b	0.17259423
60	0x3d10d3aa	0.03535811
61	0x3d8bf5dd	0.06834004
62	0x3dc3a0fa	0.09552188
63	0x3db62435	0.08893625
64	0xbdf59a55	-0.11992327
65	0x3d5dbd5d	0.05413567
66	0xbd9ccfc8	-0.07656819
67	0x3d80d1bd	0.062900044
68	0x3e1ebfd5	0.15502866
69	0x3e358927	0.177281
70	0xbd87a803	-0.066238426
71	0x3e415997	0.18881832
72	0xbd887313	-0.06662574
73	0xbc1e42d1	-0.009659485
74	0xbd8095c0	-0.062785625
75	0x3e072845	0.13198955
76	0xbe1c897f	-0.15286826
77	0x3e08f5c4	0.13375002
78	0x3d8d2836	0.06892435
79	0xbd93d060	-0.07217479
80	0x3daf1ed6	0.08550803
81	0x3d3a3951	0.045464817
82	0xbc890591	-0.016726287
83	0xbd0b7a2b	-0.034052055
84	0x3d95c62f	0.07313191
85	0x3e014b21	0.12626316
86	0xbe4187a5	-0.188994
87	0x3d873e84	0.06603721
88	0x3dc88b7d	0.0979223
89	0x3e00b1d7	0.1256784
90	0x3af6e5c3	0.0018836785
91	0xbe135406	-0.14387521
92	0xbd7fa33e	-0.06241154
93	0xbc6c867b	-0.0144363595
94	0x3cc7c020	0.024383605
95	0x3e07318d	0.13202496
96	0xbe0c1852	-0.13681152
97	0xbdcdb961	-0.10045124
98	0xbe03f0c5	-0.12884815
99	0xbe1a646a	-0.15077367
100	0x3d68d16d	0.05684035
101	0xbde5de10	-0.11223996
102	0xbdf12926	-0.117754266
103	0x3dbffcda	0.093743995
104	0x3d8a9791	0.0676719
105	0x3df5e761	0.12007023
106	0x3e59cd48	0.21269715
107	0x3e1146d9	0.14187182
108	0xbe348cd8	-0.17631853
109	0xbc0250a6	-0.007953798
110	0xbd5d5298	-0.054033846
111	0x3cee7a62	0.029111091
112	0xbda16682	-0.0788088
113	0x3de99004	0.11404422
114	0xbe1c6a29	-0.15274872
115	0x3dddec61	0.10836101
116	0x3e68fc59	0.22752513
117	0x3e40855e	0.18800876
118	0xbc1d47d0	-0.009599641
119	0xbe113194	-0.14179069
120	0x3d386614	0.045019224
121	0xbda58aa3	-0.080830835
122	0x3c99f730	0.018794626
123	0xbdfe47ac	-0.12416014
124	0xbbc58308	-0.006027583
125	0x3d357576	0.044301473
126	0xbe2c1ac6	-0.16807088
127	0xbd2e19d3	-0.042505097
128	0x3d8a2d4b	0.0674692
129	0xbdded50c	-0.10880479
130	0xbdb7ddb9	-0.08977837
131	0x3dd83516	0.10557
132	0x3d19734e	0.03746348
133	0xbe0a45c7	-0.1350318
134	0x3e1be340	0.15223408
135	0xbdd4f67c	-0.10398576
136	0x3d907047	0.07052665
137	0xbd4832de	-0.048876636
138	0x3c360a5a	0.011110866
139	0xbe1e8ff4	-0.15484601
140	0xbd95b2a2	-0.07309462
141	0x3e1edbed	0.15513583
142	0xbc91c67e	-0.017794844
143	0x3da461c8	0.08026463
144	0x3d6c75bf	0.05772948
145	0xbd1e03ff	-0.03857803
146	0xbd3a2455	-0.045444805
147	0x3dee38a0	0.11631894
148	0xbd76ddb8	-0.06027004
149	0xbd2b5782	-0.0418315
150	0xbd50cf3e	-0.05097889
151	0x3dca9fb2	0.09893741
152	0xbe44f763	-0.19234996
153	0xbd290319	-0.04126272
154	0x3e1e48d1	0.15457465
155	0x3d52c8c8	0.05146101
156	0x3dfe3adc	0.1241357
157	0xbdf2b1fa	-0.118503526
158	0xbddf3648	-0.10899025
159	0x3e21f00d	0.15814228
160	0x3d9adbd0	0.07561457
161	0xbd3c3b96	-0.045955263
162	0x3db46e34	0.08810082
163	0x39b45020	0.00034391973
164	0x3d4a9127	0.049454834
165	0x3ddb3ef0	0.10705364
166	0xbdbce372	-0.09223069
167	0x3e264dde	0.16240641
168	0x3ddfcc22	0.10927607
169	0xbda2b2b1	-0.07944239
170	0xbcd16739	-0.025561916
171	0xbd8ad5a4	-0.0677903
172	0x3de43bfd	0.11144254
173	0xbdd55669	-0.10416872
174	0x3c8beb14	0.017079867
175	0xbddca43a	-0.10773511
176	0xbdce3263	-0.10068204
177	0xbd9588a7	-0.07301455
178	0x3e1ccbfb	0.15312187
179	0x3e29ce05	0.16582496
180	0x3e14c804	0.14529425
181	0xbd744d48	-0.059644014
182	0xbe0ad705	-0.13558586
183	0xbe3ef61a	-0.18648568
184	0x3e28d261	0.16486503
185	0xbde8bd64	-0.113642484
186	0x3dd72ba2	0.10506369
187	0xbd67f7bd	-0.056632746
188	0x3dfaab59	0.12239713
189	0xbe2d00c9	-0.16894831
190	0x3c7b995a	0.015356386
191	0x3e02717a	0.127386
192	0xbdb47b4a	-0.08812578
193	0xbc74fd14	-0.014952917
194	0xbd618729	-0.05506054
195	0x3e36c410	0.1784823
196	0xbdceec98	-0.101037204
197	0x3d50a554	0.05093892
198	0xbe289e04	-0.16466528
199	0xbdd73df9	-0.10509867
200	0xbe0dee72	-0.13860491
201	0xbdf744ff	-0.12073707
202	0xbdc02526	-0.093820855
203	0xbd9c53ef	-0.076331966
204	0xbe1b646d	-0.15175028
205	0xbd9ce1e4	-0.07660273
206	0xbe43d01b	-0.19122355
207	0xbe267b7c	-0.16258043
208	0xbe32eb56	-0.17472586
209	0x3e2719b6	0.16318402
210	0x3c8a6f31	0.016898723
211	0xbe1f8451	-0.15577818
212	0xbd8401a7	-0.06445628
213	0x3d1d259b	0.03836594
214	0xbc8c09df	-0.01709455
215	0xbdde21db	-0.10846301
216	0xbdf23c6f	-0.11827933
217	0xbe272360	-0.16322088
218	0x3e210542	0.15724662
219	0xbde26a6a	-0.11055453
220	0x3e1f706e	0.15570232
221	0xbde61257	-0.11233967
222	0xbca11850	-0.019664913
223	0x3d54389c	0.0518118
224	0x3b96f902	0.0046073208
225	0x3e1420aa	0.14465585
226	0x3daa4474	0.08313838
227	0x3dd9c3e3	0.106330656
228	0xbda7da54	-0.0819594
229	0xbe09d590	-0.13460374
230	0xbde7c26e	-0.113163814
231	0xbd8523b0	-0.065009475
232	0xbe30f049	-0.17279162
233	0x3b54a6bd	0.0032448017
234	0x3dbb4b6d	0.09145246
235	0x3e3d13bf	0.18464564
236	0xbe443a76	-0.19162926
237	0x3df5e8b9	0.12007279
238	0x3d125f95	0.035735685
239	0xbda77019	-0.08175678
240	0xbd8ceaa8	-0.06880695
241	0xbd4a6eb2	-0.049421974
242	0xbdb1d2f4	-0.08682814
243	0x3db00f41	0.085966595
244	0xbd35eb8c	-0.044414088
245	0x3e272505	0.16322716
246	0x3ce80114	0.028320827
247	0x3e1f29a9	0.15543236
248	0xbd96d4f8	-0.07364839
249	0x3da70439	0.08155102
250	0x3ddebef9	0.10876269
251	0x3dc12a65	0.09431914
252	0xbd81841c	-0.06324026
253	0x3df69162	0.12039448
254	0x3d4a0fcb	0.049331468
255	0x3d722797	0.059119787

decoder.linear.bias f4 [64]
0	0x3ca1b260	0.019738376
1	0xbd1b160c	-0.037862822
2	0x3db9d7da	0.090743735
3	0x3ccb8669	0.024844365
4	0xbd8e4242	-0.069462314
5	0x3e3125ab	0.17299525
6	0x3d53ac3d	0.05167793
7	0xbe0f08a6	-0.13968143
8	0xbc11d141	-0.008899988
9	0xbe3369d4	-0.17520839
10	0x3d9cc832	0.07655372
11	0x3e2dcf75	0.1697367
12	0x3ceef9e8	0.029171899
13	0x3d20ffea	0.03930656
14	0x3e269c0e	0.16270468
15	0xbe06f90a	-0.13180938
16	0xbe0448b9	-0.12918366
17	0xbdc42a00	-0.09578323
18	0x3da1288f	0.07869064
19	0x3d2c50f7	0.0420694
20	0xbc5e6cad	-0.013575715
21	0xbdebb1c1	-0.11508513
22	0x3d4d310b	0.0500956
23	0xbd9024d2	-0.07038273
24	0xbd2123d1	-0.039340798
25	0x3e17955c	0.1480307
26	0x3dbca17d	0.09210489
27	0x3d7bd73e	0.061484568
28	0x3e11e164	0.14246136
29	0xbdc174cb	-0.094461046
30	0xbd683603	-0.056692135
31	0x3d3dfdad	0.046384502
32	0x3d264d9f	0.04060137
33	0x3dcea801	0.10090638
34	0x3dec3293	0.11533084
35	0x3e1acd6d	0.15117426
36	0xbe1fbe2e	-0.15599892
37	0xbe2d9c76	-0.16954216
38	0xbd70a7b8	-0.0587537
39	0x3d698e6c	0.05702059
40	0x3e0b9b47	0.13633452
41	0xbd5ebc12	-0.054378577
42	0xbe32caf9	-0.1746024
43	0xbc4cf4f6	-0.012509575
44	0xbdfc0bd7	-0.12306946
45	0x3deed7ed	0.11662278
46	0x3d9cf55b	0.07663985
47	0x3d169b3c	0.036769137
48	0xbdd48890	-0.1037761
49	0x3df7e06f	0.12103354
50	0x3e14eba9	0.14543022
51	0x3dff472b	0.12464746
52	0xbd92a4f2	-0.07160367
53	0x3d704e65	0.058668513
54	0x3d350def	0.04420274
55	0x3db55c0f	0.088554494
56	0x3e26ac71	0.16276719
57	0x3e326212	0.17420223
58	0xbd3252de	-0.04353606
59	0x3dce46d3	0.100721024
60	0x3da9df4d	0.08294544
61	0xbe2dc7ee	-0.16970798
62	0xbe282800	-0.16421509
63	0xbd865229	-0.065586396

decoder.lstm.weight_ih_l0 f4 [256, 64]
0	0xbcbd155b	-0.023081472
1	0xbd189674	-0.03725286
2	0x3dac13e0	0.08402228
3	0x3dbda36f	0.09259688
4	0xbe0cae0d	-0.1373827
5	0xbb58487d	-0.003300219
6	0x3d4591e1	0.048234824
7	0xbdaf39ee	-0.08555971
8	0xbdd4c545	-0.10389189
9	0x3d10b7ff	0.035331722
10	0x3da33da4	0.079707414
11	0x3d0cec71	0.034405176
12	0xbd306061	-0.043060664
13	0xbcb9b980	-0.022671461
14	0x3e0457b5	0.12924083
15	0xbc952124	-0.01820428
16	0x3cf8b341	0.030358912
17	0xbc01ba73	-0.007917988
18	0xbda6b9e7	-0.08140927
19	0x3cd73cb8	0.02627407
20	0x3da1cf1b	0.0790083
21	0x3d06e7df	0.032935973
22	0x3e0d5b67	0.13804398
23	0xbd8813d4	-0.06644407
24	0xbdf23a90	-0.11827576
25	0x3d91722d	0.071018554
26	0x3c4d54c2	0.012532415
27	0xbda67843	-0.08128407
28	0xbd99e9ce	-0.07515298
29	0x3d6d524f	0.057939824
30	0x3d8a65d9	0.06757707
31	0xbd3decc2	-0.046368368
32	0xbd36b28d	-0.044603873
33	0xbe0afd6e	-0.13573238
34	0xbe151c26	-0.14561519
35	0x3e129c3b	0.1431741
36	0xbe168478	-0.1469897
37	0xbc2418c5	-0.010015671
38	0xbc15cbd2	-0.009142833
39	0xbcf96cb2	-0.030447338
40	0x3dcbf672	0.09959115
41	0xbcf97748	-0.030452386
42	0x3d07c76f	0.03314918
43	0x3d827d00	0.06371498
44	0x3d022071	0.03176922
45	0x3d85b83e	0.06529282
46	0xbd8c445f	-0.06848978
47	0xbd91796c	-0.071032375
48	0xbcf00236	-0.02929793
49	0xbccf204e	-0.025283959
50	0x3dd9cd38	0.106348455
51	0xbc3716c9	-0.011174866
52	0xbda047b9	-0.0782618
53	0x3da5b7fd	0.080917336
54	0xbd2bf4f3	-0.04198165
55	0xbdbeaa5a	-0.09309836
56	0x3e0b2098	0.13586652
57	0xbcf4a6f4	-0.029864766
58	0xbd114c1c	-0.035472974
59	0xbe11e5f1	-0.14247872
60	0x3e38cb90	0.18046403
61	0x3cd717ed	0.026256526
62	0x39a1cff3	0.00030863247
63	0xbce961c4	-0.028489001
64	0xbb587f55	-0.003303488
65	0xbe5285e0	-0.20558882
66	0xbc1e34c2	-0.009656133
67	0x3de6a4da	0.11261912
68	0xbdfa7f92	-0.12231363
69	0x3e302ba3	0.17204146
70	0x3af28e31	0.0018505511
71	0xbd90a041	-0.07061816
72	0xbc124daa	-0.008929649
73	0xbde5cf18	-0.112211406
74	0x3be985c5	0.0071265423
75	0x3d411eb3	0.047148418
76	0x3d09b653	0.033621144
77	0x3cb8188d	0.022472644
78	0x3ce81972	0.028332446
79	0xbe4f7768	-0.20260394
80	0xbe400beb	-0.18754546
81	0xbe0b2cbe	-0.13591287
82	0x3cabd7e9	0.020976977
83	0x3da7f4d1	0.08200992
84	0x3bf0166a	0.0073268907
85	0x3ce8f4a5	0.028436968
86	0x3b3f5431	0.002919447
87	0xbe155b92	-0.14585713
88	0xbddd54e0	-0.10807204
89	0x3df8a967	0.12141686
90	0x3c228b50	0.00992091
91	0xbd898f3d	-0.06716774
92	0x3e2456f6	0.16048798
93	0x3d60ffc0	0.054931402
94	0xbe7ba7e2	-0.24575761
95	0x3dbba29c	0.09161875
96	0x3e2c0c8f	0.16801666
97	0x3ccfda19	0.025372552
98	0xbc243827	-0.010023153
99	0x3d41dcb4	0.04732962
100	0xbe16ddc4	-0.14733034
101	0x3e0c27b0	0.13687015
102	0x3dd124d7	0.10212105
103	0x3d84eb1f	0.06490158
104	0x3d8c54a9	0.06852085
105	0xbbfe0c68	-0.007752944
106	0xbdc4e105	-0.096132316
107	0x3da9625b	0.08270713
108	0xbd1498a7	-0.036278393
109	0x3cbf4dab	0.023352465
110	0x3dc59325	0.09647206
111	0xbda6fab9	-0.0815329
112	0xbda98373	-0.08277025
113	0xbe5d48e2	-0.21609834
114	0x3e37fab4	0.1796673
115	0xbd8d914f	-0.06912481
116	0xbe3f5aee	-0.1868703
117	0x3c4f4d17	0.012652657
118	0x3e95bd85	0.29246154
119	0x3db688d8	0.089128196
120	0x3e3a2544	0.18178278
121	0x3db021e3	0.086002134
122	0x3e5f44a8	0.21803534
123	0xbcc7ce42	-0.024390344
124	0xbce22590	-0.027605802
125	0xbdd0b3de	-0.10190557
126	0xbe68df07	-0.22741328
127	0x3e52c38e	0.2058241
128	0x3b5c356e	0.0033601183
129	0xbebf37ca	-0.3734725
130	0x3bc9eb5a	0.0061620893
131	0x3e1de6ed	0.15420122
132	0xbd60430a	-0.054751433
133	0x3c18fb3e	0.009337245
134	0x3e175a05	0.14780433
135	0xbd47f2fd	-0.048815716
136	0x3be15f79	0.0068778363
137	0xbde6bb0c	-0.11266145
138	0x3e0cc8dc	0.13748497
139	0x3d84b5af	0.06479966
140	0x3e04b342	0.12959006
141	0xbdc2cdc2	-0.095119014
142	0xbb6bcd51	-0.0035980532
143	0x3c742488	0.014901288
144	0x3d8cdf84	0.0687857
145	0xbcc041d1	-0.023468884
146	0xba325729	-0.0006803149
147	0x3cb590e2	0.022163812
148	0x3c92540c	0.017862342
149	0xbc870f91	-0.016486915
150	0x3cd3563e	0.02579796
151	0xbd030a0e	-0.03199201
152	0x3dc20e41	0.09475375
153	0x3c39cf61	0.011340947
154	0x3da750d9	0.08169717
155	0x3dab41ac	0.08362135
156	0xbbfbb4c6	-0.007681462
157	0x3ddd19e9	0.107959576
158	0x3c82adf6	0.015952092
159	0x3e046587	0.12929355
160	0x3d72d6be	0.059286825
161	0xbe0f0560	-0.13966894
162	0xbd97230f	-0.07379734
163	0x3da1d0f4	0.07901183
164	0xbd4d1f08	-0.05007842
165	0x3d5b2d0e	0.053509764
166	0x3d971e73	0.073788546
167	0x3d1c36ea	0.038138308
168	0xbd389613	-0.045064997
169	0xbe0db46f	-0.13838361
170	0xbdf67ea3	-0.12035873
171	0x3e34d3f7	0.17658983
172	0x3dbc80df	0.09204268
173	0x3e09f645	0.1347285
174	0x3df367a4	0.11885002
175	0x3db7ee80	0.08981037
176	0xbd3bb3f6	-0.04582592
177	0xbe26d16c	-0.16290826
178	0xbc9aad9c	-0.018881612
179	0xbd620c9f	-0.055187818
180	0xbe0a9b8a	-0.13535896
181	0xbda86aef	-0.08223521
182	0xbdcfb413	-0.10141768
183	0x3ca9d16f	0.020729749
184	0x3bb0ae75	0.0053918906
185	0x3d3c05ab	0.045903843
186	0x3e3ef23e	0.18647096
187	0xbd7b130c	-0.06129746
188	0xbd98b5b4	-0.07456532
189	0xbadd2485	-0.0016871846
190	0x3d2a3fa9	0.041564617
191	0x3d4f8a26	0.050668858
192	0x3d56f5cb	0.0524805
193	0xbc9a844b	-0.01886191
194	0x3dc4d001	0.09609986
195	0x3de0554a	0.109537676
196	0xbde1a985	-0.110186614
197	0x3d421dfb	0.047391873
198	0x3e0c4f14	0.13702041
199	0xbe3a35e2	-0.18184617
200	0xbe23ba3d	-0.15989013
201	0xbe5c4daa	-0.21514001
202	0x3e83b701	0.25725558
203	0x3e10da94	0.14145881
204	0x3df3084e	0.11866818
205	0xbde4d1ec	-0.11172852
206	0x3e3413e6	0.17585716
207	0xbeb49450	-0.35269403
208	0xbe9017bf	-0.28143117
209	0xbe4183bb	-0.18897907
210	0xbe75256f	-0.23940061
211	0x3e254765	0.16140516
212	0x3c89a7b6	0.016803604
213	0x3dff84d1	0.124765046
214	0x3e3f05f7	0.18654619
215	0xbe3b6f8c	-0.1830427
216	0xbd994145	-0.07483152
217	0x3db2a9f6	0.08723824
218	0x3e6d64a0	0.23182917
219	0x3cc00b04	0.023442753
220	0x3d2d8b1b	0.04236899
221	0xbc0732f7	-0.008251897
222	0xbd9c1319	-0.0762083
223	0x3e44735c	0.19184631
224	0x3e386d68	0.18010485
225	0xbdd7e17f	-0.10541057
226	0xbdd833b9	-0.1055674
227	0x3d8d9628	0.06913406
228	0xbe348440	-0.17628574
229	0x3d87d3a9	0.06632168
230	0x3ca44dc9	0.020056622
231	0x3df470cd	0.119355775
232	0x3e388f9d	0.18023534
233	0xbdbff836	-0.09373514
234	0xbe8597dc	-0.26092422
235	0x3e739a48	0.23789322
236	0x3dbb4be1	0.09145332
237	0xbc894446	-0.016756188
238	0x3d9e165b	0.07719108
239	0xbb984cba	-0.0046478184
240	0xbd3bec75	-0.0458798
241	0xbdd23b17	-0.10265177
242	0x3e16e482	0.14735606
243	0xbe5ec418	-0.21754491
244	0xbe0ce515	-0.13759263
245	0x3e29aa54	0.16568881
246	0x3e46b8de	0.19406459
247	0xbde13272	-0.1099595
248	0x3e43ca4b	0.19120137
249	0x3dc91752	0.09818901
250	0x3e90388b	0.2816814
251	0xbe78675f	-0.24258183
252	0x3e035e73	0.12828998
253	0xbcb0b8ae	-0.021572437
254	0xbdd35fad	-0.10320983
255	0x3e892d26	0.26792258
