models/lstm/aapl_lstm_autoencoder.pth (torch, 229096 bytes, 14 tensors)

encoder.lstm.weight_ih_l0 f4 [256, 5]
-0.083197035 -0.049189944 0.087362185 -0.055907395 0.09402992 0.11197144 0.08786872 0.2542115
0.045193758 0.14765911 0.10739504 0.10792908 0.04390771 0.08446718 -0.012346395 0.11130143
-0.061420634 0.005844442 0.07784256 -0.1555459 0.07933906 -0.012523929 0.12159819 0.038359277
0.14196485 0.08965241 -0.029023753 -0.008383558 -0.0898557 0.0065123653 -0.083454765 -0.063031584
0.035221625 -0.0724612 -0.07017044 -0.00927642 0.03484203 -0.0488059 0.11462989 0.07225876
-0.101041764 -0.09295542 0.05450235 0.045722745 0.14323415 -0.07898322 -0.092291966 0.11513299
0.05939345 -0.066807605 -0.015384652 0.098587856 0.13595891 0.0977352 -0.13182253 0.0975215
-0.05407744 -0.087362655 -0.035852443 0.014093909 0.06597119 0.119326904 0.07298544 0.0010938186
-0.0770041 -0.09273901 0.061631184 -0.0791621 0.11000571 -0.011210148 0.11637192 -0.043692272
0.13141455 0.044172987 -0.13207895 -0.0128706535 0.061120372 -0.054826874 0.019992253 0.023485124
-0.05570192 0.14795499 0.16445638 0.14955531 0.09518511 0.06753807 0.12451634 0.012444822
0.117690176 -0.15794244 0.05238769 -0.10065849 -0.030264044 -0.019707054 0.038145825 0.024485212
0.001238089 0.0011886387 0.007222033 -0.055061743 -0.045120094 0.0354861 -0.057489485 0.12249979
-0.09253173 -0.0015298349 0.00082428614 0.055418912 0.0123298345 0.12913391 0.048087873 -0.02902628
-0.07311357 -0.041748174 0.0323343 -0.079717375 0.07598897 0.088195734 0.096409336 0.033839975
0.025759233 -0.0060930923 -0.07964176 0.0070493785 -0.14931937 -0.13379392 0.07789486 0.06761524
-0.14108683 -0.009734294 -0.071322985 -0.073123954 0.05941068 -0.058884386 -0.09030741 0.062378097
0.085689925 0.01644564 0.13586208 0.06137543 0.13478607 -0.04712288 -0.07432742 -0.037406962
-0.13383724 -0.051478576 0.038315177 -0.11862299 -0.034551095 -0.06934689 0.009154051 -0.040659104
0.032190256 -0.07070154 -0.11092677 0.06904403 0.016727377 0.028008675 -0.006285294 -0.109056026
0.1259821 -0.038271163 0.020462137 0.10886958 -0.086498484 0.058893226 -0.04447866 -0.051653307
0.08279391 0.023335887 0.14316586 0.12065858 -0.08807582 -0.063164964 0.016954219 -0.049843334
-0.051473495 0.026750285 0.022600552 -0.0499025 -0.06259945 -0.062976696 0.086570375 -0.08143912
0.07577131 -0.059941586 -0.002025797 0.018664429 -0.030347241 -0.058093965 0.095186345 -0.028508516
0.066824384 0.1064135 0.13201243 0.13458651 -0.030806256 -0.044266194 0.032238137 0.018357731
0.09293668 0.03345785 -0.03680091 0.068689376 0.04041809 0.07603079 0.06796555 -0.0917603
-0.0006495688 -0.15812874 0.13345943 -0.0019763059 0.09339723 0.058222953 -0.023374861 0.08268663
0.06110116 -0.025298031 0.14224532 0.086609975 0.1117912 0.114224665 0.05547761 -0.0056895306
0.008261811 0.01637705 0.12358577 0.042108506 0.11682322 0.055887803 -0.022508 -0.086015545
0.0859296 -0.048449215 0.03781836 -0.04821352 0.030170111 0.14746928 0.012863838 0.029458513
0.034065336 -0.06875383 -0.025140569 0.04613733 0.074687995 -0.021500694 -0.022473466 0.009532359
-0.07297982 0.113598764 -0.003321913 -0.033160392 -0.10250268 -0.10260995 0.11849621 0.13385354
00000000: 3563 aabd 657b 49bd f2ea b23d 27ff 64bd
00000010: c292 c03d 4851 e53d 84f4 b33d 0228 823e
00000020: 171d 393d f333 173e eef1 db3d ec09 dd3d
00000030: 92d8 333d 21fd ac3d 8948 4abc 01f2 e33d
00000040: 3494 7bbd bc82 bf3b ec6b 9f3d 6d47 1fbe
00000050: 847c a23d 2a31 4dbc 7908 f93d 9e1e 1d3d
00000060: 3c5f 113e af9b b73d 39c3 edbc 315b 09bc
00000070: 4406 b8bd ae65 d53b 55ea aabd b416 81bd
00000080: 8d44 103d 8a66 94bd 85b5 8fbd 20fc 17bc
00000090: 84b6 0e3d b2e8 47bd 13c3 ea3d 67fc 933d
000000a0: fcee cebd 695f bebd db3d 5f3d c647 3b3d
000000b0: f9ab 123e f4c1 a1bd 9203 bdbd d8ca eb3d
000000c0: 8c46 733d 6dd2 88bd e80f 7cbc 6ee8 c93d
000000d0: d038 0b3e 6429 c83d 7cfc 06be 5ab9 c73d
000000e0: 4e80 5dbd 31eb b2bd 03da 12bd 24ea 663c
000000f0: e71b 873d aa61 f43d 6479 953d 765e 8f3a
00000100: 53b4 9dbd f3ed bdbd fb70 7c3d bd1f a2bd
00000110: ac4a e13d c5aa 37bc 6754 ee3d abf6 32bd
00000120: 8991 063e bcee 343d b43f 07be 6fdf 52bc
00000130: 5b59 7a3d 2592 60bd cbc6 a33c e063 c03c
00000140: b227 64bd 8381 173e 4167 283e 0725 193e
00000150: 69f0 c23d 6651 8a3d 6c02 ff3d 5ee5 4b3c
00000160: 8c07 f13d aabb 21be 7994 563d 0a26 cebd
00000170: 4dec f7bc b070 a1bc cc3e 1c3d 3695 c83c
00000180: 6047 a23a 19cc 9b3a cea6 ec3b 6c88 61bd
00000190: d9cf 38bd df59 113d 187a 6bbd 2be1 fa3d
000001a0: 4781 bdbd be84 c8ba e814 583a f1fe 623d
000001b0: 1303 4a3c ae3b 043e caf7 443d 85c8 edbc
000001c0: 91bc 95bd 2200 2bbd f970 043d dd42 a3bd
000001d0: 1ba0 9b3d f79f b43d 4272 c53d c99b 0a3d
000001e0: 0705 d33c 90a8 c7bb 381b a3bd 79fe e63b
000001f0: 2de7 18be 4601 09be 5787 9f3d dc79 8a3d
00000200: 1179 10be 977c 1fbc c911 92bd 03c2 95bd
00000210: 9d58 733d c130 71bd 17f3 b8bd 2d80 7f3d
00000220: 337e af3d 02b9 863c 6e1f 0b3e ce64 7b3d
00000230: 5c05 0a3e ec03 41bd f938 98bd 0b38 19bd
00000240: a10c 09be 33db 52bd 60f0 1c3d 9cf0 f2bd
00000250: 7385 0dbd be05 8ebd dffa 153c 298a 26bd
00000260: eed9 033d f8cb 90bd 932d e3bd f566 8d3d
00000270: da07 893c 7372 e53c def4 cdbb c458 dfbd
00000280: 7401 013e 39c2 1cbd 36a0 a73c 04f7 de3d
00000290: 1e26 b1bd 063a 713d 412f 36bd 6b92 53bd
000002a0: da8f a93d e72a bf3c 129a 123e d81b f73d
000002b0: 1861 b4bd a25c 81bd 93e3 8a3c 8628 4cbd
000002c0: dfd5 52bd 6a23 db3c cb24 b93c 9066 4cbd
000002d0: 2434 80bd edf9 80bd cf4b b13d 8ec9 a6bd
000002e0: fd2d 9b3d 4f85 75bd 3cc3 04bb 25e6 983c
000002f0: c79a f8bc f0f3 6dbd 0ff1 c23d b18a e9bc
00000300: 39db 883d 52ef d93d 442e 073e 0cd1 093e
00000310: 675d fcbc 7850 35bd 230c 043d f462 963c
00000320: 9655 be3d 190b 093d 8dbc 16bd 04ad 8c3d
00000330: 708d 253d 08b6 9b3d 8631 8b3d d3ec bbbd
00000340: d347 2aba 80ec 21be 97a9 083e e984 01bb
00000350: 0c47 bf3d 317b 6e3d a37c bfbc 9c57 a93d
00000360: 3645 7a3d d13d cfbc c2a8 113e 9260 b13d
00000370: c9f2 e43d 9fee e93d 7e3c 633d 3e6f babb
00000380: 8c5c 073c 2a29 863c 891a fd3d f879 2c3d
00000390: 0341 ef3d 9cea 643d b262 b8bc eb28 b0bd
000003a0: dcfb af3d af72 46bd 6de7 1a3d 8a7b 45bd
000003b0: 4f27 f73c 3002 173e d9c2 523c fb52 f13c
000003c0: 1888 0b3d cfce 8cbd 98f3 cdbc 7ffa 3c3d
000003d0: 05f6 983d 3922 b0bc 461a b8bc 9d2d 1c3c
000003e0: 7276 95bd 78a6 e83d 74b4 59bb 31d3 07bd
000003f0: edec d1bd 2a25 d2bd 24ae f23d e710 093e

encoder.lstm.weight_hh_l0 f4 [256, 64]
-0.04701851 -0.12365945 0.04197235 -0.028732574 -0.0044429293 -0.0034767305 0.10177355 -0.053407226
-0.06284736 0.106520645 0.012535437 -0.0030559332 0.05458942 -0.09539754 0.069960065 0.10587215
-0.03520049 0.113195 0.12756616 -0.059514146 0.047145598 0.10009257 -0.059941836 0.01876302
0.093332 -0.050141618 -0.07962028 0.027309662 -0.012323637 -0.07136501 0.011584565 -0.0928022
-0.079618365 -0.012804768 -0.10487499 -0.02628513 -0.01564252 -0.01672051 -0.037728827 0.14483026
-0.014783939 -0.08588356 0.12079911 0.07727595 -0.05772235 -0.1256418 -0.127991 0.016659701
-0.0031907836 -0.08724328 0.037982494 0.09925477 0.0073178993 -0.03717306 -0.047318727 -0.049295694
-0.14790894 -0.12191128 0.050555296 -0.042819463 0.097531945 0.09528761 -0.028406614 0.06589282
0.106176846 -0.04159558 0.10016859 -0.18570761 0.025817102 0.17423984 -0.0063156304 -0.060489185
0.17280154 0.034197092 0.17235418 -0.073703535 -0.13565983 -0.10969364 0.10181667 -0.03363167
-0.0072801067 0.11892076 0.09182615 0.06939873 0.068294086 0.16559497 -0.08873834 -0.078348085
0.045545444 0.13274159 -0.08319979 0.036634542 0.07502895 -0.000816994 0.05423374 -0.07450986
-0.10730829 -0.036041405 -0.092200726 0.0011679973 -0.042831715 -0.092166975 0.05208775 0.11903504
0.10301998 0.13187765 0.10709847 -0.0431723 -0.11782104 -0.14363985 0.056680113 -0.054643318
-0.040386874 -0.13752079 0.032699425 0.1467961 0.009618605 0.10548681 0.14339086 0.09820534
-0.02507164 -0.06272101 -0.06705496 0.039091468 -0.061472125 -0.18912007 -0.04753559 0.08097616
-0.025161998 0.0064804535 0.08673114 -0.15864691 -0.0808377 0.10073995 -0.038705133 0.038612466
0.023049278 -0.042050377 0.14625548 -0.06900831 -0.028489284 0.008220487 0.01918032 -0.083344646
-0.022266611 0.089665994 -0.019968437 -0.0730475 0.09585871 0.071148284 0.070681855 -0.03471112
-0.020222867 -0.11311053 0.0953718 -0.13388123 -0.021927996 -0.07381737 -0.00670373 -0.06279432
-0.07074021 0.053605128 0.033264935 -0.08465304 -0.013566471 0.088873945 0.054175753 -0.018385671
0.0038716667 0.034393977 0.068557255 -0.106723316 0.11080941 0.03751299 0.076868 0.06554701
0.019029837 -0.082850456 -0.06590386 -0.08995588 -0.025718356 0.11544398 -0.07773879 -0.13634235
-0.06626055 -0.0940849 0.02011571 0.03873464 0.116309375 -0.02220276 -0.072200894 -0.05708272
-0.011820857 -0.0072016176 0.1288071 0.011628802 -0.021458233 -0.09617167 -0.09451917 0.03950929
0.11338644 0.13565288 -0.08228699 -0.050778043 -0.1362469 -0.1020482 0.06073606 -0.088787735
0.0047287378 0.027406318 0.09602311 -0.03250861 -0.039718412 0.058431316 -0.081541814 0.018342035
-0.1116196 0.047339723 0.07858041 -0.0048900293 0.05805195 0.019826192 -0.09767903 -0.13018529
0.08647073 -0.04935629 0.05377873 0.0978262 -0.029169928 0.0444036 -0.013340611 -0.03072971
0.009130417 0.022436395 -0.06894121 0.068510756 -0.123863205 -0.13450956 0.09624893 0.02692208
-0.025334287 -0.12271251 0.10888193 0.110031515 -0.050136056 0.016672302 -0.02683844 -0.046632852
-0.030236654 -0.111459814 -0.08554693 -0.03814375 -0.115866154 -0.038737558 -0.050517727 -0.08245688
00000000: 7b96 40bd 2a41 fdbd 33eb 2b3d 9360 ebbc
00000010: fe95 91bb dcd9 63bb a76e d03d 89c1 5abd
00000020: 1eb6 80bd 7f27 da3d 6f61 4d3c 0d46 48bb
00000030: 2899 5f3d c95f c3bd 3947 8f3d 7fd3 d83d
00000040: 642e 10bd c8d2 e73d b4a0 023e 1bc5 73bd
00000050: be1b 413d 55fd cc3d 9285 75bd e8b4 993c
00000060: d924 bf3d 4c61 4dbd f50f a3bd 83b8 df3c
00000070: 14e9 49bc d227 92bd 30cd 3d3c 140f bebd
00000080: f40e a3bd 17cb 51bc b3c8 d6bd ea53 d7bc
00000090: be24 80bc 73f9 88bc 8b89 1abd 624e 143e
000000a0: 5638 72bc b8e3 afbd 8665 f73d da42 9e3d
000000b0: 456e 6cbd 3ea8 00be 1310 03be ed79 883c
000000c0: 771c 51bb 9bac b2bd 8893 1b3d 1646 cb3d
000000d0: fdca ef3b c742 18bd 48d1 41bd 48ea 49bd
000000e0: 7175 17be 9fac f9bd 1213 4f3d 7663 2fbd
000000f0: d4be c73d 2726 c33d fdb4 e8bc d1f2 863d
00000100: 3f73 d93d 2060 2abd 3125 cd3d 232a 3ebe
00000110: 637e d33c ee6b 323e 59f3 cebb 82c3 77bd
00000120: e3f2 303e 4012 0c3d 9d7d 303e e1f1 96bd
00000130: 69ea 0abe 0fa7 e0bd 4285 d03d 5dc1 09bd
00000140: f68d eebb ba8c f33d 590f bc3d ec20 8e3d
00000150: c5dd 8b3d ba91 293e 72bc b5bd f674 a0bd
00000160: dc8d 3a3d 69ed 073e a764 aabd 1a0e 163d
00000170: c7a8 993d 8a2b 56ba 3324 5e3d a098 98bd
00000180: 73c4 dbbd 27a0 13bd bcd3 bcbd 7c17 993a
00000190: 4f70 2fbd 0ac2 bcbd f759 553d a5c8 f33d
000001a0: 24fc d23d ef0a 073e 7156 db3d 70d5 30bd
000001b0: 284c f1bd 5316 13be 6829 683d acd1 5fbd
000001c0: b56c 25bd 40d2 0cbe d5ef 053d b851 163e
000001d0: 5a97 1d3c 7809 d83d 0ed5 123e e21f c93d
000001e0: 0a63 cdbc df73 80bd 1c54 89bd 601e 203d
000001f0: 32ca 7bbd b1a8 41be aeb4 42bd d4d6 a53d
00000200: 8920 cebc fc59 d43b 19a0 b13d 5674 22be
00000210: 3c8e a5bd bf50 ce3d 4689 1ebd 1b28 1e3d
00000220: d7d1 bc3c 043d 2cbd ffc3 153e 3b54 8dbd
00000230: 5c62 e9bc 39af 063c 0c20 9d3c 99b0 aabd
00000240: 7868 b6bc cea2 b73d d994 a3bc ed99 95bd
00000250: 9251 c43d 31b6 913d a6c1 903d 3f2d 0ebd
00000260: 6daa a5bc 7ea6 e7bd 4a52 c33d 2918 09be
00000270: 57a2 b3bc 902d 97bd f7aa dbbb 4f9a 80bd
00000280: 3ee0 90bd 0d91 5b3d d040 083d 935e adbd
00000290: e745 5ebc 8b03 b63d 65e7 5d3d 8c9d 96bc
000002a0: cabb 7d3b b3e0 0c3d bf67 8c3d c191 dabd
000002b0: 0bf0 e23d 39a7 193d f86c 9d3d 833d 863d
000002c0: 76e4 9b3c 80ad a9bd 9af8 86bd ca3a b8bd
000002d0: 4daf d2bc e56d ec3d 8435 9fbd 549d 0bbe
000002e0: 9cb3 87bd 96af c0bd b4c9 a43c 37a8 1e3d
000002f0: 9c33 ee3d 90e2 b5bc 10de 93bd 92cf 69bd
00000300: 45ac 41bc 8cfb ebbb 02e6 033e bb86 3e3c
00000310: 2dc9 afbc a7f5 c4bd 4493 c1bd 7ed4 213d
00000320: 2637 e83d 97e8 0a3e 1586 a8bd a3fc 4fbd
00000330: 4f84 0bbe a6fe d0bd 60c6 783d 58d6 b5bd
00000340: 87f3 9a3b 3783 e03c c4a7 c43d c027 05bd
00000350: c6af 22bd ad55 6f3d 65ff a6bd 0942 963c
00000360: d198 e4bd 4ce7 413d c4ee a03d 8a3c a0bb
00000370: e2c7 6d3d 8a6a a23c f10b c8bd 4b4f 05be
00000380: 9117 b13d d229 4abd 1647 5c3d 1a59 c83d
00000390: c6f5 eebc 8de0 353d 9492 5abc dfbc fbbc
000003a0: bf97 153c 88cc b73c 0d31 8dbd 5e4f 8c3d
000003b0: feab fdbd e0bc 09be 291e c53d b28b dc3c
000003c0: da89 cfbc b250 fbbd 7dfd de3d 3458 e13d
000003d0: 775b 4dbd 5a94 883c 4adc dbbc 1702 3fbd
000003e0: dcb2 f7bc 0b45 e4bd 3b33 afbd 9f3c 1cbd
000003f0: 3c4b edbd 46ab 1ebd adeb 4ebd 27df a8bd

encoder.lstm.bias_ih_l0 f4 [256]
-0.060411856 0.24270557 -0.086139925 -0.07359332 0.03218629 -0.026097095 -0.065872 0.0905842
0.09357023 -0.07787806 0.018657941 0.019872699 0.13916945 0.0025088524 0.10565251 0.13133709
0.025761569 0.022022216 -0.095863156 -0.011436752 0.102855556 -0.073282294 0.05155729 0.09604811
-0.01606441 -0.03848387 -0.1129071 0.11293603 -0.040521223 -0.019734686 -0.009457737 -0.026087059
0.05208582 -0.021831637 -0.07847094 -0.075739056 -0.017817536 -0.055842817 0.15920253 0.12690525
-0.00037211625 0.108774185 0.060987867 0.07291098 0.09598457 -0.020390334 0.13941337 0.020705737
-0.100941665 0.13314272 -0.020725168 0.114603005 -0.009830059 0.053163603 -0.033918716 -0.09144617
-0.029165864 0.12532915 0.11506378 0.09918774 0.07740638 0.02996199 0.07792123 -0.09712001
0.110555395 0.18207155 0.023570336 -0.007848739 0.076938026 -0.051622916 0.06946732 0.061417185
-0.026417764 -0.0832071 0.057032473 0.07401707 -0.015288898 0.0045980746 -0.01852323 -0.0730641
-0.086060874 -0.048582874 -0.1144469 -0.06095551 0.11724772 -0.08818139 0.09551058 0.062388584
0.061801594 0.014471133 -0.007472265 -0.012588887 0.039056983 -0.06413982 -0.023637444 -0.08181702
-0.12934524 0.049718767 0.05778047 -0.012495865 -0.010050302 0.016024191 -0.05567472 -0.013496778
0.041304596 -0.0019421381 -0.030817928 -0.02033177 0.059079584 -0.10439163 -0.027276674 0.071522504
-0.033451896 -0.058294967 -0.017535454 0.038292155 0.0903569 0.05585873 0.046385206 -0.032964144
-0.028833065 -0.049399823 -0.047071967 -0.08030646 -0.09567472 -0.029563095 0.021053173 -0.050178282
-0.025927948 0.0077995304 0.09428419 -0.040057182 0.011185328 -0.08177984 -0.09874811 0.055206455
0.10408576 0.1210662 0.008371031 0.03917304 -0.09091772 -0.058191497 0.013149655 -0.020232368
-0.048394594 0.097112544 -0.0065313545 -0.052705947 0.064802885 0.05134969 -0.05357745 -0.061528638
0.02714716 0.0060112975 -0.06588739 0.0777523 0.014967902 0.06092728 -0.06720614 -0.027878342
-0.075824 0.046791486 -0.079648025 0.03486107 0.02184828 -0.073322706 0.05386332 -0.05474433
-0.019695275 0.021716923 0.08901882 -0.0069407234 -0.015377407 -0.039991725 -0.113990694 -0.03074285
-0.11870531 -0.0006239424 0.04093611 0.09695229 -0.10099142 -0.003523426 0.10313727 0.10407286
0.10323323 0.08530313 -0.06895502 0.032458413 -0.027560532 -0.1142053 -0.0010597067 -0.03967086
-0.06465471 0.14359668 0.087931626 -0.027018039 0.11385316 -0.043502577 -0.03696349 0.038924824
-0.1384283 -0.08210979 0.015128244 -0.06463464 -0.0373547 -0.04990819 0.07717178 0.018357113
-0.040614232 -0.086817 0.0737927 0.017498547 -0.06262239 -0.06789267 0.091966726 -0.0004225194
-0.092644624 -0.08620851 0.048963543 -0.10092653 -0.08435052 -0.027898014 0.02867659 0.1336088
0.09073792 -0.05732841 0.055851664 -0.04368488 0.0863929 -0.08942008 0.023161564 0.1113162
-0.10239781 0.08668874 -0.013665966 -0.036605336 -0.026957411 0.046281725 -0.09104635 0.024593776
-0.055732105 -0.025813373 0.11028249 0.13634188 -0.083474874 0.07306823 0.025630886 0.072547264
-0.03754832 0.096385635 0.10287793 0.050686754 -0.048412226 0.04761037 -0.004176147 0.009717567
00000000: 6c72 77bd cf87 783e 216a b0bd 18b8 96bd
00000010: c5d5 033d 93c9 d5bc e6e7 86bd 3684 b93d
00000020: c0a1 bf3d 887e 9fbd 8ad8 983c 12cc a23c
00000030: 7082 0e3e 8f6b 243b 5860 d83d 3b7d 063e
00000040: ed09 d33c ef67 b43c e753 c4bd 3761 3bbc
00000050: efa5 d23d 0715 96bd bd2d 533d dfb4 c43d
00000060: 8299 83bc 43a1 1dbd d63b e7bd 014b e73d
00000070: 95f9 25bd a3aa a1bc a0f4 1abc 87b4 d5bc
00000080: f157 553d 43d8 b2bc 5fb5 a0bd 141d 9bbd
00000090: 15f6 91bc 70bb 64bd fd05 233e 73f3 013e
000000a0: 9918 c3b9 00c5 de3d 6ace 793d 5a52 953d
000000b0: 8f93 c43d a109 a7bc 61c2 0e3e 149f a93c
000000c0: 81ba cebd 9156 083e d4c7 a9bc fbb4 ea3d
000000d0: 410e 21bc 14c2 593d 5aee 0abd 2148 bbbd
000000e0: 40ed eebc 4956 003e 8fa6 eb3d f122 cb3d
000000f0: 3c87 9e3d d972 f53c 2a95 9f3d dbe6 c6bd
00000100: de6a e23d f770 3a3e 9416 c13c ff97 00bc
00000110: af91 9d3d 8d72 53bd e244 8e3d 9690 7b3d
00000120: 116a d8bc 7c68 aabd e29a 693d 4396 973d
00000130: 497e 7abc 72ab 963b 07be 97bc a2a2 95bd
00000140: af40 b0bd d6fe 46bd 2363 eabd 7cac 79bd
00000150: 931f f03d 7298 b4bd 0d9b c33d 2c8b 7f3d
00000160: ab23 7d3d 5518 6d3c e7d9 f4bb 9e41 4ebc
00000170: 37fa 1f3d bd5b 83bd 50a3 c1bc af8f a7bd
00000180: 1473 04be e8a5 4b3d 37ab 6c3d 75bb 4cbc
00000190: 06aa 24bc 2a45 833c 2d0b 64bd 9721 5dbc
000001a0: 022f 293d 578f feba e175 fcbc d08e a6bc
000001b0: 6ffd 713d 47cb d5bd 5573 dfbc 647a 923d
000001c0: db04 09bd b4c6 6ebd 83a6 8fbc 3cd8 1c3d
000001d0: 0a0d b93d 20cc 643d 6afe 3d3d 6905 07bd
000001e0: 5233 ecbc 7857 4abd 89ce 40bd b777 a4bd
000001f0: 1cf1 c3bd 4e2e f2bc b477 ac3c be87 4dbd
00000200: d966 d4bc 3493 ff3b 1218 c13d 0013 24bd
00000210: aa42 373c 307c a7bd 733c cabd 2a20 623d
00000220: ea2a d53d 8ef1 f73d a626 093c e973 203d
00000230: 1233 babd 355a 6ebd a771 573c 5abe a5bc
00000240: 6939 46bd f1e2 c63d f904 d6bb 31e2 57bd
00000250: 60b7 843d 0d54 523d 0774 5bbd 7405 7cbd
00000260: b963 de3c 6bfa c43b f8ef 86bd 993c 9f3d
00000270: ee3b 753c e28e 793d 5fa3 89bd 1f61 e4bc
00000280: 9d49 9bbd 6ea8 3f3d 811e a3bd 7bca 0e3d
00000290: 2afb b23c 372a 96bd c99f 5c3d 973b 60bd
000002a0: fc57 a1bc b0e7 b13c 804f b63d 026f e3bb
000002b0: 85f1 7bbc 5dce 23bd f473 e9bd 6ed8 fbbc
000002c0: c51b f3bd 1190 23ba 9fac 273d ec8e c63d
000002d0: 97d4 cebd 47e9 66bb a239 d33d 2724 d53d
000002e0: f26b d33d 68b3 ae3d 4a38 8dbd 1df3 043d
000002f0: a0c6 e1bc 78e4 e9bd dbe5 8aba e97d 22bd
00000300: b069 84bd 020b 133e 7f15 b43d ef54 ddbc
00000310: d82b e93d c22f 32bd 0767 17bd a36f 1f3d
00000320: 26c0 0dbe 2d29 a8bd 74dc 773c 2b5f 84bd
00000330: 3e01 19bd 886c 4cbd 3d0c 9e3d a861 963c
00000340: 1c5b 26bd 1ccd b1bd a120 973d 1d59 8f3c
00000350: 2b40 80bd 500b 8bbd 0d59 bc3d 9885 ddb9
00000360: 77bc bdbd 168e b0bd ff8d 483d 92b2 cebd
00000370: f7bf acbd 608a e4bc 2beb ea3c bfd0 083e
00000380: cdd4 b93d 32d1 6abd b7c4 643d ebee 32bd
00000390: c3ee b03d e021 b7bd 52bd bd3c bff9 e33d
000003a0: f1b5 d1bd de89 b13d 37e7 5fbc 7aef 15bd
000003b0: cad5 dcbc e891 3d3d 8276 babd e378 c93c
000003c0: 5947 64bd 9176 d3bc c9db e13d 359d 0b3e
000003d0: e0f4 aabd cca4 953d ddf7 d13c a993 943d
000003e0: 44cc 19bd d565 c53d aab1 d23d ea9c 4f3d
000003f0: e64b 46bd 1703 433d 0fd8 88bb 6e36 1f3c

encoder.lstm.bias_hh_l0 f4 [256]
-0.025831796 0.21808177 0.092045076 0.13320291 0.105508216 0.11498239 0.054135308 0.14595984
0.041202158 -0.057576686 -0.09111713 -0.124333665 -0.0068006003 0.07379208 -0.085173875 0.021858325
-0.05301563 -0.10214436 0.10300491 -0.05906901 -0.03346219 -0.06892652 -0.11137553 -0.011820753
0.1094835 -0.070685975 0.098395735 -0.09316947 0.024529636 -0.08811907 0.010817748 -0.10631209
-0.029252587 -0.06814741 0.027605182 -0.0010245272 0.03213554 0.08226085 -0.051097967 -0.08443237
-0.08985487 0.077639304 0.12429039 -0.021967048 0.03734962 0.10339944 -0.011619433 -0.0056873173
-0.0763024 0.09197965 -0.062679954 0.014930543 -0.06740261 -0.093022026 -0.10480741 0.12301525
0.111570835 0.08425611 0.13818546 -0.029502887 -0.052742686 -0.10512712 -0.03846396 0.07176613
0.03823639 0.17030315 0.052583523 -0.010036144 0.096948616 0.0010661964 0.071324766 0.05405391
0.015269521 -0.0038723585 -0.03881844 0.055223677 0.11360422 -0.07458822 0.11003259 0.057389602
0.14324816 0.03763535 -0.017183429 -0.025762867 -0.032679044 -0.0291425 -0.05950819 -0.11022208
-0.066305555 0.07328938 0.08121253 -0.08709308 -0.06874176 -0.1086824 0.051421754 0.011522628
0.0638321 0.041260935 -0.0028815966 0.017721122 -0.016881216 -0.094418004 0.1314744 -0.06894211
0.1159734 -0.08985724 0.025791563 0.030935777 0.0776609 0.098184265 -0.03401092 0.14396377
-0.081853844 0.13762674 -0.07665326 -0.0957046 -0.08488169 0.12990743 -0.081243694 -0.022827568
0.1244765 0.007365199 -0.027114812 -0.060951065 -0.05834857 0.051832452 0.02346345 -0.020371296
0.02748997 -0.042282734 0.011230034 0.019756196 0.10259187 0.0438235 0.102712624 -0.039010607
0.08240934 0.08919905 0.04579687 0.0059077013 0.009362299 0.057830635 -0.028089127 0.031085888
-0.0365056 0.0843801 0.009280182 0.010251175 0.039616786 0.1254775 0.0022674564 -0.10896991
-0.101034865 0.010040926 -0.06058229 0.004797176 -0.093306996 0.08617555 0.09613367 -0.0869245
-0.028582633 0.042274684 -0.063681744 0.007429043 0.056697503 -0.043481328 0.040869 0.009213598
-0.11346169 -0.03532085 0.09261876 -0.08725263 -0.097474754 -0.10634079 0.074696206 0.10146283
-0.02652905 -0.080444805 0.06452504 0.00693043 0.09983093 0.0015124491 -0.06691344 -0.053315952
-0.043255832 -0.09925218 0.023776624 -0.063509025 -0.09928403 -0.011053757 -0.091186926 0.015519927
0.12182756 0.0908034 0.11838614 -0.0896631 0.1043942 -0.0652016 0.052436788 0.11900709
-0.046837974 -0.09484378 0.13236302 -0.037638847 0.14651951 0.037378475 0.081083484 0.096798345
0.088319026 -0.052910585 -0.069101445 -0.025844397 -0.07128561 0.040021062 -0.017127616 -0.043526143
-0.028892577 0.001643085 0.1174127 -0.014527619 -0.019703357 -0.13111772 0.042493913 -0.098086864
0.047126815 -0.07574914 -0.070270084 0.07402543 0.10504123 -0.02805101 -0.06529956 -0.05400511
-0.010586644 0.07060229 -0.002633117 -0.012756089 0.043347627 -0.031164657 0.014838998 0.00037114116
-0.0054022404 -0.05823061 0.056645527 -0.052596733 0.06607883 -0.00048759475 0.06739843 -0.029275363
-0.038178492 0.13340156 0.08460781 0.0047200713 -0.00077018986 -0.031487275 0.110651165 -0.06334663
00000000: 349d d3bc d450 5f3e 2182 bc3d 5866 083e
00000010: b114 d83d e37b eb3d fcbc 5d3d 7f76 153e
00000020: 98c3 283d 88d5 6bbd 9e9b babd a6a2 febd
00000030: 92d7 debb 4d20 973d a46f aebd 3b10 b33c
00000040: eb26 59bd 1031 d1bd 3df4 d23d 59f2 71bd
00000050: a60f 09bd 5929 8dbd db18 e4bd d5ab 41bc
00000060: e338 e03d cfc3 90bd b483 c93d a3cf bebd
00000070: 60f2 c83c c577 b4bd ec3c 313c 27ba d9bd
00000080: 1fa3 efbc df90 8bbd 4324 e23c 6e49 86ba
00000090: 8ea0 033d 6078 a83d 1a4c 51bd e1ea acbd
000000a0: d505 b8bd 5b01 9f3d f68b fe3d 3df4 b3bc
000000b0: eafb 183d 16c3 d33d 6f5f 3ebc ad5c babb
000000c0: 6f44 9cbd d45f bc3d 595e 80bd 3c9f 743c
000000d0: 610a 8abd 5582 bebd 44a5 d6bd 6bef fb3d
000000e0: 407f e43d 788e ac3d 7d80 0d3e 0ab0 f1bc
000000f0: b708 58bd e34c d7bd 638c 1dbd 1ffa 923d
00000100: c39d 1c3d f363 2e3e d261 573d a46e 24bc
00000110: ff8c c63d 9dbf 8b3a b812 923d a267 5d3d
00000120: 032d 7a3c 65c7 7dbb 1600 1fbd 3932 623d
00000130: 54a9 e83d b5c1 98bd c458 e13d 5c11 6b3d
00000140: a5af 123e 8627 1a3d 43c4 8cbc a60c d3bc
00000150: 76da 05bd 41bc eebc dcbe 73bd 1dbc e1bd
00000160: 35cb 87bd be18 963d c152 a63d db5d b2bd
00000170: 7bc8 8cbd e194 debd 9e9f 523d 68c9 3c3c
00000180: 67ba 823d 3a01 293d 2bd9 3cbb e32b 913c
00000190: 7a4a 8abc 3a5e c1bd 3aa1 063e 8531 8dbd
000001a0: 7683 ed3d 1307 b8bd d448 d33c 076d fd3c
000001b0: ae0c 9f3d d514 c93d 094f 0bbd 3d6b 133e
000001c0: fda2 a7bd 06ee 0c3e 62fc 9cbd c600 c4bd
000001d0: 74d6 adbd 7406 053e 1863 a6bd e100 bbbc
000001e0: 89ed fe3d c457 f13b e21f debc d3a7 79bd
000001f0: e9fe 6ebd 444e 543d 6c36 c03c b4e1 a6bc
00000200: a532 e13c a930 2dbd 2dfe 373c bfd7 a13c
00000210: b01b d23d 4580 333d ff5a d23d 96c9 1fbd
00000220: 3ac6 a83d fead b63d 8095 3b3d 6495 c13b
00000230: 5464 193c d1df 6c3d 2b1b e6bc d5a7 fe3c
00000240: e586 15bd 79cf ac3d e80b 183c 8bf4 273c
00000250: 3645 223d 2c7d 003e 9b99 143b 9e2b dfbd
00000260: 5eeb cebd b282 243c 2325 78bd a131 9d3b
00000270: bd17 bfbd cf7c b03d bbe1 c43d 7905 b2bd
00000280: 2026 eabc 3828 2d3d 936b 82bd 546f f33b
00000290: a43b 683d 7a19 32bd 4166 273d a2f4 163c
000002a0: 9a5e e8bd 98ac 10bd e8ae bd3d 82b1 b2bd
000002b0: d8a0 c7bd 33c9 d9bd 53fa 983d bfcb cf3d
000002c0: 7353 d9bc 3fc0 a4bd b425 843d a918 e33b
000002d0: 2974 cc3d 5f3d c63a ea09 89bd d461 5abd
000002e0: 072d 31bd ba44 cbbd 32c7 c23c 0511 82bd
000002f0: 6d55 cbbd d11a 35bc 36c0 babd 4b47 7e3c
00000300: ba80 f93d 22f7 b93d 6f74 f23d 4aa1 b7bd
00000310: a0cc d53d 6b88 85bd f5c7 563d fdb9 f33d
00000320: 2dd9 3fbd 753d c2bd 2c8a 073e 312b 1abd
00000330: 3609 163e 2c1a 193d 190f a63d 363e c63d
00000340: 9be0 b43d c5b8 58bd 0f85 8dbd a1b7 d3bc
00000350: 31fe 91bd 20ed 233d 374f 8cbc 7848 32bd
00000360: 20b0 ecbc c95c d73a 1276 f03d 4005 6ebc
00000370: ef68 a1bc b943 06be 190e 2e3d c4e1 c8bd
00000380: 0c08 413d 5d22 9bbd c3e9 8fbd a59a 973d
00000390: db1f d73d 3bcb e5bc c7bb 85bd 7634 5dbd
000003a0: 9a73 2dbc ef97 903d 5f90 2cbb eafe 50bc
000003b0: 488d 313d 064d ffbc 451f 733c b995 c239
000003c0: 4705 b1bb 3883 6ebd 2405 683d ac6f 57bd
000003d0: 5654 873d dca3 ffb9 3008 8a3d e3d2 efbc
000003e0: 0d61 1cbd 6b9a 083e dc46 ad3d d4aa 9a3b
000003f0: 91e6 49ba cdf8 00bd 149d e23d e1bb 81bd

encoder.linear.weight f4 [32, 64]
0.06251257 -0.1730254 -0.109930225 -0.03082847 0.09924917 0.08409566 -0.17267145 0.13869905
-0.01623376 -0.03532073 -0.089320235 -0.15882228 0.047203008 0.17096108 -0.051896017 -0.068149164
0.17120378 -0.08532923 0.038159583 0.027801562 0.13995495 -0.07560719 0.106607385 0.076728016
0.06994384 -0.091064565 0.051902637 -0.0638681 -0.012983155 0.050985068 0.0796248 -0.026540836
-0.022326162 0.11445925 0.01136703 0.059384715 0.017389411 0.07186044 0.079108514 -0.086493306
-0.017635193 -0.091898076 -0.029520245 -0.06886368 -0.10082758 0.019030455 0.052434366 0.04950839
0.12494777 0.09245722 0.0131326 -0.12204399 0.14136407 0.09564527 -0.017152425 0.15505667
0.14055872 0.07640197 0.042507283 -0.07298043 -0.020338414 0.09042948 0.058033627 0.09982727
0.11570235 0.045573007 -0.09479576 -0.14716975 -0.05979172 0.054515876 0.08407751 -0.092949115
0.09750259 0.11527479 -0.095809326 0.119311444 0.02771129 -0.11860743 0.022341631 0.018904747
-0.11004169 0.09593668 -0.060697958 0.12929957 0.11876255 0.044323526 -0.13898288 -0.058320165
0.0064552166 -0.09065231 -0.0036654668 6.039718e-07 -0.13156883 0.12335856 -0.008096222 0.009118273
0.045918714 0.052391462 0.061087634 0.08971798 0.04835153 0.059171464 -0.0795082 0.00875349
0.022498162 0.13527967 -0.06280751 -0.020021265 -0.059588797 -0.13166718 -0.026861925 -0.05417599
-0.041418377 -0.02963836 -0.099668354 -0.013404405 0.07741624 -0.022886436 0.05700705 -0.064548515
-0.13765351 -0.1370503 -0.05837112 -0.110838406 -0.1174165 -0.029609766 0.07451344 -0.07838599
-0.059657883 -0.061103255 -0.06174714 0.09797492 -0.017320672 -0.0022791042 -0.082603775 -0.013194311
-0.06020377 -0.12852244 -0.12571478 0.020407692 -0.018667188 -0.08197574 -0.09332063 0.053665098
0.044264052 -0.0024137513 -0.062278636 0.08074584 0.047969513 0.04316111 -0.038937867 -0.040505547
0.03804961 0.07727332 -0.10749023 -0.01214405 0.12607081 -0.09481574 0.1353566 0.09331261
0.06409825 0.09361025 -0.009165082 0.05805315 0.06504099 0.06125257 0.04937108 -0.053814467
-0.14949967 0.039958607 -0.10585805 0.067445844 0.10683948 -0.066799976 0.09263919 0.07200078
-0.0967829 0.09999284 -0.11770388 -0.07034324 -0.0394827 -0.12594208 -0.103555806 0.103471965
0.11083114 -0.07524236 0.088305235 0.10917204 0.022555878 0.11848603 0.02521389 0.055828277
0.06565613 -0.13611336 -0.059186757 -0.07376736 -0.022354577 0.10547542 0.01583785 0.16386391
0.043349933 -0.012588105 0.03865831 0.059870426 -0.04842583 0.09340544 -0.08357251 -0.12796386
0.100007385 -0.023995819 0.13235693 0.01896867 -0.012524339 -0.00041219717 -0.01608623 -0.123012155
0.11697092 -0.021207906 -0.073179424 0.06638085 0.13617712 -0.08404291 -0.0030998364 0.102806196
0.12154201 0.100764744 0.08556681 0.089390144 -0.06600522 -0.12187205 0.1031444 -0.10591992
0.048210744 -0.07430786 -0.106248185 -0.036338516 -0.15242983 -0.049396016 0.08579029 -0.0785107
-0.01139259 -0.06250976 -0.03657606 0.033575244 -0.0016256507 -0.0023617893 -0.039790154 -0.056740027
0.16646883 0.15219495 -0.04609336 0.06196096 0.063101076 0.051070713 0.13464892 -0.029528512
00000000: 9706 803d 922d 31be 1923 e1bd fd8b fcbc
00000010: 2643 cb3d 583a ac3d c9d0 30be 2007 0e3e
00000020: aafc 84bc 78ac 10bd 87ed b6bd 4fa2 22be
00000030: f157 413d 6c10 2f3e eb90 54bd ca91 8bbd
00000040: 0b50 2f3e 17c1 aebd 394d 1c3d 1ac0 e33c
00000050: 5a50 0f3e f1d7 9abd f954 da3d 9423 9d3d
00000060: b73e 8f3d 0f80 babd dc97 543d 47cd 82bd
00000070: 4db7 54bc b8d5 503d 5412 a33d 2b6c d9bc
00000080: 5be5 b6bc 9c69 ea3d c83c 3a3c 633d 733d
00000090: 3d74 8e3c 912b 933d a503 a23d 6723 b1bd
000000a0: ae77 90bc 0f35 bcbd 71d4 f1bc 6708 8dbd
000000b0: b17e cebd c2e5 9b3c 6bc5 563d 4fc9 4a3d
000000c0: 9ee4 ff3d 365a bd3d 1e2a 573c 33f2 f9bd
000000d0: bec1 103e abe1 c33d 3e83 8cbc 2dc7 1e3e
000000e0: a0ee 0f3e a378 9c3d 1e1c 2e3d c476 95bd
000000f0: bf9c a6bc 1733 b93d abb4 6d3d 3d72 cc3d
00000100: 5bf5 ec3d c3aa 3a3d 4824 c2bd abb3 16be
00000110: 2ae8 74bd 0a4c 5f3d d430 ac3d 1b5c bebd
00000120: 70af c73d 3015 ec3d ae37 c4bd 8f59 f43d
00000130: ca02 e33c 74e8 f2bd cc05 b73c 21de 9a3c
00000140: 8a5d e1bd 737a c43d 6c9e 78bd 1b67 043e
00000150: c839 f33d 968c 353d 8751 0ebe 20e1 6ebd
00000160: 4886 d33b eba7 b9bd 5438 70bb a020 2235
00000170: fbb9 06be 6aa3 fc3d 04a6 04bc cf64 153c
00000180: 4315 3c3d 6e98 563d 0737 7a3d 0fbe b73d
00000190: 410c 463d c75d 723d 32d5 a2bd cc6a 0f3c
000001a0: 114e b83c c186 0a3e 39a1 80bd a303 a4bc
000001b0: 6213 74bd c3d3 06be 8a0d dcbc a5e7 5dbd
000001c0: 51a6 29bd 25cc f2bc ec1e ccbd 269e 5bbc
000001d0: 688c 9e3d 567c bbbc 3980 693d 0332 84bd
000001e0: 0bf5 0cbe ea56 0cbe 8e16 6fbd 3fff e2bd
000001f0: 1078 f0bd 2e90 f2bc 819a 983d d588 a0bd
00000200: d35b 74bd 6847 7abd 92ea 7cbd 13a7 c83d
00000210: 15e4 8dbc 065d 15bb 2b2c a9bd f42c 58bc
00000220: 3a98 76bd 639b 03be 60bb 00be 082e a73c
00000230: eeeb 98bc e6e2 a7bd e31e bfbd efcf 5b3d
00000240: 394e 353d 0730 1ebb e217 7fbd 135e a53d
00000250: ae7b 443d b4c9 303d 507d 1fbd 25e9 25bd
00000260: e8d9 1b3d 7941 9e3d d623 dcbd d6f7 46bc
00000270: b518 013e c12e c2bd ec9a 0a3e af1a bf3d
00000280: f145 833d bbb6 bf3d 2429 16bc 24c9 6d3d
00000290: 3634 853d fae3 7a3d 5439 4a3d 8f6c 5cbd
000002a0: 7116 19be a3ab 233d 1bcc d8bd 0c21 8a3d
000002b0: a8ce da3d 6dce 88bd 9eb9 bd3d 2575 933d
000002c0: 1d36 c6bd 0cc9 cc3d bb0e f1bd 1e10 90bd
000002d0: 9db8 21bd f6f6 00be 1115 d4bd 1ce9 d33d
000002e0: 70fb e23d ab18 9abd 60d9 b43d 9795 df3d
000002f0: 1bc7 b83c cea8 f23d 5c8d ce3c 31ac 643d
00000300: b976 863d 4d61 0bbe d06d 72bd 5713 97bd
00000310: f220 b7bc 7f03 d83d 61be 813c f1cb 273e
00000320: b38f 313d 573e 4ebc 2d58 1e3d b13a 753d
00000330: 2a5a 46bd 5a4b bf3d 1028 abbd f508 03be
00000340: acd0 cc3d e192 c4bc 9388 073e 2f64 9b3c
00000350: e332 4dbc 2b1c d8b9 45c7 83bc cced fbbd
00000360: 738e ef3d 34bc adbc 18df 95bd aff2 873d
00000370: 0472 0b3e b01e acbd a026 4bbb 0e8c d23d
00000380: 04eb f83d bf5d ce3d a73d af3d 2e12 b73d
00000390: bf2d 87bd 0e98 f9bd 5f3d d33d 8bec d8bd
000003a0: a178 453d b82e 98bd a698 d9bd b2d7 14bd
000003b0: 9116 1cbe 7a53 4abd d2b2 af3d 38ca a0bd
000003c0: fca7 3abc 1e05 80bd c7d0 15bd 3286 093d
000003d0: c913 d5ba 40c8 1abb 00fb 22bd 3b68 68bd
000003e0: ce76 2a3e fed8 1b3e 64cc 3cbd c7ca 7d3d
000003f0: 233b 813d 862f 513d 68e1 093e c7e5 f1bc

encoder.linear.bias f4 [32]
-0.04678391 0.027428014 -0.050811857 -0.03323597 -0.032553207 0.0037107982 -0.12515818 -0.09486976
-0.11749441 -0.11015304 0.037038427 0.07342321 -0.07536457 0.073181674 -0.06677809 -0.02136133
-0.060434762 -0.02495141 0.015951242 -0.06600176 0.014921937 -0.009608845 -0.06278663 0.027038133
-0.01660092 0.08296237 -0.04499448 -0.085503206 -0.10022969 0.011680086 -0.12123156 -0.042739477
00000000: 7ca0 3fbd b7b0 e03c 1820 50bd 7122 08bd
00000010: 8356 05bd dd30 733b 7729 00be 144b c2bd
00000020: e9a0 f0bd eb97 e1bd 9bb5 173d e85e 963d
00000030: bd58 9abd 46e0 953d f4c2 88bd f5fd aebc
00000040: 718a 77bd e666 ccbc 2eac 823c ee2b 87bd
00000050: 247b 743c 6b6e 1dbc 4796 80bd 137f dd3c
00000060: a7fe 87bc 2de8 a93d 224c 38bd 4e1c afbd
00000070: 3945 cdbd d55d 3f3c 4148 f8bd 970f 2fbd

decoder.linear.weight f4 [64, 32]
-0.11601683 0.109772705 0.13363439 0.042607974 0.04069217 0.092786245 -0.1219845 0.12480237
-0.20415758 0.10348745 0.08884012 0.04443601 -0.10848573 -0.08277053 0.145239 0.0946807
-0.033851895 0.08734911 -0.090745784 -0.027521558 -0.059986886 0.1376446 0.16183096 -0.041699838
-0.037005015 0.07683203 0.10670092 -0.08918436 0.16503483 -0.13277636 -0.044404868 -0.08215435
0.03770397 0.079506926 0.039751805 -0.12906642 -0.008508641 -0.1317083 -0.08561562 -0.11514758
-0.0020411606 0.13779104 0.115210555 0.15136757 -0.07594842 0.04138873 -0.07774973 0.08583306
-0.13077432 -0.038349014 -0.12552755 -0.16116224 -0.17964603 0.17232765 -0.16431482 0.08234416
0.10840908 -0.068345025 -0.10261324 0.07014756 -0.007310375 -0.13601744 -0.032105774 0.07298366
0.08125383 -0.116067804 0.12803358 0.15536548 -0.1140121 0.10187159 -0.10700281 0.083501466
-0.18939352 -0.17079519 -0.09139685 -0.13750431 -0.0091381315 0.18634418 0.03317721 0.17703588
0.12875262 -0.029992417 -0.15902565 0.04339641 -0.1268602 -0.10693548 0.1877414 -0.026900332
0.009582956 0.07025034 0.012714491 0.08879333 0.12093525 0.12263707 0.092488706 0.058910884
0.13698925 0.06590311 0.09812853 -0.1747049 0.068977624 0.025917204 -0.012319524 0.0660903
-0.022113964 -0.023272488 0.006135821 0.06386655 -0.015413093 0.099155866 -0.023321906 -0.11450839
-0.09838069 0.16890153 -0.026360834 0.11190937 -0.033296112 -0.10967608 0.11664406 -0.10346057
0.1159972 0.121063285 0.15434758 -0.08734076 0.06413674 0.0510632 -0.09092992 0.1387512
0.10185718 -0.04259561 -0.09232391 0.077759355 -0.023646962 -0.015580912 0.13876253 0.06685436
0.059104685 -0.16773632 0.10407522 -0.1570234 0.055672348 -0.09815698 -0.11908692 -0.05020607
-0.019808784 0.11228624 -0.08779164 -0.031478383 0.15573545 -0.13635862 -0.16911304 -0.015127405
0.0073379064 -0.13265218 0.06231929 0.10587026 -0.037206296 0.16369814 0.0221003 -0.011419161
0.10679231 -0.017742427 -0.16783471 0.014468189 -0.049686633 -0.13732521 -0.078371026 -0.080825135
0.059232507 0.055363968 -0.14575984 0.11964459 -0.1677823 -0.06220848 0.06503264 -0.19606908
-0.12377547 0.07912825 -0.07302978 -0.13377742 0.020118749 0.16653313 -0.16710508 0.15153578
0.03139361 0.08795421 0.027780533 0.13119785 -0.121706426 -0.08076822 0.14886011 -0.10041715
0.08674977 -0.08590944 0.044029154 0.18731622 -0.17227484 -0.1287421 0.20814358 -0.048115436
-0.07923736 0.08718657 0.12030575 0.15157178 -0.03263577 -0.084222555 0.12416317 0.11589152
0.049289774 -0.15966003 -0.077966094 0.03230449 -0.05195594 0.110601924 0.11924871 -0.0078438325
-0.14046192 0.06235869 -0.10587493 0.16055086 0.15500909 -0.03467229 0.12733224 0.16307874
-0.034398254 -0.16123742 0.11301254 0.09883863 -0.11815488 0.026493335 -0.17307012 -0.095921755
-0.15145448 0.15112537 -0.07748876 -0.039767567 0.1416711 -0.0007292416 -0.16869271 0.0076677683
-0.1156816 0.00807927 -0.10642835 0.07335415 0.11350573 0.070445225 -0.12058695 -0.097457826
-0.17252778 -0.15633333 0.052083116 0.07900506 -0.08420936 -0.18102655 0.10808608 -0.16311504
00000000: 3b9a edbd 83d0 e03d 74d7 083e b385 2e3d
00000010: d5ac 263d b706 be3d 02d3 f9bd 6398 ff3d
00000020: af0e 51be 3af1 d33d cff1 b53d 8902 363d
00000030: c42d debd 9883 a9bd 88b9 143e f4e7 c13d
00000040: 49a8 0abd 17e4 b23d edd8 b9bd e474 e1bc
00000050: cfb4 75bd b5f2 0c3e 04b7 253e 73cd 2abd
00000060: 9292 17bd 1d5a 9d3d 0386 da3d 4aa6 b6bd
00000070: e4fe 283e 87f6 07be e1e1 35bd 8a40 a8bd
00000080: 7a6f 1a3d 87d4 a23d cad2 223d fd29 04be
00000090: d467 0bbc 8ade 06be 3e57 afbd 7fd2 ebbd
000000a0: fec4 05bb 1819 0d3e 83f3 eb3d 1a00 1b3e
000000b0: d88a 9bbd 3b87 293d 403b 9fbd 3ec9 af3d
000000c0: b4e9 05be db13 1dbd 4b8a 00be b707 25be
000000d0: 21f5 37be a976 303e 2542 28be 0ea4 a83d
000000e0: 9405 de3d 7af8 8bbd e426 d2bd 86a9 8f3d
000000f0: df8b efbb 2848 0bbe 5881 03bd 7578 953d
00000100: 6868 a63d f5b4 edbd 3c1b 033e 2118 1f3e
00000110: 2d7f e9bd 0da2 d03d 4a24 dbbd d102 ab3d
00000120: 60f0 41be efe4 2ebe 462e bbbd eecd 0cbe
00000130: 1ab8 15bc 02d1 3e3e d3e4 073d e548 353e
00000140: bad7 033e a8b2 f5bc 9fd7 22be 6fc0 313d
00000150: a4e7 01be fd00 dbbd 483f 403e 165e dcbc
00000160: d501 1d3c 69df 8f3d 7150 503c 47d9 b53d
00000170: e6ac f73d 2529 fb3d b86a bd3d 8a4c 713d
00000180: e946 0c3e 36f8 863d 9cf7 c83d d7e5 32be
00000190: 2444 8d3d 5150 d43c d4d7 49bc 5a5a 873d
000001a0: 5828 b5bc f2a5 bebc ff0e c93b 77cc 823d
000001b0: 3387 7cbc 3b12 cb3d 950d bfbc 6083 eabd
000001c0: d17b c9bd 86f4 2c3e adf2 d7bc bd30 e53d
000001d0: 8161 08bd da9d e0bd 15e3 ee3d 23e3 d3bd
000001e0: f18f ed3d 07f0 f73d 4b0d 1e3e b6df b2bd
000001f0: 205a 833d a527 513d 7739 babd cb14 0e3e
00000200: 7f9a d03d bc78 2ebd 5114 bdbd 4c40 9f3d
00000210: 46b7 c1bc 1547 7fbc c417 0e3e f0ea 883d
00000220: c117 723d 12c3 2bbe 6425 d53d beca 20be
00000230: b008 643d 8706 c9bd d8e3 f3bd e1a4 4dbd
00000240: 0846 a2bc 54f6 e53d 1acc b3bd 7aef 00bd
00000250: 1d79 1f3e 98a1 0bbe f82b 2dbe efd8 77bc
00000260: d272 f03b f9d5 07be 8342 7f3d 82d2 d83d
00000270: a165 18bd 7ca0 273e b00b b53c 6f17 3bbc
00000280: edb5 da3d 9158 91bc dddc 2bbe fc0b 6d3c
00000290: 3684 4bbd fb9e 0cbe fd80 a0bd a687 a5bd
000002a0: c99d 723d 54c5 623d 1142 15be 3908 f53d
000002b0: 20cf 2bbe 52ce 7ebd d52f 853d 55c6 48be
000002c0: fe7d fdbd fe0d a23d a390 95bd f3fc 08be
000002d0: 13d0 a43c a987 2a3e 981d 2bbe 322c 1b3e
000002e0: 9696 003d 5621 b43d 0094 e33c bb58 063e
000002f0: 3841 f9bd cf69 a5bd c96e 183e 82a7 cdbd
00000300: dda9 b13d 4af1 afbd ea57 343d d3cf 3f3e
00000310: d168 30be f8d4 03be 9723 553e b114 45bd
00000320: 3247 a2bd df8e b23d dc62 f63d a235 1b3e
00000330: 16ad 05bd e07c acbd 4349 fe3d 8958 ed3d
00000340: 13e4 493d eb7d 23be b0ac 9fbd b751 043d
00000350: c0cf 54bd 4383 e23d ab38 f43d 6b83 00bc
00000360: 40d5 0fbe d36b 7f3d f5d4 d8bd 7267 243e
00000370: b4ba 1e3e 8804 0ebd 6263 023e 1dfe 263e
00000380: 2fe5 0cbd 6c1b 25be 1e73 e73d e86b ca3d
00000390: 30fb f1bd 8d08 d93c 4b39 31be a072 c4bd
000003a0: e216 1bbe 9cc0 1a3e 6db2 9ebd 51e3 22bd
000003b0: 3b12 113e 932a 3fba c8bd 2cbe e741 fb3b
000003c0: 7aea ecbd ea5e 043c 1bf7 d9bd b33a 963d
000003d0: b175 e83d 9645 903d 4af6 f6bd f897 c7bd
000003e0: 1fab 30be d815 20be 1b55 553d 68cd a13d
000003f0: f575 acbd 065f 39be 3c5c dd3d a107 27be

decoder.linear.bias f4 [64]
-0.027732955 -0.15048304 -0.07639265 -0.040696904 0.15587085 0.08661812 -0.0055247406 0.034287427
-0.15182993 0.036034092 -0.01700523 0.076827586 0.019955464 -0.023807222 -0.13867968 0.05351739
-0.15350325 0.12345306 0.06533211 0.039641682 0.11696655 0.13270089 -0.045802504 0.12263305
-0.13302968 -0.15744928 -0.06562543 -0.11600052 -0.030950187 0.05076537 -0.038631354 -0.13349335
-0.11874764 0.13215214 -0.17437185 -0.10188981 0.09075037 0.12935953 0.15025622 -0.07640672
0.007919521 0.16295251 0.031462736 0.020479092 0.1397879 0.02521617 0.13904746 -0.09060906
-0.1737663 -0.1282983 0.08210809 0.10115473 0.05791648 -0.075214244 -0.017302282 -0.054512415
0.037004508 0.030798452 0.055307873 0.1040196 0.1494972 0.08381019 -0.12814303 0.15303184
00000000: 3930 e3bc 3a18 1abe c073 9cbd ccb1 26bd
00000010: 9c9c 1f3e d764 b13d e208 b5bb f970 0c3d
00000020: 4e79 1bbe 7c98 133d 8d4e 8bbc c857 9d3d
00000030: a479 a33c 5d07 c3bc 0c02 0ebe 0d35 5b3d
00000040: f52f 1dbe f5d4 fc3d d7cc 853d 515f 223d
00000050: 298c ef3d bee2 073e 689b 3bbd 0927 fb3d
00000060: ef38 08be 623a 21be a066 86bd ae91 edbd
00000070: 3f8b fdbc 59ef 4f3d e93b 1ebd 7bb2 08be
00000080: f631 f3bd e452 073e 898e 32be 9bab d0bd
00000090: 54db b93d d376 043e c4dc 193e 207b 9cbd
000000a0: e1c0 013c 06dd 263e 12df 003d c5c3 a73c
000000b0: 8f24 0f3e 2492 ce3c 7562 0e3e 3e91 b9bd
000000c0: cbef 31be a160 03be 4928 a83d 362a cf3d
000000d0: d539 6d3d ed09 9abd 84bd 8dbc 6948 5fbd
000000e0: 0a92 173d 094d fc3c 828a 623d 3a08 d53d
000000f0: cb15 193e ada4 ab3d ed37 03be 61b4 1c3e

decoder.lstm.weight_ih_l0 f4 [256, 64]
-0.16284588 -0.23130201 -0.2143609 -0.08986909 0.051953506 0.10234213 -0.22914395 -0.08559057
-0.13545538 0.10863655 -0.022906195 0.1732697 0.044088755 -0.19207062 -0.19538964 0.11743088
-0.009424508 0.16191804 -0.11179503 0.17855841 0.034807585 0.18230166 0.043071844 0.26563647
-0.2635989 -0.09666564 -0.08173711 -0.1305187 -0.017800393 0.21830861 0.0319098 -0.23836498
-0.22179732 0.065801255 -0.22362769 -0.15820281 0.08689465 0.13847816 0.11765984 -0.20106912
-0.02465087 0.13045718 0.20891143 0.07644299 0.23143628 -0.0869071 0.09048487 -0.21318117
-0.15684856 -0.039872084 0.09223764 0.10301585 0.19584286 -0.09610639 0.15438953 -0.10046012
0.18237916 -0.03995121 0.18959396 0.18699129 -0.0014578329 0.036174178 -0.21555007 0.23244046
0.0009950419 0.116123095 0.08424045 0.05970322 -0.098120354 0.0017572395 -0.04332458 -0.076245874
-0.13335612 -0.033052634 0.15988833 0.0036746848 0.15945074 0.03953051 -0.059742916 -0.020219201
-0.07881723 0.12399527 -0.07410587 -0.07406882 -0.043869495 -0.0281342 -0.0023383833 0.13147709
0.07966806 0.043109722 -0.086170256 -0.027141776 -0.09478627 -0.01295163 -0.038821556 -0.1056475
-0.088925004 -0.056369368 -0.12414358 0.051478546 -0.034753 -0.03986524 -0.072086334 0.00017228929
-0.13143316 0.029662183 0.020100305 0.07842621 0.117341116 0.07568675 -0.15961152 -0.016645813
0.024659477 0.13423772 0.14210956 0.0027801648 -0.0029014703 0.06496145 -0.086691044 0.08518378
-0.04702434 -0.05730116 -0.048857972 0.10862765 -0.03306157 -0.07155497 0.08241461 -0.023231067
-0.065591685 0.06893657 0.0037015171 0.11141344 0.033740457 0.056572326 -0.039479524 0.08338902
-3.709352e-05 -0.030748697 0.06595922 0.08897836 0.13824658 -0.08129826 0.007750229 -0.04452743
-0.03841774 0.06706651 -0.09947995 -0.062204022 -0.05502061 0.092408955 0.08531351 -0.037252594
0.022357296 -0.07300029 -0.11978264 0.12014637 -0.019019078 0.087357 0.07287388 -0.052965045
-0.082447246 -0.012700327 -0.08798903 -0.028057707 0.048515625 0.026526583 -0.02587417 0.024573755
-0.014617662 0.10417445 0.022542045 0.10161445 0.14191675 -0.0028244464 -0.06806154 -0.010367776
-0.068960965 0.120300315 0.07993194 -0.037940107 0.05934786 -0.08308909 -0.04699544 -0.00014616946
-0.05550107 0.01438132 -0.042635456 0.06097497 -0.1124828 0.033768207 -0.025211122 0.0033315518
0.08683996 0.09030391 0.089841366 -0.11650534 0.022335276 0.10443012 -0.06263664 -0.11950746
0.10302853 0.14077704 0.039211586 -0.06635408 -0.070624255 -0.13928345 0.11331646 0.0116177285
-0.015555856 0.12663622 -0.1222805 -0.033488676 0.034942772 0.04976989 -0.07487085 0.062066205
-0.00966275 -0.09157787 0.071077734 0.011092887 0.005459806 0.016948955 0.0710186 0.07826641
-0.144307 -0.09405945 0.07121891 -0.014210818 0.14383025 0.03672412 -0.007023071 -0.07342881
-0.08977726 0.008539148 0.13418165 0.110465735 -0.03125648 -0.061120924 0.08697414 0.039220866
0.001468187 -0.086691104 -0.051856782 0.028663108 -0.027916485 0.06151608 -0.0106462315 -0.07486128
-0.015399962 -0.02444197 0.12776615 0.03587714 -0.07681857 0.12059201 0.07838731 0.1087702
00000000: 12c1 26be 6fda 6cbe 6c81 5bbe 490d b8bd
00000010: 33cd 543d c098 d13d b6a4 6abe 1c4a afbd
00000020: d1b4 0abe d77c de3d c6a5 bbbc 9d6d 313e
00000030: 6996 343d 29ae 44be 3914 48be 9a7f f03d
00000040: 4069 1abc d8cd 253e cbf4 e4bd 04d8 363e
00000050: 6692 0e3d 49ad 3a3e 1a6c 303d 8101 883e
00000060: 6ff6 86be a3f8 c5bd c965 a7bd b2a6 05be
00000070: 21d2 91bc 4b8c 5f3e dab3 023d f315 74be
00000080: d61e 63be cfc2 863d a8fe 64be ebff 21be
00000090: d2f5 b13d 38cd 0d3e a4f7 f03d 10e5 4dbe
000000a0: 9ff0 c9bc 9196 053e e1ec 553e 248e 9c3d
000000b0: a2fd 6c3e 5afc b1bd 2250 b93d 2a4c 5abe
000000c0: e99c 20be e950 23bd 16e7 bc3d f9f9 d23d
000000d0: 088b 483e 6dd3 c4bd 4a18 1e3e 09be cdbd
000000e0: 9ac1 3a3e e1a3 23bd eb24 423e a57a 3f3e
000000f0: c114 bfba 602b 143d 28b9 5cbe df04 6e3e
00000100: 116c 823a f2d1 ed3d 4286 ac3d 5d8b 743d
00000110: 53f3 c8bd 2c53 e63a 1d75 31bd cc26 9cbd
00000120: 828e 08be 3362 07bd c4b9 233e fbd2 703b
00000130: 0e47 233e beea 213d fdb4 74bd bda2 a5bc
00000140: ee6a a1bd 3bf1 fd3d d2c4 97bd 65b1 97bd
00000150: 80b0 33bd b279 e6bc 903f 19bb eea1 063e
00000160: 0229 a33d d293 303d 087a b0bd 6e58 debc
00000170: 4e1f c2bd 1333 54bc 5a03 1fbd b75d d8bd
00000180: 501e b6bd 91e3 66bd fd3e febd 2bdb 523d
00000190: 2959 0ebd bc49 23bd 00a2 93bd 8ea8 3439
000001a0: 6a96 06be 1bfe f23c 65a9 a43c ec9d a03d
000001b0: 8a50 f03d a801 9b3d 3471 23be cd5c 88bc
000001c0: ac02 ca3c 9d75 093e 2b85 113e 6d33 363b
000001d0: 9826 3ebb 820a 853d 138b b1bd d574 ae3d
000001e0: 989c 40bd 9fb4 6abd 4c1f 48bd 2c78 de3d
000001f0: 926b 07bd 6a8b 92bd fec8 a83d 144f bebc
00000200: ef54 86bd 9e2e 8d3d 2795 723b bb2c e43d
00000210: 6f33 0a3d 62b8 673d 48b5 21bd ddc7 aa3d
00000220: dd94 1bb8 b1e4 fbbc a115 873d 493a b63d
00000230: 8390 0d3e b47f a6bd a2f5 fd3b 6562 36bd
00000240: ec5b 1dbd 2b5a 893d 25bc cbbd a5c9 7ebd
00000250: 4b5d 61bd e840 bd3d d9b8 ae3d 2d96 18bd
00000260: a626 b73c 2d81 95bd 9a50 f5bd 4d0f f63d
00000270: e6cd 9bbc 3ae8 b23d e73e 953d e0f1 58bd
00000280: 1ada a8bd 0815 50bc 9833 b4bd 47d9 e5bc
00000290: 52b8 463d 474e d93c 11f6 d3bc e64e c93c
000002a0: eb7e 6fbc 6a59 d53d 18aa b83c 3d1b d03d
000002b0: a052 113e 591a 39bb d963 8bbd 9bdd 29bc
000002c0: 683b 8dbd 0360 f63d 5bb3 a33d 1667 1bbd
000002d0: be16 733d 9d2a aabd 4a7e 40bd 1145 19b9
000002e0: 1755 63bd a19f 6b3c 84a2 2ebd e4c0 793d
000002f0: 625d e6bd 8850 0a3d 8e87 cebc 2a56 5a3b
00000300: 26d9 b13d 42f1 b83d c0fe b73d 5a9a eebd
00000310: 78f8 b63c 75df d53d a447 80bd 54c0 f4bd
00000320: 9f00 d33d db27 103e 549c 203d a6e4 87bd
00000330: 73a3 90bd 52a0 0ebe 7612 e83d 4958 3e3c
00000340: fddd 7ebc edac 013e 336e fabd 6c2b 09bd
00000350: 2720 0f3d 83db 4b3d e355 99bd 2239 7e3d
00000360: 8350 1ebc 2e8d bbbd 3491 913d f1be 353c
00000370: 2ce8 b23b 89d8 8a3c 3372 913d 244a a03d
00000380: 37c5 13be 3ea2 c0bd 38db 913d 7ed4 68bc
00000390: 3d48 133e 086c 163d ca21 e6bb d861 96bd
000003a0: 24dd b7bd c8e7 0b3c ea66 093e dc3b e23d
000003b0: cb06 00bd ef59 7abd 7f1f b23d 0fa6 203d
000003c0: 2e70 c03a 1b8b b1bd c767 54bd e5ce ea3c
000003d0: 1db1 e4bc 49f8 7b3d 886d 2ebc df50 99bd
000003e0: 1f50 7cbc 873a c8bc 21d5 023e e8f3 123d
000003f0: 0e53 9dbd f2f8 f63d 8789 a03d e9c2 de3d
