models/lstm/aapl_lstm_autoencoder.pth (torch, 228008 bytes, 14 tensors)

encoder.lstm.weight_ih_l0 f4 [256, 5]
0.085183956 0.042038698 -0.0106024975 0.024348103 -0.01752414 0.06627712 -0.034495447 -0.084804915
0.058724485 0.07989184 0.09474704 0.03021506 0.037041657 -0.032311205 0.117878765 0.033032924
0.10707818 0.12176158 -0.09215584 -0.05876905 0.1492842 0.025591029 0.07786229 -0.09202603
0.109033376 0.026299162 0.114480086 -0.10666802 0.052352265 -0.032477167 0.034629993 0.059623554
-0.049346793 0.046092235 -0.048294526 -0.08040874 -0.050473455 0.06049803 0.098097175 -0.06111766
0.06285759 0.013380532 0.05116183 0.05642822 -0.0209812 -0.07865308 0.05211872 0.070996016
-0.09181695 0.04639603 -0.01984252 -0.04770719 0.09361416 -0.0030482176 0.07198781 -0.04097443
0.06511028 0.049375493 0.12546103 0.09629663 0.103787385 0.019384854 0.041283734 -0.028896732
0.084497325 -0.005578227 0.1173913 0.014535121 -0.07840859 0.045391127 -0.057605084 0.1175128
-0.08637648 -0.008165522 0.09486447 -0.050424367 -0.10298983 -0.09333543 -0.0133278025 0.005613849
0.11110209 0.008776237 0.0621045 -0.011060139 0.031563 0.069657974 -0.08580538 0.0849477
-0.036538858 -0.08843642 0.10556655 -0.013499466 0.10928867 0.0075812866 -0.094146766 0.11753644
-0.0908828 -0.069256835 0.012437537 -0.043247137 0.06357918 0.066427715 0.027546274 -0.064934425
0.028558902 0.13398434 -0.023395712 -0.008357883 -0.035213485 -0.026826032 0.033706326 0.120358564
-0.0010308687 -0.04247349 -0.07093146 -0.04856773 -0.0537552 0.021437217 -0.0781853 0.03135357
0.063240044 0.045980044 0.14601383 0.13217694 0.06654067 0.037000038 0.017567791 0.116614535
-0.015239856 0.011611115 -0.0075210603 -0.03965397 -0.08530187 -0.031782657 -0.052459 -0.034759462
-0.11084969 -0.046481844 -0.0032746538 -0.08982489 -0.04108938 -0.044674806 0.108369276 0.031130625
0.090058744 0.11596503 -0.093592376 -0.12900588 -0.0043616286 -0.0361833 -0.012282156 -0.0142148165
-0.13272782 -0.081084035 -0.08386237 0.1418659 -0.09100331 0.037899323 -0.024860656 -0.032752838
0.014394121 0.09414495 -0.02066158 0.0058445283 0.10982965 0.08366711 0.02141127 0.013673196
0.079549715 0.1215031 -0.09878745 -0.051894832 -0.08608711 -0.13592361 -0.0036033974 0.1400336
0.14067715 -0.043404132 -0.061586767 -0.088555425 0.11582953 0.14237113 -0.023505388 0.13915518
-0.15564485 0.021201136 -0.012455796 -0.03125997 -0.09351296 0.0073378114 0.123954505 0.12688546
0.006918498 0.023446709 0.018814826 0.056133114 0.013086346 -0.062085275 -0.022590345 0.010454375
-0.0044745477 0.06457578 0.015527189 0.027614027 -0.08919743 -0.041952398 0.114685155 0.08993669
0.12039131 0.106803514 0.06873696 -0.038885057 -0.05243275 0.09697423 0.15507291 0.08658549
-0.002697142 -0.08299295 0.13115767 -0.1420395 0.11884021 0.026730714 0.13437031 -0.06123489
-0.026932685 -0.02760858 -0.07407331 0.121906206 0.082718685 0.076846674 0.13655517 -0.07272178
-0.05157416 0.019209452 0.030377358 0.13591056 0.042692676 -0.011236955 0.02577616 0.008886325
0.028119028 0.10048605 0.14013387 -0.010252375 -0.01224075 -0.07833442 -0.008447766 0.018350743
-0.0045323037 -0.09840593 0.0021306663 0.108137354 -0.019882241 -0.066421926 0.07740776 -0.0071629547
00000000: ed74 ae3d c530 2c3d 19b6 2dbc ac75 c73c
00000010: c98e 8fbc 4cbc 873d 194b 0dbd 33ae adbd
00000020: 1689 703d 559e a33d bc0a c23d 9385 f73c
00000030: feb8 173d c158 04bd 6c6a f13d 884d 073d
00000040: ce4b db3d 235e f93d 33bc bcbd d1b7 70bd
00000050: f5dd 183e 47a4 d13c 4476 9f3d 2578 bcbd
00000060: e44c df3d 5771 d73c 8974 ea3d c374 dabd
00000070: 546f 563d c706 05bd 2ed8 0d3d d437 743d
00000080: dd1f 4abd 36cb 3c3d 7bd0 45bd 56ad a4bd
00000090: 41bd 4ebd c8cc 773d 2ce7 c83d 8356 7abd
000000a0: 7bbb 803d 053a 5b3c 118f 513d 4721 673d
000000b0: c4e0 abbc de14 a1bd 707a 553d 5c66 913d
000000c0: 860a bcbd c309 3e3d c88c a2bc 9d68 43bd
000000d0: c8b8 bf3d 9bc4 47bb 586e 933d ced4 27bd
000000e0: 8a58 853d f53d 4a3d db78 003e 2b37 c53d
000000f0: 7b8e d43d fccc 9e3c 2219 293d d7b8 ecbc
00000100: ef0c ad3d 8fc9 b6bb da6a f03d b724 6e3c
00000110: af94 a0bd 0cec 393d 4ff3 6bbd 8daa f03d
00000120: 27e6 b0bd aec8 05bc 4e48 c23d c889 4ebd
00000130: 55ec d2bd a526 bfbd db5c 5abc 61f4 b73b
00000140: 7e89 e33d 35ca 0f3c 4a61 7e3d 9635 35bc
00000150: 3448 013d d7a8 8e3d bbba afbd 0ff9 ad3d
00000160: c5a9 15bd 271e b5bd 4633 d83d dd2c 5dbc
00000170: bdd2 df3d 716c f83b 05d0 c0bd f2b6 f03d
00000180: c320 babd 87d6 8dbd d0c6 4b3c e923 31bd
00000190: cd35 823d 410b 883d b9a8 e13c 57fc 84bd
000001a0: 5cf4 e93c 3133 093e 5da8 bfbc 81ef 08bc
000001b0: 043c 10bd 44c2 dbbc a50f 0a3d 8d7e f63d
000001c0: 371e 87ba aff8 2dbd 8344 91bd f5ee 46bd
000001d0: 6a2e 5cbd 1a9d af3c 9d1f a0bd 9a6c 003d
000001e0: ff83 813d 9255 3c3d a684 153e 6459 073e
000001f0: 7a46 883d 5a8d 173d 54ea 8f3c 9ad3 ee3d
00000200: 97b0 79bc 8c3c 3e3c 3a73 f6bb 346c 22bd
00000210: bfb2 aebd 882e 02bd 40df 56bd f05f 0ebd
00000220: 2a05 e3bd bf63 3ebd 939b 56bb 1df6 b7bd
00000230: 564d 28bd eefc 36bd b6f0 dd3d a705 ff3c
00000240: b870 b83d 137f ed3d 5cad bfbd 1e1a 04be
00000250: feeb 8ebb f134 14bd 193b 49bc 43e5 68bc
00000260: cde9 07be 630f a6bd 09c0 abbd 4b45 113e
00000270: f25f babd 523c 1b3d 93a8 cbbc d727 06bd
00000280: 52d5 6b3c 11cf c03d 7942 a9bc 7583 bf3b
00000290: 5eee e03d a959 ab3d b066 af3c 8a05 603c
000002a0: f6ea a23d 9ed6 f83d 1351 cabd ad8f 54bd
000002b0: 704e b0bd 8f2f 0bbe fa26 6cbb f864 0f3e
000002c0: ac0d 103e 88c8 31bd 6842 7cbd 8c5c b5bd
000002d0: 0838 ed3d bdc9 113e 5f8e c0bc b27e 0e3e
000002e0: 5d61 1fbe 01ae ad3c 6513 4cbc 740a 00bd
000002f0: b983 bfbd 0672 f03b dcdb fd3d 43ee 013e
00000300: 91b4 e23b 5013 c03c 8d21 9a3c d6eb 653d
00000310: 1d68 563c 214d 7ebd 630f b9bc d448 2b3c
00000320: 3a9f 92bb 4e40 843d c065 7e3c d036 e23c
00000330: 24ad b6bd 47d6 2bbd 0de0 ea3d ba30 b83d
00000340: b88f f63d cdbb da3d f7c5 8c3d f045 1fbd
00000350: b9c3 56bd 6d9a c63d 6fcb 1e3e bc53 b13d
00000360: 89c2 30bb 35f8 a9bd 324e 063e cd72 11be
00000370: 7f62 f33d 5ffa da3c 5f98 093e 70d1 7abd
00000380: efa1 dcbc 642b e2bc bfb3 97bd f6a9 f93d
00000390: 6a68 a93d ca61 9d3d 1ed5 0b3e 28ef 94bd
000003a0: 6d3f 53bd 245d 9d3c f0d9 f83c 232c 0b3e
000003b0: 84de 2e3d 351b 38bc 8728 d33c f397 113c
000003c0: e059 e63c a1cb cd3d 417f 0f3e 94f9 27bc
000003d0: 6d8d 48bc cc6d a0bd 8068 0abc 4c54 963c
000003e0: b883 94bb 0c89 c9bd a6a2 0b3b 1e77 dd3d
000003f0: 15e0 a2bc 3808 88bd f687 9e3d 38b7 eabb

encoder.lstm.weight_hh_l0 f4 [256, 64]
-0.037946362 -0.0024914937 0.07074413 0.041678313 -0.011107901 0.00559633 -0.06860862 -0.08943277
-0.11105836 0.04532816 -0.11378991 -0.0013787283 -0.103703156 -0.074833706 -0.07759709 0.0071591903
-0.08727919 -0.041462734 -0.11799973 0.06617069 0.06666693 0.016971668 -0.0773957 0.0934353
0.07935383 -0.03359057 -0.004126781 0.04038872 0.050858933 0.092514105 -0.057452716 0.07082456
-0.048631683 -0.06781685 0.11466062 -0.061857767 -0.0479576 0.12624295 -0.06232059 0.019982409
0.016734354 0.08531758 -0.08361139 0.089017525 -0.01081947 0.113832295 0.051439818 0.10133712
0.11486486 0.018386154 0.09134032 0.07118967 -0.10171759 -0.068170786 -0.08704147 -0.0373293
0.0428983 0.12951003 0.10895342 -0.13794589 -0.09123692 -0.042464886 0.0018200307 -0.12075148
0.16063565 -0.09454951 0.095078975 -0.11099157 0.0033476925 0.0901932 -0.04334388 0.009791391
0.044178054 -0.1275076 -0.00770596 -0.096331775 -0.08220304 0.032915793 -0.0033901455 -0.11882531
-0.004650857 -0.051358454 0.0018585541 -0.14309326 0.08151884 -0.05190944 0.12074888 0.019878106
0.009311773 0.13299529 0.047670808 -0.0039461874 0.04499082 -0.07243766 -0.11348841 0.026327183
-0.103651024 -0.13824376 -0.10366129 -0.052601434 0.040418793 0.025811506 -0.0021651206 0.09331151
0.06307353 -0.09768752 0.06295888 -0.14152229 -0.06927646 -0.0071419473 -0.1402687 -0.030282423
0.14443618 0.15869354 0.04834122 0.09844343 0.041624315 -0.079326056 -0.015223501 0.07302687
0.11661128 -0.08682374 0.08462018 0.11493224 0.11996945 0.024405193 0.061714597 -0.01400652
0.06733642 -0.12043133 -0.067552485 -0.09679691 -0.087207004 -0.06017236 -0.025303612 -0.18702222
-0.1148797 0.08977399 -0.026536439 -0.018817393 0.008947987 -0.05530407 0.006183016 -0.14088053
-0.0076516047 -0.06756909 -0.046941005 -0.13829929 0.05839875 -0.01392946 -0.09253999 0.031981055
0.22017178 0.1520572 0.026016144 -0.03466695 0.0041431193 0.13013765 0.057144888 -0.07421099
0.035347864 -0.15877467 -0.04087316 0.1660076 -0.016836738 -0.07790197 -0.17152227 -0.019724634
0.036598716 0.10432336 -0.11135197 -0.06312164 -0.07938606 0.09280478 0.046099067 0.008377501
0.09752917 0.15375343 -0.03805454 -0.058488853 -0.13931444 0.18994045 -0.075286165 0.18882027
-0.00697228 -0.024159018 -0.011461185 0.06362622 -0.040697 0.0787757 -0.017929548 0.12121863
-0.082283765 0.0804654 -0.002254978 0.084647685 -0.06302892 -0.07907152 -0.08180536 -0.0689436
-0.021044262 -0.020942187 -0.07710283 -0.08440719 0.095392585 0.11377825 0.1462554 -0.008829348
-0.055145465 0.044412926 0.07751877 -0.05410002 -0.117181696 0.07197561 0.058676016 0.05792483
0.097982295 0.12214586 -0.08417013 -0.102825515 0.009645793 0.082647644 0.11037048 -0.033705764
0.06701093 -0.07164607 0.054854687 0.058765322 0.104089044 -0.004257335 -0.055444617 0.034404848
-0.04758492 0.00015314587 0.055049516 0.059466638 0.061420154 -0.10627479 -0.0149782635 -0.11241266
0.08052409 0.08706864 -0.036157914 -0.12117578 0.07389915 -0.09485235 -0.08923874 -0.14413814
-0.03141301 0.04960545 -0.03196754 0.098790914 -0.003978582 0.027871775 -0.016529467 0.03689282
00000000: a56d 1bbd 5448 23bb 4ce2 903d e1b6 2a3d
00000010: eafd 35bc 6b61 b73b ad82 8cbd 8728 b7bd
00000020: 9172 e3bd 05aa 393d af0a e9bd 72b6 b4ba
00000030: 5262 d4bd 6a42 99bd 39eb 9ebd a497 ea3b
00000040: 6fbf b2bd d4d4 29bd d8a9 f1bd 8084 873d
00000050: ac88 883d 2b08 8b3c a381 9ebd 025b bf3d
00000060: 4384 a23d 4496 09bd f339 87bb a46e 253d
00000070: 7551 503d 0978 bd3d 8a53 6bbd 780c 913d
00000080: 0432 47bd 90e3 8abd 30d3 ea3d 925e 7dbd
00000090: 306f 44bd d545 013e e043 7fbd 26b2 a33c
000000a0: 7c16 893c fcba ae3d 733c abbd d24e b63d
000000b0: 2544 31bc e820 e93d 8fb2 523d d689 cf3d
000000c0: 453e eb3d 8f9e 963c a210 bb3d e4cb 913d
000000d0: 5051 d0bd 209d 8bbd cc42 b2bd 9ce6 18bd
000000e0: 21b6 2f3d 479e 043e f822 df3d b041 0dbe
000000f0: 6cda babd a9ef 2dbd 198e ee3a 8d4c f7bd
00000100: ac7d 243e 2ca3 c1bd c4b8 c23d 8c4f e3bd
00000110: f664 5b3b 36b7 b83d 5a89 31bd 126c 203c
00000120: 0cf4 343d 5a91 02be 4782 fcbb 9849 c5bd
00000130: 115a a8bd b6d2 063d 342d 5ebb af5a f3bd
00000140: 3766 98bb 3e5d 52bd ba9a f33a 0a87 12be
00000150: 59f3 a63d fe9e 54bd 304b f73d 69d7 a23c
00000160: 6890 183c eb2f 083e 7742 433d 054f 81bb
00000170: 4b48 383d 325a 94bd 9d6c e8bd 1bac d73c
00000180: fd46 d4bd c68f 0dbe 5f4c d4bd 9a74 57bd
00000190: 2d8e 253d a772 d33c b2e4 0dbb 1b1a bf3d
000001a0: b22c 813d 6510 c8bd 96f0 803d 38eb 10be
000001b0: d1e0 8dbd ff06 eabb 99a2 0fbe d812 f8bc
000001c0: 14e7 133e 8f80 223e 7101 463d b69c c93d
000001d0: 427e 2a3d b375 a2bd fe6b 79bc 1d8f 953d
000001e0: e5d1 ee3d a5d0 b1bd 584d ad3d 9861 eb3d
000001f0: 8bb2 f53d 66ed c73c 72c8 7c3d 9a7b 65bc
00000200: ade7 893d b3a4 f6bd f558 8abd 753d c6bd
00000210: 9699 b2bd 4b77 76bd 8549 cfbc c182 3fbe
00000220: 0c46 ebbd 6ddb b73d f262 d9bc ef26 9abc
00000230: 949a 123c 8586 62bd e69a ca3b fc42 10be
00000240: 50ba fabb aa61 8abd 3645 40bd 549e 0dbe
00000250: 8733 6f3d 6438 64bc 9b85 bdbd 91fe 023d
00000260: b674 613e e2b4 1b3e cf1f d53c effe 0dbd
00000270: 01c3 873b ce42 053e c210 6a3d eefb 97bd
00000280: ecc8 103d d495 22be 9d6a 27bd e5fd 293e
00000290: 33ed 89bc 118b 9fbd 89a3 2fbe 8e95 a1bc
000002a0: 89e8 153d 7ca7 d53d 800c e4bd eb45 81bd
000002b0: 2995 a2bd 6f10 be3d 60d2 3c3d c941 093c
000002c0: 60bd c73d 8a71 1d3e 14df 1bbd 0292 6fbd
000002d0: 72a8 0ebe c07f 423e a22f 9abd 1a5a 413e
000002e0: b977 e4bb 22e9 c5bc b2c7 3bbc 774e 823d
000002f0: e6b1 26bd 2755 a13d fde0 92bc 7941 f83d
00000300: 6484 a8bd 0bcb a43d 41c8 13bb c45b ad3d
00000310: 4e15 81bd 40f0 a1bd 9289 a7bd 4d32 8dbd
00000320: 0465 acbc f38e abbc 17e8 9dbd addd acbd
00000330: 305d c33d 9204 e93d fac3 153e f8a8 10bc
00000340: 36e0 61bd 54ea 353d 29c2 9e3d fc97 5dbd
00000350: f5fc efbd f367 933d 4356 703d 9642 6d3d
00000360: f1aa c83d 9c27 fa3d 6461 acbd 2f96 d2bd
00000370: 6309 1e3c 2b43 a93d eb09 e23d 0e0f 0abd
00000380: 073d 893d 2dbb 92bd 4faf 603d e8b3 703d
00000390: a32c d53d 1d81 8bbb e519 63bd 19ec 0c3d
000003a0: 68e8 42bd c895 2039 9a7b 613d 4a93 733d
000003b0: b393 7b3d 99a6 d9bd 6467 75bc 9c38 e6bd
000003c0: d0e9 a43d 0b51 b23d 521a 14bd 022b f8bd
000003d0: 7058 973d f341 c2bd cdc2 b6bd f398 13be
000003e0: eeaa 00bd 162f 4b3d 65f0 02bd e452 ca3d
000003f0: c45e 82bb 5953 e43c ce68 87bc ed1c 173d

encoder.lstm.bias_ih_l0 f4 [256]
0.037539106 -0.13856658 -0.021807324 0.088070184 0.09859032 -0.039820388 0.034571454 -0.0808296
-0.013948001 -0.106423356 0.1303845 0.09126361 0.14881603 0.060664985 0.03444597 -0.072027884
-0.030187039 0.072612405 0.0044885175 0.017764028 0.05477676 -0.0907134 -0.10735947 0.103387915
-0.03393187 0.02132593 -0.08232381 -0.052501597 -0.03367245 0.09828633 -0.021720015 -0.09944563
0.029390248 0.14057061 -0.03304815 0.0074681365 -0.1048016 0.104512386 0.049536422 0.068431206
-0.07935382 0.09177769 0.066062 0.022152724 0.0040307734 -0.044692487 -0.015109667 0.07189691
0.02529434 -0.009024578 -0.033392057 -0.07190222 -0.10275199 0.12033089 -0.09317498 0.0325439
0.11336604 0.079296455 -0.09714659 -0.15029179 -0.086109765 0.0852823 -0.032774813 -0.10380854
0.11324525 -0.01663097 0.031345833 0.119703025 0.07814285 -0.061423562 -0.028438985 -0.07604692
-0.08800295 0.10353438 0.1388933 0.042426877 -0.08386425 -0.06815932 -0.007717724 -0.058420885
0.11812636 -0.06812043 0.13576055 0.08936292 0.07537536 0.034903076 0.016380806 -0.025079956
0.042859573 0.14460137 0.075585015 -0.049866565 0.10021961 0.06193007 -0.12385765 -0.0048170513
-0.07779786 -0.07427737 0.040992558 0.099774666 0.0297218 -0.05200748 0.111278385 -0.002213265
-0.061383165 0.05393424 0.08737018 -0.0922264 0.042558845 0.071587905 0.11388654 -0.034274016
-0.04984015 -0.04905972 0.010761016 0.07058863 -0.0743133 0.057551466 -0.03435771 -0.050035346
0.020175032 0.1430182 0.07746653 -0.03633085 0.14869653 0.016092278 0.017673358 0.047748633
-0.09301311 0.018357975 0.10346202 0.08536639 -0.022679236 -0.03082388 -0.043664146 -0.06821342
-0.06742594 -0.027597798 0.05727184 -0.021222968 0.08351293 0.020102995 0.0044055544 -0.08172781
0.024941156 -0.0142443925 -0.055435594 0.038364265 0.062099192 -0.0650923 -0.07997158 0.03568345
-0.058996215 -0.099209145 -0.084131695 -0.06941155 -0.02623407 -0.09302927 0.02129477 0.09087106
0.049946696 -0.00030297748 0.13468637 -0.058152877 -0.08874804 -0.022589428 0.0035637903 -0.07051389
0.06276517 -0.10912654 -0.016664675 0.01196634 -0.051657334 -0.11816853 0.0059568393 0.0545062
-0.0572207 -0.018258931 -0.11122446 -0.08258615 -0.016731298 -0.051906567 -0.060349677 0.0056313896
-0.07732062 -0.04913715 -0.035532933 -0.032506995 -0.09504325 0.027568227 0.01585507 -0.06754719
-0.031213745 -0.013609941 -0.014538449 -0.098440304 -0.09800086 0.08288277 0.12488626 0.030356951
0.009213458 -0.009416032 0.16015947 -0.09506565 0.00506223 -0.026404308 0.1036514 0.12316949
-0.030829757 0.031859834 -0.0058853985 0.06748936 0.007862595 0.043761816 0.09539722 0.12331228
0.03253023 0.19283293 0.039144676 -0.07262185 -0.089126565 -0.059246514 -0.100343175 0.00264585
0.033005346 0.050238974 0.07069071 0.0030947188 0.0044373763 -0.025539907 0.098079816 -0.031872995
0.11686006 -0.110119455 -0.08703764 0.015698835 -0.07764715 -0.0901672 0.12559833 0.084610276
-0.09452745 -0.016385179 0.08621388 0.14541459 0.13688521 0.118744746 -0.021911664 0.12053239
-0.04138746 -0.0028006665 0.02405813 -0.08543859 -0.059893865 0.08893456 0.107282884 -0.043265767
00000000: 9bc2 193d 66e4 0dbe 46a5 b2bc 245e b43d
00000010: b9e9 c93d b41a 23bd cc9a 0d3d fd89 a5bd
00000020: 2886 64bc 7df4 d9bd 8483 053e 6ae8 ba3d
00000030: 3b63 183e d97b 783d 3817 0d3d 5b83 93bd
00000040: cf4a f7bc d0b5 943d 6a14 933b de85 913c
00000050: 995d 603d f2c7 b9bd 48df dbbd 0bbd d33d
00000060: 25fc 0abd b7b3 ae3c 6399 a8bd ea0b 57bd
00000070: 1fec 09bd 584a c93d 2cee b1bc 27aa cbbd
00000080: d1c3 f03c bef1 0f3e 7f5d 07bd 45b7 f43b
00000090: 39a2 d6bd 970a d63d b4e6 4a3d a925 8c3d
000000a0: 4184 a2bd f1f5 bb3d 844b 873d a179 b53c
000000b0: 9414 843b 780f 37bd 898e 77bc b03e 933d
000000c0: 1336 cf3c d3db 13bc 1cc6 08bd 7941 93bd
000000d0: a36f d2bd 0b70 f63d 86d2 bebd c14c 053d
000000e0: 742c e83d 2e66 a23d cbf4 c6bd 17e6 19be
000000f0: 515a b0bd 7da8 ae3d e23e 06bd 9299 d4bd
00000100: 20ed e73d ac3d 88bc 7d64 003d dc26 f53d
00000110: 5c09 a03d 4697 7bbd e0f8 e8bc 7dbe 9bbd
00000120: e43a b4bd d509 d43d 0c3a 0e3e cec7 2d3d
00000130: 05c1 abbd 1d97 8bbd f6e4 fcbb bd4a 6fbd
00000140: 3cec f13d b982 8bbd d004 0b3e e803 b73d
00000150: 665e 9a3d 87f6 0e3d 0a31 863c 7b74 cdbc
00000160: 858d 2f3d 6212 143e 51cc 9a3d e240 4cbd
00000170: f03f cd3d 63aa 7d3d 14a9 fdbd 5bd8 9dbb
00000180: 7c54 9fbd bc1e 98bd d0e7 273d a956 cc3d
00000190: 227b f33c cc05 55bd ece5 e33d 6d0c 11bb
000001a0: ea6c 7bbd 26ea 5c3d 23ef b23d 32e1 bcbd
000001b0: 2f52 2e3d ae9c 923d 593d e93d e962 0cbd
000001c0: 2f25 4cbd d8f2 48bd f94e 303c c690 903d
000001d0: 9231 98bd 16bb 6b3d acba 0cbd ddf1 4cbd
000001e0: 1c46 a53c 5d73 123e c6a6 9e3d a8cf 14bd
000001f0: e743 183e f4d3 833c b8c7 903c 1294 433d
00000200: a87d bebd 7763 963c e5e3 d33d 93d4 ae3d
00000210: cec9 b9bc 5d82 fcbc 2dd9 32bd 7ab3 8bbd
00000220: 9c16 8abd c714 e2bc e095 6a3d cadb adbc
00000230: d408 ab3d 09af a43c 785c 903b e960 a7bd
00000240: 6551 cc3c 5061 69bc 6f10 63bd d923 1d3d
00000250: b95b 7e3d 1d4f 85bd 24c8 a3bd cf28 123d
00000260: 04a6 71bd 2a2e cbbd 3d4d acbd a527 8ebd
00000270: d5e8 d6bc 2186 bebd 5f72 ae3c 9b1a ba3d
00000280: e894 4c3d f3d8 9eb9 39eb 093e b631 6ebd
00000290: 88c1 b5bd 770d b9bc 7b8e 693b 9669 90bd
000002a0: 078b 803d bc7d dfbd 5b84 88bc 780e 443c
000002b0: a496 53bd 5802 f2bd 9731 c33b e541 5f3d
000002c0: 4160 6abd c193 95bc a6c9 e3bd ed22 a9bd
000002d0: 1310 89bc fb9b 54bd 3931 77bd 8587 b83b
000002e0: 465a 9ebd 0944 49bd fb8a 11bd 0e26 05bd
000002f0: 09a6 c2bd c3d6 e13c 7ee2 813c 2e56 8abd
00000300: f8b3 ffbc 3bfc 5ebc ad32 6ebc 129b c9bd
00000310: adb4 c8bd 71be a93d 5ec4 ff3d 24af f83c
00000320: 0bf4 163c b345 1abc d800 243e c8b1 c2bd
00000330: 10e1 a53b d94d d8bc 2f47 d43d 4940 fc3d
00000340: b08e fcbc 757f 023d 4dda c0bb dd37 8a3d
00000350: 1dd2 003c 973f 333d 9e5f c33d 268b fc3d
00000360: 6b3e 053d ff75 453e 2b56 203d c4ba 94bd
00000370: fd87 b6bd 79ac 72bd b980 cdbd ff65 2d3b
00000380: 9d30 073d 62c7 4d3d 4ac6 903d c4d0 4a3b
00000390: 6967 913b 1139 d1bc 12de c83d 428d 02bd
000003a0: 5454 ef3d 4f86 e1bd ca40 b2bd d89a 803c
000003b0: 7805 9fbd 95a9 b8bd d99c 003e 2748 ad3d
000003c0: 9c97 c1bd 363a 86bc e790 b03d 90e7 143e
000003d0: a32b 0c3e 7230 f33d 1780 b3bc b0d9 f63d
000003e0: e685 29bd 638b 37bb 8e15 c53c 6dfa aebd
000003f0: 4553 75bd 5323 b63d 21b7 db3d 7237 31bd

encoder.lstm.bias_hh_l0 f4 [256]
0.037388477 -0.06114833 -0.11740234 0.004988686 0.017486421 0.09904751 -0.051974915 0.04556452
0.04897515 -0.061748415 -0.029462872 -0.10134335 -0.08969251 -0.0062843966 0.03486663 -0.10165856
0.013496279 -0.059425946 0.087707065 -0.09321733 -0.102224074 0.006066311 0.031723365 -0.04552575
0.11650311 0.049452066 0.12385506 0.077589124 -0.093742214 0.078114 0.049939934 -0.024180727
0.10108479 -0.006610579 0.12456283 0.121421 -0.09907808 0.061213586 0.019554757 0.13931736
0.12950438 -0.050866943 0.059636656 -0.036433507 0.05031857 -0.08525257 -0.030507468 0.105788425
-0.044320002 -0.005985445 0.079827555 0.10420943 0.08294354 0.026652789 0.11763346 -0.018408798
-0.009075537 -0.028945804 0.13007426 -0.07791976 -0.013531347 -0.09482517 -0.0030559844 -0.0032795293
0.0023150144 -0.1375046 -0.07071249 -0.06266378 -0.07032449 -0.11549052 0.08108421 0.04248722
-0.10981563 -0.06879877 -0.01318051 0.048354585 0.07742324 -0.0047950028 0.11101832 0.13037626
0.09512698 0.08494473 -0.03765481 0.032710955 -0.08142405 0.10235266 0.048586216 -0.06417015
0.1617338 0.19389774 0.029747767 -0.07918471 0.11308126 0.07046034 0.09464426 0.048121557
-0.021101296 -0.043980084 0.060694244 0.021278977 0.0120497905 -0.025639921 -0.042520545 -0.0035526096
0.05390554 -0.037149757 -0.0072696116 -0.017677136 -0.00076657056 0.009103966 -0.105783544 -0.02525814
-0.10194744 0.057466 -0.028694471 -0.028170273 0.044408556 0.039779622 -0.07969889 -0.032511704
-0.034604512 0.13332443 -0.044145662 0.007666318 0.04415728 -0.091983415 0.087376006 -0.09385731
0.14964816 -0.0029047849 0.041588865 0.037125237 -0.103074856 0.11335912 0.016779516 0.0044588153
-0.10404512 -0.026094599 -0.036659017 -0.017760966 -0.07516068 0.08132569 -0.10333167 0.06288305
0.11366993 0.026749171 0.051735952 -0.06146708 0.027809706 0.10231376 0.03407126 0.1138051
0.09588673 0.058343347 -0.10402378 -0.018793542 0.021171918 0.0186941 -0.094392195 0.006920746
-0.06107442 -0.100687005 0.004051205 -0.02137511 -0.08535826 0.0004957094 -0.084576696 0.055426687
-0.12441237 -0.08315699 -0.06216685 0.06683533 -0.09390844 0.072025076 0.12326316 0.11342005
-0.06357235 0.030780759 0.062055636 -0.044815052 0.06226315 0.08557501 -0.0319867 0.0183193
0.124401495 0.04619303 -0.087861 0.0025096957 0.021929407 0.11335006 0.07820202 0.105433404
0.039347872 0.09443491 -0.09146808 -0.10404213 -0.028731292 -0.057293333 -0.038016748 0.008974577
-0.0857023 0.059452023 -0.009766024 0.06064536 0.055163007 0.091871835 0.038500775 0.036690827
0.03160331 -0.0658151 0.053336833 -0.06892067 0.014397001 0.07100484 -0.08581562 0.014493848
0.08289987 0.05962417 0.12753043 -0.023901585 0.02570765 -0.08408091 -0.019425279 -0.0040816357
0.05154251 -0.0792983 0.092401534 0.08640209 -0.07306997 -0.028424155 0.13473494 0.11329169
-0.027400717 -0.0423904 -0.07564014 -0.011109908 0.020785118 -0.08646267 0.0058402605 0.049853213
0.04326065 0.047808323 -0.0036812974 -0.04009192 -0.029836206 0.051756885 -0.11521218 0.030402694
-0.00396068 0.060556892 -0.030911213 -0.1263907 -0.06552471 0.10254481 -0.07213286 0.048683997
00000000: a924 193d ac76 7abd a370 f0bd 2278 a33b
00000010: af3f 8f3c 6cd9 ca3d a6e3 54bd dda1 3a3d
00000020: 2b9a 483d e8eb 7cbd 1f5c f1bc 1a8d cfbd
00000030: b5b0 b7bd 57ed cdbb 50d0 0e3d 5d32 d0bd
00000040: 7f1f 5d3c 9f68 73bd c39f b33d bae8 bebd
00000050: db5a d1bd e8c7 c63b 5cf0 013d 3579 3abd
00000060: 2f99 ee3d 408e 4a3d b9a7 fd3d 0ce7 9e3d
00000070: ebfb bfbd 3cfa 9f3d d18d 4c3d a916 c6bc
00000080: 8b05 cf3d 8e9d d8bb cc1a ff3d 93ab f83d
00000090: 73e9 cabd 19bb 7a3d 4c31 a03c 36a9 0e3e
000000a0: cc9c 043e db59 50bd 9145 743d 4d3b 15bd
000000b0: d81a 4e3d e698 aebd ccea f9bc 9aa7 d83d
000000c0: e488 35bd 8d21 c4bb a17c a33d c16b d53d
000000d0: 4dde a93d f356 da3c d0e9 f03d 0cce 96bc
000000e0: 90b1 14bc c01f edbc 3032 053e 6594 9fbd
000000f0: 95b2 5dbc b333 c2bd e946 48bb 5fed 56bb
00000100: 7fb7 173b 02ce 0cbe b6d1 90bd de55 80bd
00000110: 4906 90bd 4b86 ecbd 7a0f a63d 1407 2e3d
00000120: 04e7 e0bd 5fe6 8cbd 11f3 57bc 750f 463d
00000130: 1390 9e3d 661f 9dbb 935d e33d 5b81 053e
00000140: efd1 c23d 81f7 ad3d ee3b 1abd ecfb 053d
00000150: a7c1 a6bd 459e d13d 5702 473d a46b 83bd
00000160: 8c9d 253e 218d 463e 97b1 f33c 982b a2bd
00000170: 2697 e73d 834d 903d dad4 c13d 1c1b 453d
00000180: a0dc acbc 7624 34bd 879a 783d 4051 ae3c
00000190: 7c6c 453c d00a d2bc 062a 2ebd e6d2 68bb
000001a0: 0ecc 5c3d 582a 18bd ec35 eebb a4cf 90bc
000001b0: aef3 48ba cd28 153c 0ba5 d8bd 29ea cebc
000001c0: d2c9 d0bd 7861 6b3d ab10 ebbc 58c5 e6bc
000001d0: bfe5 353d f5ef 223d 2c39 a3bd fe2a 05bd
000001e0: 76bd 0dbd 3386 083e 15d2 34bd bd35 fb3b
000001f0: 44de 343d cd61 bcbd 31f2 b23d 4338 c0bd
00000200: 5e3d 193e 345e 3ebb 1659 2a3d a210 183d
00000210: e918 d3bd d428 e83d 3275 893c 411b 923b
00000220: 9c15 d5bd 57c4 d5bc c427 16bd 727f 91bc
00000230: d8ed 99bd 158e a63d 8e9f d3bd d4c8 803d
00000240: c8cb e83d 1421 db3c 14e9 533d e8c4 7bbd
00000250: 2ed1 e33c e089 d13d 4e8e 0b3d a612 e93d
00000260: 4360 c43d 6ff9 6e3d 6b0a d5bd eaf4 99bc
00000270: bb70 ad3c 5f24 993c b250 c1bd 6dc7 e23b
00000280: 2c29 7abd fd34 cebd f8bf 843b db1a afbc
00000290: 50d0 aebd 7ff2 013a 8c36 adbd 1807 633d
000002a0: eacb febd 364e aabd aba2 7ebd f6e0 883d
000002b0: 1153 c0bd e281 933d 6571 fc3d c548 e83d
000002c0: 3832 82bd ee27 fc3c 0d2e 7e3d fd8f 37bd
000002d0: a507 7f3d f341 af3d 7c04 03bd 5b12 963c
000002e0: 36c6 fe3d e734 3d3d 78f0 b3bd b579 243b
000002f0: 4da5 b33c 1424 e83d 6128 a03d 78ed d73d
00000300: 3c2b 213d 1767 c13d 9e53 bbbd 0a14 d5bd
00000310: e35d ebbc 6aac 6abd 73b7 1bbd 1b0a 133c
00000320: b084 afbd f783 733d ac01 20bc 4567 783d
00000330: 9bf2 613d 4d27 bc3d fdb2 1d3d 1f49 163d
00000340: 7972 013d 11ca 86bd b977 5a3d 4826 8dbd
00000350: 66e1 6b3c fc6a 913d 1ac0 afbd 9b77 6d3c
00000360: 68c7 a93d 7938 743d 5697 023e 42cd c3bc
00000370: da98 d23c 9d32 acbd c321 9fbc 3ebf 85bb
00000380: 3d1e 533d 2667 a2bd 043d bd3d 94f3 b03d
00000390: b5a5 95bd c6d9 e8bc f5f7 093e 7905 e83d
000003a0: 7877 e0bc 8ea1 2dbd 38e9 9abd 5506 36bc
000003b0: 8d45 aa3c 5713 b1bd a85f bf3b e232 4c3d
000003c0: 1432 313d a9d2 433d ec41 71bb 6d37 24bd
000003d0: 0f6b f4bc 07ff 533d 5df4 ebbd 120f f93c
000003e0: 98c8 81bb 810a 783d 8339 fdbc 906c 01be
000003f0: d231 86bd 0303 d23d 65ba 93bd df68 473d

encoder.linear.weight f4 [32, 64]
0.10316634 0.047485553 0.110592075 -0.043581996 0.08547407 0.0137532465 -0.055625446 0.0068073687
-0.08628529 -0.079386905 -0.09960096 -0.10413548 0.12097561 -0.017168177 -0.14035106 -0.1436343
-0.09036474 0.07512873 -0.046999004 -0.010770304 -0.047109738 -0.1378804 0.05676879 -0.11740262
0.07510257 0.06635657 0.07080231 -0.038329102 0.0033262325 0.03398379 0.03019401 -0.1464504
-0.020635663 0.053591505 0.08824466 -0.061841637 0.07726014 -0.13103965 -0.025483603 -0.030249014
0.09233737 -0.022610642 -0.03687648 -0.054084457 -0.006693074 0.06173008 0.040066715 0.0015646762
0.06753517 0.06702281 0.0015786538 0.14478448 0.018163534 0.105157025 0.12651202 -0.01106347
0.084872745 -0.0050635496 -0.021885132 -0.102849975 -0.09231613 0.13939658 -0.015062329 -0.03588214
0.09139446 -0.06977001 0.13140239 -0.060069863 0.07351528 -0.07453441 0.11363582 -0.08721121
-0.13429822 -0.1108453 0.022876957 -0.10125613 -0.029805537 -0.042157706 -0.14154083 0.010512729
0.11426097 -0.03119929 -0.101716965 0.022041604 -0.073939234 0.09927528 -0.047645986 -0.028471977
0.09939532 0.0741504 -0.049665656 -0.0817177 0.047771193 0.08497943 -0.04516286 -0.11378207
0.056798466 -0.008911398 0.024832116 -0.029268764 -0.0054892087 -0.11376104 -0.15342094 -0.069479
0.005997542 -0.11621996 -0.068115205 -0.0759622 0.026338337 0.12008284 -0.06624314 0.095105395
-0.046296876 -0.034002643 -0.060218424 -0.10444612 -0.0665585 0.010007518 0.086820595 0.04217677
0.009051208 -0.11328167 0.06967851 0.09815998 -0.07530172 0.07782378 -0.081315175 -0.028640313
-0.05542631 0.041200496 -0.018542824 -0.13757157 0.14501935 0.02825375 0.1493441 -0.07695854
-0.06662629 0.08092253 0.016541986 -0.047244046 0.084922954 0.020010574 0.067341544 -0.008847271
0.088116795 0.13341779 -0.04702261 -0.1470815 -0.095981054 0.068898804 -0.07786351 0.024018591
0.10426238 -0.03302533 0.036081422 -0.06125595 -0.001709 0.028881442 -0.082283035 0.025531078
-0.089444436 -0.06670169 -0.059816588 0.15524839 0.106450565 0.035849273 -0.14386038 0.04177741
-0.09584351 0.10751739 0.035943113 0.040522054 0.08386608 0.0051576197 0.07488575 0.054522205
-0.13028832 0.08195718 -0.055408016 0.11119366 -0.038173907 -0.035067827 0.041094724 -0.0077227564
0.11428018 -0.13349454 0.076173134 -0.046417724 -0.09354321 0.015124904 -0.014130842 0.037640147
-0.12256556 -0.089141965 -0.1245027 0.106397614 -0.02323182 0.02809435 0.04213917 -0.05429751
0.03341169 0.07927013 -0.031166239 0.018911283 -0.0578985 0.09224736 0.15455672 -0.0021402189
-0.083430104 -0.05165464 0.01604483 -0.0668045 -0.08196845 0.13516618 -0.0125449365 0.112532355
0.021004291 0.06849216 -0.024297252 -0.1109067 -0.12965149 -0.08205334 0.14861423 -0.06300806
-0.0042277123 0.083408944 -0.055979546 0.04880093 -0.0686345 0.07654119 -0.023204325 -0.11820332
-0.005701433 0.08622011 0.046062507 0.117634326 0.09633802 -0.08796362 0.10355328 -0.06247651
-0.10188174 -0.10141273 -0.037368197 0.05476269 0.087345526 -0.04823993 0.071553335 -0.022642372
0.03516064 0.13582851 -0.036418125 0.06583835 0.119190864 0.071061164 -0.06712098 -0.092383035
00000000: e048 d33d 3680 423d 197e e23d 0983 32bd
00000010: 070d af3d 4c55 613c 82d7 63bd 5910 df3b
00000020: 58b6 b0bd 9a95 a2bd 97fb cbbd fc44 d5bd
00000030: 10c2 f73d 47a4 8cbc 30b8 0fbe df14 13be
00000040: 2611 b9bd 17dd 993d 0782 40bd ee75 30bc
00000050: 24f6 40bd 8530 0dbe 6486 683d c970 f0bd
00000060: 60cf 993d f4e5 873d cd00 913d fafe 1cbd
00000070: ecfc 593b 9632 0b3d 6e59 f73c 18f7 15be
00000080: 1f0c a9bc c482 5b3d 9eb9 b43d a84d 7dbd
00000090: 903a 9e3d 422f 06be fdc2 d0bc c8cc f7bc
000000a0: 601b bd3d f439 b9bc cb0b 17bd aa87 5dbd
000000b0: 9351 dbbb aed8 7c3d ff1c 243d d215 cd3a
000000c0: e14f 8a3d 4143 893d d5ea ce3a 6242 143e
000000d0: b1cb 943c 915c d73d 5e8c 013e 8e43 35bc
000000e0: c3d1 ad3d 22ec a5bb 7348 b3bc 02a3 d2bd
000000f0: 3d10 bdbd fabd 0e3e fdc7 76bc 27f9 12bd
00000100: 052d bb3d 94e3 8ebd 598e 063e d10b 76bd
00000110: 2e8f 963d 7fa5 98bd e6b9 e83d ca9b b2bd
00000120: 7985 09be dc02 e3bd 7568 bb3c 605f cfbd
00000130: be2a f4bc 8fad 2cbd 14f0 10be 953d 2c3c
00000140: a801 ea3d a795 ffbc fc50 d0bd 9890 b43c
00000150: 746d 97bd d750 cb3d 7028 43bd 103e e9bc
00000160: c68f cb3d 2adc 973d 376e 4bbd 9c5b a7bd
00000170: baab 433d b209 ae3d b1fc 38bd 9306 e9bd
00000180: 82a5 683d 1d01 12bc b96c cb3c 0cc5 efbc
00000190: d2de b3bb 8cfb e8bd 611a 1dbe 024b 8ebd
000001a0: 0787 c43b bb04 eebd fc7f 8bbd 1292 9bbd
000001b0: 7fc3 d73c feed f53d 7caa 87bd 9ec6 c23d
000001c0: cba1 3dbd 5b46 0bbd 98a7 76bd d9e7 d5bd
000001d0: d34f 88bd 93f6 233c ffce b13d 8cc1 2c3d
000001e0: 854b 143c 3800 e8bd 9bb3 8e3d 1908 c93d
000001f0: ca37 9abd 1362 9f3d 9288 a6bd 179f eabc
00000200: b306 63bd dac1 283d 1fe7 97bc 90df 0cbe
00000210: f47f 143e 6974 e73c a9ed 183e 709c 9dbd
00000220: 5d73 88bd b6ba a53d 0f83 873c f982 41bd
00000230: 16ec ad3d 37ed a33c 5dea 893d 25f4 10bc
00000240: 9476 b43d ac9e 083e c89a 40bd 889c 16be
00000250: b791 c4bd d11a 8d3d e776 9fbd a3c2 c43c
00000260: 8487 d53d 9245 07bd 1dca 133d 85e7 7abd
00000270: 8600 e0ba c698 ec3c 0284 a8bd 8d26 d13c
00000280: a52e b7bd e59a 88bd 3d02 75bd 6ff9 1e3e
00000290: c102 da3d b0d6 123d 2350 13be ca1e 2b3d
000002a0: 9a49 c4bd 1432 dc3d 1639 133d 74fa 253d
000002b0: fbc1 ab3d 4001 a93b b35d 993d ad52 5f3d
000002c0: 4d6a 05be 2ad9 a73d 84f3 62bd 80b9 e33d
000002d0: 3e5c 1cbd 48a3 0fbd f152 283d 2d0f fdbb
000002e0: ba0b ea3d cbb2 08be a900 9c3d 8320 3ebd
000002f0: 9593 bfbd 72ce 773c 0c85 67bc 8e2c 1a3d
00000300: a703 fbbd 1090 b6bd 46fb febd fee6 d93d
00000310: a850 bebc 1f26 e63c 1f9a 2c3d 1167 5ebd
00000320: b2da 083d 6158 a23d 5750 ffbc d6eb 9a3c
00000330: fa26 6dbd 2fec bc3d 1e44 1e3e ea42 0cbb
00000340: 67dd aabd d193 53bd 7370 833c ccd0 88bd
00000350: 13df a7bd 0169 0a3e 4789 4dbc 5d77 e63d
00000360: 3111 ac3c 9e45 8c3d 080b c7bc 0d23 e3bd
00000370: 5cc3 04be 950b a8bd 542e 183e 5f0a 81bd
00000380: 9f88 8abb 4fd2 aa3d cf4a 65bd 7ce3 473d
00000390: 3f90 8cbd a1c1 9c3d ff16 bebc 9514 f2bd
000003a0: 16d3 babb 2b94 b03d 0aac 3c3d 44ea f03d
000003b0: de4c c53d 4526 b4bd be13 d43d 5ee7 7fbd
000003c0: 60a7 d0bd 7ab1 cfbd 650f 19bd d84e 603d
000003d0: 36e2 b23d 3c97 45bd 8e8a 923d 7f7c b9bc
000003e0: 9a04 103d a116 0b3e 2c2b 15bd 42d6 863d
000003f0: 571a f43d 8488 913d b976 89bd 5133 bdbd

encoder.linear.bias f4 [32]
-0.11803784 0.0022791103 -0.068254285 -0.05412896 -0.1170103 0.07371974 -0.064492084 0.0044497075
-0.10258057 -0.118851796 -0.079380006 -0.05896159 0.054026324 -0.010122701 0.027592437 -0.032588392
0.09426866 0.102033205 0.039049193 -0.09267935 -0.11081271 -0.060721856 -0.007870991 0.08690328
-0.09303549 0.039104782 -0.096353516 0.06264021 -0.017572103 0.062254537 -0.013801132 -0.055548657
00000000: d3bd f1bd 205d 153b e7c8 8bbd 54b6 5dbd
00000010: 19a3 efbd 60fa 963d 6d14 84bd dace 913b
00000020: c315 d2bd 9268 f3bd fc91 a2bd b581 71bd
00000030: b54a 5d3d afd9 25bc 8909 e23c 687b 05bd
00000040: ed0f c13d c9f6 d03d 0cf2 1f3d acce bdbd
00000050: c6f1 e2bd 7bb7 78bd 54f5 00bc 59fa b13d
00000060: 6489 bebd 562c 203d fe54 c5bd 8349 803d
00000070: 5ff3 8fbc 9dfe 7e3d 251e 62bc fd86 63bd

decoder.linear.weight f4 [64, 32]
-0.07847772 0.13052799 0.13522363 -0.12377792 -0.0078053162 -0.12443264 -0.14647672 -0.13427235
-0.12124194 0.036393642 0.05239217 -0.089584514 -0.14023887 0.1657725 -0.018833518 0.15269777
-0.16198711 -0.16252287 0.017481895 -0.0954293 0.0013972493 0.08506708 -0.16726784 -0.1420755
0.1679011 -0.056999475 -0.13874477 -0.0018520494 0.15798733 -0.15691105 0.12364311 0.12879016
-0.051643338 0.014425352 -0.2002879 0.028283287 -0.14800233 0.20190571 -0.018120307 0.12036053
0.09950312 -0.08331341 -0.05245292 -0.13296625 0.0657069 -0.2076736 -0.13392793 -0.12568234
0.023915447 -0.100883536 -0.024269493 -0.07498545 0.015392894 0.11561637 -0.09908028 0.08036469
0.13348995 -0.037700377 -0.005718632 0.03725363 -0.034790937 -0.10367437 -0.14805663 0.073679924
-0.06821843 -0.024635222 -0.05180003 0.11863148 0.014615255 0.08863133 0.07229741 0.0147050945
0.002221108 0.18446139 0.17504811 0.061336324 -0.10111121 -0.002264276 0.011122494 0.060751453
-0.04174358 -0.06825986 -0.038109824 0.040270742 0.083268724 0.17391902 0.15465239 -0.15780374
0.18681979 0.09189243 0.1535779 -0.06967934 0.09431471 -0.06247983 -0.14577226 0.06405616
0.07646064 -0.014197658 0.029872872 0.19446394 0.069022164 0.09988866 -0.03660733 -0.13240352
0.18073374 0.1139348 -0.08853027 -0.0024273002 0.0021114151 0.0911665 0.056003217 0.09360811
-0.16805254 -0.06341507 0.005214684 0.046354372 0.15627447 -0.16144021 0.11972182 0.043586712
0.060323592 -0.01218162 -0.12088152 -0.05284983 0.027726436 -0.1259987 0.0021183179 -0.15315427
-0.069550745 -0.081261374 0.089776605 -0.14227793 0.13722262 -0.15947244 0.1236932 0.078081936
-0.019945199 0.10036347 -0.15205242 -0.034925874 -0.14933367 0.17735352 -0.05122505 0.012748049
-0.15042078 -0.12786645 -0.18686864 0.16113868 0.14569226 0.19579396 -0.16043521 -0.14384398
-0.0134756155 -0.06477217 0.18464729 0.0074503385 -0.17137487 -0.1690432 0.1995372 0.17663251
-0.13463125 -0.13242792 -0.05147427 -0.20715769 0.16993819 0.14832482 0.13332808 -0.07051672
-0.13393876 0.17502694 -0.021946292 0.12845804 -0.063315466 -0.056312513 0.052201405 -0.032967035
0.18751985 -0.14118578 -0.10433165 -0.072937116 -0.07784682 0.009097142 -0.13778782 0.029689116
-0.003338096 -0.12196687 0.12014094 -0.107448936 0.13437386 -0.107567534 -0.13949125 0.03292089
0.14496985 -0.010661072 0.05406868 -0.057935268 0.12113354 0.12589204 0.017967368 -0.13661829
-0.03595301 0.07557705 0.012417882 0.1548599 0.031975247 -0.12369358 0.040770844 0.076855324
0.038002066 -0.03858518 0.019129798 -0.063842 0.0016477403 0.057309236 0.1603889 0.17549649
-0.061577693 -0.040377125 -0.027954768 0.02174877 0.078756966 -0.011104399 -0.18501791 -0.024186082
0.05716671 0.08423514 -0.0608723 0.16738257 -0.02581333 -0.049758613 -0.13365765 -0.1268662
0.15448013 -0.098793976 0.022916917 -0.07600128 -0.037020434 0.035936687 -0.0662087 -0.0135225365
-0.14693318 -0.13157153 0.04369614 -0.084741995 -0.16527751 0.11218368 -0.013068384 0.010904021
-0.10701674 -0.11655431 0.11585473 -0.011859831 0.115616545 -0.02112439 -0.19143344 0.05414732
00000000: edb8 a0bd 21a9 053e 1078 0a3e 477f fdbd
00000010: bdc3 ffbb 8ad6 febd fefd 15be b17e 09be
00000020: b24d f8bd 8011 153d 2c99 563d 1678 b7bd
00000030: c79a 0fbe 44c0 293e c048 9abc ce5c 1c3e
00000040: f3df 25be 656c 26be 3136 8f3c 7070 c3bd
00000050: e823 b73a a637 ae3d 4348 2bbe 3d7c 11be
00000060: 44ee 2b3e 4878 69bd 1c13 0ebe 77c0 f2ba
00000070: 6ec7 213e 4aad 20be 9938 fd3d 91e1 033e
00000080: f787 53bd 5058 6c3c 4518 4dbe 5ab2 e73c
00000090: ec8d 17be 5fc0 4e3e 0a71 94bc 957f f63d
000000a0: 4bc8 cb3d 39a0 aabd dfd8 56bd 4e28 08be
000000b0: 5791 863d 63a8 54be 6724 09be dfb2 00be
000000c0: 54ea c33c 079c cebd d1d0 c6bc f991 99bd
000000d0: 7a32 7c3c 47c8 ec3d 9aea cabd 3e96 a43d
000000e0: 97b1 083e b66b 1abd 5d63 bbbb 4397 183d
000000f0: f180 0ebd 3a53 d4bd 289c 17be 80e5 963d
00000100: 1bb6 8bbd cecf c9bc 452c 54bd 10f5 f23d
00000110: d374 6f3c 5884 b53d aa10 943d a3ed 703c
00000120: 0290 113b 72e3 3c3e d03f 333e cc3b 7b3d
00000130: 6513 cfbd 3f64 14bb 1f3b 363c 84d6 783d
00000140: 51fb 2abd d3cb 8bbd 0c19 1cbd eff2 243d
00000150: cb88 aa3d d417 323e 325d 1e3e 4e97 21be
00000160: b04d 3f3e 1932 bc3d 8643 1d3e 0bb4 8ebd
00000170: 1228 c13d daea 7fbd 5345 15be e02f 833d
00000180: 6597 9c3d 4b9d 68bc f4b7 f43c 8e21 473e
00000190: 7e5b 8d3d 6d92 cc3d 91f1 15bd ca94 07be
000001a0: 4412 393e a656 e93d 5c4f b5bd 5713 1fbb
000001b0: ab5f 0a3b 80b5 ba3d a163 653d 9cb5 bf3d
000001c0: f715 2cbe c3df 81bd f1df aa3b 15de 3d3d
000001d0: 6a06 203e 9550 25be b730 f53d fb87 323d
000001e0: df15 773d 6b95 47bc bb90 f7bd 1079 58bd
000001f0: 8d22 e33c ce05 01be 7ad3 0a3b 79d4 1cbe
00000200: 9f70 8ebd 5d6c a6bd ccdc b73d 4eb1 11be
00000210: 1684 0c3e be4c 23be dc52 fd3d 6ce9 9f3d
00000220: 1d64 a3bc 5d8b cd3d a1b3 1bbe 6f0e 0fbd
00000230: edea 18be 299c 353e 5cd1 51bd 31dd 503c
00000240: e807 1abe 6cef 02be 7e5a 3fbe 8a01 253e
00000250: 5a30 153e 367e 483e 2149 24be d64b 13be
00000260: d4c8 5cbc 45a7 84bd 2e14 3d3e f821 f43b
00000270: e57c 2fbe a919 2dbe 7b53 4c3e 27df 343e
00000280: c6dc 09be 2f9b 07be afd6 52bd 2521 54be
00000290: 4704 2e3e 76e2 173e 2887 083e 126b 90bd
000002a0: 3e27 09be 433a 333e b6c8 b3bc 818a 033e
000002b0: 8aab 81bd f3a7 66bd 24d1 553d 7108 07bd
000002c0: 3405 403e 0193 10be d5ab d5bd 0e60 95bd
000002d0: 276e 9fbd 2e0c 153c 4018 0dbe 9736 f33c
000002e0: f5c3 5abb c4c9 f9bd 740c f63d 300e dcbd
000002f0: 4d99 093e 5e4c dcbd cbd6 0ebe 0ed8 063d
00000300: fa72 143e c7ab 2ebc 1f77 5d3d 884d 6dbd
00000310: dd14 f83d d8e9 003e 4d30 933c aae5 0bbe
00000320: 7743 13bd 24c8 9a3d 5f74 4b3c 9893 1e3e
00000330: 7af8 023d 0f53 fdbd 54ff 263d 5366 9d3d
00000340: 0ea8 1b3d 7e0b 1ebd 18b6 9c3c 98bf 82bd
00000350: fdf8 d73a 17bd 6a3d fd3c 243e 5ab5 333e
00000360: e438 7cbd 7c62 25bd 6601 e5bc 7a2a b23c
00000370: 554b a13d 3aef 35bc 5675 3dbe e421 c6bc
00000380: a427 6a3d 7983 ac3d 3c55 79bd 5666 2b3e
00000390: 7a76 d3bc b0cf 4bbd 8ddd 08be 37e9 01be
000003a0: 0a30 1e3e 7f54 cabd 42bc bb3c 8fa6 9bbd
000003b0: bda2 17bd 5932 133d 6d98 87bd a18d 5dbc
000003c0: a775 16be b0ba 06be b9fa 323d 368d adbd
000003d0: 823e 29be 8fc0 e53d c61c 56bc c7a6 323c
000003e0: 982b dbbd 07b4 eebd 3f45 ed3d bd4f 42bc
000003f0: 5ec8 ec3d 0f0d adbc 2107 44be 95c9 5d3d

decoder.linear.bias f4 [64]
-0.039303172 0.17084247 -0.048071913 0.09837803 -0.15639383 0.16205753 0.08089483 0.118937805
0.025852894 0.03237382 -0.049562044 0.061183516 -0.092212014 -0.044363715 -0.08138849 -0.10814866
-0.11480691 -0.081134655 -0.06727447 -0.028346045 -0.036496356 0.17407322 -0.15239199 0.06960165
-0.08375076 0.18828504 -0.16384998 0.0970503 0.18881562 -0.15230735 0.063400984 0.11931679
-0.07984821 0.17660967 -0.12736836 0.087656826 0.051447175 -0.004042677 -0.0472511 -0.015311359
-0.019404784 0.16848576 0.08806449 -0.1296293 0.13805708 0.074335575 0.032370552 -0.14749014
-0.05526314 0.18681805 0.11336226 0.027135227 -0.026561549 -0.14692284 0.053924825 -0.08542283
-0.011943511 0.12885626 0.18826774 0.019579174 0.026997171 -0.15576327 0.0834275 -0.061514057
00000000: 5dfc 20bd 54f1 2e3e 0ee7 44bd 6c7a c93d
00000010: b425 20be 69f2 253e 30ac a53d aa95 f33d
00000020: 73c9 d33c 699a 043d 9201 4bbd 919b 7a3d
00000030: a7d9 bcbd bab6 35bd 02af a6bd 0b7d ddbd
00000040: e31f ebbd ed29 a6bd 33c7 89bd f735 e8bc
00000050: 347d 15bd 4040 323e a50c 1cbe 4f8b 8e3d
00000060: 8585 abbd cbcd 403e 4ac8 27be 4fc2 c63d
00000070: e258 413e 75f6 1bbe 60d8 813d 5c5c f43d
00000080: 7587 a3bd 2ad9 343e da6c 02be 6c85 b33d
00000090: 46ba 523d 6f78 84bb 5f8a 41bd 7fdc 7abc
000000a0: c8f6 9ebc 8887 2c3e 285b b43d 8bbd 04be
000000b0: d65e 0d3e 403d 983d fc96 043d a807 17be
000000c0: 9a5b 62bd 3b4d 3f3e 792a e83d b24a de3c
000000d0: 9b97 d9bc f172 16be 47e0 5c3d 2af2 aebd
000000e0: b7ae 43bc e5f2 033e 42c9 403e 8164 a03c
000000f0: 2c29 dd3c 6880 1fbe 0adc aa3d 2af6 7bbd

decoder.lstm.weight_ih_l0 f4 [256, 64]
-0.05255576 0.0029870912 -0.0047274483 0.04614863 -0.039020505 0.05478857 0.054175958 0.08103651
0.04749275 0.105215415 -0.020528255 -0.11245009 -0.051905975 -0.00988111 0.11300891 -0.03739552
0.054078665 -0.12247598 0.110008836 0.09628375 -0.0021800622 0.08696749 0.047678534 -0.113574505
-0.09801318 0.081463434 -0.12692466 -0.009363958 0.11574105 -0.0996144 0.006112707 0.117829435
-0.01753576 -0.10112249 -0.08723669 0.03451944 -0.06814315 0.037639827 0.0834884 -0.13721801
0.121563785 0.0035647126 -0.09923816 0.003996455 0.031966902 0.020447884 0.06761319 0.030126663
-0.053699277 0.04754601 0.07175711 0.018990528 0.03996596 -0.025495756 0.096526444 0.09797911
0.05238079 -0.042107183 -0.043255877 -0.058558926 0.06469783 0.10546047 0.020564713 0.008482447
0.009796649 -0.10659467 0.06737878 0.028041529 0.012184218 -0.037868924 0.12661862 -0.09367464
0.08187396 -0.12418256 0.027239954 -0.036488123 -0.06389882 -0.10441367 0.052867763 0.06524386
-0.05898655 -0.12853709 0.035739757 0.05022296 0.07405419 0.08297429 0.106730275 0.082910635
-0.04563794 0.060111478 0.074433364 -0.082150966 0.059941173 0.10078775 -0.010595547 0.069164105
-0.08182221 0.14152452 -0.03667869 0.108685635 0.04497445 0.06663992 0.051975265 -0.13723312
-0.05438407 -0.02309576 0.06601496 -0.067040265 -0.007467316 0.00169521 -0.059817076 0.10575983
-0.023905596 0.006674827 0.13602528 0.05911264 -0.014033146 -0.064574726 -0.112878315 0.10297825
0.06977808 -0.015714422 0.103401 -0.061399285 0.09164703 0.074560285 -0.049316607 0.097472295
-0.12885447 0.11878073 -0.06996099 0.0669283 0.029346801 -0.052648854 -0.066667765 0.02259641
0.058312353 0.08739987 -0.021202318 0.050317965 0.05853562 -0.031795003 -0.09649114 -0.03127622
-0.014199336 0.02833405 -0.118238464 0.076311775 -0.0014774149 0.10978954 -0.03206986 -0.090876296
0.105458654 0.028216178 -0.05268707 -0.07837895 0.032207992 0.065012865 0.028567994 -0.015689988
-0.10453377 0.036974035 -0.020736847 0.005920756 0.008043093 -0.008049074 -0.112621605 -0.14179258
-0.058566693 0.007921122 0.10652004 0.092086844 -0.0918432 0.099653654 0.0031967238 -0.037863553
-0.1155711 0.12205634 -0.089218676 -0.103761934 -0.031976175 -0.1031095 0.071918935 0.118375376
-0.038633704 0.12203269 0.042111676 0.064659946 0.11125852 -0.034663923 -0.042704288 0.020178014
0.050618764 0.08834398 0.0433877 0.094792835 -0.14074484 -0.054949846 0.011598067 0.08978053
-0.06287451 0.058097027 0.05856496 0.020459348 0.088002264 0.017296208 0.020554163 -0.08848421
0.03207743 -0.092216134 0.029631384 0.09944715 0.045995053 -0.08636758 0.07822891 -0.08727604
-0.023973005 -0.004673288 0.022247048 -0.04203146 0.09372399 0.026362313 -0.008775064 -0.035007678
-0.09013269 -0.022059737 0.120957196 -0.02584195 0.09934086 -0.13274847 -0.017263087 -0.000256316
0.021397576 -0.0056910156 0.06090711 -0.015891152 -0.027152518 0.11826626 0.12237426 0.08039357
-0.13010398 -0.0526448 -0.030172596 0.033712048 -0.024910435 0.011209718 -0.012249021 -0.056699917
-0.06491542 -0.05175107 -0.02193597 0.109275244 -0.056208014 -0.06177921 -0.08535647 0.08373088
00000000: b544 57bd 13c3 433b b6e8 9abb 5906 3d3d
00000010: f7d3 1fbd fb69 603d 9ce7 5d3d 78f6 a53d
00000020: c287 423d 2e7b d73d df2a a8bc 3c4c e6bd
00000030: 5c9b 54bd 61e4 21bc 3771 e73d 0b2c 19bd
00000040: 9781 5d3d b0d4 fabd 504c e13d 6a30 c53d
00000050: 60df 0ebb 031c b23d 914a 433d c099 e8bd
00000060: 22bb c8bd 4dd6 a63d 8af8 01be 496b 19bc
00000070: a509 ed3d a202 ccbd 1a4d c83b 8f50 f13d
00000080: 27a7 8fbc 4f19 cfbd 26a9 b2bd 4264 0d3d
00000090: a38e 8bbd 382c 1a3d f7fb aa3d e182 0cbe
000000a0: 6ff6 f83d f49d 693b 603d cbbd b2f4 823b
000000b0: baef 023d 5282 a73c c978 8a3d 31cc f63c
000000c0: c6f3 5bbd 9bbf 423d 64f5 923d 0692 9b3c
000000d0: 59b3 233d 7adc d0bc a8af c53d 46a9 c83d
000000e0: 3d8d 563d 9578 2cbd 132d 31bd 7cdb 6fbd
000000f0: 4c80 843d a9fb d73d 5477 a83c f6f9 0a3c
00000100: 2082 203c 4e4e dabd e3fd 893d 59b7 e53c
00000110: 50a0 473c 721c 1bbd 50a8 013e 7dd8 bfbd
00000120: 89ad a73d 6d53 febd 5326 df3c 9274 15bd
00000130: 62dd 82bd d6d6 d5bd de8b 583d 939e 853d
00000140: e19b 71bd 3a9f 03be da63 123d 97b6 4d3d
00000150: b9a9 973d 6dee a93d 6795 da3d 0dcd a93d
00000160: d9ee 3abd 7437 763d 8570 983d c43e a8bd
00000170: e084 753d cf69 ce3d f298 2dbc e9a5 8d3d
00000180: 6792 a7bd ceeb 103e 653c 16bd 9396 de3d
00000190: 2137 383d 837a 883d 04e4 543d d786 0cbe
000001a0: d5c1 5ebd 5233 bdbc da32 873d 684c 89bd
000001b0: 63b0 f4bb cf31 de3a c002 75bd 9c98 d83d
000001c0: abd5 c3bc 82b8 da3b 364a 0b3e 1820 723d
000001d0: 48eb 65bc c13f 84bd bf2c e7bd 43e6 d23d
000001e0: cfe7 8e3d 88bb 80bc e7c3 d33d d17d 7bbd
000001f0: 70b1 bb3d 10b3 983d 3600 4abd 8e9f c73d
00000200: 6df2 03be 5043 f33d b547 8fbd b411 893d
00000210: b468 f03c 53a6 57bd 1c89 88bd 1b1c b93c
00000220: efd8 6e3d b4fe b23d 7cb0 adbc 361a 4e3d
00000230: 0cc3 6f3d 7a3b 02bd 269d c5bd 7e1b 00bd
00000240: 55a4 68bc cf1c e83c 0227 f2bd 5949 9c3d
00000250: d1a5 c1ba 57d9 e03d af5b 03bd 5a1d babd
00000260: b5fa d73d 9d25 e73c 66ce 57bd 2585 a0bd
00000270: 87ec 033d 7725 853d 6d07 ea3c 4a88 80bc
00000280: cd15 d6bd 1672 173d 52e0 a9bc e702 c23b
00000290: 2dc7 033c 43e0 03bc 28a6 e6bd 1332 11be
000002a0: a1e3 6fbd 98c7 013c 2e27 da3d 0798 bc3d
000002b0: 4a18 bcbd 3717 cc3d 2080 513b d016 1bbd
000002c0: 8ab0 ecbd adf8 f93d 48b8 b6bd 2381 d4bd
000002d0: 73f9 02bd 132b d3bd 3c4a 933d ca6e f23d
000002e0: 603e 1ebd 46ec f93d 4b7d 2c3d 6f6c 843d
000002f0: 82db e33d c2fb 0dbd b1ea 2ebd 5d4c a53c
00000300: 9f55 4f3d b0ed b43d 4db7 313d bf22 c23d
00000310: 6a1f 10be 1713 61bd d205 3e3c dbde b73d
00000320: 5ac4 80bd 26f7 6d3d d0e1 6f3d 5d9a a73c
00000330: 883a b43d c7b0 8d3c 3461 a83c 3637 b5bd
00000340: a063 033d d0db bcbd 84bd f23c f3aa cb3d
00000350: 4f65 3c3d 7ce1 b0bd 7b36 a03d c8bd b2bd
00000360: 0963 c4bc 6222 99bb 713f b63c 2e29 2cbd
00000370: 5df2 bf3d c7f5 d73c 49c5 0fbc 3664 0fbd
00000380: 7d97 b8bd 9fb6 b4bc 68b8 f73d 7fb2 d3bc
00000390: 3973 cb3d 37ef 07be 516b 8dbc 2762 86b9
000003a0: f849 af3c b37b babb bc79 793d 292e 82bc
000003b0: f56e debc 9535 f23d 5b9f fa3d 62a5 a43d
000003c0: fa39 05be 13a2 57bd 852c f7bc a515 0a3d
000003d0: f810 ccbc f7a8 373c 1eb0 48bc 2c3e 68bd
000003e0: 60f2 84bd eef8 53bd 10b3 b3bc b3cb df3d
000003f0: 603a 66bd 320c 7dbd 5fcf aebd 187b ab3d
