models/lstm/googl_lstm_autoencoder.pth (torch, 229178 bytes, 14 tensors)

encoder.lstm.weight_ih_l0 f4 [256, 5]
0	0x3d5dcb10	0.054148734
1	0x3e011ad9	0.12607898
2	0x3e0f78c9	0.1401092
3	0xbd9c740d	-0.076393224
4	0x3caa9b5d	0.020826036
5	0xbd981e5d	-0.07427666
6	0x3e1c70bd	0.15277381
7	0x3cf1e8eb	0.02953001
8	0x3d1a9bef	0.037746366
9	0x3c9a912b	0.01886805
10	0xbd2673e5	-0.04063787
11	0xbd8e65b6	-0.069529936
12	0x3d0a8e03	0.03382684
13	0xbd337b31	-0.043818656
14	0x3d1677c3	0.036735307
15	0xbd34b2f2	-0.044115968
16	0xbdc7ea94	-0.09761539
17	0xbd826ea8	-0.06368762
18	0x3e1929de	0.14957377
19	0xbd24a2ed	-0.04019444
20	0xbdac97ad	-0.08427367
21	0x3d46fd37	0.04858133
22	0x3d9d08b7	0.07667678
23	0x3ca3f9c9	0.020016568
24	0x3c782c93	0.015147346
25	0xbe0e30d2	-0.13885811
26	0xbd426a6e	-0.04746478
27	0xbd9e6bb0	-0.077353835
28	0x3d33053c	0.043706164
29	0x3e35cbd0	0.1775353
30	0x3e07bc5c	0.13255447
31	0x3c68af52	0.014201956
32	0x3dd77b93	0.10521617
33	0x3dbd1be2	0.09233834
34	0xbda4b8de	-0.08043073
35	0x3d02cd1d	0.031933893
36	0x3d86ef69	0.065886326
37	0xbdced910	-0.10099995
38	0x3b4f5180	0.003163427
39	0x3d0be04a	0.034149446
40	0x3d480b30	0.048838794
41	0xbd38f5ad	-0.04515617
42	0x3d8dbfb0	0.06921327
43	0x3d8cbc04	0.06871799
44	0x3d1f5343	0.038897764
45	0x3ca3f782	0.020015482
46	0x3dc8955e	0.097941145
47	0x3da78719	0.08180065
48	0xbdb990d3	-0.09060826
49	0x3cb99bb9	0.022657262
50	0x3dd2039b	0.10254594
51	0xbcf692a0	-0.030099213
52	0x3c4f840c	0.01266576
53	0x3dcd6cb8	0.10030502
54	0xbd885638	-0.0665707
55	0xbce32a8f	-0.027730254
56	0xbd3750c4	-0.04475476
57	0x3d7e041a	0.06201563
58	0xbce3d351	-0.027810724
59	0x3d52575f	0.051352855
60	0x3e11d505	0.14241417
61	0xbd8c3609	-0.06846244
62	0x3d5ad1e8	0.05342284
63	0xbd8a66f7	-0.0675792
64	0xbd963c28	-0.07335693
65	0x3dab3866	0.083603665
66	0xbc5aa748	-0.013345547
67	0x3d7d55b8	0.061849326
68	0x3d9ee550	0.07758582
69	0xbbdf7bf0	-0.0068201944
70	0x3db2b2f5	0.087255396
71	0xbdd5c983	-0.10438826
72	0x3d0b94a4	0.0340773
73	0x3d44a6da	0.048010685
74	0xbaaf3e7e	-0.0013370065
75	0xbd143042	-0.036178835
76	0x3d810479	0.06299681
77	0xbc65dad4	-0.0140292235
78	0xbd5cc0a4	-0.053894654
79	0xbcc1f00d	-0.023674035
80	0xbd39cdd1	-0.045362297
81	0x3d567669	0.05235902
82	0x3e1a95a3	0.15096144
83	0xbdb6af82	-0.08920194
84	0xbd9b718b	-0.07590016
85	0xbd5a0ce5	-0.053234953
86	0xbd822a77	-0.06355756
87	0xbd439faf	-0.047759708
88	0x3d9ad051	0.075592645
89	0x3d7a8365	0.061160464
90	0xbcb24a78	-0.021764025
91	0x3dba530d	0.09097872
92	0x3cad9467	0.021188928
93	0x3cda063e	0.026614305
94	0x3dacb719	0.084333606
95	0xbdd7ca53	-0.10536637
96	0xbdb45a60	-0.088063
97	0xbd4dacb8	-0.050213546
98	0xbd365ea3	-0.044523846
99	0x3dc84dbf	0.09780454
100	0xbdbcd153	-0.09219613
101	0x3e04eb2e	0.12980339
102	0xbd793fc3	-0.060851824
103	0xbd89b064	-0.06723097
104	0x3de404dd	0.1113374
105	0x3bb3cfd3	0.005487421
106	0x3d9bb7d7	0.07603424
107	0x3ce77304	0.028253086
108	0x3def4224	0.11682537
109	0x3d863492	0.06552996
110	0xbd9334bd	-0.071877934
111	0xbe0390ab	-0.12848155
112	0xbddae5b8	-0.106883466
113	0x3c160586	0.00915659
114	0xbafa44af	-0.0019093956
115	0xbdfa4ea9	-0.122220345
116	0xbcba704d	-0.022758627
117	0x3dd71e01	0.1050377
118	0x3dab3fd4	0.083617836
119	0x3e34a8dc	0.1764254
120	0x3d85fd18	0.065424144
121	0xbd726d15	-0.05918606
122	0x3dbcb879	0.09214873
123	0x3de46439	0.111519285
124	0x3d8f7a44	0.07005742
125	0xbd19f964	-0.037591353
126	0x3d211ead	0.039335895
127	0xbb991e3d	-0.004672794
128	0x3df65a53	0.12028947
129	0x3dbcb01f	0.0921328
130	0xbd8597a9	-0.065230675
131	0x3ca3e6e4	0.020007558
132	0xbd033004	-0.032028213
133	0x3dc36b77	0.09541982
134	0x3e7319b2	0.2374027
135	0x3d10c7a1	0.03534663
136	0xbdecfdd0	-0.115718484
137	0xbc411943	-0.011785808
138	0xbd5b99af	-0.05361336
139	0x3e1c449f	0.15260552
140	0xbcc7e8d7	-0.024403019
141	0xbd98d229	-0.0746196
142	0x3db3789c	0.08763239
143	0x3cdbdc42	0.026838426
144	0xbd3a17a5	-0.045432705
145	0x3caf96e9	0.021434264
146	0x3d5cdb73	0.05392022
147	0x3d0c5410	0.034259856
148	0x3cb55161	0.022133531
149	0x3ceb96d5	0.028758446
150	0x3dfe5088	0.12417704
151	0x3cb698be	0.02228963
152	0xbd13df0c	-0.036101386
153	0x3da9ebb0	0.08296907
154	0x3e141cb8	0.1446408
155	0x3dd10b85	0.10207275
156	0x3cadc58e	0.021212365
157	0xbd7bea8a	-0.06150297
158	0x3d1b6cc0	0.03794551
159	0xbd32bf4d	-0.04363947
160	0x3d403af9	0.04693124
161	0x3db1ef16	0.0868818
162	0xbd6b2617	-0.057409372
163	0x3c49e574	0.012322772
164	0xbcf0380b	-0.029323598
165	0xbdd4a9f6	-0.1038398
166	0x3c307254	0.010769445
167	0xbda767ed	-0.08174119
168	0x3dbdfcca	0.09276731
169	0xbe1a7424	-0.15083367
170	0x3c04cacf	0.008104994
171	0x3d258af6	0.040415727
172	0xbcae25e5	-0.021258304
173	0xbc37024f	-0.011169984
174	0xbe16d76e	-0.14730617
175	0xbdb85535	-0.09000627
176	0x3c45555a	0.012044275
177	0x3c14959b	0.009068872
178	0x3ddedab6	0.108815596
179	0x3c9d1b9a	0.0191782
180	0xbd485265	-0.048906703
181	0x3d85debe	0.06536625
182	0xbd9ff034	-0.07809487
183	0xbca1e8a4	-0.019764252
184	0x3d829058	0.06375188
185	0xbddf353f	-0.10898828
186	0x3d90a036	0.07061808
187	0x3d65ed8c	0.056134745
188	0xbc8642ed	-0.016389335
189	0x3d539179	0.051652405
190	0xbdcfd65e	-0.10148309
191	0x3e0fd8cb	0.14047544
192	0x3df19e88	0.117978156
193	0x3e01c4f8	0.12672794
194	0x3d8e8872	0.06959619
195	0xbd6ae151	-0.057343785
196	0x3b9e0a70	0.0048230216
197	0x3e01d6dd	0.1267962
198	0xbdcd9705	-0.1003857
199	0xbd300b20	-0.04297936
200	0xbdcea375	-0.10089771
201	0xbd2671f0	-0.040636003
202	0xbd63cf1b	-0.055617433
203	0xbd9a56db	-0.075360976
204	0xbd4da08e	-0.050201945
205	0xbdabfca5	-0.083977975
206	0xbca96e59	-0.0206825
207	0x3c2a82d6	0.01040717
208	0xba84bc3f	-0.0010126902
209	0x3d9e1d0e	0.077203855
210	0xbcc0cc47	-0.023534907
211	0xbdfa2495	-0.12214009
212	0xbd438c32	-0.047741123
213	0x3d8d0480	0.06885624
214	0x3b54bbd0	0.0032460578
215	0x3df6495b	0.1202571
216	0xbd182047	-0.037140157
217	0x3d7dca86	0.06196072
218	0x3c5d572a	0.013509551
219	0x3cde9e7c	0.02717518
220	0x3d32a0c8	0.043610364
221	0xbd16d599	-0.036824796
222	0x3db9351c	0.09043333
223	0x3da024cb	0.07819518
224	0x3d3ac84a	0.045601167
225	0xbe25532e	-0.16145012
226	0xbd2f59ed	-0.04281037
227	0xbd6f1af5	-0.058375318
228	0xbe234888	-0.15945637
229	0x3e393b26	0.1808897
230	0x3ddfd3a1	0.10929037
231	0xbbc3b84b	-0.005972897
232	0x3d511e58	0.05105433
233	0x3de48ff1	0.11160267
234	0x3e2fa330	0.17152095
235	0x3bfaface	0.007659293
236	0x3e03e2ff	0.12879561
237	0x3d8baa1a	0.06819554
238	0x3e0925fd	0.13393398
239	0x3e52c039	0.2058114
240	0xbd9d26f8	-0.07673448
241	0xbd35c10c	-0.044373557
242	0x3e19455b	0.14967863
243	0xbc352b01	-0.011057616
244	0xbd264af2	-0.040598817
245	0xbdfec93b	-0.124407254
246	0x3d53afa3	0.051681172
247	0xbbf12d68	-0.007360149
248	0xbe117cfc	-0.14207834
249	0xbd567c08	-0.05236438
250	0xbd81f874	-0.06346217
251	0x3d62a546	0.0553334
252	0xbcd5fda7	-0.026121927
253	0xbd8fcace	-0.07021104
254	0x3d480855	0.04883607
255	0xbd27890c	-0.040902182

encoder.lstm.weight_hh_l0 f4 [256, 64]
0	0xbdcf634e	-0.10126363
1	0xbd5ffdf1	-0.054685537
2	0xbcb793ab	-0.02240928
3	0x3d25199a	0.04030762
4	0xbc27feed	-0.01025365
5	0xbbc83d4d	-0.0061108232
6	0xbdb52ed7	-0.088468246
7	0x3d9d43df	0.07678961
8	0x3dbab631	0.091167815
9	0xbdb7a7a7	-0.08967524
10	0x3dc1da66	0.09465484
11	0x3dc8e979	0.098101564
12	0x3d84256d	0.06452451
13	0x3d072ae0	0.032999873
14	0xbd9bf5e7	-0.076152615
15	0xbd7efdfb	-0.062253933
16	0x3cc4b36e	0.02401134
17	0xbcb17642	-0.021662835
18	0x3d8a9091	0.06765855
19	0xbc237202	-0.009975912
20	0x3d8164e7	0.06318074
21	0x3a34aef8	0.00068925275
22	0xbc99a438	-0.018755063
23	0xbdbe41f7	-0.092899255
24	0xbd0271ee	-0.031846933
25	0x3db7fa06	0.08983235
26	0xbd0f1eca	-0.034941472
27	0xbd924252	-0.07141556
28	0x3cbd1a8b	0.023083946
29	0x3d05818d	0.032594252
30	0x3e0ba389	0.13636602
31	0x3bb25f45	0.005443486
32	0xbdaa9e7b	-0.08331009
33	0x3ce81579	0.028330551
34	0xbcbece29	-0.023291664
35	0xbd34ce92	-0.044142313
36	0x3c871b9b	0.016492656
37	0x3d7a0235	0.06103726
38	0x3dcbb015	0.09945694
39	0x3be6e5f9	0.007046458
40	0x3b90435d	0.0044025616
41	0xbd8c9152	-0.06863655
42	0x3d1b7cf0	0.037960947
43	0xbdc77595	-0.09739224
44	0x3e11cef2	0.142391
45	0x3d82f7e8	0.063949406
46	0x3ca1c84f	0.019748835
47	0x3de94f7b	0.11392113
48	0x3d1a77f3	0.03771205
49	0xbc383f87	-0.011245615
50	0x3d5cf415	0.053943712
51	0xbdaea6a0	-0.08527875
52	0x3d828d02	0.06374551
53	0x3d6c6342	0.057711847
54	0x3ba9b981	0.0051795845
55	0xbcb74d2d	-0.022375667
56	0x3d9c12ea	0.07620795
57	0x3db8cc39	0.090233274
58	0x3dd14049	0.102173395
59	0x3c27e0d9	0.010246479
60	0xbd131a82	-0.03591395
61	0xbd67b7ff	-0.056571957
62	0x3e017f14	0.12646133
63	0xbde40b90	-0.11135018
64	0x3d990ad5	0.07472769
65	0xbdc6fb9e	-0.09715961
66	0xbd164583	-0.036687385
67	0xbde0d2c5	-0.10977701
68	0x3c3d17d5	0.0115413265
69	0xbd02acdd	-0.031903137
70	0x3d8f72ba	0.07004304
71	0xbdc2c544	-0.09510282
72	0x3e03da39	0.12876214
73	0xbd8a52e0	-0.067540884
74	0xbc5a2978	-0.013315551
75	0xbd71caca	-0.059031285
76	0x3d66d000	0.056350708
77	0x3da50f72	0.080595866
78	0xbc832dd2	-0.01601306
79	0x3d9268a6	0.07148866
80	0xbdd42b28	-0.10359794
81	0x3d88bdc4	0.0667682
82	0x3caebc8e	0.021330144
83	0x3c90d0d9	0.017677711
84	0x3d73f964	0.05956401
85	0xbdb40437	-0.087898664
86	0xbdb33274	-0.087498575
87	0x3e12a62a	0.14321199
88	0x3bc01515	0.005861888
89	0xbc124642	-0.008927884
90	0x3d03d98d	0.032189894
91	0x3d80c828	0.06288177
92	0x3d37efad	0.044906307
93	0xb70b50f6	-8.303896e-06
94	0xbd934f91	-0.071929105
95	0xbe1c36cb	-0.15255277
96	0xbd87ab01	-0.06624413
97	0xbdac216c	-0.08404812
98	0x3ded06f0	0.11573589
99	0x3d99369e	0.074811205
100	0x3d062a87	0.0327554
101	0xbd9afd3c	-0.07567832
102	0x3d57422b	0.052553337
103	0x3dbda494	0.092599064
104	0x3daa38f0	0.08311641
105	0x3d092b7b	0.03348873
106	0x3b8616d1	0.0040920754
107	0xbddc4ebf	-0.10757207
108	0x3ddae7ea	0.10688765
109	0xbd282636	-0.041052066
110	0x3d165731	0.036704246
111	0xbc8b893b	-0.01703321
112	0xbd76bb24	-0.060237065
113	0xbcd3183f	-0.025768397
114	0xbc30b6ff	-0.010785817
115	0x3c99faf3	0.01879642
116	0x3daa354c	0.08310947
117	0x3da8956e	0.082316265
118	0x3da2db9a	0.07952042
119	0xbd346646	-0.044042848
120	0xbd2952bb	-0.041338664
121	0xbd39176f	-0.045188364
122	0x3de608a9	0.112321205
123	0xbc9f98a1	-0.019481959
124	0xbdb9f15d	-0.090792395
125	0xbe0330e0	-0.12811613
126	0xbd82c96e	-0.06386076
127	0xbdb29a26	-0.08720808
128	0xbdf94387	-0.12171083
129	0x3d9cfe45	0.076656856
130	0x3c41f7c1	0.011838854
131	0xbd61d061	-0.055130366
132	0xbdcdb5b4	-0.10044423
133	0x3c95958a	0.018259782
134	0xbe13f192	-0.1444762
135	0xbd723c57	-0.059139576
136	0xbde90aac	-0.113789886
137	0x3d2b4926	0.041817807
138	0xbd45b4eb	-0.04826824
139	0x3dbd5e1f	0.09246468
140	0x3da55715	0.0807325
141	0x3c40e85f	0.011774152
142	0xbe317163	-0.1732841
143	0xbd984c11	-0.074363835
144	0x3d640b8e	0.055675082
145	0xbcb53677	-0.022120697
146	0xbdaeeacd	-0.085408784
147	0x3d805474	0.06266108
148	0xbd636c8f	-0.05552345
149	0x3dc03e92	0.09386934
150	0x3e216fa5	0.15765245
151	0x3d853a44	0.06505254
152	0xbd801ad7	-0.06255119
153	0x3e0d65d4	0.13808376
154	0x3d6ff447	0.05858257
155	0x3d61ce17	0.055128183
156	0x3c5c1014	0.013431568
157	0x3dd612f9	0.104528375
158	0xbdd2922b	-0.102817856
159	0x3d706bcf	0.058696564
160	0xbd20ffdc	-0.039306507
161	0xbd9134a2	-0.07090117
162	0xbd4a19b9	-0.049340937
163	0x3d61f10b	0.055161517
164	0x3cae4419	0.021272706
165	0x3d8c02a0	0.06836438
166	0xbdfb5451	-0.122719415
167	0x3dac7095	0.08419911
168	0xbdc49a2f	-0.09599721
169	0x3de4bf47	0.11169296
170	0x3d406cda	0.04697881
171	0xbd9da7ea	-0.07698043
172	0xbd1b67f9	-0.037940953
173	0x3dba0f9b	0.09085008
174	0xbdbee2ba	-0.093205884
175	0x3d71817d	0.05896138
176	0xbda68c66	-0.081322476
177	0xbdbdea59	-0.09273214
178	0x3d316749	0.04331139
179	0xbd2fc7c1	-0.04291511
180	0x3dc3fafb	0.09569355
181	0xbe0ffca5	-0.1406122
182	0x3dbd787f	0.092514984
183	0x3d98b052	0.074555054
184	0xbe120152	-0.14258316
185	0x3dc2cf87	0.09512239
186	0xbcc40049	-0.023925917
187	0x3d4012ac	0.046892807
188	0xbdede0e2	-0.116151586
189	0x3e1c782c	0.15280217
190	0x3d193832	0.037407108
191	0xbd582121	-0.05276597
192	0x3e06df56	0.13171133
193	0x3db38f62	0.087675825
194	0x3de81333	0.11331787
195	0x3a9e8185	0.0012093043
196	0x3c613f7b	0.013748045
197	0x3e05af03	0.13055043
198	0x3d128ac6	0.035776876
199	0xbca9aedc	-0.020713262
200	0xbcdaa865	-0.026691625
201	0x3dc17d3c	0.09447715
202	0x3c870005	0.016479502
203	0x3d90e8e1	0.07075668
204	0xbc8abaeb	-0.016934833
205	0x3d42dbcb	0.047572892
206	0x3daa6c91	0.08321489
207	0x3da134ce	0.078714
208	0xbd719816	-0.05898293
209	0xbdc42b17	-0.09578531
210	0x3dbf1dec	0.09331879
211	0xbdbc4860	-0.09193492
212	0xbdba3cff	-0.09093665
213	0x3d8f350b	0.06992539
214	0x3d824d79	0.06362433
215	0x3cb3f985	0.021969566
216	0x3d4d5b1a	0.05013571
217	0xbd5d38eb	-0.05400936
218	0x3d870b05	0.06593899
219	0x3d1e278b	0.03861193
220	0xbde33c09	-0.11095435
221	0xbc815c87	-0.01579119
222	0x3d1f393f	0.038872954
223	0x3dbe5dfc	0.0929527
224	0x3d856811	0.0651399
225	0x3db5725a	0.088597015
226	0xbdc14818	-0.09437579
227	0xbde66d41	-0.11251307
228	0x3d1634c0	0.0366714
229	0x3d933e8e	0.07189666
230	0xbd9dfa24	-0.07713726
231	0x3d1470ff	0.036240574
232	0x3e0c2fcc	0.13690108
233	0x3e024e87	0.12725268
234	0xbe0531bb	-0.13007252
235	0xbb93d32f	-0.004511259
236	0xbd82983e	-0.06376694
237	0x3dbd4e20	0.09243417
238	0x3dd5621c	0.104191035
239	0xbc2729a8	-0.010202803
240	0x3ca87a7f	0.020566223
241	0x3dd36061	0.10321117
242	0x3b5dbdd0	0.003383506
243	0x3cfc3a0e	0.030789401
244	0xbdc3e22d	-0.09564624
245	0xbd639ba0	-0.055568337
246	0xbde1b488	-0.11020762
247	0xbd90acf7	-0.070642404
248	0x3dd08fd3	0.10183682
249	0xbc63c7c1	-0.0139026055
250	0x3d7b149b	0.061298948
251	0xbd4f0768	-0.050544173
252	0x3ddeb7e9	0.10874922
253	0xbcc723fb	-0.024309149
254	0x3d995e6c	0.07488713
255	0xbc5f456c	-0.013627391

encoder.lstm.bias_ih_l0 f4 [256]
0	0x3dc7c6c9	0.09754712
1	0x3dbf7178	0.09347814
2	0x3cc7c81f	0.024387417
3	0x3cf7f72f	0.030269234
4	0x3ce9b8e8	0.028530553
5	0xbe006f65	-0.12542494
6	0x3d1026f1	0.035193387
7	0xbc83fd54	-0.016112007
8	0xbda94771	-0.082655795
9	0xbcf93b0f	-0.03042367
10	0xbd9d9d7f	-0.076960556
11	0x3c5b2b7a	0.013377065
12	0x3cea3994	0.028591909
13	0x3daf2735	0.085524
14	0xbd1f8200	-0.038942337
15	0x3c250096	0.0100709405
16	0x3d604d64	0.054761305
17	0x3dd897bf	0.10575818
18	0xbc27c965	-0.010240887
19	0xbdc93e4b	-0.098263346
20	0xbddf68a5	-0.10908631
21	0x3d5aab24	0.05338587
22	0xbd49544b	-0.049152654
23	0xbd5a8048	-0.053344995
24	0x3c57dcf3	0.013175237
25	0x3e0b967c	0.13631624
26	0x3e122643	0.14272408
27	0xbcccec5e	-0.025015052
28	0x3de3c617	0.11121767
29	0xbc9960f9	-0.018722998
30	0xbc995e72	-0.018721793
31	0x3d331626	0.043722294
32	0x3cc6c0af	0.0242618
33	0xbde81667	-0.11332398
34	0xbdcaaf45	-0.09896711
35	0x3d154790	0.0364452
36	0xbd8d63dc	-0.06903812
37	0xbe0e414e	-0.138921
38	0xbddab0fc	-0.10678288
39	0x3d06fa47	0.032953527
40	0x3c7f1125	0.015568052
41	0xbd1697b0	-0.036765754
42	0xbdc2254e	-0.094797716
43	0xbcea1c9a	-0.028578091
44	0xbd44a24e	-0.04800635
45	0xbc23aaea	-0.00998948
46	0xbcb76c1b	-0.022390416
47	0x3c938779	0.018008934
48	0x3dc1f6a5	0.09470872
49	0xbe0104ab	-0.12599437
50	0xbd92cd1f	-0.0716803
51	0x3d8c8a8e	0.06862365
52	0xbc2fefed	-0.010738355
53	0xbd65ab50	-0.05607158
54	0x3dbcda4d	0.09221325
55	0x3b045507	0.0020192282
56	0x3d956771	0.072951205
57	0x3d4ffb94	0.050777033
58	0xbd50924c	-0.05092077
59	0xbc97b1a0	-0.018517315
60	0xbb408486	-0.0029375865
61	0x3df58bc3	0.11989548
62	0xbc99e9f1	-0.01878831
63	0x3e0b065a	0.13576642
64	0xbc6f00cc	-0.014587592
65	0x3bc4cdfa	0.0060059996
66	0x3d901667	0.07035523
67	0x3dd1b2af	0.10239159
68	0x3d315435	0.043293197
69	0xbd32ce68	-0.043653876
70	0xbc8552eb	-0.01627489
71	0xbcbe44d8	-0.023226187
72	0xbd26dfe4	-0.040740862
73	0x3e0a74fd	0.1352119
74	0x3cdc7273	0.026910042
75	0x3d5503cf	0.052005585
76	0x3df3fe23	0.11913707
77	0x3de32ae9	0.11092169
78	0x3da0ae0d	0.078456976
79	0x3cbbbf09	0.022918241
80	0x3bb582df	0.0055392827
81	0x3dcaaa4b	0.09895762
82	0xbde617d0	-0.112350106
83	0x3cc25920	0.023724139
84	0x3d79368a	0.060843028
85	0x3dc9de7c	0.09856889
86	0xbd6e5f84	-0.05819656
87	0xbdb787a0	-0.08961415
88	0xbdc5d8e7	-0.096605115
89	0x3dde0be8	0.10842115
90	0x3d523b72	0.051326223
91	0xbdc3b01c	-0.095550746
92	0x3cbe7fdc	0.023254327
93	0xbd27432c	-0.040835544
94	0x3e2166a1	0.15761806
95	0xbd42103e	-0.04737877
96	0xbd20edb8	-0.039289206
97	0xbdec8eb3	-0.11550655
98	0xbcdc2a0a	-0.026875515
99	0xbd9a05de	-0.0752065
100	0xbda228a4	-0.07917908
101	0xbd4efabf	-0.0505321
102	0x3dee897b	0.11647316
103	0x3db81f49	0.08990342
104	0xbdd1cf17	-0.102445774
105	0xbd331f04	-0.04373075
106	0xbdaffb93	-0.08592906
107	0x3d7d49bd	0.0618379
108	0x3cf84391	0.030305656
109	0x3d23cf3e	0.039992563
110	0x3d16bb9d	0.036800016
111	0x3c4dd8e3	0.012563917
112	0x3db1a7ec	0.08674607
113	0x3d2449f6	0.040109597
114	0x3d2f4184	0.04278709
115	0x3cf4ae8c	0.029868387
116	0x3c905365	0.01761789
117	0xbde1f305	-0.110326804
118	0x3d29701d	0.041366685
119	0x3dff275e	0.124586806
120	0x3c4ebd78	0.012618415
121	0x3cd3dd9f	0.025862513
122	0x3d2d75d2	0.04234869
123	0x3dc4c142	0.096071735
124	0x3d8db704	0.06919673
125	0xbd246ed3	-0.040144753
126	0x3c08fff6	0.008361807
127	0x3daac160	0.083376646
128	0x3dca76b0	0.09885919
129	0x3ddb261b	0.107006274
130	0x3db17be1	0.08666206
131	0xbcc9cdd0	-0.024634272
132	0xbdf42cb0	-0.11922586
133	0xbdc66884	-0.096879035
134	0x3dbcc934	0.09218064
135	0xbced9695	-0.029002467
136	0x3cc5b7c0	0.02413547
137	0xbc1a30e8	-0.009411074
138	0x3cffa920	0.031208575
139	0x3dea04af	0.114266746
140	0xbbf431d7	-0.0074522304
141	0xbd6594f7	-0.056050267
142	0xbcb2aa83	-0.021809822
143	0xbc81d28f	-0.015847472
144	0xbdb945ff	-0.09046554
145	0xbdb57944	-0.0886102
146	0xbbeaa678	-0.007160958
147	0xbda84f83	-0.08218291
148	0xbd7d133f	-0.061785933
149	0x3df16d35	0.11788408
150	0x3de24197	0.110476665
151	0xbd1983e1	-0.037479285
152	0x3d1329e3	0.03592862
153	0xbdca92a7	-0.09891253
154	0x3d7fe60a	0.06247524
155	0xbca1ccde	-0.019751009
156	0xbdaad2fa	-0.08341022
157	0xbd1fb2bc	-0.038988814
158	0xbdd82ceb	-0.105554424
159	0x3d9983a4	0.074958116
160	0x3d69b94e	0.057061486
161	0x3cf648d7	0.03006403
162	0x3dd9d059	0.10635442
163	0xbd9edda7	-0.077571206
164	0x3d4ca19c	0.04995881
165	0x3cc8bf4b	0.024505278
166	0x3c84f522	0.01623017
167	0xbd07f386	-0.033191226
168	0x3d512da9	0.051068936
169	0x3d196d87	0.03745797
170	0x3da2b6b0	0.07945001
171	0xbde51346	-0.11185317
172	0xbdd30310	-0.103033185
173	0x3da1085c	0.078629225
174	0xbd587305	-0.052844066
175	0xbd7dcd04	-0.061963096
176	0xbbfdde70	-0.007747464
177	0xbda059e8	-0.07829648
178	0xbd987ea3	-0.07446029
179	0xbd4710b5	-0.048599917
180	0x3db146c4	0.086560756
181	0xbdbb5240	-0.09146547
182	0xbd2d6730	-0.042334735
183	0xbd9f68a7	-0.07783633
184	0xbdcfae29	-0.1014064
185	0x3dc5fd77	0.09667485
186	0x3c195f8d	0.00936116
187	0x3cf3dd39	0.029768573
188	0x3d92f124	0.071749
189	0xbdb5dd50	-0.08880103
190	0x3d9edc3e	0.077568516
191	0x3d0a338e	0.033740573
192	0xbd3177d9	-0.043327186
193	0xbdf24dc0	-0.11831236
194	0x3db05c61	0.0861137
195	0x3c26aa14	0.010172386
196	0xbdab5736	-0.083662435
197	0xbd81c9e4	-0.06337336
198	0x3d8865d5	0.06660048
199	0x3db886b3	0.09010067
200	0xbd353901	-0.044243816
201	0x3e0bdf3f	0.1365938
202	0x3d97d03a	0.07412763
203	0x3d099376	0.033587895
204	0x3d96b53a	0.07358785
205	0xbd9b700b	-0.0758973
206	0xbdcbab70	-0.099448085
207	0x3de0785e	0.10960458
208	0xbce30b06	-0.027715217
209	0xbdc49287	-0.095982604
210	0x3dd143a4	0.102179796
211	0x3ce46425	0.027879784
212	0xbd677bf5	-0.0565147
213	0x3daf112c	0.08548197
214	0xbd8ec38e	-0.06970893
215	0xbdd5a475	-0.10431758
216	0x3ca1622a	0.019700129
217	0x3e04ad28	0.12956679
218	0x3d891bd9	0.06694765
219	0x3d214cc4	0.03937985
220	0xbd712b1b	-0.058879
221	0x3da450d0	0.08023226
222	0x3d3ad613	0.045614313
223	0x3d035eb1	0.032072727
224	0xbd89179b	-0.066939555
225	0xbe1cf59e	-0.1532807
226	0x3d07fd14	0.03320034
227	0xbdb4ee91	-0.088345654
228	0x3e09c24d	0.13453026
229	0x3c8485f0	0.016177148
230	0x3cf75cf0	0.030195683
231	0x3d7abf5d	0.061217654
232	0xbdb357a7	-0.08756953
233	0x3d65bec9	0.05609015
234	0x3d8613ca	0.06546743
235	0x3e1648b2	0.14676169
236	0x3d55a0b0	0.052155197
237	0x3e12f0da	0.1434969
238	0xbd7487e4	-0.059699908
239	0x39cdef6f	0.0003927904
240	0xbd08173b	-0.03322528
241	0xbd3e4171	-0.04644913
242	0x3dcf7230	0.101292014
243	0xbdd1e96f	-0.10249602
244	0x3d9974f7	0.074930124
245	0xbcfa9b00	-0.030591488
246	0x3dee9684	0.11649802
247	0x3cf81c6c	0.03028699
248	0xbdd53d16	-0.10412042
249	0x3db43f7b	0.088011704
250	0xbce8cda8	-0.028418377
251	0x3d9ab40e	0.07553874
252	0xbda41679	-0.08012099
253	0xbd927f74	-0.07153216
254	0xbcce9bcf	-0.02522078
255	0x3d9bcb95	0.076071896

encoder.lstm.bias_hh_l0 f4 [256]
0	0x3de5ce13	0.11220946
1	0x3a6a3534	0.00089343195
2	0xbd1754b7	-0.036946025
3	0x3d997f28	0.07494956
4	0x3d17b1cf	0.037034806
5	0xbd99f373	-0.075171374
6	0xbd282f4b	-0.041060727
7	0xbdaff9fb	-0.08592602
8	0x3cfd4d8a	0.030920763
9	0x3ded5cae	0.11589943
10	0x3e02aab4	0.1276043
11	0x3df6d327	0.12051993
12	0xbc615739	-0.013753706
13	0x3d8de7e3	0.069289945
14	0xbdc100f6	-0.094240114
15	0x3cb44452	0.022005234
16	0x3d41d632	0.047323413
17	0xbde0267f	-0.109448425
18	0x3dd64bc2	0.104636684
19	0x3be5bfb9	0.0070113805
20	0xba347f8f	-0.0006885463
21	0xbdac7dfc	-0.08422467
22	0x3de6ad8f	0.112635724
23	0x3b569603	0.0032743223
24	0x3cf8c556	0.030367535
25	0x3d69d112	0.05708415
26	0x3dc0ff58	0.09423703
27	0xbdb289b6	-0.087176725
28	0x3dcf71c7	0.10129123
29	0xbe08d517	-0.13362537
30	0x3e161b2b	0.14658801
31	0x3cfc3b91	0.030790122
32	0xbd814e8f	-0.06313812
33	0x3d84646f	0.06464469
34	0xbdca90f7	-0.09890931
35	0x3dde9c29	0.10869629
36	0x3dfe2cfb	0.12410923
37	0xbd57f76f	-0.052726205
38	0x3dc51e4d	0.0962492
39	0xbdb11c84	-0.08648017
40	0x3d2e2a3e	0.042520754
41	0xbc15cb9a	-0.009142781
42	0x3daf9d4c	0.08574924
43	0x3dfce3de	0.1234815
44	0x3e0d269f	0.13784264
45	0x3d2d7806	0.04235079
46	0xbdd1209e	-0.10211299
47	0x3e1439dc	0.14475197
48	0x3a245041	0.0006268062
49	0xbe0821b9	-0.13294114
50	0xbdd58419	-0.10425586
51	0x3d691705	0.05690672
52	0x3d40586d	0.04695933
53	0xbd687646	-0.05675342
54	0x3dbebbe9	0.09313185
55	0x3d991c0d	0.074760534
56	0x3daeaab1	0.085286506
57	0xbde11404	-0.10990146
58	0xbd3dd366	-0.046344183
59	0xbd90169b	-0.07035562
60	0x3da6c757	0.0814349
61	0x3cd9143d	0.026498908
62	0x3de6c2ea	0.11267646
63	0x3dad9b6a	0.084769085
64	0x3e115b26	0.14194927
65	0xbb8fdb44	-0.004390152
66	0xbc9fc212	-0.01950172
67	0xbcf06bcd	-0.029348278
68	0xbb9f678f	-0.00486464
69	0x3d4744dc	0.048649654
70	0xbdb9b497	-0.09067648
71	0x3c372c49	0.011179992
72	0x3c69b6ba	0.014264757
73	0xbcac7adf	-0.021054683
74	0x3e1906c8	0.14943993
75	0x3ceb93ac	0.028756939
76	0x3d78b3db	0.0607184
77	0x3d958d6d	0.073023655
78	0x3e037bba	0.12840167
79	0x3d28d0bf	0.0412147
80	0xbc0aaea1	-0.008464486
81	0x3dd64fef	0.10464465
82	0xbdaacba6	-0.08339624
83	0x3e06a8df	0.13150357
84	0xbd2374ca	-0.0399063
85	0xbc790290	-0.015198365
86	0xbd41f8f0	-0.047356546
87	0xbd9a6d7e	-0.07540415
88	0x3da094b5	0.078408636
89	0x3ca32061	0.0199129
90	0x39aa773e	0.0003251377
91	0x3d1538b1	0.03643102
92	0x3a4e31cb	0.0007865696
93	0x38414796	4.6081455e-05
94	0x3da47e62	0.08031918
95	0x3d1705d2	0.036870785
96	0x3d300378	0.042972058
97	0x3c93d08e	0.018043783
98	0xbd853204	-0.0650368
99	0x3ccfcf60	0.025367439
100	0xbd07ff7a	-0.033202626
101	0x3c9549b7	0.018223627
102	0xbd44753b	-0.047963362
103	0x3dac0473	0.08399286
104	0xbdd19a3b	-0.10234495
105	0x3d7db956	0.06194433
106	0xbd7452aa	-0.059649147
107	0x3c5d02a1	0.013489396
108	0x3cabff19	0.020995663
109	0xbd9cdb71	-0.076590426
110	0xbdb35819	-0.08757038
111	0x3cad6a3b	0.021168819
112	0x3df88632	0.12134971
113	0xbdf27dc1	-0.11840392
114	0x3ba34fdb	0.0049838847
115	0xbdc9c834	-0.09852639
116	0xbcaa25a9	-0.02076991
117	0xbd077436	-0.03306981
118	0xbb9e917b	-0.00483912
119	0x3d8ce89e	0.06880306
120	0xbe057fac	-0.13036984
121	0x3c30c63d	0.010789451
122	0x3df9b200	0.12192154
123	0x3c121003	0.00891495
124	0x3dbb3f6c	0.09142956
125	0xbd820cc1	-0.06350089
126	0xbd370438	-0.044681758
127	0xbcb241ac	-0.02175983
128	0x3d90ff2a	0.07079919
129	0x3de910dd	0.113801695
130	0x3db120e3	0.08648851
131	0xbdf51ea3	-0.11968734
132	0x3b0fbb35	0.0021931652
133	0x3dd7ca92	0.10536684
134	0x3c983540	0.01858008
135	0x3c3ea7cb	0.011636685
136	0xbc080417	-0.008301756
137	0x3de469a1	0.111529596
138	0xbdd31143	-0.10306027
139	0xbd842254	-0.0645186
140	0x3d6717d6	0.056419216
141	0x3d495e53	0.04916222
142	0x3bdf101b	0.00680734
143	0xbd44e4cf	-0.04806977
144	0x3dc97adb	0.09837886
145	0x3c4d647c	0.012536164
146	0xbd4c6564	-0.04990138
147	0x3b87ede5	0.0041482323
148	0xbdb7450f	-0.08948719
149	0x3d8979fe	0.06712721
150	0xbd8f9d31	-0.07012404
151	0xbde0d899	-0.10978813
152	0x3bfef89e	0.0077811023
153	0x3de4b301	0.11166955
154	0xbddfdab9	-0.1093039
155	0xbe041a15	-0.12900575
156	0x3d840dd0	0.06447947
157	0xbd61178f	-0.054954108
158	0x3c6ebdf8	0.014571659
159	0xbdc1f226	-0.09470014
160	0xbc46468a	-0.012101779
161	0x3d76fb01	0.06029797
162	0xbd69735e	-0.05699479
163	0xbd832a99	-0.06404609
164	0xbda6d361	-0.08145786
165	0x3b37aad2	0.00280254
166	0xbdd9783a	-0.106186345
167	0x3d82bd68	0.063837826
168	0x3c64c516	0.013963005
169	0x3dab4e4d	0.08364544
170	0xbd84fb10	-0.06493199
171	0x3dc5158e	0.09623252
172	0x3bd95998	0.006632995
173	0x3e0a9f76	0.13537392
174	0x3c7622cf	0.015022947
175	0xbc413d54	-0.011794407
176	0x3d66a8ff	0.05631351
177	0x3d92e648	0.07172829
178	0xbc956b48	-0.018239632
179	0xbd723837	-0.059135642
180	0xbc3aa066	-0.011390781
181	0xbd5a1ca6	-0.053249978
182	0xbdbade2c	-0.09124407
183	0x3dcbcff1	0.09951771
184	0x3d825ff5	0.063659586
185	0xbd066a90	-0.03281647
186	0xbd9ff858	-0.0781104
187	0x3d37fdae	0.044919662
188	0xbdc8aa9c	-0.09798166
189	0x3d40bbb5	0.04705401
190	0x3d2fcfc1	0.04292274
191	0xbda66895	-0.08125416
192	0xbcf901c7	-0.030396355
193	0xbdb0cf14	-0.08633247
194	0x3d8873ce	0.06662713
195	0x3da67adc	0.08128902
196	0x3dae10d8	0.084993064
197	0xbc281333	-0.010258484
198	0xbd8145f7	-0.06312173
199	0xbdbe2e71	-0.09286202
200	0x3dd14fdb	0.10220309
201	0x3d2e0a91	0.042490546
202	0xbdc6ce10	-0.09707272
203	0xbcc4823c	-0.023987882
204	0xbd402fc0	-0.046920538
205	0x3d9f0c8d	0.07766066
206	0x3d4e2e55	0.050337154
207	0xbd1c5665	-0.03816833
208	0x3d7c51f9	0.061601613
209	0xbdc3a4d7	-0.09552925
210	0x3ba36216	0.004986058
211	0xbd4e6217	-0.050386515
212	0xbdaa5c99	-0.08318443
213	0x3cdd06b3	0.026980733
214	0x3cafdc20	0.021467268
215	0xbd932049	-0.07183892
216	0xbdf14d98	-0.11782378
217	0x3bfc9d56	0.0077091856
218	0x3c5d8656	0.013520798
219	0xbde7251e	-0.112863764
220	0xbd7ff7f8	-0.06249234
221	0xbe007065	-0.12542875
222	0xbd807891	-0.06272996
223	0xbc72ac7f	-0.014811634
224	0x3d184155	0.03717168
225	0x3cde21f2	0.027115796
226	0xbc781a39	-0.015142971
227	0xbcd78a82	-0.026311163
228	0xbd280edc	-0.041029796
229	0xbdfd99c1	-0.12382842
230	0x3de386e7	0.11109715
231	0x3a87d09b	0.0010361852
232	0x3d8f1063	0.069855474
233	0xbd7b4545	-0.061345357
234	0x3dc10b30	0.09425962
235	0xbc3fdfba	-0.011711055
236	0xbd148a98	-0.036264986
237	0xbcc197b3	-0.023631906
238	0xbda1e91b	-0.079057895
239	0x3c1bd612	0.009511488
240	0xbc30b632	-0.010785626
241	0xbe0e6737	-0.13906561
242	0xbd187117	-0.037217226
243	0xbc359212	-0.011082189
244	0xbdbca067	-0.09210282
245	0x3de19cce	0.11016236
246	0x3d8e47fe	0.06947325
247	0x3d955c4d	0.072929956
248	0xbd38d97a	-0.045129277
249	0xbda1b3a5	-0.078955926
250	0x3c2350a2	0.009967955
251	0x3de42522	0.11139895
252	0xbcbd733f	-0.023126243
253	0xbda7e590	-0.081980824
254	0xbdc4a069	-0.09600908
255	0xbda33835	-0.07969705

encoder.linear.weight f4 [32, 64]
0	0xbc9e25aa	-0.019305069
1	0xbe09b9e3	-0.13449816
2	0x3c1ea32b	0.009682457
3	0xbd436997	-0.04770812
4	0x3a8e7dad	0.0010871195
5	0xbdfdb36b	-0.12387737
6	0x3c5beef1	0.013423667
7	0x3cb7b56e	0.02242538
8	0xbd0bb391	-0.034106795
9	0xbdd27dee	-0.102779254
10	0x3de7d09c	0.11319086
11	0xbda2f17e	-0.07956217
12	0xbd2aecb6	-0.04172965
13	0x3de7fe88	0.11327845
14	0x3d83bb82	0.06432249
15	0xbd8cfae6	-0.068837926
16	0xbd0f7058	-0.03501925
17	0xbb36659f	-0.0027831567
18	0xbe0c63ba	-0.13709918
19	0xbdf60fec	-0.120147556
20	0xbd686cec	-0.0567445
21	0xbdadd150	-0.08487189
22	0x3d14280f	0.036171015
23	0xbd6827ac	-0.05667846
24	0xbdf11511	-0.11771596
25	0x3d6df808	0.05809787
26	0x3d48cef6	0.0490255
27	0x3daced79	0.08443732
28	0xbd2f155c	-0.04274498
29	0x3d1e3acb	0.038630288
30	0x3b74d660	0.0037359223
31	0xbd5e006c	-0.05419962
32	0xbd4b6322	-0.049655087
33	0x3cdfe21f	0.027329503
34	0xbdc52206	-0.0962563
35	0x3dd18ed1	0.10232318
36	0x3cb4005f	0.021972833
37	0x3db21202	0.08694841
38	0xbe12f3de	-0.1435084
39	0x3d8490a3	0.064729
40	0xbdcc8677	-0.09986585
41	0x3ae8fea2	0.0017776082
42	0xbd805e75	-0.06268016
43	0x3daedb09	0.085378714
44	0x3d37a80d	0.044838
45	0x3e101ed9	0.14074267
46	0xbdf3ec95	-0.11910359
47	0x3d72e808	0.059303313
48	0x3d20334d	0.039111424
49	0x3d52f923	0.051507127
50	0xbcbdec50	-0.023183972
51	0xbde6c28e	-0.11267577
52	0x3d78f00f	0.060775813
53	0x3dd1e74a	0.10249193
54	0x3be22ef4	0.00690257
55	0xbc7f2c45	-0.0155745195
56	0xbd905807	-0.0704804
57	0x3daef794	0.085433155
58	0x3cc4411f	0.023956833
59	0xbd4a6843	-0.049415838
60	0xbdabd70b	-0.083906256
61	0x3e04f1ca	0.1298286
62	0xbd9d0718	-0.07667369
63	0xbe0622de	-0.13099238
64	0x3cfe6a87	0.031056656
65	0xbd5f5a49	-0.054529462
66	0xbd430449	-0.04761151
67	0x3ce89a94	0.028394021
68	0x3dbf9670	0.093548656
69	0xbd713460	-0.05888784
70	0x3cf6c294	0.030122079
71	0x3db0933d	0.086218335
72	0x3df92443	0.121651195
73	0x3d9bd76a	0.07609446
74	0xbd0b8bdb	-0.034068923
75	0x3e075046	0.13214216
76	0x3a277fb0	0.00063895714
77	0xbdcdd4b4	-0.100503355
78	0x3dbef12a	0.09323342
79	0x3b9e3409	0.0048279804
80	0x3daa922e	0.08328663
81	0x3db6d6cc	0.08927688
82	0xbdf8b827	-0.12144499
83	0x3dc21f9e	0.09478687
84	0x3cf06065	0.02934284
85	0x3db6713b	0.08908316
86	0x3d5c6ea0	0.053816438
87	0xbc9879da	-0.01861279
88	0xbc47f61a	-0.012204671
89	0xbd099dec	-0.03359787
90	0xbe236700	-0.1595726
91	0xbd9ef5f9	-0.07761759
92	0x3d80b4fc	0.0628452
93	0x3d5ced38	0.053937167
94	0xbdadbe59	-0.084835716
95	0xbdc56b8d	-0.09639654
96	0xb9fb8d98	-0.00047979946
97	0xbb459a7c	-0.0030151894
98	0xbca8fcad	-0.020628298
99	0xbd0ce986	-0.034402393
100	0x3d79d48c	0.060993716
101	0xbd48dd4f	-0.04903918
102	0x3d9d8be1	0.076926954
103	0xbdab6425	-0.083687104
104	0x3d591b15	0.053004343
105	0xbd8f6624	-0.07001904
106	0xbd351b36	-0.044215403
107	0xbd516ee4	-0.051131144
108	0x3d26d626	0.04073157
109	0x3e20bc3d	0.15696807
110	0xbd1d204c	-0.03836088
111	0xbccea449	-0.025224822
112	0x3d9bbd12	0.07604422
113	0x3d8c7707	0.0685864
114	0xbd61e205	-0.05514719
115	0x3d316137	0.043305602
116	0x3daa8f6f	0.08328139
117	0x3a13c846	0.0005637448
118	0xbde3d657	-0.111248665
119	0xbe1590cd	-0.14606018
120	0x3d9bddda	0.07610674
121	0x3e08db2a	0.13364854
122	0xbd6f4711	-0.058417384
123	0x3dfde033	0.12396278
124	0xbd0ee31e	-0.034884565
125	0xbe0f58f8	-0.13998783
126	0x3e02221b	0.12708323
127	0x3d634cd5	0.055493195
128	0x3d1857d7	0.037193146
129	0xbd1bd3fc	-0.03804396
130	0xbe05e639	-0.13076104
131	0x3d09e10c	0.033661887
132	0x3ce9e6a0	0.028552353
133	0x3debd9a0	0.11516118
134	0x3ce63966	0.028103542
135	0xbcac444b	-0.021028658
136	0xbd01e134	-0.03170891
137	0xbde3f760	-0.111311674
138	0x3c216b43	0.009852233
139	0xbd959266	-0.07303314
140	0x3c8278ff	0.015926836
141	0xbd539938	-0.051659793
142	0xbcde5d65	-0.027144143
143	0xbdbd5194	-0.092440754
144	0x3d60af37	0.054854598
145	0xbd38ad83	-0.04508735
146	0x3d471aec	0.04860966
147	0xbdbe790f	-0.09300434
148	0x3df16549	0.11786897
149	0x3dd8af3f	0.105803005
150	0x3dcf0e8b	0.10110196
151	0xbdbf9ee6	-0.09356479
152	0xbc3bb0ad	-0.011455697
153	0xbd274169	-0.040833864
154	0xbd933653	-0.07188096
155	0xbde523e6	-0.11188488
156	0xbc0bf9f2	-0.008543478
157	0xbdca71a0	-0.098849535
158	0xbd9a4fcf	-0.075347535
159	0xbd9a0518	-0.07520503
160	0x3d36802a	0.04455582
161	0x3c6de430	0.014519736
162	0xbb123c08	-0.0022313613
163	0x3d27974e	0.04091578
164	0x3d47cb14	0.048777655
165	0xbdfccc88	-0.12343699
166	0x3deb5923	0.11491611
167	0xbdb1bc7a	-0.08678527
168	0xbd51a6a4	-0.05118431
169	0xbcad4ab5	-0.021153787
170	0x3d6d42fe	0.057925217
171	0xbcc60dae	-0.024176445
172	0x3d9f1e0c	0.07769403
173	0xbd44bc4f	-0.048031148
174	0x3dbef470	0.093239665
175	0x3c89a74f	0.016803412
176	0x3d21099e	0.039315812
177	0x3d6b7e2f	0.057493385
178	0xbc11ff61	-0.008910985
179	0x3c890a6b	0.0167286
180	0xbd840ea4	-0.06448105
181	0x3d3786d2	0.04480631
182	0xbdaae0ba	-0.083436444
183	0xbe01bfc5	-0.1267081
184	0xbdd32c0d	-0.103111364
185	0xbdf37000	-0.11886597
186	0xbdee1711	-0.11625493
187	0xbdaad6f2	-0.08341779
188	0x3d948fad	0.072539665
189	0x3d3969a8	0.045266777
190	0x3c1de0a9	0.009636083
191	0xbd2534e5	-0.040333647
192	0x3c0a28f5	0.0084326165
193	0x3db30cf3	0.08742704
194	0xbbb8ee20	-0.005643621
195	0xbd716a67	-0.058939364
196	0x3cec9243	0.028878337
197	0x3c3e44fc	0.011613127
198	0xbda4303d	-0.08017013
199	0xbdf2cda8	-0.11855632
200	0xbbcbd685	-0.006220641
201	0xbc8a5493	-0.016886031
202	0x3cd5b949	0.026089327
203	0x3df305a8	0.11866313
204	0xbdd0ea6f	-0.10200965
205	0xbe004a60	-0.12528372
206	0x3c9d8e1a	0.019232798
207	0xbb81b896	-0.003958772
208	0xbd057191	-0.03257901
209	0xbe0acd85	-0.13554962
210	0x3d6fd031	0.058548156
211	0xbd424bb9	-0.047435496
212	0xbcf67243	-0.030083781
213	0x3d4b12a2	0.049578317
214	0xbdf5b5bc	-0.11997554
215	0xbd2acb9d	-0.041698087
216	0xbc5c888f	-0.0134602925
217	0x3ab0a01c	0.0013475451
218	0x3d584be0	0.052806735
219	0xbd0cd17c	-0.034379467
220	0xbd1877e4	-0.03722371
221	0xbb98bb0c	-0.0046609696
222	0x3d491725	0.049094338
223	0xbdbd870f	-0.09254276
224	0x3d792458	0.060825676
225	0xbd00f080	-0.03147936
226	0xbd476f68	-0.04869023
227	0xbb995a4e	-0.0046799546
228	0xbbec0836	-0.0072031273
229	0xbd46677b	-0.04843853
230	0xbc8d3bcc	-0.017240427
231	0x3d388865	0.04505195
232	0x3dc6c089	0.09704692
233	0xbbddd7bb	-0.006770102
234	0x3d3790f1	0.04481596
235	0x3da8e2a7	0.082463555
236	0x3e00b804	0.12570196
237	0xbd303a62	-0.04302443
238	0x3dd46e67	0.1037262
239	0x3e0bc430	0.13649058
240	0x3df12b44	0.117758304
241	0x3daca985	0.08430771
242	0xbd8c1463	-0.06839826
243	0x3da0be54	0.07848802
244	0xbc19fd45	-0.009398763
245	0xbdd05f3d	-0.10174415
246	0x3d62e681	0.055395607
247	0xbe067869	-0.1313187
248	0x3cb0e468	0.021593288
249	0xbe172260	-0.14759207
250	0xbd02bc31	-0.031917755
251	0x3cdf8f98	0.02729015
252	0x3d947e55	0.072506584
253	0xbc682f99	-0.014171504
254	0x3c567e79	0.013091677
255	0x3d58d62b	0.05293862

encoder.linear.bias f4 [32]
0	0xbc1fefb6	-0.009761741
1	0xbcd37fc9	-0.025817769
2	0xbdcbb668	-0.099469006
3	0x3de4bf7c	0.11169335
4	0x3ce538c1	0.027981164
5	0xbd542765	-0.051795382
6	0x3deeee5e	0.11666559
7	0xbe01138d	-0.12605114
8	0xbc51ff51	-0.01281722
9	0xbdcc2c93	-0.09969439
10	0x3dc1cc2a	0.09462769
11	0x3e0b75a5	0.13619097
12	0x3d81e2ca	0.06342085
13	0x3c5176e0	0.01278469
14	0x3dec050f	0.11524402
15	0x3dd2f798	0.10301131
16	0xbda4dee5	-0.08050326
17	0x3ced8fb9	0.028999196
18	0xbe05a669	-0.13051762
19	0x3d5c28d2	0.053749867
20	0xbdca2f11	-0.098722585
21	0xbb471e6d	-0.0030383125
22	0x3dddf2a3	0.10837295
23	0x3dae4fb9	0.085113
24	0xbd928cbd	-0.0715575
25	0xbd107bb0	-0.035274208
26	0x3d7d49ff	0.061838146
27	0x3d9567eb	0.072952114
28	0xbdd24f04	-0.10268977
29	0x3dae221a	0.08502598
30	0x3cdd365d	0.027003461
31	0xbd6eb82d	-0.058281112

decoder.linear.weight f4 [64, 32]
0	0xbdb1629d	-0.08661387
1	0x3da2af55	0.07943598
2	0x3e1ac5df	0.15114544
3	0x3ae059c5	0.0017116597
4	0x3d53df39	0.051726554
5	0xbe54aed2	-0.20769814
6	0x3dc2fbff	0.09520721
7	0x3d2bc2a5	0.041933674
8	0xbe1e49e7	-0.15457879
9	0x3d50ddc0	0.050992727
10	0xbe0d9d83	-0.13829617
11	0x3e2f1ecb	0.1710159
12	0xbc8a9a9e	-0.01691943
13	0xbd70ba5d	-0.05877148
14	0xbda59562	-0.08085133
15	0x3d3e67ac	0.046485588
16	0x3dab55ba	0.083659604
17	0xbe15fd0a	-0.14647308
18	0xbc2632c0	-0.010143936
19	0xbe09af3f	-0.13445757
20	0xbd055a58	-0.03255686
21	0xbe3d7fdd	-0.18505807
22	0xbd291d27	-0.041287567
23	0xbe02e1d5	-0.1278146
24	0xbe18dceb	-0.14928024
25	0x3e1f4949	0.155553
26	0xbdbc3a9b	-0.091908656
27	0xbdd9a848	-0.106278
28	0x3dd52e28	0.10409194
29	0x3c39e47a	0.011345977
30	0xbe02f7b8	-0.1278981
31	0xbdeeeb63	-0.1166599
32	0xbd1fc208	-0.039003402
33	0xbe1da430	-0.15394664
34	0xbdb3ec2e	-0.08785282
35	0xbdbf1e94	-0.09332004
36	0xbd22ca64	-0.039743796
37	0xbd28ef69	-0.041243944
38	0xbd7f0d2f	-0.062268432
39	0x3d8f8a0c	0.07008752
40	0xbd0f714b	-0.035020154
41	0xbe133e97	-0.14379345
42	0xbce9665a	-0.028491188
43	0x3b3d2637	0.002886189
44	0xbe41f616	-0.1894153
45	0xbb1ee9b6	-0.002424819
46	0xbe207365	-0.1566902
47	0x3c17becf	0.009261801
48	0x3e2771cf	0.16352008
49	0xbd6eabbc	-0.058269247
50	0x3e0a34b0	0.13496661
51	0xbe144432	-0.1447914
52	0xbdfe7c22	-0.1242602
53	0xbded41d8	-0.11584824
54	0x3de291cb	0.11062964
55	0x3d41cac9	0.04731253
56	0x3c799975	0.015234341
57	0x3d8280c5	0.06372217
58	0xbdc5c6b7	-0.096570425
59	0xbe4022ea	-0.18763319
60	0xbda4e97c	-0.08052346
61	0xbd84c3be	-0.06482647
62	0x3d199c3a	0.037502505
63	0xbe19e345	-0.15028103
64	0x3ab9b71f	0.0014168954
65	0x3d4b2245	0.04959323
66	0x3e2ab6ee	0.16671345
67	0xbdcb2c3a	-0.09920545
68	0x3cf2d822	0.029644076
69	0x3d837fbc	0.06420848
70	0x3e02c701	0.12771226
71	0x3cb0b9b5	0.021572927
72	0x3df420ec	0.11920342
73	0x3e2d3f8d	0.16918774
74	0x3e06f8db	0.13180868
75	0xbdb15f7d	-0.08660791
76	0x3e2b360c	0.16719836
77	0x3cc29af6	0.023755532
78	0xbdb62721	-0.08894182
79	0x3c7f90ad	0.015598458
80	0xbc301c0e	-0.010748876
81	0xbae5d939	-0.0017536051
82	0x3e4bed31	0.199147
83	0xbd881dd3	-0.066463135
84	0x3d5a3836	0.053276263
85	0x3d72af56	0.059249245
86	0x3dade56f	0.084910266
87	0xbdca4367	-0.09876137
88	0x3c3425ec	0.010995369
89	0x3de8dd7b	0.11370369
90	0x3da16427	0.07880431
91	0xbd48e081	-0.04904223
92	0x3cc3dd26	0.023909163
93	0xbe46152d	-0.19344015
94	0x3e0f237e	0.13978383
95	0xbccd3450	-0.025049359
96	0xbdff64a1	-0.12470365
97	0xbd9f685d	-0.077835776
98	0xbd8c7246	-0.068577334
99	0xbd0915c5	-0.033468027
100	0x3d6450ac	0.055740997
101	0x3dd2066b	0.102551304
102	0xbe274ffa	-0.16339102
103	0x3deac43b	0.11463209
104	0x3d03c53e	0.032170527
105	0x3e0ee2ec	0.13953751
106	0xbde85b4b	-0.11345538
107	0xbdd57c6b	-0.104241215
108	0xbdd9e39e	-0.10639118
109	0xbe3ec630	-0.1863029
110	0xbdb0de44	-0.08636144
111	0x3dcf6f91	0.101287015
112	0xbe1c4d55	-0.15263875
113	0x3deefad7	0.11668938
114	0xbe2ccbb5	-0.16874583
115	0x3d1562bf	0.036471125
116	0x3da900c3	0.082520984
117	0xbc6dac76	-0.01450645
118	0xbe3ccf12	-0.18438366
119	0xbdb6152c	-0.08890757
120	0xbe21135a	-0.15730038
121	0xbdcae608	-0.09907156
122	0xbddf7e2f	-0.109127395
123	0x3ccc3083	0.024925476
124	0x3cb8c2bd	0.022553796
125	0xbdb87a13	-0.09007659
126	0x3e27f9e3	0.16403918
127	0xbd18e025	-0.037323136
128	0xbdeb1d7d	-0.11480234
129	0x3e3775e6	0.17916068
130	0x3de4c1bd	0.11169765
131	0xbd168589	-0.036748443
132	0xbd8c6e5e	-0.06856988
133	0xbdf8cd85	-0.12148575
134	0xbbce2380	-0.006290853
135	0xbd712ae7	-0.058878805
136	0x3d89c2ce	0.06726609
137	0x3cb4fdaf	0.022093622
138	0xbdc70293	-0.09717288
139	0x3d6a16ea	0.05715076
140	0xbe03b786	-0.12862977
141	0x3e2f1c5e	0.17100665
142	0x3dd69020	0.104767084
143	0xbda0c532	-0.07850112
144	0xbe1bdfcb	-0.15222089
145	0x3e10460f	0.14089225
146	0xbe1b2c79	-0.15153684
147	0xbd09d674	-0.033651784
148	0xbde3d3ca	-0.1112438
149	0x3e4bd280	0.19904518
150	0x3dcd98cf	0.100389116
151	0x3e20a1f4	0.1568678
152	0x3e0fe19a	0.14050904
153	0xbe16c65f	-0.1472411
154	0xbd95b357	-0.07309597
155	0xbdf25ab0	-0.118337035
156	0x3e0794c2	0.1324034
157	0xbe0978cf	-0.13424991
158	0xbe2c73dd	-0.16841073
159	0x3dc98c63	0.0984123
160	0xbd9c4063	-0.07629468
161	0x3da831ec	0.08212647
162	0xbdc288c4	-0.09498742
163	0x3d469907	0.048485782
164	0xbdf71112	-0.12063803
165	0xbd69d87d	-0.057091225
166	0x3d28c73f	0.04120564
167	0xbd9071a4	-0.07052925
168	0x3db1c314	0.08679786
169	0xbe31315e	-0.17303988
170	0xbdacf1c9	-0.08444554
171	0xbd8ceb30	-0.06880796
172	0xbe211e4e	-0.15734217
173	0xbc50184b	-0.012701104
174	0xbe02859b	-0.12746279
175	0x3dd49564	0.103800565
176	0xbc2c0b79	-0.010500782
177	0x3c343a61	0.011000247
178	0xbe262cc4	-0.16228014
179	0x3d2f4e90	0.042799532
180	0xbdf583f6	-0.1198806
181	0x3dafe2b1	0.0858816
182	0xbde83383	-0.1133795
183	0x3da0dabc	0.0785422
184	0x3dd5bc98	0.10436362
185	0xbe0746be	-0.1321058
186	0xbd8c2d32	-0.06844558
187	0xbd82a20a	-0.06378563
188	0x3d0e8c22	0.03480161
189	0x39d83318	0.00041236798
190	0xbc929f29	-0.01789816
191	0xbd8fdb25	-0.070242204
192	0xbde0d6c7	-0.109784655
193	0xbe163f59	-0.14672603
194	0x3ddf18a9	0.108933754
195	0x3cf2da6c	0.029645167
196	0x3e1789e8	0.14798701
197	0xbdfb0da6	-0.122584626
198	0xbdaa495c	-0.083147734
199	0xbdcf9ead	-0.10137687
200	0xbdbb2aee	-0.091390476
201	0x3c222bdb	0.009898151
202	0x3def472f	0.11683499
203	0x3e389368	0.18024981
204	0xbda63049	-0.081146784
205	0x3d02568f	0.03182083
206	0xbddc590f	-0.10759174
207	0x3d83d4f0	0.06437099
208	0x3d991a20	0.07475686
209	0xbc502dc0	-0.01270622
210	0xbd1015e0	-0.03517711
211	0x3d74aace	0.059733205
212	0xbd496bff	-0.04917526
213	0xbe12926d	-0.1431367
214	0x3e062d59	0.13103236
215	0x3e136ee7	0.14397775
216	0xbd8b055a	-0.0678813
217	0x3de9444b	0.11389979
218	0xbcfeaaee	-0.031087365
219	0xbe1cc601	-0.15309907
220	0xbe27918b	-0.16364114
221	0xbdb73b64	-0.08946875
222	0xbd3b9177	-0.045793023
223	0xbe004cfe	-0.1252937
224	0xbd91661e	-0.070995554
225	0xbe01a554	-0.12660724
226	0x3e038da5	0.12847002
227	0xbda14376	-0.07874195
228	0xbc7554c9	-0.014973828
229	0xbc8d3ce8	-0.017240956
230	0xbe432d9d	-0.19060369
231	0x3e2839d2	0.16428307
232	0xbd85125d	-0.06497643
233	0x3dff9c86	0.12481026
234	0xbe365221	-0.17804767
235	0xbd818f3e	-0.063261494
236	0x3ddabba9	0.106803246
237	0xbdf2d21d	-0.11856482
238	0x3ddc7ce7	0.10766011
239	0x3e1df3ec	0.1542508
240	0x3cb1ee0c	0.021719955
241	0xbde5bdb4	-0.112178236
242	0xbc5a4409	-0.013321885
243	0x3e0e03ca	0.13868633
244	0x3db74049	0.08947808
245	0xbd303e09	-0.04302791
246	0x3d8f3cda	0.069940284
247	0xbe02b2f3	-0.12763576
248	0x3d5fa83c	0.0546038
249	0x3dd86fce	0.105682
250	0xbdd7a99e	-0.10530399
251	0x3d8fd724	0.07023457
252	0x3e1ea1e8	0.1549145
253	0x3d12bb8e	0.035823397
254	0xbd046acc	-0.032328412
255	0xbdf3e6ff	-0.119092934

decoder.linear.bias f4 [64]
0	0xbe25b3cd	-0.1618187
1	0x3cc01ba8	0.023450688
2	0x3dfe46ab	0.124158226
3	0xbbc9dcc8	-0.0061603524
4	0x3da6139f	0.08109211
5	0x3c91f5f1	0.01781747
6	0xbdbfbabd	-0.093617894
7	0x3c32ed1c	0.010920789
8	0x3dcc9d8f	0.099909894
9	0x3c8b7dac	0.017027698
10	0x3cc5bf94	0.024139203
11	0x3d83c337	0.06433719
12	0x3e164ac9	0.14676966
13	0xbd15380b	-0.0364304
14	0xbe18c230	-0.14917827
15	0xbd9f42ac	-0.077763885
16	0xbe432a13	-0.19059019
17	0x3e096060	0.1341567
18	0xbdd9c282	-0.106328025
19	0xbe42a096	-0.19006571
20	0xbc19d1f8	-0.009388439
21	0x3cba8241	0.022767188
22	0x3e0ad921	0.1355939
23	0x3e461a7b	0.19346039
24	0xbe1d11f6	-0.15338883
25	0xbe289e9a	-0.16466752
26	0x3e1d66fc	0.15371317
27	0x3dac6c70	0.0841912
28	0x3e3e1bfa	0.1856536
29	0x3d6a67b0	0.05722779
30	0x3e389f7c	0.18029588
31	0x3dc9c1a7	0.098513894
32	0x3cdc6ba0	0.026906788
33	0x3e02fb24	0.12791115
34	0x3df3eeca	0.1191078
35	0x398ff6ae	0.00027458876
36	0x3d93307c	0.07186982
37	0x3df952b7	0.1217398
38	0x3d206eb3	0.03916807
39	0xbd335099	-0.043778036
40	0xbca4c4a3	-0.020113295
41	0x3dbc46fc	0.09193227
42	0xbdcea6e0	-0.10090423
43	0xbd95a468	-0.07306749
44	0x3d8fca81	0.070210464
45	0xbad2becd	-0.0016078592
46	0xbe272f9a	-0.16326752
47	0x3be04f57	0.0068453955
48	0x3d90f575	0.07078067
49	0x3d341554	0.043965653
50	0xbce4d560	-0.027933776
51	0xbd55340d	-0.052051593
52	0x3d7884a3	0.060673367
53	0xbcf941e1	-0.030426921
54	0xbe0e5cea	-0.13902631
55	0xbdc1a2a5	-0.0945485
56	0xbd6c144b	-0.05763654
57	0x3de18a45	0.11012701
58	0x3dd2163c	0.10258147
59	0xbdec8007	-0.11547857
60	0xbbea6d5a	-0.007154149
61	0xbd9819d9	-0.07426805
62	0xbe23ac2f	-0.15983652
63	0x3e22d52c	0.15901631

decoder.lstm.weight_ih_l0 f4 [256, 64]
0	0xbc7041e7	-0.01466415
1	0xbc6e347d	-0.014538881
2	0x3c296ded	0.01034115
3	0xbb5f07bd	-0.0034031712
4	0x3d6ef3a4	0.058337823
5	0xbd2a4f58	-0.041579574
6	0xbd0f635c	-0.035006866
7	0xbdc2dbe4	-0.09514597
8	0x3d94cef8	0.07266039
9	0xbd145794	-0.036216334
10	0xbd9a0369	-0.07520182
11	0xbd699603	-0.057027828
12	0xb82b2cee	-4.081142e-05
13	0xbc8d1b01	-0.01722479
14	0xbdf3f11d	-0.11911223
15	0x3d562b8e	0.05228763
16	0xbd378515	-0.04480465
17	0xbddc01f6	-0.107425615
18	0x3dba535d	0.090979315
19	0xbcfc6aab	-0.030812582
20	0x3d8844d0	0.0665375
21	0xbe0837a7	-0.1330248
22	0xbd31218b	-0.04324488
23	0x3d25932c	0.040423557
24	0x3c824857	0.015903635
25	0xbcce8f3e	-0.025214788
26	0x3e0a0479	0.13478269
27	0x3d823ef1	0.06359661
28	0xbc9bf38c	-0.01903703
29	0x3dafa7e4	0.085769445
30	0xbc066d3a	-0.008204753
31	0xbda8bb09	-0.08238799
32	0xbddfd2ec	-0.10928902
33	0xbd9f7175	-0.07785312
34	0xbd3a72ff	-0.045519825
35	0xbd379b3f	-0.04482579
36	0xbdc0f224	-0.09421185
37	0xbda35e2a	-0.07976945
38	0x3e2dcbab	0.16972224
39	0xbe109897	-0.14120708
40	0xbd94edc3	-0.07271912
41	0x3d148d92	0.036267824
42	0x3c4f2732	0.012643622
43	0x3c90a9bf	0.017659066
44	0x3de64911	0.11244405
45	0xbccd524c	-0.025063656
46	0x3e061544	0.1309405
47	0x3d056c96	0.03257426
48	0x3d386416	0.045017324
49	0xbd4bbf0d	-0.049742747
50	0x3deb1480	0.114785194
51	0x3da8403e	0.08215378
52	0x3ccb8d6e	0.024847712
53	0xbdc6d3f7	-0.09708398
54	0x3d1caf2c	0.038252994
55	0x3d04ec72	0.032452054
56	0xbdbe500b	-0.09292611
57	0x3de72f6a	0.112883404
58	0xbd545f2f	-0.051848587
59	0xbe0155ae	-0.1263034
60	0xbd4caf06	-0.049971603
61	0xbd0fd963	-0.035119426
62	0xbdd73a20	-0.10509133
63	0xbd39d6be	-0.04537081
64	0x3db0a373	0.086249255
65	0xbdc138dc	-0.09434673
66	0xba8e3d7e	-0.0010852066
67	0xbc07da9f	-0.008291869
68	0x3d98e782	0.074660316
69	0xbd35d238	-0.044389933
70	0x3db88fc0	0.09011793
71	0xbcc07902	-0.023495201
72	0x3dfdae0b	0.12386712
73	0xbcef0a7f	-0.02917981
74	0x3dbd0fce	0.0923153
75	0x3d91a5ee	0.07111727
76	0x3d3de06e	0.04635661
77	0x3ca21821	0.019786896
78	0xbbf66b8e	-0.0075201457
79	0xbdcd044a	-0.10010584
80	0xbd27a895	-0.040932257
81	0xbd2d044b	-0.042240422
82	0x3c9be5f3	0.019030547
83	0x3d16231e	0.036654584
84	0x3d562019	0.052276704
85	0x3cf72f63	0.030173963
86	0xbda8deb6	-0.08245604
87	0x3cdf7d8e	0.027281549
88	0x3c52fafb	0.012877221
89	0xbd7b42f2	-0.06134314
90	0x3c042956	0.008066496
91	0xbd4535db	-0.048147064
92	0xbdc69f92	-0.09698404
93	0x3cb54c99	0.022131251
94	0xbd8a6c09	-0.06758887
95	0xbd1da983	-0.038491737
96	0xbd8afbb1	-0.067862876
97	0xba241995	-0.00062599155
98	0xbd6399c8	-0.05556658
99	0xbd6b9708	-0.05751708
100	0x3da4a0a3	0.080384515
101	0xbd58131d	-0.052752603
102	0x3d11d6a0	0.035605073
103	0x3d74cdb5	0.05976649
104	0xbca7f397	-0.020501895
105	0x3de9b8a2	0.11412169
106	0x3c5e4ef2	0.013568627
107	0xbb80b754	-0.0039281044
108	0xbce48e36	-0.027899843
109	0x3d4360c3	0.0476997
110	0x3d1bbddd	0.038022865
111	0xbc9cf043	-0.019157534
112	0xbde9a505	-0.11408428
113	0xbd41b6ad	-0.047293354
114	0x3da0df2b	0.07855066
115	0x3daedeaf	0.08538567
116	0x3ddc5e76	0.107602045
117	0xbe1425d1	-0.14467551
118	0xbd6a6e1c	-0.057233915
119	0x3d05a970	0.03263229
120	0xbd8c97ef	-0.068649165
121	0x3e1b2d16	0.15153918
122	0x3da1a14d	0.07892094
123	0xbde722b5	-0.11285917
124	0x3d80f67c	0.06297013
125	0xbda0735a	-0.078345016
126	0xbcff3c87	-0.031156791
127	0xbd3a1305	-0.045428295
128	0xbdb606e5	-0.08888034
129	0x3dc1cfee	0.094634876
130	0x3dc4aa99	0.096028514
131	0xbdbbd206	-0.09170918
132	0xbd8e3534	-0.069437414
133	0x3c30ab42	0.010783019
134	0xbb0a4638	-0.0021098983
135	0xbd3e52bf	-0.04646563
136	0x3de65129	0.11245949
137	0xbd34d4b2	-0.044148155
138	0x3cad581c	0.021160178
139	0xbd9ec941	-0.0775323
140	0x3d13082c	0.035896465
141	0xbdaafed8	-0.08349389
142	0x3d2c994e	0.04213839
143	0xbd8af14c	-0.06784305
144	0xbcd714a3	-0.026254958
145	0xbd4d7a2a	-0.050165333
146	0x3b07b670	0.0020708106
147	0x3d2e8984	0.042611614
148	0x3d0623af	0.032748874
149	0xbda730b2	-0.08163585
150	0xbd061470	-0.032734334
151	0x3aa0f5c9	0.0012280281
152	0x3db80852	0.08985962
153	0xbd59d77b	-0.053184014
154	0xbd47ae38	-0.048750132
155	0xbda82b0b	-0.08211335
156	0x3e0c6929	0.1371199
157	0xbd89d574	-0.06730166
158	0xbccc9b70	-0.024976462
159	0xbdc29505	-0.095010795
160	0x3d8739a2	0.066027895
161	0xbca61ede	-0.02027839
162	0x3da480af	0.08032357
163	0xbd9ff0b2	-0.07809581
164	0x3e024cbc	0.12724584
165	0xbdca1608	-0.098674834
166	0x3dbb07ef	0.091323726
167	0x3c5daa94	0.0135294385
168	0x3d725d1d	0.05917083
169	0xbc9cc330	-0.019136041
170	0xbc288cc9	-0.010287472
171	0xbc6b6720	-0.014367849
172	0xbdb1692d	-0.08662639
173	0x3d20f332	0.03929443
174	0x3d882573	0.06647768
175	0x3d0d6b98	0.034526438
176	0xbdb472bc	-0.08810946
177	0x3d7333ec	0.05937569
178	0x3d5d3985	0.054009933
179	0x3dbff1fd	0.093723275
180	0x3c323260	0.010876268
181	0xbd66207e	-0.05618333
182	0xbba621c0	-0.0050699413
183	0xba1ada37	-0.00059071503
184	0xbdcad2b0	-0.09903467
185	0x3d133a7e	0.035944454
186	0x3de59a68	0.11211091
187	0xbe09908b	-0.13434045
188	0xbdc288dc	-0.0949876
189	0x3c937e0f	0.018004445
190	0xbd726e83	-0.059187423
191	0xbd0e03ef	-0.03467172
192	0xbd0dd3fd	-0.034625996
193	0x3d8bbc95	0.068230785
194	0x3c5645b7	0.013078145
195	0xbd7865e7	-0.060644057
196	0x3d6dee0c	0.058088347
197	0xbd5ba889	-0.053627525
198	0xbd54d963	-0.05196513
199	0xbd135901	-0.035973553
200	0x3dc88feb	0.09793075
201	0xbcd1d83d	-0.025615806
202	0xbe240243	-0.16016488
203	0x3df474ec	0.119363636
204	0x3d09bc17	0.033626642
205	0xbdaca7b4	-0.08430424
206	0xbdd50df0	-0.10403049
207	0xbb9d735e	-0.0048050126
208	0x3b56d88b	0.0032782878
209	0xbdba0e36	-0.09084742
210	0xbe0aba15	-0.13547547
211	0xbbda528e	-0.0066626733
212	0x3db75208	0.08951193
213	0x3d76f924	0.060296193
214	0x3d5ea5c7	0.054357316
215	0x3dbcaabc	0.092122525
216	0xbdf5408c	-0.11975202
217	0xbdc3a2d8	-0.09552544
218	0x3e1831ac	0.14862698
219	0xbd82957c	-0.06376168
220	0xbd9d86da	-0.076917365
221	0x3c0bc31d	0.008530405
222	0x3d25ac7b	0.040447693
223	0x3c059b17	0.008154652
224	0xbd0d1db8	-0.03445217
225	0x3cb16c43	0.021658069
226	0x3ab1c587	0.0013562896
227	0xbc56e5cd	-0.013116312
228	0xbcd42532	-0.025896642
229	0xbe40d2e1	-0.18830444
230	0x3da8044d	0.08203945
231	0xbd6d6cd7	-0.057965126
232	0xbe51b21d	-0.20478101
233	0x3cc5803b	0.024108997
234	0xbd905cea	-0.07048972
235	0xbcd787cd	-0.026309872
236	0xbdb8292f	-0.0899223
237	0x3e0a31d0	0.13495564
238	0xbc2f313c	-0.010692891
239	0x3df41d51	0.11919654
240	0xbe039c31	-0.12852551
241	0x3dd8f390	0.10593331
242	0xbc3b92ce	-0.011448575
243	0x3d2dccea	0.04243175
244	0x3bf8871f	0.007584467
245	0xbd6079d3	-0.05480368
246	0xbd3a7258	-0.045519203
247	0x3dbefa13	0.093250416
248	0xbd0a16ba	-0.03371308
249	0x3e27ee2d	0.1639945
250	0xbd414066	-0.047180556
251	0xbbbfaa04	-0.005849125
252	0xbd5aa565	-0.05338039
253	0x3d8893b6	0.066687986
254	0x3d8dc723	0.06922748
255	0xbd615a59	-0.055017803
