models/lstm/msft_lstm_autoencoder.pth (torch, 229096 bytes, 14 tensors)

encoder.lstm.weight_ih_l0 f4 [256, 5]
0	0x3dfa41ef	0.12219607
1	0x3d82d71c	0.06388685
2	0x3bc21e03	0.005923988
3	0xbd5e9b0e	-0.05434709
4	0x3e142dfa	0.14470664
5	0xbc731308	-0.01483608
6	0x3b287b87	0.0025708394
7	0xbdbe59b9	-0.09294457
8	0x3e042fc1	0.12908842
9	0xbde20cfd	-0.110376336
10	0xbd35f569	-0.044423494
11	0x3c164401	0.009171487
12	0x3db302bf	0.08740758
13	0x3df6adf5	0.120448984
14	0x3dad1aa2	0.084523454
15	0xbd6e9935	-0.05825158
16	0xbddffcf9	-0.109369226
17	0x3c2b8c22	0.010470422
18	0x3df2f342	0.11862804
19	0x3da76c18	0.08174914
20	0x3da02009	0.0781861
21	0x3dbc1ba1	0.09184957
22	0xbc58f331	-0.013241575
23	0xbd9b6ace	-0.07588731
24	0x3d808bc4	0.06276658
25	0xbb8a4d7a	-0.0042206617
26	0x3e0adeae	0.13561508
27	0x3dfa6303	0.12225916
28	0xbd880900	-0.066423416
29	0xbd237f81	-0.03991652
30	0x3ddf4b10	0.10902989
31	0xbd971958	-0.07377881
32	0x3daef8b5	0.08543531
33	0xbc933041	-0.017967345
34	0xbd3f1179	-0.046647523
35	0xbd9920f0	-0.074769855
36	0xbd965d4c	-0.07342014
37	0x3e0240bc	0.12720007
38	0x3d928195	0.07153622
39	0x3c8773a3	0.016534632
40	0x3d64382a	0.055717625
41	0x3df6d112	0.12051596
42	0x3d73c68b	0.059515517
43	0x3bdcc303	0.0067371144
44	0x3dfabcca	0.1224304
45	0x3d458a16	0.048227392
46	0x3e014d3e	0.12627122
47	0xbde515ed	-0.11185823
48	0xbd0ec575	-0.03485628
49	0x3dad478b	0.08460911
50	0x3d9c7a3d	0.076405026
51	0x3dfa8cd0	0.12233889
52	0x3db3f299	0.08786506
53	0x3ded02aa	0.11572774
54	0xbc90c527	-0.017672135
55	0x3c7b36f7	0.015332929
56	0x3d9a3643	0.07529881
57	0xbe116f28	-0.14202559
58	0xbd2be720	-0.041968465
59	0x3dc9b2c1	0.09848548
60	0x3cce6574	0.025194861
61	0xbc0155e9	-0.007894018
62	0x3dd3fbe0	0.10350776
63	0x3b0390fc	0.002007543
64	0x3e15595b	0.14584868
65	0xbdaa93e6	-0.08328991
66	0x3dafc04d	0.085816
67	0x3cfdfd57	0.03100459
68	0x3df532f4	0.11972609
69	0x3cb64b77	0.022252781
70	0x3e0cece6	0.13762245
71	0x3c851bf3	0.016248679
72	0xbd70ab99	-0.0587574
73	0x3cf711d5	0.03015987
74	0x3dd2edb5	0.10299245
75	0x3d97b5c5	0.07407717
76	0x3d697359	0.05699477
77	0x3dc23372	0.09482469
78	0x3df1b146	0.1180139
79	0x3bbdd1de	0.0057928404
80	0xbc88b9c5	-0.016690144
81	0xbaee6890	-0.0018189121
82	0x3d295b7e	0.04134702
83	0x3d0e2486	0.0347028
84	0xbdfd4b64	-0.12367895
85	0xbd393151	-0.045213047
86	0x3d50d23f	0.050981756
87	0x3d1cd009	0.038284335
88	0xbda3e5ef	-0.08002841
89	0x3c59a654	0.013284285
90	0xbd5f271b	-0.054480653
91	0x3db968dd	0.09053204
92	0x3db0c33c	0.08630988
93	0x3d4447ec	0.047920153
94	0x3b40c25b	0.002941272
95	0x3e072637	0.13198172
96	0xbdb4f5b0	-0.08835924
97	0xbc9e92bf	-0.019357083
98	0x3de63d2f	0.112421386
99	0x3d702e68	0.058638006
100	0xbcb2a3a8	-0.021806553
101	0xbd6eae99	-0.058271978
102	0x3bdf205e	0.0068092784
103	0x3daa202e	0.08306919
104	0x3c39dc82	0.011344077
105	0x3db9303b	0.09042402
106	0xbcc3b8de	-0.023891862
107	0xbdd18ac7	-0.10231548
108	0x3b4b3d0c	0.0031011729
109	0x3de0f87b	0.10984894
110	0x3d0a69e8	0.033792406
111	0xbe06a632	-0.13149336
112	0xbe121fc2	-0.14269927
113	0x3c8b62aa	0.01701482
114	0x3e520f3b	0.20513622
115	0xbdf92662	-0.12165524
116	0xbdd96e9f	-0.106168024
117	0xbc286814	-0.01027872
118	0x3d7e26fe	0.062048905
119	0x3b81c324	0.00396003
120	0x3d013e45	0.031553525
121	0xbd12b34c	-0.035815522
122	0x3d898c8e	0.06716262
123	0x3d7e6d3d	0.062115896
124	0x3dd2c5be	0.102916226
125	0x3c1d6afe	0.009608028
126	0xbd5a75fd	-0.05333518
127	0x3da5e63c	0.08100554
128	0xbd7a493a	-0.06110499
129	0x3b4cfaf7	0.0031277516
130	0xbc94b3ea	-0.018152196
131	0x3d69faf3	0.05712409
132	0xbdc2007b	-0.09472748
133	0x3cd7ff10	0.02636674
134	0xbbfed5be	-0.007776945
135	0xbe1d88bd	-0.15384193
136	0xbdec2ae7	-0.115316205
137	0x3dbca58f	0.09211265
138	0x3d88a9ae	0.06672989
139	0xbe0916e8	-0.13387644
140	0xbdbe8598	-0.09302825
141	0xbbecf6fb	-0.007231591
142	0x3d2fd766	0.04293003
143	0x3d152b22	0.036418088
144	0xbb89fcce	-0.004211045
145	0xbd243a68	-0.040094763
146	0xbdb7d283	-0.08975699
147	0x3e020393	0.12696676
148	0x3dea7044	0.11447194
149	0x3e203df5	0.15648635
150	0x3db75586	0.08951859
151	0x3e059725	0.13045938
152	0x3d38bce1	0.045102004
153	0xbd9595e0	-0.07303977
154	0x3d4ce883	0.050026428
155	0x3ce10375	0.027467469
156	0xbd506b2b	-0.050883453
157	0xbdae1c04	-0.08501437
158	0xbcc9d209	-0.024636285
159	0xbce27943	-0.027645713
160	0x3dd190a4	0.10232666
161	0x3df045c9	0.117320605
162	0x3d7dc28c	0.061953112
163	0x3dba0a3f	0.090839855
164	0xbd0c1417	-0.034198847
165	0xbd570fe1	-0.052505378
166	0x3db2b50d	0.08725939
167	0x3d2ef830	0.04271716
168	0xbd378295	-0.044802267
169	0x3d73e4e2	0.05954445
170	0x3be6fd5b	0.0070492453
171	0x3c59a9c0	0.0132851
172	0x3da42b24	0.08016041
173	0xbb42f9f3	-0.0029751032
174	0xbd11bf07	-0.03558257
175	0x3caef7d2	0.021358404
176	0x3c8c2977	0.017109616
177	0xbd2d35f4	-0.04228778
178	0xbd6af0b6	-0.057358466
179	0x3de39a3e	0.11113404
180	0x3deb6d01	0.114954
181	0x3d8f2087	0.06988626
182	0xbd4acd42	-0.049512155
183	0x3d056422	0.032566197
184	0xbd1f9764	-0.038962737
185	0xbda726bb	-0.08161684
186	0x3d43070b	0.04761414
187	0xbd8de24a	-0.06927927
188	0x3e082cb6	0.13298306
189	0x3e3fd663	0.18734126
190	0x3db3db3d	0.08782051
191	0x3d42fd29	0.047604714
192	0x3df5c1d9	0.11999864
193	0xbd0763fc	-0.033054337
194	0x3d8fb9f0	0.07017887
195	0x3d87f2b1	0.066380866
196	0xbd05c3d3	-0.032657456
197	0xbc5bb615	-0.013410111
198	0x3dd836a6	0.10557298
199	0x3cc3960a	0.023875255
200	0x3d879364	0.066199094
201	0x3decf3bd	0.11569927
202	0xbbcb739e	-0.006208851
203	0x3e13e7a5	0.14443834
204	0x3c021301	0.007939101
205	0x3cd93baf	0.026517717
206	0x3df58f43	0.11990216
207	0x3dc675df	0.09690451
208	0x3ded44a3	0.11585357
209	0x3be6aa97	0.007039379
210	0x3dc7bc41	0.097527035
211	0xbda2037c	-0.07910821
212	0x3db08376	0.08618824
213	0xbdef3600	-0.116802216
214	0x3e26d1cf	0.16290973
215	0xbdb6e984	-0.08931258
216	0xbd19471b	-0.037421327
217	0x3cf1493b	0.029453864
218	0x3d8ad1a6	0.067782685
219	0xbd0517b9	-0.032493327
220	0x3d174766	0.036933325
221	0x3e1a6896	0.15078959
222	0xbd80cdfd	-0.06289289
223	0x3dda39ad	0.10655532
224	0x3e0c4d1c	0.1370129
225	0x3ddb862f	0.10718953
226	0x3d880500	0.06641579
227	0xbca19861	-0.01972598
228	0x3de43bc4	0.11144212
229	0xbc8d1519	-0.017221974
230	0xbb2262c3	-0.0024778105
231	0x3d2228a9	0.039589558
232	0xbd6eccb9	-0.058300707
233	0x3d8b204e	0.06793271
234	0xbdc63361	-0.096777685
235	0x3e09ee6a	0.13469854
236	0x3e16a74a	0.14712253
237	0xbd955912	-0.072923794
238	0xbd60df9b	-0.054900747
239	0x3a4db23b	0.0007846688
240	0xbd81339b	-0.06308671
241	0x3d8b5a4b	0.068043314
242	0xbd71136c	-0.058856413
243	0x3d5ea5aa	0.05435721
244	0x3e657870	0.22409225
245	0xbdba1d33	-0.090876006
246	0x3e16feaa	0.14745584
247	0x3e06389f	0.13107537
248	0x3d9f66d3	0.07783284
249	0x3dd8701f	0.105682604
250	0x3c68a685	0.014199858
251	0x3e068667	0.13137208
252	0xbdb999e4	-0.090625554
253	0x3da578c9	0.080796786
254	0x3e06e732	0.13174132
255	0xbcf86952	-0.030323658

encoder.lstm.weight_hh_l0 f4 [256, 64]
0	0x3cb3696c	0.021900855
1	0xbd1ecf02	-0.038771637
2	0x3dc86990	0.097857594
3	0xbd2d5280	-0.042315006
4	0xbdbee066	-0.09320144
5	0x3c7d1ae1	0.015448303
6	0x3c8b2eb3	0.016990041
7	0x3e0fcbed	0.14042635
8	0xbd8bacac	-0.06820044
9	0x3e09a57e	0.13442037
10	0x3c94ab1f	0.018148003
11	0xbe0d0f9e	-0.13775489
12	0x3ab9a939	0.0014164812
13	0x3d551493	0.052021574
14	0x3da2953e	0.07938622
15	0xbca79baa	-0.020459969
16	0xbe14ef9f	-0.14544533
17	0xbd265ef1	-0.040617887
18	0xbd72f0ba	-0.059311606
19	0x3cfb6a0e	0.03069022
20	0xbd5b75d5	-0.05357917
21	0x3db33ec8	0.08752209
22	0x3e05f5ba	0.13082018
23	0xbd45b940	-0.04827237
24	0x3c41fe48	0.0118404105
25	0x3e0505e9	0.12990536
26	0x3dc189d4	0.09450117
27	0xbcf32427	-0.029680325
28	0xbd07907a	-0.033096768
29	0xbdc9e36e	-0.09857832
30	0xbd991e8b	-0.07476529
31	0xbd9b17b2	-0.07572879
32	0xbd44945b	-0.047993045
33	0xbdfe4848	-0.1241613
34	0xbdc4d5d7	-0.09611099
35	0xbd856875	-0.06514064
36	0xbde3787d	-0.11106966
37	0x3daf97b1	0.08573855
38	0xbde0112e	-0.10940777
39	0x3dc7dcb1	0.097588904
40	0x3d97515e	0.073885664
41	0x3d0cef3f	0.03440785
42	0xbc227713	-0.009916085
43	0xbc99b529	-0.018763142
44	0x3ae47907	0.0017431088
45	0x3d5473d8	0.05186829
46	0xbd2782d5	-0.040896256
47	0x3c76edbe	0.015071331
48	0xbdb81c05	-0.08989719
49	0x3d4f946c	0.050678656
50	0x3d39b17a	0.04533527
51	0x3c62cc9b	0.013842727
52	0xbd377cba	-0.044796683
53	0x3dd33f68	0.10314828
54	0xbd820e92	-0.06350435
55	0xbcce0277	-0.02514766
56	0x3d1355f1	0.035970632
57	0x3cb66c6c	0.022268496
58	0xbc695ebb	-0.014243777
59	0x3db0b609	0.086284705
60	0xbd398150	-0.045289338
61	0xbaab260e	-0.0013057606
62	0x3d7a14da	0.06105504
63	0xbd68a259	-0.05679545
64	0x3da46045	0.080261745
65	0x3e014b1d	0.1262631
66	0x3e053039	0.13006677
67	0x3c3a481b	0.01136973
68	0xbcd1d896	-0.025615972
69	0x3da5c2c6	0.08093791
70	0x3d9a13a4	0.075232774
71	0x3ce0bdee	0.027434316
72	0x3d42d05e	0.047561996
73	0x3d9469fc	0.072467774
74	0xbdcc32fa	-0.099706605
75	0xbdd214fb	-0.10257908
76	0xbd8aab7c	-0.06770989
77	0xbd21881f	-0.039436456
78	0x3ddf4730	0.1090225
79	0x3d2ecfa7	0.0426785
80	0x3c565737	0.013082317
81	0xbde58085	-0.11206154
82	0x3db06e15	0.086147465
83	0xbdcb5386	-0.0992804
84	0xbe0b3c54	-0.13597232
85	0x3df685b6	0.12037222
86	0xbdd0b971	-0.1019162
87	0x3c1625b7	0.009164265
88	0x3db32d9d	0.087489344
89	0xbdc73635	-0.09727136
90	0xbd427785	-0.047477264
91	0x3d145774	0.036216214
92	0xbdcd52d7	-0.10025566
93	0xbbe63546	-0.0070253937
94	0x3d8dabe7	0.069175534
95	0xbc74f83b	-0.014951761
96	0xbe0c4298	-0.13697278
97	0xbda5040a	-0.08057411
98	0xbda545eb	-0.080699764
99	0xbd65fb37	-0.05614778
100	0xbdf5a58d	-0.11994467
101	0xbd5b33d1	-0.053516213
102	0xbd9922c6	-0.07477336
103	0x3d0dd5a9	0.03462759
104	0x3be3ef8f	0.006956048
105	0xbc84f199	-0.016228484
106	0xbd82136a	-0.06351359
107	0xbcde9fdc	-0.027175836
108	0xbdd725ed	-0.10505281
109	0xbda3ab72	-0.07991685
110	0x3dfcb6d4	0.12339559
111	0x3df55165	0.119784154
112	0x3da9a0c7	0.08282619
113	0xbd512b10	-0.05106646
114	0x3df3059f	0.118663065
115	0xbde3920a	-0.11111839
116	0xbddd67aa	-0.10810788
117	0x3d1ed425	0.038776536
118	0xbde94f9f	-0.1139214
119	0xbc0218fa	-0.007940525
120	0xbd8fdc83	-0.07024481
121	0xbced2574	-0.028948523
122	0x3d2bfcce	0.04198914
123	0xbd99c581	-0.07508374
124	0x3c9aff2f	0.01892051
125	0x3cc09b27	0.023511482
126	0x3dc98665	0.09840087
127	0xbd74f317	-0.05980214
128	0x3da625e3	0.08112695
129	0x3da214b8	0.07914108
130	0x3d79df9a	0.06100426
131	0xbdaaae0a	-0.083339766
132	0xbd80beff	-0.062864296
133	0x3d40fd19	0.047116373
134	0x3e07f162	0.13275674
135	0x3b539b6b	0.0032288681
136	0xbd69059a	-0.056890108
137	0xbd8bc6db	-0.06825038
138	0x3d539829	0.051658783
139	0x3d8a0afa	0.06740375
140	0x3d275804	0.040855423
141	0x3c7adc13	0.015311259
142	0x3d193723	0.037406098
143	0x3da94628	0.08265334
144	0xbd6fa2a1	-0.058504704
145	0x3ddf4929	0.10902626
146	0x3cbf40de	0.02334636
147	0x3da5ac6a	0.08089526
148	0xbe0002be	-0.12501046
149	0xbbcb3401	-0.0062012677
150	0x3b84582e	0.004038832
151	0x3c513668	0.012769319
152	0xbca0cc98	-0.019628808
153	0xbbe97d42	-0.0071255276
154	0x3b0b54c7	0.0021260248
155	0xbc74f6cb	-0.014951418
156	0x3d482e84	0.048872486
157	0xbcc9b0bd	-0.024620408
158	0x3db10123	0.08642795
159	0xbdc7ddf9	-0.09759135
160	0x3d50031f	0.050784227
161	0xbd4e52e7	-0.05037203
162	0x3c0f037f	0.008728861
163	0xbabb5540	-0.0014292374
164	0x3cfd360c	0.03090956
165	0x3d8a366c	0.067486614
166	0xbdecea95	-0.115681805
167	0xbd8d7179	-0.06906409
168	0x3d8e84a0	0.0695889
169	0x3df300a0	0.118653536
170	0xbd810590	-0.06299889
171	0x3d0b3140	0.033982515
172	0xbdb1ef60	-0.08688235
173	0x3d153bfc	0.03643416
174	0xbc96cf8a	-0.01840951
175	0x3cbcc1e1	0.023041667
176	0xbc47f94b	-0.012205432
177	0x3cdfce2f	0.027319996
178	0x3c943b34	0.018094636
179	0x3d7e5852	0.062095948
180	0xbde8222b	-0.11334642
181	0x3d03e7aa	0.032203354
182	0x3bfc7d9c	0.0077054035
183	0x3ddfc7b0	0.10926759
184	0x3d6cf1f1	0.05784792
185	0xbd4ae0f4	-0.04953094
186	0x3dc7629c	0.09735605
187	0x3dbf13b2	0.093299285
188	0x3cd21cdb	0.025648525
189	0x3d9e285f	0.07722544
190	0xbdb51436	-0.088417456
191	0xbc85d3b7	-0.016336305
192	0xbe09bebc	-0.13451666
193	0xbdc3a127	-0.09552222
194	0xbbcd2a6a	-0.0062611597
195	0xb8432738	-4.652815e-05
196	0x3d984243	0.074345134
197	0xbdb5b42e	-0.08872257
198	0xbc786102	-0.015159847
199	0x3cb05bf7	0.021528227
200	0x3da03130	0.07821882
201	0xbdbef3bf	-0.09323835
202	0xbe049ff9	-0.1295165
203	0xbcba1ffd	-0.022720331
204	0xbe001d99	-0.1251129
205	0xbcf784e0	-0.030214727
206	0x3cfb89b8	0.030705318
207	0x3da86c7e	0.08223818
208	0xbe05bdd1	-0.1306069
209	0xbdc2365f	-0.09483027
210	0xbd06c3b4	-0.03290148
211	0x3da46665	0.08027343
212	0x3dbb4974	0.091448694
213	0xbc65df1d	-0.014030245
214	0x3e190867	0.14944611
215	0xbdc1d37c	-0.094641656
216	0x3d668137	0.056275573
217	0x3d06b0d8	0.032883495
218	0x3dd124ac	0.10212073
219	0xbc287cfe	-0.010283707
220	0x3c806f54	0.015678085
221	0x3d1d3a32	0.038385577
222	0xbd5c197e	-0.05373525
223	0x3c214b46	0.009844607
224	0xbc9533a0	-0.018213093
225	0xbe058546	-0.13039121
226	0xbd39e35b	-0.04538284
227	0x3d3ae633	0.04562969
228	0xbde37630	-0.11106527
229	0xbdd31c31	-0.103081115
230	0xbdbb4046	-0.091431186
231	0x3d800391	0.0625068
232	0x3c21787f	0.009855389
233	0xbd1becc6	-0.0380676
234	0x3dbe11c2	0.09280731
235	0x3bd8854d	0.0066076876
236	0xbd026c05	-0.031841297
237	0x3d555381	0.05208159
238	0x3d38d061	0.0451206
239	0xbcbfafcb	-0.023399254
240	0xbdd56fb1	-0.10421694
241	0x3d10226b	0.035189074
242	0x3dbdcf49	0.09268052
243	0xbe33a695	-0.17544015
244	0x3dbff56c	0.093729824
245	0xbc1ed00c	-0.009693157
246	0x3c049878	0.008092992
247	0x3d7f7e07	0.06237605
248	0x3cc64c20	0.024206221
249	0x3d1f2224	0.03885092
250	0xbe16d04f	-0.14727901
251	0xbd13165a	-0.035909988
252	0xbbbc5c44	-0.0057483036
253	0xbd50f1c0	-0.0510118
254	0x3d035368	0.032061964
255	0xbd155a56	-0.036463104

encoder.lstm.bias_ih_l0 f4 [256]
0	0x3ddfc817	0.10926836
1	0x3dda2cd2	0.1065308
2	0xbd7ab9d0	-0.06121236
3	0x3d992cdb	0.074792586
4	0x3e12c650	0.14333463
5	0x3dded4be	0.10880421
6	0x3d705cf8	0.058682412
7	0x3d1cf05b	0.03831516
8	0xbd494cd5	-0.04914554
9	0xbcc31f54	-0.02381865
10	0xbcdeef1f	-0.027213631
11	0x3cb1a081	0.02168298
12	0x3c364254	0.011124212
13	0xbc4de869	-0.012567618
14	0x3dcd9b70	0.10039413
15	0xbd25bfcd	-0.04046612
16	0x3ddf4202	0.10901262
17	0x3b93d270	0.00451117
18	0x3d697b84	0.05700256
19	0xbd000f7e	-0.031264775
20	0x3ccf8972	0.025334094
21	0x3c09f9e1	0.008421392
22	0xbae45d0e	-0.0017422752
23	0x3bb74a52	0.0055935765
24	0x3d02089d	0.031746496
25	0x3c840979	0.016117798
26	0xbcb3e3da	-0.021959234
27	0xbc3be36f	-0.011467799
28	0xbda7d382	-0.08194639
29	0x3ddee904	0.10884288
30	0x3dd1f019	0.10250873
31	0xbc7314fe	-0.014836548
32	0xbd3fd38a	-0.0468326
33	0x3c3761d5	0.011192759
34	0xbd20dfb9	-0.03927586
35	0x3d528526	0.05139651
36	0xbdc3b5cf	-0.095561616
37	0xbd92cdac	-0.07168135
38	0x3d9c426e	0.07629858
39	0x3b2e4e4a	0.0026596957
40	0x3d87897a	0.066180184
41	0xbde9599b	-0.11394044
42	0xbdb6868a	-0.0891238
43	0xbcd51387	-0.026010288
44	0x3d81e308	0.06342131
45	0x3cb8c6f1	0.0225558
46	0xbdaa9b2f	-0.0833038
47	0xbd678f17	-0.056532945
48	0x3d0dddfa	0.03463552
49	0xbd96591a	-0.073412135
50	0xbdef1cc9	-0.11675412
51	0xbdce1087	-0.10061746
52	0x3d62c747	0.055365827
53	0xbb871c0c	-0.0041232165
54	0x3d078cbc	0.0330932
55	0xbd83da30	-0.064381
56	0x3db36890	0.08760178
57	0x3de44cc0	0.111474514
58	0xbdb2f61a	-0.087383464
59	0x3d964401	0.073371895
60	0x3b85bd25	0.0040813857
61	0x3cebb58f	0.028773097
62	0xbccc5ad8	-0.024945661
63	0xbda34b80	-0.07973385
64	0xbc21c868	-0.009874441
65	0xbc529f07	-0.012855298
66	0xbdbec179	-0.09314246
67	0x3d1c8bd6	0.038219295
68	0x3e125697	0.14290844
69	0xbd4950fe	-0.049149506
70	0xbdcbf329	-0.099584885
71	0x3cc63ed7	0.024199886
72	0x3e143656	0.14473853
73	0x3d28ea4b	0.041239064
74	0xbc9b638f	-0.018968372
75	0xbd234fb4	-0.039870933
76	0x3c77706e	0.015102489
77	0x3de1b125	0.11020116
78	0x3d47d3be	0.048785917
79	0xbca248ca	-0.0198101
80	0x3d1bf4f0	0.038075387
81	0x3d385ede	0.045012347
82	0x3d8420ab	0.064515434
83	0xbce90d15	-0.02844862
84	0x3d8b3236	0.06796686
85	0x3d349914	0.0440913
86	0xbd4c14fa	-0.049824692
87	0xbe07d22f	-0.13263772
88	0x3e0c0546	0.13673887
89	0x3e06a36e	0.13148281
90	0xbb383861	-0.0028109776
91	0xbe08f9ae	-0.13376495
92	0x3c541f8f	0.012946977
93	0x3e052c18	0.13005102
94	0xbda480b8	-0.08032364
95	0x3db9e7f6	0.09077446
96	0xbc516b1e	-0.012781886
97	0xbdf839f3	-0.12120428
98	0xbb12d82d	-0.0022406683
99	0x3d8c1b6e	0.06841169
100	0x3c0aa947	0.00846321
101	0x3e0072c7	0.12543784
102	0x3dd149e7	0.10219174
103	0x3daede08	0.08538443
104	0xbdac8c8e	-0.08425246
105	0x3cab5042	0.020912293
106	0xbdbe1540	-0.09281397
107	0xbc8f2e0c	-0.017478012
108	0x3cc51fae	0.024062958
109	0x3c6b162c	0.014348548
110	0xbdd90fd6	-0.105987236
111	0xbd05868d	-0.03259902
112	0x3db7c859	0.0897376
113	0xbdeff01d	-0.1171572
114	0x3d7614b6	0.060078345
115	0x3d987fa4	0.074462205
116	0xbd6cf111	-0.057847086
117	0x3d264941	0.040597204
118	0xbdc55920	-0.0963614
119	0x3e05413d	0.13013168
120	0x3e02c8e9	0.12771954
121	0xbacd4d11	-0.0015663226
122	0x3db00710	0.08595097
123	0x3dd80f6c	0.105498165
124	0x3db94f83	0.09048369
125	0x3d434ab7	0.047678676
126	0xbd812055	-0.06304995
127	0x3de8658f	0.11347496
128	0x3df12fee	0.1177672
129	0x3d487f7d	0.048949707
130	0x3cb9ef83	0.022697216
131	0x3d680b3d	0.056651343
132	0xbd2e2e96	-0.042524897
133	0xbd55c0f1	-0.052185956
134	0x3d0a3eef	0.033751424
135	0x3de74f61	0.11294437
136	0xbdc22b4f	-0.09480917
137	0x3d5f2cf9	0.05448625
138	0xbd9989b0	-0.07496965
139	0xbdaa4805	-0.08314518
140	0xbd11226c	-0.035433218
141	0xbc4823dd	-0.012215582
142	0xbbfc8c11	-0.007707127
143	0x3d963a26	0.0733531
144	0xbd388dff	-0.045057293
145	0xbd8d2337	-0.06891482
146	0x3d2964b3	0.0413558
147	0xbdde1c7a	-0.10845275
148	0x3d51d950	0.051232636
149	0xbcd14ec1	-0.025550248
150	0xbb4474b0	-0.0029976778
151	0x3cfdbade	0.030972894
152	0x3cab2032	0.020889375
153	0x3d4b23b0	0.04959458
154	0x3dcd0e24	0.10012463
155	0x3d6948b4	0.0569541
156	0x3d18fabf	0.037348505
157	0xbcb49c0f	-0.02204707
158	0xbd94ac0e	-0.07259379
159	0x3ca02567	0.019549085
160	0xbb7aa734	-0.0038246633
161	0xbd6ea97e	-0.05826711
162	0xbd5fa1dc	-0.05459772
163	0x3d924b7f	0.07143306
164	0x3dab0d38	0.08352131
165	0x3bb6736a	0.0055679576
166	0xbd8101fb	-0.06299206
167	0xbd79474a	-0.060859002
168	0x3d380160	0.044923186
169	0x3dd6cbb9	0.10488076
170	0xbb5fcc55	-0.003414889
171	0x3ddb640c	0.10712442
172	0xbd885c5f	-0.066582434
173	0x3da47bd5	0.080314316
174	0x3d25d837	0.0404894
175	0x3dcacfa3	0.09902885
176	0x3de37936	0.111071035
177	0x3dddd0b6	0.10830824
178	0xbd52f386	-0.051501773
179	0x3c38b860	0.011274427
180	0xbd5c7de3	-0.053830992
181	0x3dc02c46	0.093834445
182	0xbcb4e0d5	-0.022079865
183	0xbd10f822	-0.035392888
184	0x3db22210	0.08697903
185	0x3dd784ca	0.105233744
186	0x3dcaaaa1	0.09895826
187	0xbd152f20	-0.036421895
188	0xbdd0091c	-0.101579875
189	0xbde18b70	-0.11012924
190	0xbd85e7ea	-0.06538375
191	0xbc2317cc	-0.009954404
192	0x3da2a662	0.07941891
193	0xbd948773	-0.072523974
194	0x3dbfa499	0.093575664
195	0x3dfa5334	0.12222901
196	0xbda5ef47	-0.08102279
197	0xbbfb0bcb	-0.007661318
198	0x3db69232	0.08914603
199	0xbd44f77f	-0.048087593
200	0xbc5eaf20	-0.013591558
201	0x3d7ba9cc	0.061441228
202	0x3e0810ac	0.1328761
203	0x3c09d1a0	0.008411795
204	0x3c028276	0.007965675
205	0xbd6669dc	-0.0562533
206	0x3d8ef0ab	0.069794975
207	0x3df45893	0.11930957
208	0xbd9b6e4d	-0.075893976
209	0xbdbf740c	-0.09348306
210	0xbd391050	-0.045181572
211	0xbd32518e	-0.043534808
212	0xbd26b747	-0.04070213
213	0x3a10efce	0.0005528898
214	0x3e103037	0.14080893
215	0x3d53c2a0	0.05169928
216	0xbd8e4119	-0.0694601
217	0xbc361a4c	-0.011114668
218	0xbda7afcf	-0.0818783
219	0x3d526fb7	0.05137607
220	0xbdc233fd	-0.09482572
221	0x3d223922	0.039605267
222	0xbd57d145	-0.05268981
223	0xbdb47241	-0.08810855
224	0x3d8a7e91	0.06762422
225	0xbbf82c97	-0.007573675
226	0xbda18a7e	-0.078877434
227	0x3d88c402	0.066780105
228	0x3de37de5	0.11107997
229	0x3d70d6e6	0.058798693
230	0xbd1f330b	-0.038867038
231	0x3b8cccc5	0.0042968714
232	0x3dbdbf81	0.09265042
233	0xbcab05a7	-0.020876719
234	0x3e098c93	0.13432531
235	0xbd684717	-0.05670842
236	0x3e1a8740	0.15090656
237	0xbda0b946	-0.07847838
238	0x3dded937	0.10881274
239	0x3dcc85ed	0.09986482
240	0x3da05cbe	0.07830189
241	0x3dd3306c	0.1031197
242	0x3d2b2b4d	0.04178934
243	0x3dcfa5e5	0.10139064
244	0xbd09c57f	-0.033635613
245	0x3cd862bf	0.026414273
246	0xbde8c714	-0.11366096
247	0x3d7f9fc3	0.06240822
248	0x3dde58c0	0.108567715
249	0xbd0d47e5	-0.034492392
250	0xb9d8a7f4	-0.00041323865
251	0xbda4efe4	-0.08053568
252	0x3dd30c95	0.10305134
253	0xbcee3d65	-0.02908201
254	0x3c74b06f	0.014934643
255	0x3cbaddba	0.022810806

encoder.lstm.bias_hh_l0 f4 [256]
0	0x3e0857cf	0.13314746
1	0xbc0e9f58	-0.008704983
2	0xbc82c1df	-0.015961586
3	0xbd40557b	-0.04695652
4	0x3dbc0da6	0.09182291
5	0xbdadb090	-0.08480942
6	0xbd92ad19	-0.07161922
7	0x3de2a892	0.110673085
8	0xbd999fb9	-0.07501168
9	0x3dc42336	0.095770285
10	0x3ddb6fe7	0.10714703
11	0xba8d5218	-0.0010781912
12	0x3e11decb	0.14245145
13	0x3e0f349b	0.13984911
14	0x3e0835c8	0.13301766
15	0xbd7593cf	-0.059955414
16	0x3d441adc	0.047877178
17	0xbde23951	-0.110460885
18	0x3dc73690	0.09727204
19	0x3e0b92dc	0.13630241
20	0x3cb8ef32	0.022574995
21	0x3c0f3232	0.008739995
22	0xbd30f428	-0.043201596
23	0x3daaa15c	0.08331558
24	0x3bd99632	0.006640219
25	0x3db4e3a7	0.08832484
26	0xbdaf6cef	-0.08565699
27	0xbe09bd27	-0.13451062
28	0x3d58b148	0.052903444
29	0xbccbbd05	-0.024870405
30	0x3cf12db6	0.029440742
31	0x3df87e4a	0.12133463
32	0x3de1c3a5	0.11023644
33	0x3dbc60f3	0.09198179
34	0xbca2b3ff	-0.01986122
35	0xbd91d4e9	-0.071206875
36	0xbd4a16aa	-0.04933802
37	0x3cc3f227	0.023919178
38	0x3c97d2bd	0.018533105
39	0xbd7e3e46	-0.062071107
40	0xbdb9119c	-0.09036562
41	0x3db60745	0.08888105
42	0x3da88d16	0.08230035
43	0x3c90605e	0.017624076
44	0x3c67e26f	0.014153107
45	0xbdc85d0c	-0.09783372
46	0x3e033467	0.12812959
47	0xbcd9cdcb	-0.026587388
48	0xbdc6ff63	-0.0971668
49	0x3c707243	0.01467568
50	0x3c415a3b	0.011801298
51	0xbde72b4d	-0.11287556
52	0x3cdbe3c3	0.026842004
53	0xbd9cc979	-0.07655615
54	0x3c8c03bc	0.017091624
55	0xbd953aa1	-0.07286573
56	0x3c37f594	0.011227984
57	0x3d43bc83	0.0477872
58	0xbb4a39bf	-0.0030857173
59	0xbbbf4037	-0.0058365124
60	0x3ddc7331	0.107641585
61	0x3b828139	0.0039826897
62	0xbdc8c45e	-0.09803079
63	0x3daf1e35	0.085506834
64	0xbdab960a	-0.08378227
65	0xbc2b5be9	-0.010458925
66	0xbd93ce2b	-0.07217058
67	0x3cc87eca	0.02447452
68	0x3dc06de9	0.09395964
69	0x3d0c724a	0.034288682
70	0x3e036dcf	0.12834857
71	0x3cda572f	0.0266529
72	0xbd34de89	-0.04415754
73	0xbd84df37	-0.06487887
74	0x3e072b01	0.13199998
75	0x3db4daa2	0.088307634
76	0xbd268460	-0.040653586
77	0x3dab1005	0.08352665
78	0x3d776306	0.06039717
79	0x3b9b24c3	0.004734607
80	0xbd9543c9	-0.072883196
81	0xbd865aec	-0.06560311
82	0xbdd1c407	-0.102424674
83	0x3d3d57e8	0.046226412
84	0xbd9dc35a	-0.07703276
85	0x3cdef3c3	0.027215844
86	0x3dd49f12	0.10381903
87	0x3c81091d	0.015751416
88	0x3d263668	0.04057923
89	0x3e07139e	0.13191077
90	0x3dc3ae30	0.09554708
91	0x3ba31644	0.0049770195
92	0xbd0b8cd1	-0.03406984
93	0x3e1d91cd	0.1538765
94	0xbd593869	-0.053032313
95	0xbdc64334	-0.09680787
96	0xbd7c6594	-0.06162031
97	0xbd99a27d	-0.07501695
98	0x3dfd39a7	0.12364512
99	0xbc88a4fb	-0.016680231
100	0x3cff46c7	0.031161679
101	0xbd58317e	-0.052781574
102	0x3e018790	0.12649369
103	0xbdddeab0	-0.10835779
104	0x3c6a9618	0.014318012
105	0x3d1e1dcd	0.03860264
106	0x3dd731f6	0.10507576
107	0x3d415d06	0.047207855
108	0x3da26d7e	0.0793104
109	0xbc4ec8b6	-0.012621095
110	0xbd770f12	-0.060317107
111	0x3bd6b3b8	0.006552186
112	0x3bf90cc9	0.007600401
113	0x3cd81ccb	0.026380917
114	0x3d4129a9	0.04715887
115	0xbd98b576	-0.07456486
116	0x3dedd821	0.11613489
117	0xbd933325	-0.071874894
118	0xbd9b222c	-0.07574877
119	0xbd6d0938	-0.05787012
120	0x3e137c1d	0.14402814
121	0xbc7095c2	-0.014684143
122	0x3d6d3a8c	0.057917163
123	0xbc96a2fe	-0.018388268
124	0xbd93db35	-0.07219545
125	0x3dc8c492	0.09803118
126	0xbd5ccdaa	-0.053907074
127	0x3d714bd9	0.058910225
128	0x3c8cb19d	0.017174536
129	0x3d73ec32	0.059551425
130	0xbc62a6f1	-0.013833747
131	0x3dc27e61	0.09496761
132	0x3b79540e	0.0038044485
133	0x3df0b3ab	0.11753019
134	0x3dac7b74	0.08421984
135	0xbd90a177	-0.07062047
136	0xbd9717d8	-0.07377595
137	0xbd21f1d9	-0.039537285
138	0x3d8d1c1d	0.06890128
139	0x3d537964	0.05162944
140	0x3e03a8f0	0.12857413
141	0x3bdb76a7	0.006697494
142	0x3cc5faa9	0.024167376
143	0xbd95c012	-0.07312025
144	0xbdbaef89	-0.09127719
145	0xbc583e34	-0.013198424
146	0x3bfa13a6	0.007631737
147	0x3d8d9686	0.06913476
148	0xbdd58f9c	-0.10427782
149	0x3c93bc42	0.018034104
150	0x3e03a66b	0.12856452
151	0x3c1a640f	0.00942327
152	0x3d42940c	0.04750447
153	0x3dc1a918	0.0945608
154	0x3dcbec26	0.09957151
155	0x3cfc5dc4	0.03080643
156	0x3da79bf7	0.08184045
157	0xbb1f300a	-0.0024290108
158	0xbd98ff44	-0.07470563
159	0xbd635639	-0.05550215
160	0xbc1a6c89	-0.009425291
161	0xbdaaf56b	-0.08347591
162	0x3dfd2b1d	0.12361739
163	0xbdaf1ea4	-0.08550766
164	0xbdf0d872	-0.11760034
165	0xbc8c2080	-0.017105341
166	0xbd8ffe83	-0.07030966
167	0xbc9ac493	-0.018892562
168	0x3adedec5	0.0017003646
169	0x3cf44906	0.029819977
170	0xbdfd0c8b	-0.12355908
171	0x3da2f37e	0.07956599
172	0xbb2037d5	-0.002444734
173	0x3cecc670	0.028903216
174	0xba38327e	-0.0007026567
175	0x3d2acb6a	0.041697897
176	0xbd046635	-0.032324035
177	0x3d1da574	0.038487867
178	0x3c6fc93c	0.01463538
179	0x3d4dcb58	0.05024275
180	0xbdbd0b80	-0.09230709
181	0xbc66f4ab	-0.014096419
182	0x3dfcb7e8	0.12339765
183	0x3cd32e60	0.02577895
184	0xbdfde802	-0.123977676
185	0xbdab69ec	-0.08369812
186	0xbc9a48a6	-0.01883347
187	0xbc531492	-0.012883322
188	0x3d518c25	0.051159043
189	0x3df11e92	0.11773409
190	0x3c3087c1	0.010774554
191	0x3dd39846	0.10331778
192	0x3daab814	0.08335891
193	0x3d9b89ad	0.07594619
194	0xbdc338a5	-0.095322885
195	0x3d592a21	0.053018693
196	0xbdcae483	-0.099068664
197	0xbdd054e3	-0.10172441
198	0x3c62dfcc	0.013847303
199	0x3dd939cf	0.10606729
200	0x3da2b8c1	0.07945395
201	0x3cbbd651	0.022929342
202	0x3e15fa22	0.146462
203	0xbc92de34	-0.01792822
204	0x3d021a45	0.031763334
205	0x3d07dd9d	0.03317033
206	0x3dcab86a	0.098984554
207	0xbca79fee	-0.020462003
208	0xbdb6c7a9	-0.08924801
209	0xbdbe689e	-0.09297298
210	0x3decbf32	0.11559905
211	0xbd92cadc	-0.071675986
212	0x3dd1693e	0.102251515
213	0xbd065ebe	-0.032805197
214	0x3db36727	0.08759909
215	0xbc3ce49a	-0.011529112
216	0xbd2608d3	-0.04053576
217	0x3d120322	0.03564752
218	0xbd77bb64	-0.060481444
219	0xbcda61bf	-0.026657937
220	0x3de322b1	0.11090601
221	0xbd22e358	-0.039767593
222	0x3cd129d4	0.02553264
223	0xbdde3257	-0.10849445
224	0x3c8b6641	0.017016532
225	0xbd88e4fb	-0.066842996
226	0x3dc3f934	0.09569016
227	0x3d9571f9	0.07297129
228	0xbdb3363d	-0.087505795
229	0x3e24af0f	0.16082405
230	0x3d59a6a1	0.053137425
231	0xbd062315	-0.0327483
232	0x3d731d67	0.059354212
233	0x3cbe6a67	0.023244096
234	0xbd625bb5	-0.05526324
235	0xbe00a0f2	-0.12561396
236	0xbdba3146	-0.090914294
237	0xbdd1702c	-0.10226473
238	0x3dbcef89	0.09225375
239	0xbde68af7	-0.11256974
240	0x3d33ccda	0.043896534
241	0xbde1cafc	-0.11025044
242	0x3cedffc8	0.02905263
243	0xbd246579	-0.040135834
244	0x3d668341	0.056277517
245	0x3d8d1ae9	0.06889898
246	0x3dac9fb0	0.084288955
247	0xbdada7ee	-0.08479296
248	0x3d3d4cdd	0.04621588
249	0xbdb1e1bb	-0.08685633
250	0xbd3c3f9b	-0.045959096
251	0x3e00f8e9	0.12594952
252	0xbc15e9b3	-0.0091499565
253	0x3d995f8f	0.074889295
254	0x3db6a9c2	0.089190975
255	0x3d565340	0.052325487

encoder.linear.weight f4 [32, 64]
0	0xbdd02bfd	-0.1016464
1	0xbd940b37	-0.072287016
2	0x3dadea7b	0.08491989
3	0x3cbd8529	0.023134785
4	0xbc6f90dc	-0.0146219395
5	0xbcae20e7	-0.021255923
6	0x3c9445c9	0.018099682
7	0x3d3c8260	0.046022773
8	0x3de829b9	0.11336083
9	0xbd0b1700	-0.03395748
10	0xbe105614	-0.14095336
11	0xbd619358	-0.05507216
12	0xbdebf538	-0.11521381
13	0x3e008e39	0.12554254
14	0xbde7c1f9	-0.11316294
15	0xbda4f71c	-0.08054945
16	0x3db066c2	0.086133495
17	0xbc20e720	-0.0098207295
18	0xbd573d92	-0.052548952
19	0x3de8c0b2	0.11364879
20	0xbd2b4a31	-0.0418188
21	0xbe005c7b	-0.12535278
22	0xbcb2fdfa	-0.021849621
23	0xbd9a0519	-0.075205036
24	0xbd6457cf	-0.055747803
25	0x3cda2df5	0.026633242
26	0xbda84a8a	-0.08217342
27	0xbde3f057	-0.111298256
28	0x3ddbac56	0.1072623
29	0x3e19bb96	0.15012965
30	0xbd78a943	-0.060708296
31	0x3d87abe6	0.06624584
32	0xbd19b7cc	-0.037528798
33	0xbdfb6a60	-0.12276149
34	0xbd73eeb0	-0.059553802
35	0xbd8dedbe	-0.06930111
36	0x3d7f74b4	0.062367156
37	0x3e10e16f	0.14148496
38	0xbdb8d0d9	-0.090242095
39	0xbd6a6ffb	-0.0572357
40	0xbd3e9729	-0.046530876
41	0xbd44c2c8	-0.04803732
42	0x3d1a2ceb	0.037640493
43	0x3d3e8cac	0.046520874
44	0xbe0a72ef	-0.13520406
45	0xbd84449e	-0.064584
46	0xbd427c6c	-0.04748194
47	0xbc46f9a5	-0.012144481
48	0xbe032f8c	-0.12811106
49	0x3dca7ffe	0.09887694
50	0x3d2588c4	0.040413633
51	0xbd84bc43	-0.064812206
52	0xbcbc7e8e	-0.023009565
53	0x3dbd7519	0.0925085
54	0xbdedf083	-0.116181396
55	0x3e2068c9	0.15664972
56	0x3db44029	0.088013
57	0x3d9194db	0.0710847
58	0x3bd82107	0.006595734
59	0x3d54ca95	0.05195101
60	0x3dc6c716	0.097059414
61	0x3d975d88	0.073908865
62	0x3c8e2031	0.017349334
63	0x3e1299a9	0.14316429
64	0xbc96eeb7	-0.018424375
65	0xbdc13f75	-0.094359316
66	0xbcd4590f	-0.025921373
67	0x3df10459	0.117684074
68	0xbd90c86b	-0.07069477
69	0xbd353e91	-0.04424912
70	0x3d81ec54	0.06343904
71	0x3cf97e87	0.03045584
72	0xbd9e9d29	-0.0774482
73	0xbde81e48	-0.11333901
74	0x3d255b27	0.040370133
75	0x3dae35c0	0.08506346
76	0x3d75341c	0.05986415
77	0x3db79a80	0.089650154
78	0x3deabc09	0.11461646
79	0xbd0fe7e6	-0.035133265
80	0x3d29ed84	0.04148628
81	0xbdc4f102	-0.09616281
82	0x3ca0265e	0.019549545
83	0x3c95de19	0.018294381
84	0xbd7cc5de	-0.06171214
85	0xbcc61bab	-0.024183115
86	0xbd0caf85	-0.034347076
87	0xbd609072	-0.054825254
88	0x3d903486	0.07041268
89	0x3cd749ac	0.026280247
90	0xbd6a0b57	-0.05713972
91	0xbdae7e2e	-0.085201606
92	0x3da49f4c	0.08038196
93	0xbd9c373a	-0.07627721
94	0xbda25417	-0.07926195
95	0xbbb09e9f	-0.005390003
96	0x3de6c9b3	0.1126894
97	0x3d8a3d79	0.06750006
98	0x3dc9ba79	0.0985002
99	0x3de69b2b	0.11260065
100	0x3df8a5f0	0.12141025
101	0xbcbfea36	-0.02342711
102	0xbd341a61	-0.04397047
103	0x3d9fba5a	0.077992156
104	0xbc2424a2	-0.0100185
105	0x3d483147	0.04887512
106	0xbd00f755	-0.031485874
107	0xbd833396	-0.064063236
108	0x3bf366ed	0.007428041
109	0x3c96d067	0.01840992
110	0x3da1fe09	0.079097815
111	0xbc42036d	-0.011841637
112	0xbc826e5f	-0.01592177
113	0xbda57acd	-0.08080063
114	0x3ddfdd06	0.10930829
115	0x3d8ea7c4	0.069655925
116	0xbc5efba6	-0.013609802
117	0x3dde7aa3	0.10863235
118	0xbd82c439	-0.06385083
119	0xbdbbc2f2	-0.09168042
120	0xbb55defa	-0.0032634125
121	0x3d2574e1	0.040394668
122	0x3defd4f2	0.11710538
123	0xbe00b1df	-0.12567852
124	0x3caf521f	0.021401463
125	0xbb5841c2	-0.003299818
126	0xbd5e9412	-0.05434043
127	0xbddbcc36	-0.107323095
128	0xbdf42dca	-0.11922796
129	0x3e0feb41	0.14054586
130	0x3e0ce3bd	0.1375875
131	0x3c914da6	0.017737221
132	0x3da1776b	0.07884105
133	0xbb924be0	-0.0044646114
134	0x3e113268	0.14179385
135	0x3e0ddd53	0.1385396
136	0xbc352fdc	-0.011058774
137	0x3d2caf06	0.042159103
138	0xbddceb0c	-0.10787019
139	0x3dc0b356	0.094092056
140	0xbd884c49	-0.06655175
141	0x3ca9b81c	0.020717673
142	0xbdd0a53e	-0.101877674
143	0xbca683d8	-0.02032654
144	0xbdb89870	-0.0901345
145	0x3c694da5	0.014239703
146	0xbd98a6a1	-0.07453657
147	0x3c581a3a	0.013189847
148	0xbd89f5b1	-0.06736315
149	0xbd950805	-0.0727692
150	0xbde42e09	-0.11141593
151	0xbd404c6b	-0.046947878
152	0x3db04566	0.08606987
153	0x3d491b2d	0.049098182
154	0x3db95905	0.09050182
155	0x3d29119d	0.041276563
156	0x3cfc1946	0.03077377
157	0x3e1afb15	0.15134843
158	0xbd086a11	-0.033304278
159	0x3dfca68a	0.12336452
160	0xbda977a1	-0.082747705
161	0xbd94c495	-0.072640575
162	0xbd275ff6	-0.040863
163	0x3d947e8b	0.07250699
164	0xbd8d2751	-0.06892265
165	0x3d90831b	0.070562564
166	0xbce01e8d	-0.027358318
167	0x3d78c16b	0.060731333
168	0xbdc38757	-0.095472984
169	0x3d925f84	0.071471244
170	0x3cef4b55	0.029210726
171	0xbdbf2d24	-0.09334782
172	0xbe0cc20f	-0.13745902
173	0x3b9c9d39	0.0047794846
174	0x3de00a48	0.10939461
175	0x3ddb94ef	0.10721766
176	0xbdb7de2a	-0.08977921
177	0x3dbf0eec	0.09329018
178	0xbd62b556	-0.055348717
179	0xbe0bc175	-0.13648017
180	0xbdabe672	-0.08393563
181	0x3c82d4c7	0.0159706
182	0x3d35c372	0.044375844
183	0x3e324c3b	0.17411892
184	0x3d1fca60	0.03901136
185	0xbde244e9	-0.110483
186	0x3d16e6ec	0.036841318
187	0x3e2d0dd5	0.16899808
188	0x3dadfb91	0.08495248
189	0x3e1c6db8	0.1527623
190	0xbe0accce	-0.1355469
191	0x3d801a03	0.06254961
192	0xbd4f46c4	-0.050604597
193	0xbda70c0d	-0.081565954
194	0x3d9324ca	0.07184751
195	0x3c5f9126	0.013645446
196	0xbe0bcbae	-0.13651916
197	0x3d03e34d	0.032199193
198	0x3d851380	0.0649786
199	0xbd6f8c69	-0.058483515
200	0x3c554670	0.013017282
201	0xbd52c77a	-0.051459767
202	0x3db8d134	0.09024277
203	0xbd57db7f	-0.052699562
204	0xbb21e800	-0.0024704933
205	0xbe1d01aa	-0.15332666
206	0x3c8342fd	0.016023153
207	0xbc853c1b	-0.016264012
208	0x3d0deec6	0.03465154
209	0x3de60156	0.112307236
210	0xbd99df6d	-0.07513318
211	0xbdb61f17	-0.08892649
212	0xbc084174	-0.0083163865
213	0xbd50e201	-0.050996784
214	0xbde40304	-0.11133388
215	0xbdde9a07	-0.10869222
216	0x3d2b482a	0.041816868
217	0x3d2e55a2	0.042562135
218	0x3da15c5a	0.07878943
219	0x3df379c1	0.11888457
220	0xbd402179	-0.046906922
221	0x3d928ca6	0.07155733
222	0xbd5d21f1	-0.053987447
223	0xbd7bcd9c	-0.06147538
224	0x3dddbe0f	0.108272664
225	0x3dcef884	0.10105994
226	0x3d6d00e1	0.057862166
227	0xbd501ebb	-0.050810557
228	0x3d8fa077	0.07013028
229	0xbe195a7c	-0.14975923
230	0x3b8696e6	0.004107344
231	0x3d2eee86	0.042707942
232	0x3c5dc7e1	0.013536424
233	0x3d2393d9	0.03993592
234	0xbdc088e1	-0.094011076
235	0xbdf21313	-0.11820044
236	0xbd522e67	-0.051313784
237	0x3b1eca85	0.0024229598
238	0xbdb8034b	-0.08985003
239	0x3dce35a1	0.10068823
240	0x3d9e5473	0.07730951
241	0x3d1e9b28	0.038722187
242	0xbe0040f0	-0.12524772
243	0x3c751c91	0.014960424
244	0x3e0be865	0.1366287
245	0xbdd10fe1	-0.10208107
246	0x3c4d0f3c	0.012515839
247	0xbcf19d3e	-0.029493924
248	0x3d723669	0.05913392
249	0x3d4a68d7	0.04941639
250	0x3d942613	0.072338246
251	0x3d2c8e56	0.04212793
252	0xbdb53a64	-0.08849028
253	0xbde6f453	-0.1127707
254	0xbd5cff74	-0.053954557
255	0xbdfa2861	-0.12214733

encoder.linear.bias f4 [32]
0	0xbd460059	-0.048340175
1	0xbe0200cf	-0.12695621
2	0x3c9b27cd	0.018939877
3	0xbdf5e60e	-0.1200677
4	0x3d7415f3	0.059591245
5	0x3dcc6c52	0.09981598
6	0x3d6ab312	0.05729968
7	0x3dd6312d	0.10458598
8	0xbd67e09e	-0.056610696
9	0xbdaec241	-0.08533145
10	0xbcd8533d	-0.026406879
11	0x3add089d	0.0016863529
12	0x3d3a6b04	0.045512214
13	0x3da3af5b	0.07992431
14	0x3c240ce6	0.010012841
15	0xbd5fe003	-0.054656994
16	0xbd808756	-0.06275813
17	0x3d88f100	0.06686592
18	0xbdc13578	-0.094340265
19	0xbdc76d8a	-0.0973769
20	0x3bdefba5	0.0068049007
21	0x3dae0a8d	0.08498106
22	0xbcb0af5e	-0.021567997
23	0x3df15871	0.11784447
24	0x3d7d9340	0.061908007
25	0x3dc9e02a	0.09857209
26	0xbda9fa55	-0.082997
27	0x3deb9094	0.115021855
28	0x3da82f3c	0.08212134
29	0xbca73c6b	-0.020414552
30	0xbdc1a200	-0.09454727
31	0xbd805800	-0.06266785

decoder.linear.weight f4 [64, 32]
0	0xbd57735b	-0.052600246
1	0x3d6b56bb	0.05745576
2	0x3dbeb758	0.09312314
3	0x3dcfda88	0.101491034
4	0xbe047fc4	-0.12939364
5	0xbd5185ac	-0.05115287
6	0xbde66962	-0.11250569
7	0x3dd21887	0.102585845
8	0x3d12df4e	0.03585749
9	0xbdeab2d3	-0.11459889
10	0x3dfb273c	0.12263343
11	0xbe0c244f	-0.13685726
12	0x3de803db	0.1132886
13	0x3de62d7d	0.11239145
14	0x3dae0f09	0.084989615
15	0xbe199144	-0.1499682
16	0x3dbd5f8f	0.09246742
17	0xbdf06037	-0.117371015
18	0xbd9c0da0	-0.07619786
19	0x3dd3d7d6	0.10343902
20	0x3da3fb5c	0.08006927
21	0xbdb4da06	-0.08830647
22	0x3a3ad2e5	0.00071267626
23	0xbe415089	-0.18878378
24	0xbc36211b	-0.011116291
25	0x3dbd7526	0.0925086
26	0x3da6eea6	0.08150987
27	0x3d6d54c7	0.057942178
28	0x3e327db2	0.17430761
29	0x3e0e7062	0.13910058
30	0x3ddd3c69	0.10802538
31	0xbd5822b6	-0.052767478
32	0xbdf0329d	-0.11728404
33	0x3d7e9f9e	0.06216394
34	0xbdb94d65	-0.09047965
35	0x3db3dfa6	0.08782892
36	0xbe0a59b9	-0.13510789
37	0xbd35915e	-0.044328086
38	0xbdc12312	-0.09430517
39	0xbd86eec8	-0.06588513
40	0xbdc79318	-0.09744853
41	0xbcd16173	-0.025559163
42	0x3d01ec75	0.031719644
43	0xbe1c7fe0	-0.15283155
44	0xbe1f4f28	-0.1555754
45	0xbdacf293	-0.08444705
46	0x3e08a46d	0.13343973
47	0xbe336618	-0.17519414
48	0x3dbb6f0e	0.091520414
49	0x3c889152	0.016670857
50	0xbdcb7dfc	-0.09936139
51	0xbd517aab	-0.051142376
52	0x3d9ef9ef	0.07762515
53	0x3e2d8675	0.16945823
54	0xbc98d406	-0.018655788
55	0xbdef5ae7	-0.1168726
56	0xbd18fb32	-0.037348934
57	0x3e1ef770	0.15524077
58	0xbce04a37	-0.027379138
59	0xbe19eb42	-0.1503115
60	0x3d8c3538	0.06846088
61	0x3d2e5db3	0.042569827
62	0xbdecbf04	-0.11559871
63	0x3d0ae353	0.0339082
64	0xbe1cca2d	-0.15311499
65	0xbd8bed25	-0.06832341
66	0xbe0bd6c3	-0.13656144
67	0xbe154575	-0.14577277
68	0x3ce1d0d4	0.027565397
69	0xbbc8203a	-0.0061073573
70	0xbde335bd	-0.11094234
71	0xbd2192df	-0.039446708
72	0xbdfe5dca	-0.124202326
73	0x3d9394b5	0.07206098
74	0xbd9b320e	-0.075779065
75	0xbdf9ddba	-0.12200494
76	0x3dc43ba9	0.09581692
77	0xbdb3e6c4	-0.087842494
78	0x3e1cbccd	0.15306397
79	0x3e1e2e2d	0.15447302
80	0xbe1fabdc	-0.15592903
81	0xbbdb4d4e	-0.006692565
82	0xbe3cc3d1	-0.18434073
83	0x3d94222b	0.072330795
84	0xbda4792a	-0.08030923
85	0xbdf24e7d	-0.11831377
86	0xbe1e6bf8	-0.15470874
87	0xbd37efe1	-0.0449065
88	0x3e4e8dd4	0.2017129
89	0x3be5b4fd	0.007010101
90	0x3e052660	0.1300292
91	0xbd8cba78	-0.068715036
92	0x3e23856b	0.15968864
93	0xbe08bce5	-0.13353308
94	0x3cb3de9d	0.021956736
95	0xbdbf96ab	-0.093549095
96	0x3cbab014	0.022789039
97	0xbdaa9ba0	-0.08330464
98	0x3de00483	0.109383605
99	0xbaf697d5	-0.001881356
100	0xbd3ae78d	-0.04563098
101	0xbcc22a66	-0.023701858
102	0x3dd92b2e	0.10603939
103	0x3e1db213	0.15399961
104	0x3e3b3bca	0.18284526
105	0x3e3605c0	0.17775631
106	0xbc8dbf7d	-0.017303223
107	0x3d0b169a	0.0339571
108	0xbe2cfe38	-0.16893852
109	0x3e1590fb	0.14606087
110	0x3dd9a862	0.106278196
111	0xbd3a69f4	-0.0455112
112	0xbdbd29cf	-0.0923649
113	0x3e0fe6d0	0.14052892
114	0xbe157256	-0.14594397
115	0x3e036adb	0.12833731
116	0x3db2953a	0.08719869
117	0x3c7561d9	0.014976942
118	0x3e45ea30	0.19327617
119	0x3d57505d	0.052566875
120	0x3e0719be	0.13193414
121	0xbe0cddc1	-0.13756467
122	0xbda2b303	-0.079443
123	0x3ce3222a	0.027726252
124	0xbe2854a0	-0.16438532
125	0xbc77c0e2	-0.01512167
126	0xb94ace30	-0.00019341032
127	0xbd9aafc6	-0.075530574
128	0x3d1be4ef	0.038060125
129	0xbc8ef1fa	-0.017449368
130	0x3c89a4ef	0.01680228
131	0x3e24c474	0.16090566
132	0x3e2397ed	0.15975924
133	0xbda3b98a	-0.07994373
134	0x3dcca96f	0.099932544
135	0xbc8c8c04	-0.017156608
136	0x3c0120a2	0.007881315
137	0xbb010fdd	-0.0019693293
138	0xbdda88d5	-0.1067063
139	0xbe3b333f	-0.18281268
140	0x3c12d05d	0.0089608105
141	0xbe38dc9a	-0.18052903
142	0x3d3ab4cb	0.045582574
143	0x3d7d68ec	0.06186764
144	0xbde4f972	-0.111803904
145	0x3dcbe3ed	0.09955583
146	0xbd029b79	-0.03188655
147	0xbe2333f9	-0.15937795
148	0xbcc2dc95	-0.023786822
149	0xbdcb4efd	-0.09927175
150	0x3e00425d	0.12525316
151	0xbd959819	-0.07304401
152	0x3d54fccb	0.051998895
153	0xbd118191	-0.035523955
154	0xbc36947d	-0.011143801
155	0x3df9fb18	0.122060955
156	0x3ceddad0	0.029035002
157	0x3e31ce59	0.17363872
158	0x3d387e15	0.045042116
159	0xbdbdd35f	-0.092688315
160	0xbe0f6b5d	-0.140058
161	0xbd6fc7e1	-0.05854023
162	0xbe24eb68	-0.16105425
163	0xbdb42b01	-0.08797265
164	0xbdd4e8aa	-0.1039594
165	0xbccf0e0b	-0.02527525
166	0x3d64288c	0.05570273
167	0xbe0f2b27	-0.13981305
168	0xbd3c1035	-0.045913894
169	0xb9b34d94	-0.0003419934
170	0xbe3915bf	-0.18074702
171	0xbe37eb19	-0.17960776
172	0xbdb099b2	-0.08623065
173	0x3d4fc0a7	0.050720837
174	0xbe344e9a	-0.17608109
175	0x3e2c316a	0.16815725
176	0x3e0fe3ff	0.14051817
177	0x3d119c0a	0.0355492
178	0x3dcfe07e	0.1015024
179	0x3d75500d	0.059890795
180	0x3e2fdecf	0.17174838
181	0xbe1138b2	-0.14181784
182	0x3e058ff7	0.130432
183	0xbe0b71e1	-0.1361766
184	0x3d81de58	0.06341237
185	0x3da2020c	0.07910547
186	0xbe2abc64	-0.16673428
187	0xbbe10fd7	-0.0068683433
188	0x3d8a73d6	0.06760375
189	0x3b8b9927	0.0042602005
190	0x3d1e4eb4	0.038649276
191	0xbc560c62	-0.013064476
192	0xbe1e9beb	-0.15489165
193	0x3e2973cc	0.16548079
194	0x3da39235	0.07986871
195	0xbda1cacd	-0.07900009
196	0x3e49a712	0.19692639
197	0x3d43ad05	0.047772426
198	0x3e3ae5ca	0.1825172
199	0xbe453ce6	-0.19261512
200	0xbe477b90	-0.19480729
201	0x3d177028	0.036972195
202	0x3ddf14f1	0.10892666
203	0x3dfcfdcd	0.12353096
204	0x3dcc64b9	0.09980149
205	0xbdfc5224	-0.123203546
206	0x3de4295e	0.11140703
207	0x3df37a49	0.118885584
208	0x3dce1b6e	0.100638255
209	0xbdcec80c	-0.1009675
210	0xbdd92911	-0.10603536
211	0xbdc777b5	-0.09739629
212	0xbde5e4d6	-0.112252876
213	0xbdeab41d	-0.11460135
214	0xbc8d0302	-0.017213348
215	0xbd82bd70	-0.063837886
216	0xbd55b47b	-0.052174073
217	0xbe1a450a	-0.15065399
218	0xbd3694d5	-0.04457553
219	0x3e1e1ac9	0.15439905
220	0x3dc82610	0.09772885
221	0x3d2ac36e	0.041690283
222	0xbdf17e92	-0.117917195
223	0xbd5119c6	-0.05104997
224	0xbe44e640	-0.19228458
225	0x3db270c1	0.08712912
226	0xbe251227	-0.16120206
227	0x3dc231d5	0.09482161
228	0x3d34aab0	0.044108093
229	0x3d3c4f71	0.0459742
230	0x3da50008	0.080566466
231	0xbcbced73	-0.023062443
232	0xbe0aa49c	-0.13539356
233	0xbe09fb43	-0.13474755
234	0xbe5306b7	-0.2060803
235	0xbd5dc2fe	-0.054141037
236	0x3e0167d9	0.12637271
237	0x3cc2fb21	0.023801388
238	0x3d8e2b94	0.069419056
239	0xbdfe95c4	-0.12430909
240	0x3dc58396	0.09644239
241	0x3e20d13c	0.15704817
242	0xbd8e1ba3	-0.06938865
243	0xbd7de556	-0.06198629
244	0x3dc3776b	0.095442615
245	0xbdc9be4d	-0.0985075
246	0xbdf8773f	-0.121321194
247	0x3c09b66e	0.008405311
248	0x3db3ca8f	0.08778869
249	0x3dfe3cde	0.12413953
250	0x3e2d0db1	0.16899754
251	0xbdf05566	-0.117350385
252	0x3e29f1f1	0.165962
253	0x3e34a3b7	0.17640577
254	0xbc1592ae	-0.009129209
255	0xbdf7a172	-0.1209134

decoder.linear.bias f4 [64]
0	0xbd94257b	-0.07233711
1	0xbd8f2ea5	-0.069913186
2	0x3df5d3e0	0.120033026
3	0x3d4e3555	0.05034383
4	0xbd272bea	-0.040813364
5	0xbdb6077c	-0.08888146
6	0x3c29205f	0.010322659
7	0xbe0e268e	-0.13881895
8	0xbb9a4fc1	-0.0047092144
9	0x3e0cf141	0.13763906
10	0xbd27c37f	-0.040957924
11	0x3d33cd86	0.043897174
12	0xbda0fd53	-0.07860818
13	0x3b9556ec	0.004557481
14	0x3e071477	0.131914
15	0xbb3ed30f	-0.00291175
16	0xbe04a446	-0.1295329
17	0x3c08bcb2	0.00834577
18	0xbe165f49	-0.14684786
19	0x3dc6f62b	0.097149216
20	0x3d60c340	0.054873705
21	0x3cb1efce	0.021720793
22	0x3d6a7da5	0.05724873
23	0x3c5be54f	0.013421371
24	0xbd014519	-0.031560037
25	0x3d2d2a5f	0.042276736
26	0xbd86cada	-0.065816596
27	0x3d7e8ae8	0.06214419
28	0x3dbd1eb7	0.09234374
29	0x3d80d20a	0.06290062
30	0x3d9c5bb3	0.07634678
31	0xbd79c0d8	-0.060974926
32	0x3e1b3d7d	0.15160175
33	0x3e0bebb9	0.1366414
34	0x3e260a68	0.16214907
35	0xbd767be9	-0.060176764
36	0x3e2beb1a	0.16788903
37	0xbe1f54dd	-0.15559717
38	0x3dc53521	0.09629274
39	0x3de4fc23	0.11180904
40	0x3d307c15	0.043087084
41	0x3dac3833	0.08409157
42	0xbe18c6d7	-0.14919601
43	0x3e221e23	0.15831809
44	0xbe352b04	-0.1769219
45	0xbd94d35d	-0.07266877
46	0x3da76265	0.08173064
47	0xbd7ca538	-0.061681002
48	0xbe0b9905	-0.13632591
49	0xbdd32a98	-0.103108585
50	0x3dbfae60	0.09359431
51	0x3daa76c3	0.08323433
52	0xbd941e45	-0.07232336
53	0xbd51f777	-0.05126139
54	0x3dd7d086	0.105378196
55	0xbc95e77b	-0.018298855
56	0xbe05e465	-0.13075407
57	0x3d1a499d	0.03766786
58	0xbc110e6b	-0.008853535
59	0x3d8f1659	0.06986684
60	0xbca7a120	-0.020462573
61	0x3e10fbcc	0.14158553
62	0xbe0f07d3	-0.13967828
63	0x3dabeefa	0.083951905

decoder.lstm.weight_ih_l0 f4 [256, 64]
0	0xbd060d31	-0.032727424
1	0x3dc1c6be	0.09461735
2	0xbda6f458	-0.081520736
3	0x3d440b45	0.04786231
4	0x3cf7eb52	0.030263577
5	0xbe079cca	-0.13243404
6	0x3ccac45d	0.024751836
7	0x3d1c7d79	0.038205598
8	0xbd83d434	-0.06436959
9	0x3cf954e5	0.030435989
10	0xbd2ff1a4	-0.042955056
11	0xbc263631	-0.010144756
12	0xbd859c50	-0.06523955
13	0x3d5f2f2a	0.05448834
14	0xbc21923d	-0.009861526
15	0xbdd274cb	-0.10276183
16	0xbdf62f01	-0.12020684
17	0x3d81179a	0.0630333
18	0x3d9380f4	0.0720233
19	0xbd82c5a3	-0.063853525
20	0x3df71dc8	0.12066227
21	0xbe00361c	-0.12520641
22	0x3d1dd00c	0.038528487
23	0xbe134b76	-0.14384255
24	0x3d2d6a45	0.042337675
25	0x3c369e1d	0.011146096
26	0x3df20881	0.11818028
27	0xbdd2f729	-0.10301048
28	0xbdb1a595	-0.086741604
29	0xbd948ef6	-0.0725383
30	0xbd62b7c1	-0.055351023
31	0x3d518327	0.051150467
32	0x3cddf026	0.02709205
33	0xbdea0a6f	-0.11427771
34	0xbcace760	-0.021106422
35	0xbaa72581	-0.0012752266
36	0xbdb25504	-0.08707622
37	0x3aefda30	0.0018299278
38	0x3d0c3952	0.034234352
39	0xbb07d75e	-0.0020727734
40	0xbd043132	-0.03227348
41	0x3d2c0dfd	0.042005528
42	0xbd33e043	-0.043915045
43	0x3d5f953d	0.054585684
44	0xbcd3226d	-0.025773251
45	0xbd58b655	-0.05290826
46	0xbce8e4a1	-0.028429331
47	0xbd6fd5b9	-0.05855343
48	0xbe046628	-0.12929595
49	0xbb086630	-0.0020812862
50	0xbdc9098a	-0.098162726
51	0xbcda46ff	-0.026645182
52	0x3daa7c31	0.08324469
53	0xbdf9c2a1	-0.12195326
54	0x3d441440	0.047870874
55	0x3dcd2223	0.10016277
56	0xbdaf4a93	-0.08559146
57	0x3c88422b	0.016633114
58	0x3d3a41b2	0.04547281
59	0x3d00c0f5	0.03143402
60	0x3dd6937f	0.104773514
61	0xbddf7cbb	-0.10912462
62	0x3dbea7b6	0.09309332
63	0x3d87e5a9	0.06635601
64	0xbd2429f5	-0.040079076
65	0xbe055c50	-0.13023496
66	0xbdea95bb	-0.1145434
67	0x3d3acd26	0.0456058
68	0x3cab8bb6	0.020940643
69	0x3b44aef5	0.003001151
70	0x3d96b69c	0.07359049
71	0x3d711b8b	0.058864158
72	0xbcaa910a	-0.020821113
73	0xbde9bd24	-0.11413029
74	0x3d9dae3c	0.07699248
75	0xbdb3c647	-0.08778053
76	0x3e05939d	0.13044591
77	0x3dbfe144	0.09369138
78	0x3d3c3ad3	0.045954537
79	0x3ae6c5d6	0.0017606567
80	0x3cde326d	0.027123654
81	0xbdb40341	-0.08789683
82	0xbdfaeb9e	-0.12251972
83	0xbda60ff5	-0.08108512
84	0x3df4977c	0.11942956
85	0x3d28988d	0.04116111
86	0xbd78c15a	-0.06073127
87	0xbc9a14b9	-0.01880871
88	0x3d6b8c17	0.057506647
89	0xbc28fc14	-0.010314006
90	0xbcb0766b	-0.021540841
91	0x3cf6f0b5	0.030144075
92	0xbc283802	-0.01026726
93	0x3b51fb87	0.003204079
94	0x3dc52cd2	0.096276894
95	0xbd902213	-0.07037749
96	0x3cac51aa	0.021035034
97	0x3d72d9a6	0.059289597
98	0x3e070258	0.13184488
99	0xbd892659	-0.06696767
100	0xbd18c91c	-0.037301168
101	0xbc370034	-0.011169482
102	0x3b85f248	0.00408772
103	0x3e08595a	0.13315335
104	0xbdf15e95	-0.11785618
105	0x3e0af6af	0.13570665
106	0xbdf62d30	-0.120203376
107	0x3be7cbf2	0.0070738727
108	0xbd9020a3	-0.07037475
109	0xbd4da159	-0.0502027
110	0xbcb0236a	-0.021501262
111	0x3dac8bb3	0.08425083
112	0x3c4c269a	0.012460375
113	0x3d1d9bef	0.038478788
114	0xbdc3e55f	-0.095652334
115	0xbe0154aa	-0.12629953
116	0x3da3347b	0.07968994
117	0xbc61fe51	-0.013793544
118	0xbd756f48	-0.05992058
119	0xbc4c0c54	-0.012454111
120	0xbd8f3994	-0.06993404
121	0xbdc0f37d	-0.09421442
122	0xbd124097	-0.03570613
123	0x3db07456	0.08615939
124	0x3d44271e	0.047888868
125	0xbe0661b4	-0.13123208
126	0xbdcb07a4	-0.09913567
127	0x3d72bed8	0.059264034
128	0xbdd97781	-0.10618497
129	0x3d7274e8	0.05919352
130	0xbdaf30dc	-0.08554241
131	0xbaa71d05	-0.0012749737
132	0xbd357480	-0.044300556
133	0xbd4af41a	-0.0495492
134	0x3d874d06	0.06606488
135	0xbde2b801	-0.11070252
136	0x3dab7124	0.08371189
137	0xbd2d05be	-0.042241804
138	0x3da68187	0.08130174
139	0x3dec7c10	0.115471005
140	0x3c32dae3	0.0109164445
141	0xbcb7b17b	-0.022423496
142	0x3d8349b9	0.06410546
143	0x3e113083	0.14178662
144	0x3d51c88e	0.051216654
145	0x3d1ecf7a	0.038772084
146	0xbd6f7b08	-0.05846694
147	0x3ccdf930	0.025143236
148	0x3dd03d55	0.10167948
149	0xbd167f16	-0.036742292
150	0x3cce2acb	0.02516689
151	0x3d7a5bf5	0.061122853
152	0x3cf60f5a	0.030036617
153	0xbddce9c0	-0.10786772
154	0x3cedfd47	0.029051436
155	0x3dccc927	0.09999304
156	0x3d8fb494	0.070168644
157	0x3c21c312	0.009873169
158	0x3e09192e	0.13388512
159	0xbe085fb7	-0.13317762
160	0x3dd30216	0.10303132
161	0xbe0f2f1d	-0.13982816
162	0x3ddee5fb	0.10883709
163	0x3d6ce558	0.057835907
164	0xbd3709af	-0.04468697
165	0x3d811df6	0.06304543
166	0xbda711fa	-0.08157726
167	0x3dbfa8e1	0.09358383
168	0xbe0560f9	-0.13025273
169	0xbd14715a	-0.036240913
170	0x3da16a83	0.078816436
171	0xbd1c04df	-0.038090583
172	0x3d6f8b8c	0.05848269
173	0xbe1272c8	-0.14301598
174	0x3db13253	0.08652177
175	0x3d47b88e	0.04875999
176	0xbe0aa360	-0.13538885
177	0xbd519618	-0.05116853
178	0x3c225037	0.00990682
179	0x3d43c55c	0.04779564
180	0xbdcdb438	-0.100441396
181	0x3d078e32	0.033094592
182	0x3ce6b79f	0.02816373
183	0xbd50a558	-0.050938934
184	0xbbbb8435	-0.0057225474
185	0xbd41402d	-0.047180343
186	0xbdae6927	-0.0851615
187	0x3cf30a2c	0.029667936
188	0x3e00dfb1	0.12585331
189	0x3d595e5c	0.053068504
190	0xbda740f9	-0.081666894
191	0xbcef2dd9	-0.029196667
192	0xbe4488c7	-0.19192801
193	0xbe19a538	-0.15004432
194	0xbcd42869	-0.025898175
195	0x3e53d3e2	0.20686296
196	0x3cd64d79	0.026159989
197	0xbd832cc8	-0.06405026
198	0x3dcdb721	0.10044695
199	0xbe54af20	-0.2076993
200	0xbe2d525d	-0.1692595
201	0xbd0c6e8e	-0.03428512
202	0x3c44ecbf	0.012019335
203	0x3e24c69c	0.16091388
204	0x3dd5ecff	0.10445594
205	0x3e215804	0.15756232
206	0x3e3a637e	0.18202016
207	0x3d98c823	0.07460048
208	0x3cc603bf	0.024171708
209	0x3d6718af	0.056420024
210	0x3dba258b	0.09089192
211	0x3e446036	0.19177327
212	0x3d8cbe70	0.068722606
213	0xbe1f0105	-0.15527733
214	0xbd6b3cd1	-0.057431046
215	0x3bd06317	0.0063594687
216	0x3e1591d0	0.14606404
217	0xbb88f2fb	-0.004179356
218	0x3bc1d819	0.0059156534
219	0x3e8c5b49	0.27413395
220	0xbe6c9fd9	-0.23107852
221	0xbdc2289a	-0.094804004
222	0x3c607ca6	0.0137015935
223	0xbdc157e3	-0.09440591
224	0x3dccfbae	0.100089416
225	0xbd769f56	-0.06021055
226	0x3d8bba70	0.068226695
227	0x3b260a16	0.0025335602
228	0xbe3790e9	-0.17926373
229	0x3e639943	0.22226433
230	0x3d1cb285	0.038256187
231	0x3d07bd68	0.033139616
232	0xbde75c39	-0.11296887
233	0x3d67f7f7	0.056632962
234	0x3ce1a991	0.027546676
235	0x3d8b44d0	0.06800234
236	0xbddd1b6e	-0.107962474
237	0xbc298984	-0.010347728
238	0x3e128de2	0.14311936
239	0xbd72e16d	-0.059297014
240	0xbd87cb18	-0.06630534
241	0xbe1dbc91	-0.15403964
242	0x3dfcd120	0.12344575
243	0x3bbf75f9	0.005842921
244	0xbe37a67b	-0.17934601
245	0xbe357dac	-0.17723721
246	0x3e1e08e5	0.1543308
247	0x3e888c40	0.26669502
248	0x3e753589	0.23946203
249	0x3e0c31ed	0.1369092
250	0x3d53fd6e	0.05175536
251	0xbd2d5909	-0.04232124
252	0x3e09c59f	0.13454293
253	0xbda14f90	-0.078765035
254	0x3d5e4325	0.054263253
255	0x3c42767f	0.011869072
