models/lstm/nvda_lstm_autoencoder.pth (torch, 229096 bytes, 14 tensors)

encoder.lstm.weight_ih_l0 f4 [256, 5]
-0.023402251 -0.048471015 0.08559386 0.052665696 -0.07663706 0.13974419 -0.0075819823 0.08039121
0.07013982 -0.060264822 0.05505675 0.10974203 0.017186344 0.120143935 0.0045736455 -0.10472908
0.118399955 0.0043572 -0.004605756 -0.10041612 -0.045117952 -0.10427943 -0.05188368 0.008959299
0.08540208 0.017971687 0.060758036 0.084114015 0.08377386 0.0073781596 -0.07282223 -0.05428555
0.030682726 -0.09967481 -0.02293449 0.0025774448 0.052771255 -0.07675734 -0.073628455 0.026923569
-0.05763781 0.13369775 -0.06370857 -0.05058877 -0.10993235 0.12830387 -0.057407875 0.1115988
-0.08809046 0.011243157 -0.07357141 0.065373346 0.04432562 0.10070826 -0.08173779 0.0075575155
0.008348182 -0.032097694 0.087385535 0.12483804 0.07158439 -0.11073182 -0.113143384 -0.029091015
0.011828746 0.010141544 -0.064721644 0.104823716 0.07025166 0.03795319 -0.0017197601 -0.09321322
-0.087136105 -0.060850557 -0.08911545 0.050317805 0.0011888335 -0.045082312 0.057486556 -0.07538618
-0.14856265 -0.040005766 -0.042403165 -0.009743748 -0.032554638 -0.01931533 0.007895368 0.1226653
-0.08582108 -0.13844171 -0.07953536 -0.07181153 0.11414737 0.020273112 0.055145238 0.028080843
0.014238258 0.13462344 0.04289568 0.053752787 -0.015240517 -0.119337715 -0.10862362 -0.035218645
0.066188425 -0.015206565 0.026793724 -0.09901533 -0.07037029 0.009842974 -0.026623277 -0.030139279
-0.08464628 -0.074341945 -0.09511918 0.051483076 0.13672608 0.024006682 0.0060973177 0.08253106
-0.07416167 -0.012406379 -0.036945835 0.01184432 -0.063009776 -0.11722483 0.030933674 0.036789555
-0.03180316 0.1419248 0.123655885 -0.002553885 0.01225591 0.10680998 -0.053131685 0.06805757
0.032170914 0.006797869 0.038772408 0.16400911 0.062262587 -0.06853341 -0.03405221 0.016278647
-0.058347993 0.037131406 0.05846589 -0.08123806 0.046226364 -0.07053076 -0.08889112 -0.04200136
-0.03999335 0.14204286 0.10049925 0.10343826 -0.03813084 0.014764932 0.054097272 0.05325345
-0.027288366 -0.10166279 -0.0018444268 0.038597208 0.046283048 0.0407347 -0.0068916027 0.07161135
0.040346578 -0.13273536 -0.029286962 -0.035137195 0.09533466 -0.02020028 -0.17788468 0.03535487
0.0043206844 -0.08984961 -0.08604758 -0.022680266 -0.08337745 -0.017983135 0.099886656 -0.075527094
-0.08060722 -0.09319839 -0.033398684 0.02648526 -0.0064190784 -0.14746404 -0.10563991 -0.08447062
-0.027046513 -0.034556687 0.07511221 -0.033131093 0.019024977 0.008354844 -0.09471178 -0.034320634
0.08597368 0.11859389 0.1096423 0.1376211 -0.04671237 -0.066727474 -0.027683007 0.11430029
0.0958283 0.08909293 0.006303254 -0.1062344 -0.014813321 -0.030183848 0.076849066 0.1372273
-0.048386578 0.009171503 -0.099358566 -0.09666974 0.09546293 -0.08445066 -0.00256013 -0.07685044
-0.08744064 0.07032028 0.087427564 -0.08972547 -0.065174274 0.074577674 0.021587934 0.020713352
0.098525465 0.07782892 -0.05865479 -0.040200137 0.06436982 0.008192819 0.08589869 -0.084029034
0.07188974 0.014315116 -0.0308043 -0.07924854 0.031767707 -0.08168218 -0.045255393 0.022333095
0.12369976 -0.050873566 0.046792377 0.03341172 0.020479048 0.0099142995 -0.03697179 0.051461697
00000000: 14b6 bfbc 8b89 46bd d54b af3d fcb7 573d
00000010: e4f3 9cbd 1a19 0f3e 4772 f8bb 26a4 a43d
00000020: 77a5 8f3d 3fd8 76bd 3083 613d 6ec0 e03d
00000030: 60ca 8c3c 060e f63d 85de 953b 337c d6bd
00000040: ad7b f23d d8c6 8e3b e2eb 96bb f7a6 cdbd
00000050: 9acd 38bd 7490 d5bd fb83 54bd 06ca 123c
00000060: 49e7 ae3d 5c39 933c 6bdd 783d f843 ac3d
00000070: a191 ab3d 7dc4 f13b d223 95bd 865a 5ebd
00000080: 575a fb3c 4f22 ccbd 1de1 bbbc 59ea 283b
00000090: ac26 583d f432 9dbd 84ca 96bd d18e dc3c
000000a0: a015 6cbd 10e8 083e a479 82bd 2c36 4fbd
000000b0: 3624 e1bd 1762 033e 8524 6bbd e98d e43d
000000c0: c568 b4bd 3835 383c 9bac 96bd 76e2 853d
000000d0: c88e 353d 2240 ce3d 2466 a7bd 09a5 f73b
000000e0: d0c6 083c df78 03bd 30f7 b23d 16ab ff3d
000000f0: d69a 923d 5dc7 e2bd b8b7 e7bd 4850 eebc
00000100: 5bcd 413c b828 263c c88c 84bd d1ad d63d
00000110: 1ae0 8f3d ce74 1b3d 9369 e1ba 93e6 bebd
00000120: 6a74 b2bd 6f3e 79bd 2982 b6bd 0b1a 4e3d
00000130: a2d2 9b3a 3ba8 38bd 0677 6b3d 1264 9abd
00000140: cf20 18be 16dd 23bd f1ae 2dbd 3ea4 1fbc
00000150: 0358 05bd 2f3b 9ebc 935b 013c f237 fb3d
00000160: f6c2 afbd aac3 0dbe 6fe3 a2bd ec11 93bd
00000170: 19c6 e93d cc13 a63c f9df 613d cc09 e63c
00000180: 9547 693c bada 093e 61b3 2f3d e22b 5c3d
00000190: 5db3 79bc 5567 f4bd 0f76 debd 6d41 10bd
000001a0: cc8d 873d f524 79bc 837e db3c 8dc8 cabd
000001b0: 4c1e 90bd 6d44 213c 0f19 dabc a6e6 f6bc
000001c0: 075b adbd 9740 98bd d8cd c2bd ebdf 523d
000001d0: ec01 0c3e a9a9 c43c 02cc c73b 0b06 a93d
000001e0: 13e2 97bd 2044 4bbc 8454 17bd ae0e 423c
000001f0: 450b 81bd 9213 f0bd 9e68 fd3c a5b0 163d
00000200: 0844 02bd bc54 113e 4c3f fd3d 155f 27bb
00000210: 03cd 483c 31bf da3d 9ca0 59bd c461 8b3d
00000220: a6c5 033d a9c0 de3b d1cf 1e3d 01f2 273e
00000230: 0e07 7f3d 3f5b 8cbd 557a 0bbd cc5a 853c
00000240: 4efe 6ebd 1a17 183d ee79 6f3d 2460 a6bd
00000250: db57 3d3d 6e72 90bd 8c0c b6bd 9e09 2cbd
00000260: 11d0 23bd af73 113e 8dd2 cd3d 70d7 d33d
00000270: 152f 1cbd 9de8 713c 1a95 5d3d 4a20 5a3d
00000280: da8b dfbc 9534 d0bd b2c0 f1ba 1b18 1e3d
00000290: 4b93 3d3d 6ed9 263d f4d2 e1bb f9a8 923d
000002a0: 7442 253d c7eb 07be 36eb efbc 05ec 0fbd
000002b0: d13e c33d 0f7b a5bc 6727 36be 45d0 103d
000002c0: 8794 8d3b 1303 b8bd b739 b0bd f7cb b9bc
000002d0: ccc1 aabd 5e51 93bc 6091 cc3d f3ad 9abd
000002e0: 6615 a5bd ccde bebd 0fcd 08bd 9ef7 d83c
000002f0: 2257 d2bb d000 17be bd59 d8bd effe acbd
00000300: a690 ddbc 508b 0dbd 6ed4 993d 78b4 07bd
00000310: 45da 9b3c c1e2 083c 40f8 c1bd cb93 0cbd
00000320: f812 b03d 5ae1 f23d 248c e03d 8cec 0c3e
00000330: 7855 3fbd 6aa8 88bd 79c7 e2bc 4516 ea3d
00000340: a141 c43d 5b76 b63d 878b ce3b 6c91 d9bd
00000350: 92b3 72bc 1e44 f7bc 0b63 9d3d 5085 0c3e
00000360: 0131 46bd 1244 163c 817c cbbd c9fa c5bd
00000370: 1282 c33d 78f4 acbd dbc7 27bb c363 9dbd
00000380: 1414 b3bd 1404 903d 390d b33d fdc1 b7bd
00000390: 177a 85bd 2ebc 983d 2ed9 b03c 0caf a93c
000003a0: b8c7 c93d c564 9f3d 0140 70bd e6a8 24bd
000003b0: 53d4 833d 2c3b 063c a7eb af3d 6a17 acbd
000003c0: ee3a 933d f389 6a3c 4d59 fcbc 0f4d a2bd
000003d0: db1e 023d fd48 a7bd b85d 39bd e5f3 b63c
000003e0: 4d56 fd3d cd60 50bd 5da9 3f3d bada 083d
000003f0: adc3 a73c 966f 223c bb6f 17bd 80c9 523d

encoder.lstm.weight_hh_l0 f4 [256, 64]
0.08442051 -0.10178626 -0.042298183 -0.08310614 -0.0008200191 -0.031746317 0.11146462 0.056909848
-0.04674736 0.0027656087 0.066736594 0.059850127 -0.080940194 0.10308075 -0.12771003 0.12961774
-0.03855899 0.036939066 0.04597796 -0.10203492 0.03420083 0.08801248 0.019976255 -0.008387289
0.04951424 0.00896936 0.1006978 0.031575322 -0.13224629 -0.0028498245 -0.058390472 0.080131516
-0.064835295 0.012463836 0.051732674 0.0441264 0.010752391 0.053774726 0.008915431 -0.0069047892
-0.015284763 -0.049592182 -0.016416533 -0.11624033 0.063305795 0.105465665 0.064935975 -0.062391758
-0.09093623 -0.08437715 0.07939164 -0.035619 0.10336507 -0.02603794 0.021010634 -0.062123742
0.040316667 0.035335522 0.042184666 0.032988273 0.11076623 0.081351936 0.114740856 -0.013069599
-0.12376964 0.009601165 -0.05838173 -0.06989359 -0.051225558 -0.037358172 0.022228785 -0.08776523
0.073415175 -0.1360342 0.050575044 -0.10137464 0.02350168 -0.10081415 -0.047569543 -0.059385225
-0.08973492 -0.064422116 0.093686044 -0.13023718 -0.048153616 0.06387147 -0.10895562 -0.07635244
0.07037 -0.074764624 -0.074202955 -0.14562216 0.043177057 -0.111639865 -0.018023662 0.085338145
0.00019912372 -0.06822544 0.0032456687 -0.09228871 -0.024179751 -0.09339089 0.06342343 -0.09954193
-0.045265194 -0.022857344 0.024793118 -0.102731094 0.04607295 -0.097793706 -0.04989439 -0.0072017377
0.0016805868 0.03804702 -0.12602717 0.093425736 0.07302027 -0.09385847 0.049059667 -0.13060996
0.03913248 0.012657927 0.04888838 0.0797123 0.023583712 0.036172185 0.09784891 0.060520653
-0.023539525 -0.02997333 0.044741817 0.016754115 -0.14945209 0.021205602 0.1299514 0.016815659
0.053245183 -0.11244763 0.011658657 0.03610864 -0.09633714 -0.026234502 -0.1020566 -0.09522143
-0.008353792 0.0064317035 -0.06112419 0.0064195665 -0.040840678 0.044993646 -0.10321367 -0.07279504
0.11176677 0.05652923 -0.06804047 0.10644368 0.014385149 -0.074980296 0.04083515 0.042301673
0.0856212 0.049769748 -0.12994413 0.013547486 0.0031199988 0.0068603186 -0.10543353 0.04474612
-0.008361115 0.055156678 -0.05666553 -0.0876513 -0.09820847 0.04678169 0.11691751 -0.11589674
0.14083202 0.09930546 -0.095775045 -0.11311031 0.08582046 0.057355274 -0.028774276 -0.08909886
0.12003816 -0.049999077 0.06211884 -0.030393554 0.03570162 0.008703768 -0.08016525 0.014435186
0.07330061 -0.080790155 -0.09363449 -0.08005675 -0.006028862 0.04137546 0.008560231 0.044141535
0.09285416 -0.015209298 -0.05521533 -0.10077947 -0.03662883 0.041446447 -0.120652795 -0.056456383
0.13320126 0.08044232 -0.11711065 -0.106884055 -0.07377743 -0.05045587 -0.09642213 0.026705496
-0.023562567 -0.0007106909 0.12775637 0.11921277 0.018304773 -0.050382286 -0.056101587 -0.12643671
0.0136206485 0.069156356 -0.054410968 0.13045548 0.116433874 -0.11083575 -0.11951595 0.021354938
0.053917363 -0.026128512 -0.0021065667 0.06695094 -0.08234874 0.08715198 -0.100881726 0.06397747
0.08648042 -0.067103624 0.00868841 0.08236283 0.05541375 -0.1118318 -0.047127686 -0.06441099
-0.017717972 -0.023920743 0.09020912 0.0011136816 0.12757753 0.0961036 -0.01089115 0.11392359
00000000: a9e4 ac3d 5175 d0bd dc40 2dbd 8d33 aabd
00000010: 8df6 56ba 6d08 02bd 9047 e43d 4d1a 693d
00000020: 297a 3fbd 373f 353b 32ad 883d 6825 753d
00000030: f9c3 a5bd 001c d33d 6bc6 02be 83ba 043e
00000040: 08f0 1dbd 6b4d 173d 6353 3c3d aff7 d0bd
00000050: 2b16 0c3d e33f b43d 3ea5 a33c d76a 09bc
00000060: 72cf 4a3d 39f4 123c a63a ce3d 2055 013d
00000070: 926b 07be 1fc4 3abb d92a 6fbd fe1b a43d
00000080: 5ec8 84bd 1e35 4c3c a4e5 533d e2bd 343d
00000090: cc2a 303c e342 5c3d 0712 123c 9241 e2bb
000000a0: f16c 7abc 2c21 4bbd f77b 86bc 690f eebd
000000b0: 78a6 813d 62fe d73d 27fd 843d 808e 7fbd
000000c0: c63c babd edcd acbd 1698 a23d 3be5 11bd
000000d0: 11b1 d33d 854d d5bc 7e1e ac3c 7775 7ebd
000000e0: 1723 253d fbbb 103d d4c9 2c3d b61e 073d
000000f0: 68d9 e23d d89b a63d 41fd ea3d df21 56bc
00000100: f07a fdbd 344e 1d3c ae21 6fbd 5f24 8fbd
00000110: e4d1 51bd e204 19bd 2419 b63c 42be b3bd
00000120: b25a 963d 8d4c 0bbe c727 4f3d 829d cfbd
00000130: 9886 c03c a677 cebd 48d8 42bd ec3d 73bd
00000140: f1c6 b7bd beef 83bd 78de bf3d e55c 05be
00000150: ba3c 45bd 0ccf 823d 2024 dfbd ab5e 9cbd
00000160: 261e 903d 321e 99bd b8f7 97bd fa1d 15be
00000170: 6dda 303d 71a3 e4bd 5ca6 93bc c4c5 ae3d
00000180: decb 5039 c8b9 8bbd 49b5 543b dd01 bdbd
00000190: 9d14 c6bc b943 bfbd 25e4 813d a4dc cbbd
000001a0: ff67 39bd 533f bbbc f01a cb3c ae64 d2bd
000001b0: fdb6 3c3d 1148 c8bd 0f5e 4cbd 8efc ebbb
000001c0: 2347 dc3a 31d7 1b3d 440d 01be fe55 bf3d
000001d0: a78b 953d df38 c0bd caf2 483d 9ebe 05be
000001e0: 6149 203d 3263 4f3c 2f3f 483d 3440 a33d
000001f0: a132 c13c 4929 143d 0265 c83d 81e4 773d
00000200: f6d5 c0bc a18a f5bc 3243 373d ed3f 893c
00000210: f809 19be 5fb7 ad3c fb11 053e fec0 893c
00000220: 9f17 5a3d f14a e6bd f403 3f3c a7e6 133d
00000230: 684c c5bd bde9 d6bc 0d03 d1bd 7403 c3bd
00000240: 58de 08bc 0ac1 d23b 5c5d 7abd 3a5b d23b
00000250: 8e48 27bd 424b 383d b061 d3bd 9115 95bd
00000260: fae5 e43d 328b 673d cd58 8bbd 25ff d93d
00000270: b0af 6b3c 458f 99bd c242 273d 8544 2d3d
00000280: 2b5a af3d 5ddb 4b3d 1310 05be 46f6 5d3c
00000290: e578 4c3b 86cc e03b 89ed d7bd b547 373d
000002a0: 0ffd 08bc f8eb 613d 1d1a 68bd 8682 b3bd
000002b0: 8621 c9bd 289e 3f3d 7372 ef3d 455b edbd
000002c0: 4536 103e a960 cb3d b525 c4bd 61a6 e7bd
000002d0: a3c2 af3d 5ded 6a3d 08b8 ebbc 7779 b6bd
000002e0: 91d6 f53d d5cb 4cbd 5370 7e3d e7fb f8bc
000002f0: dd3b 123d 409a 0e3c ae2d a4bd 8f81 6c3c
00000300: a11e 963d 4f75 a5bd 71c3 bfbd cbf4 a3bd
00000310: c38d c5bb 5079 293d 3640 0c3c c1cd 343d
00000320: 522a be3d 6b30 79bc 7829 62bd 7765 cebd
00000330: 1d08 16bd c0c3 293d d018 f7bd cf3e 67bd
00000340: e965 083e f1be a43d b5d7 efbd 07e6 dabd
00000350: 9f18 97bd d0aa 4ebd f778 c5bd 7cc5 da3c
00000360: 4906 c1bc a94d 3aba 91d2 023e d325 f43d
00000370: e4f3 953c a85d 4ebd c7ca 65bd a078 01be
00000380: 2429 5f3c d9a1 8d3d 09de 5ebd 1f96 053e
00000390: e274 ee3d dbfd e2bd c7c4 f4bd 8df0 ae3c
000003a0: 74d8 5c3d 760b d6bc 530e 0abb 931d 893d
000003b0: 75a6 a8bd bd7c b23d 149b cebd 9f06 833d
000003c0: a51c b13d a06d 89bd d559 0e3c d8ad a83d
000003d0: 87f9 623d 1208 e5bd f608 41bd e9e9 83bd
000003e0: 4825 91bc 6ff5 c3bc 8fbf b83d f4f8 913a
000003f0: afa3 023e f7d1 c43d cb70 32bc c550 e93d

encoder.lstm.bias_ih_l0 f4 [256]
0.113178834 -0.08511342 -0.10103839 -0.09816825 -0.078695 0.09798166 -0.00032466036 -0.06258198
-0.04355934 0.0899555 -0.08987105 -0.08933014 -0.021984518 0.004528157 -0.030403124 -0.033011183
0.11813729 -0.04552805 0.11472661 0.11806581 -0.03185431 0.012675012 -0.036681186 0.046412453
-0.050782073 0.10195042 -0.120137446 0.20692013 -0.07886133 0.06654078 0.07021121 0.02347599
0.067012385 -0.084304824 -0.08250392 -0.0015181979 -0.07748244 0.05752604 0.018603353 -0.10440088
0.11653649 0.110986516 -0.08240364 0.13497807 0.08712127 -0.040720094 0.13358529 0.13077167
0.10513971 -0.07575518 0.087731 -0.09900102 0.06514997 0.111292526 0.03854145 0.059247307
-0.034957636 0.03246505 -0.082788676 0.05585804 0.034545764 -0.117852986 0.07198424 0.08916903
-0.092011996 -0.06734925 0.027265303 -0.0654255 0.064431295 -0.036488943 0.044079483 0.002425406
0.0874542 0.13190289 0.10473674 -0.006841913 -0.09382509 0.08673567 0.0041419617 -0.06404684
0.061191272 -0.0068941596 -0.01567553 0.04464825 0.0626928 -0.11508108 -0.036879357 0.101362824
0.01976788 0.053392507 0.11723723 0.16872498 0.02651916 -0.056094784 0.14398833 -0.03317412
0.0556922 -0.065396726 0.083714485 -0.08333112 -0.02715027 -0.08141297 -0.10572802 -0.10361604
-0.029554803 -0.04330781 0.06482461 0.026084503 0.07610752 0.14457892 -0.105049975 -0.0014805623
-0.062040973 0.16018018 0.06388613 0.09514723 -0.05357879 0.1394713 -0.0064897835 -0.020454297
-0.019064663 -0.052634772 0.085221194 0.25446242 0.1308436 -0.08720042 -0.09006638 0.03181452
-0.044365715 -0.06685231 -0.07794392 0.08602737 -0.06995132 0.09296306 0.10650026 -0.10894196
-0.049246453 -0.096177824 0.06645577 -0.099528916 0.042288 0.03819674 0.0042460435 -0.0149017265
0.08382846 0.041184552 0.049170848 -0.07895073 -0.04369365 -0.029421376 0.02950278 -0.023671977
0.0378253 -0.06886746 0.105673745 0.013425526 -0.100911416 0.117347 0.011882216 -0.019096112
0.024945915 0.030785993 0.0017372337 0.056246556 -0.07304145 -0.083023466 0.052279115 0.06993984
-0.104292944 -0.06819665 -0.051518742 -0.10261588 -0.049242295 -0.0069804876 -0.009320987 -0.10336885
0.09169742 0.062706985 -0.08625093 0.1083103 0.011933603 0.09181054 -0.054838303 -0.06496641
0.0953201 0.11904206 0.015832582 -0.10474254 0.10560191 -0.012966414 -0.060715728 -0.049077608
-0.10864773 -0.014788084 0.08115674 -0.017179726 0.050870817 0.059437886 -0.13005151 0.10990577
0.092580184 -0.083541304 -0.06799183 -0.067273855 -0.036760524 -0.02255181 -0.014679996 0.074473575
0.10702317 -0.07262859 -0.073687054 -0.07973947 0.10292864 -0.057580013 -0.050984893 0.08988141
0.05257348 0.05176021 -0.04192531 0.13628913 -0.117747374 -0.086475916 -0.05187581 0.044565205
0.04084954 -0.054271627 -0.038056325 -0.05363927 -0.02312248 0.085825086 0.081471264 -0.012579928
0.09945212 0.11551711 -0.04793676 -0.07845511 -0.06230314 -0.10174143 0.07490877 0.029415717
-0.07507266 0.05068773 -0.12377553 -0.0005015088 0.028204849 -0.07795019 -0.035981424 0.04851219
0.069668315 0.109654784 -0.115763426 0.20080398 0.0054882923 -0.13905933 -0.101979226 -0.026198985
00000000: 4eca e73d f24f aebd 37ed cebd 6f0c c9bd
00000010: d82a a1bd 9caa c83d 2d37 aab9 fb2a 80bd
00000020: 476b 32bd 973a b83d 500e b8bd b8f2 b6bd
00000030: e018 b4bc ef60 943b f90f f9bc bc36 07bd
00000040: f7f1 f13d 9f7b 3abd c9f5 ea3d 7dcc f13d
00000050: aa79 02bd dbaa 4f3c 033f 16bd fc1a 3e3d
00000060: dd00 50bd 62cb d03d 9f0a f6bd dfe2 533e
00000070: 0d82 a1bd 8846 883d e5ca 8f3d b850 c03c
00000080: ca3d 893d 02a8 acbd d1f7 a8bd 45fe c6ba
00000090: 1daf 9ebd 6da0 6b3d 0f66 983c 21d0 d5bd
000000a0: afaa ee3d e64c e33d 3dc3 a8bd b137 0a3e
000000b0: a36c b23d 1dca 26bd 95ca 083e 02e9 053e
000000c0: 7d53 d73d 8825 9bbd 4fac b33d 0cc1 cabd
000000d0: 596d 853d 56ed e33d a4dd 1d3d 4ead 723d
000000e0: bd2f 0fbd 13fa 043d 1c8d a9bd 66cb 643d
000000f0: dc7f 0d3d e85c f1bd 796c 933d 419e b63d
00000100: c970 bcbd 67ee 89bd 7c5b df3c cefd 85bd
00000110: 8ef4 833d 6e75 15bd b08c 343d 8ff3 1e3b
00000120: 301b b33d 8d11 073e 3780 d63d 2032 e0bb
00000130: 5e27 c0bd 79a2 b13d 4bb9 873b fd2a 83bd
00000140: b3a3 7a3d 67e8 e1bb f869 80bc 15e1 363d
00000150: 1565 803d a1af ebbd cf0e 17bd 5097 cf3d
00000160: 40f0 a13c 1ab2 5a3d 131a f03d 3ec6 2c3e
00000170: b63e d93c a5c3 65bd ad71 133e 96e1 07bd
00000180: 811d 643d b8ee 85bd 8072 ab3d 82a9 aabd
00000190: 3e6a debc d8bb a6bd ef87 d8bd a534 d4bd
000001a0: ea1c f2bc 8863 31bd c4c2 843d 2baf d53c
000001b0: 42de 9b3d 7f0c 143e 7124 d7bd 6d0f c2ba
000001c0: ad1e 7ebd 4606 243e bbd6 823d 8ddc c23d
000001d0: 6f75 5bbd 91d1 0e3e 40a8 d4bb c58f a7bc
000001e0: 7f2d 9cbc 8f97 57bd 7388 ae3d e648 823e
000001f0: ddfb 053e 2296 b2bd b974 b8bd f14f 023d
00000200: d3b8 35bd dde9 88bd 10a1 9fbd 1e2f b03d
00000210: a342 8fbd 6b63 be3d cf1c da3d f61c dfbd
00000220: a6b6 49bd e1f8 c4bd f619 883d d1d5 cbbd
00000230: 2f36 2d3d 2f74 1c3d 6522 8b3b 5f26 74bc
00000240: 41ae ab3d 22b1 283d 5f67 493d ecb0 a1bd
00000250: 1df8 32bd 1905 f1bc d0af f13c bceb c1bc
00000260: b4ee 1a3d 620a 8dbd 7a6b d83d bdf6 5b3c
00000270: a5aa cebd a053 f03d a0ad 423c 736f 9cbc
00000280: 605b cc3c e832 fc3c e4b3 e33a ca62 663d
00000290: c196 95bd 3508 aabd a022 563d 9e3c 8f3d
000002a0: 8a97 d5bd afaa 8bbd 5105 53bd 4628 d2bd
000002b0: 4ab2 49bd 93bc e4bb 0eb7 18bc 0cb3 d3bd
000002c0: dbcb bb3d 856c 803d 54a4 b0bd cad1 dd3d
000002d0: 2985 433c 2a07 bc3d 219e 60bd 1c0d 85bd
000002e0: 2f37 c33d 53cc f33d 55b3 813c 4283 d6bd
000002f0: d045 d83d 1571 54bc 0eb1 78bd 9a05 49bd
00000300: b382 debd b849 72bc 8135 a63d 7fbc 8cbc
00000310: eb5d 503d 2475 733d 392c 05be 4716 e13d
00000320: ae9a bd3d b417 abbd 4d3f 8bbd e0c6 89bd
00000330: 3492 16bd 93be b8bc 5e84 70bc 9a85 983d
00000340: f72e db3d 4cbe 94bd 3de9 96bd 724e a3bd
00000350: 40cc d23d 05d9 6bbd 89d5 50bd bf13 b83d
00000360: 4a57 573d 8402 543d e0b9 2bbd 618f 0b3e
00000370: 8925 f1bd 491a b1bd bb7b 54bd 018a 363d
00000380: d951 273d ed4b 5ebd f3e0 1bbd dab4 5bbd
00000390: 5b6b bdbc 10c5 af3d 68da a63d 0b1c 4ebc
000003a0: 8ead cb3d 3c94 ec3d 5659 44bd 13ad a0bd
000003b0: 9431 7fbd d05d d0bd c569 993d 3bf9 f03c
000003c0: b2bf 99bd f09d 4f3d 067e fdbd b077 03ba
000003d0: db0d e73c 59a4 9fbd 4261 13bd b8b4 463d
000003e0: 43ae 8e3d b092 e03d 6015 edbd 8f9f 4d3e
000003f0: 22d7 b33b 9265 0ebe 7cda d0bd 419f d6bc

encoder.lstm.bias_hh_l0 f4 [256]
0.10690358 0.09198074 -0.05079356 0.10355892 -0.08054651 -0.08307584 -0.08384636 -0.076313905
-0.03551345 0.1330066 0.01403352 -0.026327524 -0.080474965 -0.00088911736 0.13825113 0.05472094
0.04728049 0.07705575 0.026659207 0.10478274 -0.094777234 -0.026791066 0.028374175 0.02118233
0.019293824 0.14598268 0.12595834 0.22396864 0.058945626 0.050985247 0.12608637 -0.04630111
0.08536443 -0.0933747 -0.12088258 -0.11752248 0.118776515 -0.0072359 0.09100226 -0.05729663
0.060761344 0.06600292 -0.08338729 -0.045365896 0.018608758 0.13618897 0.00027260746 0.042129572
-0.062728144 0.11057465 0.07099534 0.0769282 -0.035112478 -0.08426371 0.039396346 0.13388467
0.020419136 0.040586334 0.02615438 0.05816029 0.10283506 -0.09396531 0.087860964 -0.007913001
0.12468702 0.08497474 -0.032789513 -0.035230007 0.16869876 0.111597024 0.0017971377 0.10565337
0.010336316 0.122300684 -0.0060585183 0.047182214 0.13429107 -0.06496906 0.047328573 0.023745714
-0.040365357 0.018374696 0.12482207 0.08020179 -0.0074941604 0.0027250303 0.09618691 -0.013882486
0.035823047 0.11840831 0.05872231 0.24024615 0.0042200857 -0.09862337 0.01511897 0.12476485
0.14563999 0.034272566 -0.064136095 -0.036983162 0.107453264 0.017409518 0.121311225 -0.03472113
-0.004002894 0.074037954 -0.07951036 -0.017839057 -0.0052141696 0.05716929 -0.07929722 0.13153426
0.044263862 0.008890206 -0.009297173 0.11986891 0.039711308 0.08533975 -0.08536505 0.10255007
-0.057218507 0.035829302 0.07788527 0.107712105 0.052088216 0.089785874 0.015349008 -0.056023397
0.025509696 -0.0009444191 0.11281517 -0.05360562 0.00022588202 -0.038630903 -0.019989397 -0.0468611
0.07930286 0.043340787 -0.031317014 -0.0210049 0.11784446 -0.028871527 -0.010480624 0.04921127
0.06549705 0.0038379845 -0.0031058523 0.01936251 -0.103248596 -0.037658434 0.09470283 0.07174459
0.106803454 -0.08200504 -0.09343426 -0.060549043 -0.114702426 0.09399183 -0.0661576 -0.01163915
0.068997525 -0.039436135 -0.08536059 0.07863233 0.10680436 -0.05179559 -0.122874305 0.03773881
-0.052445106 0.11280412 -0.08260667 0.08454068 0.12933353 -0.06333773 -0.05721162 -0.1112213
-0.013926173 -0.07424969 -0.072095126 -0.029739097 0.09715648 -0.06964752 -0.038317397 0.06412459
-0.012431681 -0.053639807 0.01861861 0.03231285 -0.10783319 -0.050098132 0.04105819 0.093523145
0.0047589918 -0.0741717 0.09187484 0.04837501 -0.06958374 0.13711321 -0.1516401 0.021393128
-0.09816551 -0.07371844 -0.01384912 -0.07633443 0.117535956 0.013688572 -0.002134102 -0.03340405
0.0826435 0.11756095 0.011339283 -0.08176942 0.040031586 -0.039248664 -0.05039308 0.113380335
-0.012967425 0.011881382 0.07661016 0.24213131 0.025895761 -0.0037341842 -0.051155657 0.077804305
0.0035314627 0.016523998 -0.025581304 -0.032183614 0.14945044 -0.060115736 0.11982508 -0.03563926
0.08852491 0.1286526 0.050894715 0.041292164 0.022152059 0.056057416 0.1179801 -0.001990948
0.04774971 0.08371674 -0.13427594 0.009391811 0.05112311 -0.038806885 -0.095117845 -0.035549432
0.10497304 -0.012525234 0.111701846 0.03519221 0.03966553 -0.10788757 -0.11246522 -0.008846669
00000000: 44f0 da3d 6660 bc3d e80c 50bd b316 d43d
00000010: 92f5 a4bd aa23 aabd a4b7 abbd 774a 9cbd
00000020: 8d76 11bd e232 083e d9ec 653c d2ac d7bc
00000030: 0fd0 a4bd a813 69ba b491 0d3e 1023 603d
00000040: 30a9 413d 68cf 9d3d 6964 da3c 5598 d63d
00000050: 911a c2bd f078 dbbc f570 e83c 9186 ad3c
00000060: 150e 9e3c 7c7c 153e 39fb 003e 0958 653e
00000070: f870 713d e8d5 503d c91c 013e 3ca6 3dbd
00000080: 8cd3 ae3d 3c3b bfbd 4991 f7bd a0af f0bd
00000090: 1a41 f33d 211b edbb 655f ba3d dfaf 6abd
000000a0: e3e0 783d 8a2c 873d f5c6 aabd 97d1 39bd
000000b0: 6571 983c 1f75 0b3e c1ec 8e39 0f90 2c3d
000000c0: 9d77 80bd f674 e23d 0166 913d 888c 9d3d
000000d0: 1ad2 0fbd 7492 acbd 105e 213d 1019 093e
000000e0: 0846 a73c db3d 263d b641 d63c 7c39 6e3d
000000f0: 309b d23d e270 c0bd 73f0 b33d 88a5 01bc
00000100: e95b ff3d 3d07 ae3d 4c4e 06bd 574d 10bd
00000110: 5ebf 2c3e fb8c e43d ef8d eb3a cb60 d83d
00000120: a759 293c c878 fa3d 8986 c6bb 2342 413d
00000130: 9983 093e 800e 85bd 9bdb 413d 5f86 c23c
00000140: 2556 25bd 8886 963c b7a2 ff3d d640 a43d
00000150: 9391 f5bb 6c96 323b a5fd c43d 5e73 63bc
00000160: 30bb 123d 0e80 f23d ce86 703d 1603 763e
00000170: a548 8a3b 0dfb c9bd 8eb5 773c b784 ff3d
00000180: a622 153e 6461 0c3d c959 83bd a87b 17bd
00000190: 7510 dc3d 689e 8e3c 0572 f83d be37 0ebd
000001a0: b52a 83bb 36a1 973d 54d6 a2bd 3723 92bc
000001b0: a0db aabb 582a 6a3d 9566 a2bd ebb0 063e
000001c0: 064e 353d 3aa8 113c 2b53 18bc d57d f53d
000001d0: 53a8 223d 9bc6 ae3d dfd3 aebd c505 d23d
000001e0: f45d 6abd bfc1 123d 5082 9f3d 2a98 dc3d
000001f0: 745a 553d a8e1 b73d 687a 7b3c ca78 65bd
00000200: b6f9 d03c e592 77ba a40b e73d 9191 5bbd
00000210: beda 6c39 703b 1ebd cec0 a3bc 6df1 3fbd
00000220: 8a69 a23d 1c86 313d 4546 00bd 7812 acbc
00000230: 7058 f13d fb83 ecbc ecb6 2bbc c291 493d
00000240: 5123 863d b286 7b3b 8e8b 4bbb 209e 9e3c
00000250: 0074 d3bd bb3f 1abd 8ff3 c13d d4ee 923d
00000260: c5bb da3d 42f2 a7bd 765a bfbd 4602 78bd
00000270: 1be9 eabd ca7e c03d a37d 87bd 22b2 3ebc
00000280: 934e 8d3d c987 21bd 88d1 aebd fd09 a13d
00000290: 3fbc da3d 9d27 54bd 86a5 fbbd 0394 1a3d
000002a0: aed0 56bd d905 e73d b02d a9bd aa23 ad3d
000002b0: 0270 043e 36b7 81bd bb56 6abd fec7 e3bd
000002c0: 9a2a 64bc 3910 98bd 9ca6 93bd 689f f3bc
000002d0: faf9 c63d 5ca3 8ebd b4f2 1cbd c153 833d
000002e0: 40ae 4bbc 6ab5 5bbd 0e86 983c 7b5a 043d
000002f0: a6d7 dcbd b333 4dbd a22c 283d 1089 bf3d
00000300: 51f1 9b3b 55e7 97bd e028 bc3d e024 463d
00000310: eb81 8ebd 6867 0c3e 8b47 1bbe a440 af3c
00000320: 000b c9bd b2f9 96bd 6be7 62bc 3a55 9cbd
00000330: b1b6 f03d 0846 603c 4adc 0bbb afd2 08bd
00000340: ff40 a93d ccc3 f03d 66c8 393c ba76 a7bd
00000350: 29f8 233d 35c3 20bd f968 4ebd f333 e83d
00000360: 5375 54bc 21aa 423c cae5 9c3d 45f1 773e
00000370: 5923 d43c 37b9 74bb 9888 51bd dd57 9f3d
00000380: 1d70 673b 565d 873c e28f d1bc f7d2 03bd
00000390: 8909 193e eb3b 76bd da66 f53d 79fa 11bd
000003a0: 8c4c b53d 82bd 033e fa76 503d f921 293d
000003b0: 3c78 b53c 769c 653d 8d9f f13d 917a 02bb
000003c0: 3395 433d af73 ab3d a27f 09be 1ce0 193c
000003d0: 7766 513d f8f3 1ebd 25cd c2bd 489c 11bd
000003e0: 1bfc d63d a436 4dbc f0c3 e43d b525 103d
000003f0: 5378 223d 29f4 dcbd 2a54 e6bd 9ff1 10bc

encoder.linear.weight f4 [32, 64]
-0.0055139093 -0.024836583 0.061525203 -0.13373853 0.11756029 0.03757299 -0.08340084 -0.13611661
0.022511527 0.08502477 -0.033962023 -0.05996072 -0.10899305 -0.006573784 0.020488191 0.11716061
-0.037511062 0.034616467 -0.15867059 -0.018049745 0.07157593 0.02418049 0.028595883 0.057822537
0.03864542 -0.022123797 -0.022964425 0.14687927 -0.07651177 0.028813234 -0.08076559 0.033910137
-0.109952755 -0.0058714272 0.048199065 0.042722035 0.071754515 -0.09312423 -0.119756944 0.13023408
-0.04937858 0.055971522 0.021673473 -0.034503527 -0.055698726 0.10379731 -0.053616222 -0.013998171
0.06606022 0.12060331 0.037314527 0.17997168 -0.12889306 0.06532054 0.06533211 -0.0062512364
0.14180699 0.13799797 -0.059416432 -0.18994687 0.057507828 -0.029228386 0.1276784 0.12682773
-0.012395023 -0.017878158 0.063900225 -0.050038297 -0.10354299 0.07530776 0.10549412 0.019517558
-0.12002085 -0.011565365 0.114801355 -0.014354284 -0.056183062 0.03135631 0.13270594 -0.12502219
0.06615605 -0.083237186 -0.07629514 0.0038233052 -0.021387955 0.13915545 0.0860225 -0.06700124
-0.040376164 -0.034179155 0.031481534 0.15259418 -0.08962279 -0.03139156 -0.04694282 -0.0017427747
-0.1337605 0.14188595 0.12088685 -0.088244304 0.07294833 -0.0068927817 0.087942906 0.07923576
-0.00508277 0.05235907 -0.036575034 -0.047269132 0.1368871 -0.048447154 0.09725191 0.11976258
0.0036619913 0.045868047 -0.027562518 0.12978597 -0.096305035 0.1199627 -0.01349143 -0.035096675
0.07395624 -0.12725997 0.021787114 0.018040512 -0.15080361 0.08133186 0.05875036 -0.034500353
0.03611207 0.05807121 -0.16171038 -0.009833803 -0.16101766 0.059147324 0.044747677 -0.007660594
0.09091924 -0.06318534 -0.11640558 0.09964138 0.0084887585 0.015239713 0.020066252 -0.048957177
0.10853768 0.1158326 0.0416344 0.017901452 0.06777402 -0.08768087 0.03322018 0.04846824
0.116571784 -0.07352334 -0.023706969 -0.12767301 0.06107188 0.018287277 -0.010994427 -0.10748345
0.14698017 -0.08689414 -0.0072651966 -0.09588664 0.09792103 -0.008577468 -0.08370117 0.057620186
-0.062325105 -0.031419523 -0.074209675 0.032007452 0.0051522087 0.0536273 0.10662024 0.110659026
0.036233272 -0.1402116 -0.00046898186 -0.058368556 -0.009665019 -0.11154276 0.11675518 0.004788024
0.073227614 0.00433962 0.060555663 0.040281177 0.149383 0.0551884 -0.02326277 -0.049913313
0.008023075 -0.016128551 -0.0798409 0.07473429 0.13212956 -0.029202394 0.08229164 -0.038967382
-0.042282786 0.07444525 0.07269087 -0.08545261 -0.08068914 0.118098654 -0.048991933 0.044038016
0.0142805325 0.12104705 0.11627281 -0.094488986 -0.025069417 0.11245041 0.13782257 0.0319086
0.06796923 -0.13164404 -0.11210061 0.112090945 -0.092920706 0.08442464 -0.0016098409 -0.048697717
-0.08471681 -0.051890768 -0.1343794 0.052983157 0.041179895 0.009694669 -0.028396714 0.09557012
0.09831327 0.08077998 0.09222815 -0.06695681 0.05173172 -0.068991795 -0.106416196 0.022551598
-0.06188122 0.111574955 -0.0689031 0.0063250107 -0.11665253 0.022572031 0.08464319 0.03208594
0.079167426 0.07638463 0.027024327 -0.120027885 0.0040919534 0.034683127 -0.102001995 0.069152944
00000000: 06ae b4bb 1776 cbbc da01 7c3d c1f2 08be
00000010: 73c3 f03d 23e6 193d 0fce aabd 2762 0bbe
00000020: 186a b83c 7721 ae3d c31b 0bbd 5f99 75bd
00000030: c037 dfbd e668 d7bb dad6 a73c e7f1 ef3d
00000040: 33a5 19bd ffc9 0d3d 8b7a 22be 0fdd 93bc
00000050: 6796 923d 2a16 c63c ea41 ea3c 53d7 6c3d
00000060: a94a 1e3d f73c b5bc e41f bcbc 8567 163e
00000070: 34b2 9cbd bb09 ec3c 6e68 a5bd 5be5 0a3d
00000080: e92e e1bd 1a65 c0bb 626c 453d 4dfd 2e3d
00000090: 08f4 923d ebb7 bebd 2143 f5bd 155c 053e
000000a0: 3241 4abd 6542 653d 918c b13c 9253 0dbd
000000b0: 5924 64bd af93 d43d af9c 5bbd 9658 65bc
000000c0: 954a 873d defe f63d 1ed7 183d 7f4a 383e
000000d0: 8bfc 03be c6c6 853d d7cc 853d 2cd7 ccbb
000000e0: da35 113e 574f 0d3e a55e 73bd 6f81 42be
000000f0: 548d 6b3d 5e70 efbc 20be 023e 21df 013e
00000100: 7f14 4bbc 3775 92bc 1fde 823d f5f4 4cbd
00000110: 590e d4bd f43a 9a3d 4d0d d83d 49e3 9f3c
00000120: 7ecd f5bd a87c 3dbc f91c eb3d 3b2e 6bbc
00000130: 3620 66bd 796f 003d 11e4 073e d105 00be
00000140: d37c 873d 4278 aabd a040 9cbd 6b90 7a3b
00000150: cb35 afbc c47e 0e3e 912c b03d f237 89bd
00000160: 7a61 25bd 71ff 0bbd c8f2 003d a641 1c3e
00000170: 278c b7bd 7094 00bd 1d47 40bd d16d e4ba
00000180: 83f8 08be 8d4a 113e 8693 f73d 6eb9 b4bd
00000190: ef65 953d d8dc e1bb 691b b43d 5c46 a23d
000001a0: 5d8d a6bb 7776 563d b4cf 15bd 479d 41bd
000001b0: 222c 0c3e 8670 46bd 022c c73d 1546 f53d
000001c0: 05fe 6f3b 22e0 3b3d caca e1bc 9de6 043e
000001d0: 933b c5bd 01af f53d 290b 5dbc 88c1 0fbd
000001e0: 5f76 973d 7050 02be e47a b23c b2c9 933c
000001f0: 436c 1abe 5191 a63d 38a4 703d 3e50 0dbd
00000200: 40ea 133d 14dc 6d3d 6897 25be f61d 21bc
00000210: d0e1 24be 7744 723d 5749 373d b805 fbbb
00000220: de33 ba3d 5167 81bd 0c66 eebd c810 cc3d
00000230: 6f14 0b3c fdaf 793c fb61 a43c 5287 48bd
00000240: 0149 de3d a439 ed3d d588 2a3d 11a6 923c
00000250: 1bcd 8a3d 0792 b3bd e211 083d a286 463d
00000260: 30bd ee3d 6893 96bd 1e35 c2bc b7bc 02be
00000270: 8226 7a3d 33cf 953c f821 34bc 4820 dcbd
00000280: f881 163e 8ef5 b1bd e310 eebb 3760 c4bd
00000290: d28a c83d 8288 0cbc 856b abbd 2503 6c3d
000002a0: 9c48 7fbd c2b1 00bd 3efb 97bd 3f1a 033d
000002b0: dcd3 a83b 4da8 5b3d b65b da3d 33a1 e23d
000002c0: 5769 143d a193 0fbe aee1 f5b9 de13 6fbd
000002d0: 075a 1ebc 8870 e4bd 571d ef3d dbe4 9c3b
000002e0: 5cf8 953d 5f33 8e3b 3709 783d e0fd 243d
000002f0: dbf7 183e 3b0d 623d 9191 bebc e771 4cbd
00000300: 3773 033c 0620 84bc a083 a3bd 4b0e 993d
00000310: f94c 073e dc39 efbc 8588 a83d 439c 1fbd
00000320: b730 2dbd c076 983d f3de 943d c701 afbd
00000330: 5940 a5bd b5dd f13d c4ab 48bd 3561 343d
00000340: e5f8 693c 84e7 f73d 7020 ee3d 7183 c1bd
00000350: 615e cdbc 674c e63d 5c21 0d3e 98b2 023d
00000360: 7433 8b3d b2cd 06be 0195 e5bd f08f e53d
00000370: 364d bebd d3e6 ac3d 4c01 d3ba 4277 47bd
00000380: 0280 adbd 6a8b 54bd c19a 09be de04 593d
00000390: 40ac 283d 64d6 1e3c 3aa0 e8bc 44ba c33d
000003a0: 7858 c93d f96f a53d 1de2 bc3d a720 89bd
000003b0: a4e4 533d 924b 8dbd bcf0 d9bd 21be b83c
000003c0: 2a77 7dbd 6981 e43d 121d 8dbd 0942 cf3b
000003d0: 86e7 eebd fbe8 b83c 6959 ad3d 8c6c 033d
000003e0: 8822 a23d 8b6f 9c3d 1f62 dd3c 2ed1 f5bd
000003f0: cb15 863b e50f 0e3d 6ce6 d0bd 0fa0 8d3d

encoder.linear.bias f4 [32]
-0.01359709 -0.10988496 0.11246066 -0.09859078 -0.010045482 0.02640295 -0.07183189 0.0334848
-0.104865 0.038914904 0.1185398 -0.0668756 -0.041455343 -0.07790718 0.12139876 -0.087783866
-0.052076694 -0.011457679 -0.012429688 -0.062156685 0.052492246 0.085274555 0.0645251 -0.10340012
0.06814999 0.031082828 -0.062019326 0.061220255 -0.055337176 -0.05513989 0.0013063375 -0.11811471
00000000: 54c6 5ebc 5e0b e1bd c651 e63d f6e9 c9bd
00000010: ce95 24bc 004b d83c 991c 93bd 5c27 093d
00000020: 76c3 d6bd 3c65 1f3d ffc4 f23d 13f6 88bd
00000030: 14cd 29bd cd8d 9fbd ea9f f83d 07c8 b3bd
00000040: 5f4e 55bd fdb8 3bbc e4a5 4bbc 0298 7ebd
00000050: 1c02 573d 6da4 ae3d bc25 843d 71c3 d3bd
00000060: 3992 8b3d 6aa1 fe3c fa07 7ebd 17c2 7a3d
00000070: 3ca9 62bd 5eda 61bd 6a39 ab3a 20e6 f1bd

decoder.linear.weight f4 [64, 32]
0.16700031 0.025405612 -0.004689714 -0.012639809 0.054482833 -0.14718258 0.117511675 0.065624654
-0.14293826 0.048022795 0.035855718 0.110828735 0.071193114 0.034778554 0.16623053 0.024707532
0.12498276 0.16171522 -0.06032019 -0.10986298 0.0007928894 0.14111248 0.020920528 0.07655262
-0.16720685 -0.15825881 0.0070641255 0.0914996 -0.108039066 0.15079121 -0.0044219783 0.023535838
-0.15851983 -0.1836189 0.10112332 -0.17034453 -0.017826134 0.08269792 0.10921823 0.038814664
0.033580914 -0.07113942 -0.0368943 0.044444032 0.23329565 -0.16460975 0.12083551 0.19100535
-0.016147025 0.06703318 0.015022739 0.022861855 -0.084690094 0.07977948 0.03673189 0.11380708
0.115787745 -0.21533701 0.074291594 0.008704582 0.020058693 0.15372927 0.013201852 0.08031178
0.068130076 -0.07711457 -0.05998609 -0.16766623 -0.012379802 0.024179138 0.111227736 -0.09686035
-0.061989296 0.114044644 0.15784933 -0.014425847 -0.047958605 -0.15185668 0.05348205 -0.16278267
0.058692187 0.10982319 -0.027007842 0.064936 0.05381611 -0.015091752 -0.024326392 0.119796515
0.035633087 0.104444064 0.071296744 -0.023773408 0.042806968 -0.04414368 -0.04658453 0.17497621
-0.17574708 0.026121357 0.106454 -0.13590823 0.013641349 0.085764326 0.11151532 0.07567427
-0.08885266 -0.15678369 -0.11002592 -0.07868436 -0.024655247 -0.026003206 -0.0039262106 0.15467384
-0.11198922 -0.12003047 0.03621339 0.04248841 0.18209532 0.010983479 0.10938362 0.0018426316
-0.05052489 -0.047873978 -0.15768619 -0.0141986925 0.09814914 0.15698273 0.1908102 0.12173817
-0.1478904 0.09175124 0.13502413 0.13609685 -0.01017477 0.14982793 -0.04246959 -0.1407145
-0.02529933 0.063053206 -0.13356006 0.15806556 0.083450615 0.12618452 0.12516087 0.13343294
0.14670901 0.1464687 0.19792181 -0.16044533 0.055875584 -0.13746202 -0.103251256 0.10143625
0.058778454 0.13649836 -0.12238556 -0.14044668 0.051342648 -0.036802612 0.13687308 0.11162433
0.012448111 0.07801256 -0.07316117 0.041701697 0.17669532 -0.04729883 0.004751637 -0.101761825
-0.025695626 -0.074915476 0.13905214 0.007484483 0.11340318 0.14888188 -0.14911012 -0.072869465
-0.1592417 0.08464988 -0.15474814 -0.028294636 0.06326082 -0.11320566 0.07085022 0.19263713
0.0069378996 0.08480572 0.09297418 -0.019785084 0.038517345 -0.07612406 -0.15112409 -0.119980894
0.06965031 0.09592824 -0.107200876 0.17715146 -0.034514476 -0.11211688 -0.03720132 -0.17798528
0.12092224 -0.019421792 -0.017888129 -0.08963845 -0.050949298 -0.074960805 -0.13530973 -0.09712714
-0.0746568 0.11199628 -0.16787644 0.07279469 -0.14591749 -0.12919125 0.19671611 0.09055093
-0.10339197 -0.094574556 0.074534 0.13522863 0.15190321 0.1025274 0.06545183 -0.14628801
0.1917952 0.013704997 -0.11910849 -0.12023149 0.0788764 -0.13883436 0.17795283 0.12121284
-0.040874537 0.12251382 -0.033943914 -0.031750802 0.0033065805 -0.031869903 0.034923356 -0.16623817
0.11033044 -0.00015731674 0.13155344 0.06976644 0.0050302465 -0.15731876 0.18404567 0.012338447
-0.09762994 0.16589347 -0.11196831 0.10274727 -0.014409325 0.1063255 0.032112688 0.012466982
00000000: 2102 2b3e 6e1f d03c 2cac 99bb 3417 4fbc
00000010: 6429 5f3d 08b7 16be f6a9 f03d 3866 863d
00000020: 685e 12be 8db3 443d 72dd 123d 2dfa e23d
00000030: b2cd 913d f573 0e3d 5638 2a3e 7367 ca3c
00000040: f6f6 ff3d ad98 253e 4e12 77bd d8ff e0bd
00000050: e8d9 4f3a ca7f 103e 8761 ab3c 9fc7 9c3d
00000060: 4638 2bbe 990e 22be 2e7a e73b 2464 bb3d
00000070: 9643 ddbd 0369 1a3e 3ee6 90bb 3bce c03c
00000080: 0653 22be 9806 3cbe be19 cf3d cc6e 2ebe
00000090: 1d08 92bc 875d a93d cfad df3d 20fc 1e3d
000000a0: 248c 093d 8bb1 91bd 7a1e 17bd f20a 363d
000000b0: 0ee5 6e3e 758f 28be 9c78 f73d e896 433e
000000c0: c446 84bc b148 893d ef21 763c c948 bb3c
000000d0: 0072 adbd 6d63 a33d 2e74 163d b013 e93d
000000e0: 2022 ed3d 4e81 5cbe 3126 983d aa9d 0e3c
000000f0: 2152 a43c 356b 1d3e 954c 583c 817a a43d
00000100: c887 8b3d 3eee 9dbd f9b3 75bd b2b0 2bbe
00000110: a7d4 4abc 5413 c63c 5ecb e33d b85e c6bd
00000120: 7de8 7dbd 3d90 e93d 41a3 213e 635a 6cbc
00000130: 3e70 44bd 5180 1bbe fe0f 5b3d 80b0 26be
00000140: 3867 703d fbea e03d 8d3f ddbc 2afd 843d
00000150: 486e 5c3d 6543 77bc 2448 c7bc e057 f53d
00000160: 00f4 113d c5e6 d53d 0704 923d 73c0 c2bc
00000170: 5c56 2f3d 01d0 34bd 6ccf 3ebd f72c 333e
00000180: 0bf7 33be 75fc d53c 8e04 da3d 872b 0bbe
00000190: f77f 5f3c 35a5 af3d 2562 e43d 1dfb 9a3d
000001a0: 62f8 b5bd e78b 20be 4555 e1bd 4425 a1bd
000001b0: cdf9 c9bc ad04 d5bc 71a7 80bb d262 1e3e
000001c0: 9b5a e5bd 89d2 f5bd 7e54 143d 5408 2e3d
000001d0: 3277 3a3e 0df4 333c 8504 e03d 7584 f13a
000001e0: 30f3 4ebd 8117 44bd 7d78 21be a2a1 68bc
000001f0: 6b02 c93d 15c0 203e c063 433e dd51 f93d
00000200: 9570 17be 13e8 bb3d c443 0a3e f95c 0b3e
00000210: 14b4 26bc 7e6c 193e 98f4 2dbd 7617 10be
00000220: 8a40 cfbc 0a22 813d f8c3 08be f0db 213e
00000230: 28e8 aa3d 8436 013e 2c2a 003e a5a2 083e
00000240: e33a 163e e4fb 153e 04ac 4a3e c84b 24be
00000250: ccdd 643d d8c2 0cbe 6575 d3bd cfbd cf3d
00000260: adc1 703d 3ac6 0b3e 48a5 fabd 41d1 0fbe
00000270: ab4c 523d 56be 16bd 7528 0c3e 4c9b e43d
00000280: 29f3 4b3c 0dc5 9f3d 86d5 95bd 66cf 2a3d
00000290: 9eef 343e 6bbc 41bd 9fb3 9b3b 8168 d0bd
000002a0: a27f d2bc 496d 99bd af63 0e3e 6540 f53b
000002b0: ed3f e83d 7e74 183e 53b0 18be 963c 95bd
000002c0: 4210 23be eb5c ad3d 4c76 1ebe 27ca e7bc
000002d0: e48e 813d 5ed8 e7bd ec19 913d ab42 453e
000002e0: 5257 e33b 9fae ad3d 3f69 be3d 5414 a2bc
000002f0: 5dc4 1d3d eee6 9bbd 46c0 1abe 8bb8 f5bd
00000300: d2a4 8e3d 0676 c43d 228c dbbd 3167 353e
00000310: 0d5f 0dbd 899d e5bd 6960 18bd c641 36be
00000320: 14a6 f73d 731a 9fbc 208a 92bc 5d94 b7bd
00000330: 36b0 50bd 0d85 99bd a28e 0abe 98ea c6bd
00000340: aae5 98bd 4e5e e53d cde7 2bbe 6215 953d
00000350: 656b 15be b64a 04be f36f 493e c472 b93d
00000360: 2bbf d3bd 4eb0 c1bd 48a5 983d 6079 0a3e
00000370: 848c 1b3e e3f9 d13d 9c0b 863d 86cc 15be
00000380: f665 443e ec8a 603c 27ef f3bd ed3b f6bd
00000390: f389 a13d 982a 0ebe 4439 363e 703e f83d
000003a0: 0f6c 27bd 87e8 fa3d c608 0bbd 210d 02bd
000003b0: 37b3 583b 048a 02bd cb0b 0f3d 573a 2abe
000003c0: edf4 e13d 64f5 24b9 f2b5 063e b5e1 8e3d
000003d0: c4d4 a43b 2b18 21be 7876 3c3e 3327 4a3c
000003e0: 35f2 c7bd fadf 293e a44f e5bd 296d d23d
000003f0: 1715 6cbc 2fc1 d93d 9888 033d 5042 4c3c

decoder.linear.bias f4 [64]
0.07912388 0.15024054 0.06480009 0.036743216 0.15618965 -0.010670903 -0.0842937 0.1311571
0.038716085 0.08838646 -0.05535672 0.10720916 0.02090503 0.029054536 0.08578825 0.058486924
-0.029316856 -0.13114995 -0.0613205 -0.041592304 -0.024043482 0.07308453 0.13478057 0.021083018
-0.12774716 -0.08325025 -0.17535153 -0.070198506 -0.08260572 0.014929141 0.11781513 0.09993094
0.12315071 -0.16271451 0.14111198 0.06209622 0.099519335 0.120270684 0.17047921 -0.012620169
0.004881383 -0.07695827 -0.14890584 -0.040264744 0.13516524 -0.11452043 0.07307476 0.14988968
-0.16369453 0.026709504 -0.07622603 -0.10140425 -0.0450906 -0.1483674 -0.1626924 0.1524707
-0.003577064 -0.09991448 0.07204389 0.095984906 0.089178115 -0.1304101 0.06795641 -0.009233304
00000000: b30b a23d a8d8 193e e9b5 843d 0e80 163d
00000010: 2ef0 1f3e 03d5 2ebc 2da2 acbd 0c4e 063e
00000020: c294 1e3d f603 b53d babd 62bd 7a90 db3d
00000030: 0741 ab3c c703 ee3c c0b1 af3d fc8f 6f3d
00000040: e729 f0bc 2c4c 06be 342b 7bbd b15c 2abd
00000050: d6f6 c4bc 58ad 953d eb03 0a3e 4bb6 ac3c
00000060: 27d0 02be 1b7f aabd 5a8f 33be 3cc4 8fbd
00000070: 302d a9bd 5b99 743c 0f49 f13d 98a8 cc3d
00000080: 7036 fc3d a29e 26be a97f 103e 9b58 7e3d
00000090: cbd0 cb3d 7a50 f63d 1a92 2e3e d3c4 4ebc
000000a0: 02f4 9f3b 4c9c 9dbd c67a 18be a5ec 24bd
000000b0: c268 0a3e b089 eabd 38a8 953d ae7c 193e
000000c0: 8a9f 27be e4cd da3c 651c 9cbd 08ad cfbd
000000d0: ecb0 38bd a0ed 17be d698 26be 4721 1c3e
000000e0: 2d6d 6abb f69f ccbd bf8b 933d bc93 c43d
000000f0: 04a3 b63d 3a8a 05be bb2c 8b3d 4947 17bc

decoder.lstm.weight_ih_l0 f4 [256, 64]
-0.06507886 -0.020063225 0.0239406 0.11285157 -0.03186282 -0.13701817 -0.08481876 -0.055728804
-0.1255073 0.021181256 -0.09760121 -0.076019056 -0.057707246 0.05725463 0.013609245 0.020201059
0.04952479 0.11965523 0.026168047 -0.096200146 -0.03254223 0.107886426 -0.10132881 -0.03935905
-0.075126156 0.06325834 0.008767708 0.037711736 -0.03167272 -0.0016892072 0.050540484 0.118923806
-0.09644075 0.010807047 0.05169056 -0.07092494 0.05796552 0.061646566 -0.017228853 0.06342563
-0.05142322 0.01008863 -0.0706063 0.08403244 -0.03928172 -0.028579772 0.0052084364 -0.010425058
-0.14533015 0.013253086 0.05300319 -0.09485967 -0.09461383 -0.056743503 -0.12859958 -0.084865876
0.13138239 -0.07500147 -0.06288535 -0.04354129 0.017603392 0.021796716 0.062712476 0.057047907
0.049400747 -0.057874218 0.02840345 -0.038165856 0.002593231 0.061770737 -0.09385525 0.030360384
0.01627793 -0.03736845 -0.0025469468 0.095120035 -0.07567027 0.028448967 0.035376728 -0.12860073
0.06444872 -0.058094267 -0.023060497 0.06437431 0.12335037 -0.09542811 0.06903799 0.037811067
-0.058250908 0.00073846657 -0.021478 0.12609191 -0.05815244 0.12383318 0.008332718 0.057212807
-0.084766075 0.07333776 0.09139912 -0.09256697 0.06416811 0.03853768 -0.0051777414 0.10315446
-0.009998399 -0.07278147 0.0045126434 -0.058629304 -0.06744695 0.06869158 -0.008043849 -0.046094533
0.082900435 -0.06953072 0.11756576 -0.06391591 0.13013208 0.048032578 -0.014807816 -0.07601167
0.055090647 -0.042292364 0.019825343 0.032819647 0.09523527 0.085980825 0.00012522138 -0.024812298
0.12365866 0.03655146 -0.06873394 -0.073862456 -0.0034512475 -0.07301793 -0.106485754 0.10549636
0.053225398 0.018694095 -0.07883582 0.0061415224 -0.11323705 -0.00020299942 -0.011383984 0.0065014767
0.001627107 0.09178695 0.049090315 0.038076174 -0.0065573184 0.0067972513 -0.05987678 -0.12275819
-0.09601711 -0.04080447 0.06529877 0.0138522 -0.07380725 0.039375536 -0.111719266 0.065085344
0.032077994 -0.06307512 -0.074279904 -0.117327034 0.06401765 -0.042141136 -0.008916967 -0.019193675
-0.06706898 0.12089473 0.11112978 -0.0836677 -0.041614 0.047991987 -0.014758556 0.11138915
0.07165679 -0.01988653 0.07192192 -0.07518848 0.0094211595 0.08486636 -0.04662404 -0.024463944
-0.06432416 0.07811879 -0.033063702 0.011301556 0.10773951 -0.025618287 -0.13781017 -0.014211054
0.017891733 -0.05195442 0.027834311 -0.05540143 -0.057415236 0.093419634 0.025738595 0.04308029
-0.07105865 0.03294468 0.044645205 -0.11820321 0.08740255 0.06254075 0.06375557 -0.005028661
-0.094579466 -0.094250925 -0.110338144 -0.054794647 -0.022327833 0.03387332 0.04960533 -0.081362166
0.037660874 0.11712902 0.034165442 -0.0011999044 0.11387462 0.08507395 0.0105901705 -0.0033019097
-0.10020694 -0.10834141 -0.066988535 0.038251486 0.027359292 -0.11103818 -0.086304516 -0.12190263
0.04142039 0.0012991959 0.10426062 -0.088319674 -0.11056725 -0.0034598103 -0.13036668 0.019645752
0.054525074 -0.011008426 -0.10787592 0.117951155 0.013174276 0.11706992 -0.07816778 -0.11151042
-0.09992501 0.002755302 0.114667125 0.03287047 -0.068171024 0.0206073 -0.073268 0.06291176
00000000: 1148 85bd a25b a4bc 141f c43c b91e e73d
00000010: 9782 02bd 7e4e 0cbe 75b5 adbd e343 64bd
00000020: fc84 00be 5084 ad3c 25e3 c7bd e1af 9bbd
00000030: 6f5e 6cbd d583 6a3d 50f9 5e3c b17c a53c
00000040: 82da 4a3d cd0d f53d 5f5e d63c 9504 c5bd
00000050: 004b 05bd 8ff3 dc3d 7b85 cfbd f536 21bd
00000060: bedb 99bd 978d 813d 6fa6 0f3c 9f77 1a3d
00000070: 41bb 01bd 6368 ddba 8a03 4f3d 538e f33d
00000080: ba82 c5bd 0a10 313c 7bb9 533d 1841 91bd
00000090: 416d 6d3d 1c81 7c3d 8623 8dbc 4ce5 813d
000000a0: 28a1 52bd c84a 253c 099a 90bd 3319 ac3d
000000b0: dee5 20bd 2020 eabc 88ab aa3b ddcd 2abc
000000c0: 6dd1 14be 7923 593c df19 593d c945 c2bd
000000d0: e5c4 c1bd e06b 68bd 9caf 03be 29ce adbd
000000e0: 1b89 063e 5f9a 99bd 09ca 80bd 5a58 32bd
000000f0: fd34 903c 078f b23c 666f 803d 11ab 693d
00000100: 7058 4a3d 840d 6dbd 5aae e83c cd53 1cbd
00000110: 32f3 293b 5003 7d3d 2e37 c0bd 57b6 f83c
00000120: 4b59 853c a90f 19bd adea 26bb 4bce c23d
00000130: 04f9 9abd cf0d e93c 30e7 103d e9af 03be
00000140: b1fd 833d 41f4 6dbd 5ee9 bcbc aed6 833d
00000150: 1e9f fc3d d06f c3bd ca63 8d3d c7df 1a3d
00000160: 8198 6ebd a795 413a a1f2 afbc 3d1e 013e
00000170: 4131 6ebd 409c fd3d f485 083c fa57 6a3d
00000180: d699 adbd 1c32 963d 762f bb3d c093 bdbd
00000190: 926a 833d b0d9 1d3d 0baa a9bb a542 d33d
000001a0: 53d0 23bc 740e 95bd ccde 933b 4825 70bd
000001b0: a021 8abd 2cae 8c3d 59ca 03bc 9fcd 3cbd
000001c0: b4c7 a93d 1f66 8ebd 51c6 f03d 58e6 82bd
000001d0: 5841 053e cfbd 443d 7b9c 72bc 02ac 9bbd
000001e0: bba6 613d c23a 2dbd c268 a23c e56d 063d
000001f0: b60a c33d b716 b03d dc4d 0339 2943 cbbc
00000200: c040 fd3d fcb6 153d 61c4 8cbd 3345 97bd
00000210: 532e 62bb 6d8a 95bd 3415 dabd 7a0e d83d
00000220: e002 5a3d 5c24 993c ad74 a1bd d33e c93b
00000230: d4e8 e7bd 3edc 54b9 e483 3abc 570a d53b
00000240: a744 d53a ccfa bb3d ed12 493d c3f5 1b3d
00000250: c6de d6bb 7abb de3b 5b41 75bd a568 fbbd
00000260: 9ea4 c4bd 9722 27bd 5dbb 853d 56f4 623c
00000270: 4128 97bd 3e48 213d 12cd e4bd 774b 853d
00000280: 3764 033d 872d 81bd 1020 98bd 2849 f0bd
00000290: b01b 833d 2f9c 2cbd 7818 12bc 0e3c 9dbc
000002a0: 765b 89bd a897 f73d 0398 e33d f959 abbd
000002b0: 7173 2abd 3f93 443d dfcd 71bc ff1f e43d
000002c0: ccc0 923d 13e9 a2bc cd4b 933d 6bfc 99bd
000002d0: 355b 1a3c 6ace ad3d d9f8 3ebd 9c68 c8bc
000002e0: 63bc 83bd bffc 9f3d ce6d 07bd 292a 393c
000002f0: 88a6 dc3d 71dd d1bc 1c1e 0dbe 7bd5 68bc
00000300: af91 923c 28ce 54bd c804 e43c 9cec 62bd
00000310: 3d2c 6bbd cb52 bf3d bfd9 d23c f574 303d
00000320: 3387 91bd 00f1 063d e4dd 363d 8614 f2bd
00000330: 1c00 b33d 5d15 803d 4892 823d 77c7 a4bb
00000340: e1b2 c1bd a106 c1bd f7f8 e1bd 5a70 60bd
00000350: dce8 b6bc c0be 0a3d f52e 4b3d 35a1 a6bd
00000360: 4a42 1a3d 57e1 ef3d 10f1 0b3d 1c46 9dba
00000370: 1937 e93d 403b ae3d 6582 2d3c da64 58bb
00000380: 4c39 cdbd 1ae2 ddbd 4931 89bd 97ad 1c3d
00000390: 9820 e03c fc67 e3bd 6cc0 b0bd 16a8 f9bd
000003a0: 6da8 293d c849 aa3a 9886 d53d f2e0 b4bd
000003b0: 1571 e2bd fcbd 62bb d87e 05be 21f0 a03c
000003c0: af55 5f3d af5c 34bc 0dee dcbd 6090 f13d
000003d0: ebd8 573c 5bc2 ef3d 6e16 a0bd 935f e4bd
000003e0: 7ca5 ccbd 4c92 343b 99d6 ea3d 30a3 063d
000003f0: 409d 8bbd a4d0 a83c 880d 96bd e1d7 803d
