models/lstm/tsla_lstm_autoencoder.pth (torch, 229096 bytes, 14 tensors)

encoder.lstm.weight_ih_l0 f4 [256, 5]
000000 d9 85 f5 3d 4e af ae 3d cd 43 7a 3d 3d f6 81 bd
       0.1198842 0.085295305 0.061099816 -0.06345794
000010 c5 cb bc bd ee f9 78 3d 36 95 bb bd 03 9c d8 3d
       -0.092185535 0.060785227 -0.09159319 0.10576632
000020 7b 07 ae 3d e6 2d 3d bd 71 23 ee bc 72 4a de 3d
       0.084975205 -0.04618635 -0.029069634 0.10854043
000030 df 7f f3 bc 3a cf b8 3b 4f c8 d6 bd 1d 17 ad 3c
       -0.02972406 0.0056399377 -0.104874246 0.021129185
000040 6a da 10 3e 1f 3b 95 3d 0b a3 4b bd ca 22 08 bc
       0.14145818 0.07286667 -0.049716037 -0.008309076
000050 e8 2d a8 bd f4 eb 5d bd 48 53 68 3c 54 b1 1e 3d
       -0.08211881 -0.0541801 0.014180012 0.038743332
000060 2b 54 27 be 0f 78 e5 3d da df fa 3d 98 ca 36 bd
       -0.16340701 0.1120454 0.122497275 -0.044626802
000070 38 31 01 3e 6b 38 61 3c e6 3b 6e 3d 1a d5 04 be
       0.12616432 0.013746361 0.058162592 -0.12971917
000080 f1 10 61 bd 19 eb 9a 3d fc 46 a1 bd 12 49 bc 3b
       -0.054947797 0.075643726 -0.07874867 0.0057460153
000090 b4 5a f8 bc 79 ab 44 bc af ce bb bd 0f d7 11 bc
       -0.030316688 -0.012003773 -0.09170281 -0.008901372
0000a0 2c 38 f9 3c c1 51 97 3d 49 a9 99 3d ca e8 06 3b
       0.030422293 0.0738864 0.07502992 0.002058553
0000b0 eb a0 36 3c 58 34 c9 bd 38 22 76 bd 83 be f9 3d
       0.011146764 -0.09824437 -0.060091227 0.1219454
0000c0 67 7a b0 3c cd a3 02 be 59 14 ab 3b 08 ab d2 bd
       0.021542741 -0.12757798 0.0052209315 -0.10286528
0000d0 3c da a0 bd 58 33 8a 3d 5c c6 64 be 7d 6a db bd
       -0.07854125 0.06748074 -0.22341293 -0.107136704
0000e0 93 e8 07 3d 57 fa d5 3d 9a 5a d7 3c d6 6a 66 3d
       0.033180784 0.10448139 0.02628832 0.05625423
0000f0 d7 89 be 3c c4 ce 70 3d 50 10 d7 3d 63 b3 de bd
       0.023259087 0.058790937 0.10501158 -0.10874059
000100 f5 dd 0f 3d d2 c7 8a 3c 68 b7 a0 3d 64 be d8 bd
       0.035123784 0.016940985 0.07847482 -0.10583189
000110 3b 07 d0 3c 60 40 4a bb 7f e2 a8 3d fc 7e 68 3d
       0.025394073 -0.0030861124 0.08246326 0.056761727
000120 ee 8a a6 3d 06 3d bc 3d 05 4a c5 bd fb f5 e6 3d
       0.081319675 0.09191327 -0.09633259 0.11277386
000130 45 dd d9 3d a1 fa 9d 3d 4d 25 ad 3d 6c 7b 8c bd
       0.10637907 0.07713819 0.0845438 -0.06859478
000140 d2 e3 97 bd 95 91 6b 3d 3e 97 b6 ba ca 65 e9 3d
       -0.074165 0.057511885 -0.0013930572 0.11396368
000150 76 29 09 be d2 bb 8b 3d 10 13 54 bd 27 56 94 bd
       -0.13394722 0.06822933 -0.051775992 -0.07242995
000160 d9 48 e5 bd c6 a0 de bd 36 dc 82 bd b3 7d 37 bd
       -0.11195535 -0.10870509 -0.06389658 -0.04479761
000170 51 53 3f bd 66 13 57 3a c1 e4 a0 bd 2c b3 0e 3d
       -0.046710316 0.000820449 -0.07856131 0.03483884
000180 52 29 f7 3c dd 01 32 3d 2c ae 09 3e 33 12 90 bd
       0.03017107 0.04345881 0.13445348 -0.07034721
000190 8b e3 94 3d d7 04 cb 3d ca fa c7 bd 50 63 db 3d
       0.07269963 0.099130325 -0.09764631 0.10712302
0001a0 04 e7 22 bd c3 9d 8d bd 96 88 ad 3d e5 d3 d3 bd
       -0.039771095 -0.06914856 0.08473317 -0.1034315
0001b0 36 17 7e 3c 15 05 07 bd 0c f7 9b 3d 93 a2 9d bd
       0.015508464 -0.03296383 0.0761548 -0.07697024
0001c0 72 45 d6 3d a6 fc c6 3c d4 41 04 be 33 aa e6 bd
       0.104624644 0.024290394 -0.12915736 -0.11262932
0001d0 85 74 29 bd b2 45 fc bd 27 17 32 3d b7 19 07 be
       -0.041370887 -0.12317981 0.04347911 -0.13193403
0001e0 99 32 eb bd 70 73 2a bd b7 23 d7 bd 59 ba 9c 3d
       -0.1148426 -0.041613996 -0.10504859 0.076527305
0001f0 05 c9 f5 bd 05 d9 13 bd d0 7f 00 3e a9 a6 53 bd
       -0.12001232 -0.036095638 0.12548757 -0.05167261
000200 dd 55 e1 3d 6e 34 b1 bd 3e ec af bd f8 8d 07 bb
       0.11002705 -0.08652578 -0.085899815 -0.0020683985
000210 5d 79 4b 3d 04 5a e2 3b 51 77 4e bc bf b6 9a bd
       0.049676288 0.0069077034 -0.012601689 -0.07554387
000220 ba 97 85 bc c6 54 da bc de 0a 9a 3d f0 d2 5d bc
       -0.0163077 -0.026651751 0.07521604 -0.013539061
000230 d0 41 cf 3d 24 e3 e6 3d d7 73 95 bc 5d 32 af 3d
       0.101199746 0.112737924 -0.018243713 0.08554528
000240 75 01 a8 bd a3 7c 95 3c 28 e4 99 3d 27 25 24 bd
       -0.08203403 0.018247908 0.075142205 -0.040074494
000250 c3 6c 67 3d 37 18 e2 bd 1a 4e d3 3c 56 90 dd 3c
       0.056500208 -0.11039775 0.025794078 0.027046364
000260 0d 1b 90 bd 0b 3a 11 bd 86 7a 11 be 3f 1f 87 bd
       -0.070364095 -0.035455745 -0.14206895 -0.065977566
000270 ec e8 df 3d 17 2f d7 3d 4d f4 c1 bd 26 e3 41 3d
       0.10933098 0.105070285 -0.09470425 0.047335766
000280 d1 bf dc 3c fb a8 89 3d 21 23 47 bd 67 bb 17 3d
       0.026946934 0.067216836 -0.048617486 0.037043955
000290 03 54 81 bb d7 e0 d2 bd 4e ab 05 3e 30 c5 b7 bd
       -0.0039467826 -0.10296791 0.13053629 -0.089731574
0002a0 e0 90 96 bc f5 f3 cd bd 77 10 96 3c 8e 35 97 3c
       -0.018379629 -0.10056297 0.018318398 0.018458154
0002b0 60 ce 03 3e d8 5c 43 3d 8b f9 ab bd bc 4f a0 bd
       0.12871695 0.047695965 -0.08397206 -0.07827708
0002c0 c8 c2 a7 bc db 63 ec 3d 3c 5d d2 bd ed 0d 54 bd
       -0.020478621 0.115424834 -0.10271689 -0.051771093
0002d0 dd b7 d0 bd 19 23 e9 bd 3a 23 bb 3d 4d de 34 3c
       -0.10191319 -0.113836475 0.09137578 0.011039329
0002e0 4c 30 25 be ff 76 da bb d6 14 bb 3c b8 24 eb 3d
       -0.16131705 -0.0066670175 0.022837084 0.11481613
0002f0 f1 1f bd bc ef 90 d1 bd de d9 55 bd 49 51 da 3b
       -0.02308652 -0.10232722 -0.052209727 0.006662522
000300 18 ad b9 bd ca f2 50 3c b7 8d b7 bc 10 87 b4 bd
       -0.09066218 0.012753198 -0.022406442 -0.08814824
000310 48 01 e1 bd d1 d2 61 bd e8 36 1c bd 05 67 9f bd
       -0.109865725 -0.05513269 -0.0381383 -0.07783321
000320 26 f5 97 bd f4 48 5a bb 71 da 87 bd 37 c6 4e bd
       -0.07419805 -0.0033307644 -0.06633461 -0.050482
000330 78 88 ae 3c 57 f7 cb 3d eb 5c 09 bd 7d 9a a2 bd
       0.021305308 0.09959286 -0.03353588 -0.079396226
000340 0c 62 f0 3d ae 20 ea bc b0 8a b7 3d 75 c7 03 3e
       0.11737451 -0.028580036 0.089619994 0.12869056
000350 09 f2 e0 3d 0a 90 c5 bd a9 8c fc bd e7 46 0a bd
       0.109836645 -0.09646614 -0.12331516 -0.033759024
000360 a3 7b 9f 3d bb 01 fa 3d 19 ef 7b 3c 14 a5 f3 bd
       0.07787254 0.12207361 0.01537683 -0.118967205
000370 e9 55 f0 3d 05 84 a6 bd c9 28 97 bd b1 ed 9e 3d
       0.11735136 -0.081306495 -0.07380826 0.0776018
000380 75 2c 78 3d ca 08 8f bb 9c 27 bd 3d a3 e9 66 3d
       0.060589273 -0.0043650614 0.092360705 0.056375157
000390 ec 5c c3 bd f0 c8 1b be 69 71 b0 bd c4 de 93 bd
       -0.09539208 -0.1521337 -0.08615381 -0.072202235
0003a0 b1 e7 ba bd 1d f4 6d bd 0f b1 63 bd 98 60 b1 bd
       -0.09126223 -0.058094133 -0.055588778 -0.08661002
0003b0 0d a9 cb bd fe ea ce 3d 03 4a f9 3d f5 c2 35 3d
       -0.09944353 0.10103415 0.1217232 0.04437538
0003c0 45 71 76 bd 7b b4 83 bd 66 ed b7 3d 07 4b a6 bd
       -0.060166616 -0.06430908 0.08980827 -0.08119779
0003d0 0d 33 40 be 98 5d a5 3d 41 82 e2 bc ff fe 76 3d
       -0.18769474 0.08074492 -0.02765 0.060301777
0003e0 7d a4 b0 bd ae 73 40 be 2b 71 a9 bd 97 db 8c 3c
       -0.08625124 -0.18794128 -0.08273538 0.017194552
0003f0 36 8e bb bd e4 2f d6 3b 51 76 7c bd 95 9a 36 bd
       -0.09157984 0.0065364707 -0.061636273 -0.044581015

encoder.lstm.weight_hh_l0 f4 [256, 64]
000000 b3 1a 05 3e 61 5a 92 bd 87 ba 29 3d d1 3a bb bd
       0.12998466 -0.07146145 0.041437652 -0.09142078
000010 07 48 d0 3c ae 1f d0 3d 5d 8f 05 3d 83 9e b1 3c
       0.02542497 0.101622924 0.032607425 0.02168203
000020 40 d4 aa 3c 07 6d 97 3d a0 e1 ce 3d 91 da 87 bd
       0.020853162 0.07393842 0.10101628 -0.06633485
000030 6f ee d3 bd a6 de 0c 3d 00 28 35 bc 3d a0 3e bd
       -0.10348212 0.03439202 -0.0110569 -0.046539534
000040 48 61 89 3d 3f 6d 95 bd fe 69 0b bd 0a d0 03 3e
       0.06708008 -0.07296228 -0.03403663 0.1287233
000050 54 0b ba 3d 65 03 74 bd 12 3d 17 3d 22 75 da 3c
       0.09084192 -0.05957355 0.036923476 0.026667181
000060 0b 77 97 bd 63 d5 69 3d b4 9f a8 bd 41 af 89 3d
       -0.073957525 0.057088267 -0.08233586 0.0672288
000070 2d 93 02 be a0 5c d3 bd f7 cb 13 3e 04 28 ee 3c
       -0.12751456 -0.10320401 0.14433275 0.029071815
000080 08 de 30 bd 14 ab fb bb 63 1f 92 3d b4 97 ae 3b
       -0.043180496 -0.007680306 0.07134893 0.005328143
000090 1b 08 86 3d 0d e2 e3 bb 3a 55 75 bd 98 88 07 3e
       0.06544515 -0.0069544376 -0.05989573 0.132357
0000a0 49 31 da bd 86 f1 67 3c 8c 30 54 3d 3b 93 80 3d
       -0.10653932 0.014156705 0.05180411 0.06278082
0000b0 9b d5 71 3d f9 bb 9d 3d 69 65 b3 3c 74 2f 95 3d
       0.0590416 0.077018686 0.021898942 0.072844416
0000c0 d8 a7 d7 3c 34 48 13 3d ea 71 f7 3d 5e 71 d3 3d
       0.026325151 0.03595753 0.12082274 0.103243575
0000d0 df bd 5d 3d 56 0d c2 3c 17 55 fe 3c 08 39 2d bd
       0.054136153 0.023688 0.031046433 -0.042290717
0000e0 54 57 0f 3c a4 a4 b5 bd a2 62 af bd 3a 66 6e bd
       0.008748848 -0.08869293 -0.085637346 -0.05820296
0000f0 bd a0 bc 3d a9 80 e6 3d 58 76 01 be 92 39 4f bd
       0.09210346 0.11255009 -0.12642801 -0.050592013
000100 fd 07 ad 3d 5c bd 1e 3d de 17 d0 3d e3 95 82 bd
       0.08448789 0.038754806 0.10160802 -0.06376245
000110 09 1e 36 3d c9 69 c8 bc 99 5b 90 bc 0a 74 65 3d
       0.044462238 -0.024464505 -0.017621802 0.056018867
000120 1c 41 c5 bd 90 ca 69 bd 51 c8 59 3d b1 4f 18 3d
       -0.09631559 -0.057077944 0.053169552 0.037185375
000130 55 cb 17 bd 25 48 88 bc 6c f9 e5 3d 88 4c 49 3e
       -0.037059147 -0.016635964 0.11229214 0.196581
000140 8c 09 ed 3d 6f b7 9a bd 53 c4 16 3c f0 2a 19 bd
       0.115740865 -0.075545184 0.009202081 -0.037394464
000150 a9 42 8f bc 98 24 c2 3d d0 cb 14 bd 65 ac 17 3d
       -0.01748784 0.09479636 -0.036327183 0.037029643
000160 0f ef 15 be 16 dd 74 3d 77 b5 b7 bd c2 16 17 3c
       -0.14641975 0.059781156 -0.089701585 0.0092217345
000170 30 eb f4 bd a2 a4 ac 3a 2b 2f 0c 3e ee 4c 86 3d
       -0.11958921 0.0013171623 0.13689868 0.06557642
000180 46 7f d2 3d 2f 8d 43 bd 6d 56 c5 3d af 1f f8 bd
       0.10278182 -0.047742065 0.09635625 -0.12115418
000190 a0 b0 80 bc 1d 0e 35 bc 3e 13 74 3d 7e b9 6f 3d
       -0.015709221 -0.011050728 0.059588663 0.05852651
0001a0 6d d1 1c be 67 40 bd bd 72 e3 4f 3d 62 a6 48 bd
       -0.15314265 -0.092407994 0.050754018 -0.0489868
0001b0 68 47 5f bc e3 86 22 bd 7d a5 14 3e 16 2f 05 be
       -0.013627864 -0.03967942 0.14516254 -0.13006243
0001c0 6f d4 cb 3c 0c 78 05 bd 7a 6a ec bd 68 e2 34 bd
       0.02488157 -0.03258519 -0.11543746 -0.04416123
0001d0 93 b4 ca bd 5a 03 10 3e 18 a3 f4 3d 7b 6c 47 3c
       -0.09897723 0.14063779 0.1194517 0.01217186
0001e0 56 2a a6 3d c6 df 1a bd fb 5f c1 3d 12 f9 12 bd
       0.08113544 -0.037811063 0.09442135 -0.035882063
0001f0 5d 52 99 bd 1f 12 af bc cc b0 88 3d 37 54 c6 3c
       -0.07486413 -0.021370945 0.06674346 0.024210079
000200 bb 68 41 bd 30 5d bb bd c6 73 92 bd 7b 3e 68 bc
       -0.04721902 -0.091486335 -0.07150988 -0.014175053
000210 00 2c c6 bb 89 cf ad 3d 05 7c af 3d 46 c6 28 3d
       -0.0060477257 0.0848685 0.08568577 0.041204713
000220 e2 11 b8 bd 35 57 38 bd f9 75 a6 bc 7b bb 81 3d
       -0.08987786 -0.045005042 -0.020319926 0.06334587
000230 ca bf 91 bc a7 e8 45 3c 80 d8 f3 3d 1c 83 41 3c
       -0.017791647 0.012079394 0.119065285 0.011811044
000240 8e 9d a1 bd f8 88 cb bd 4e 59 8b bd f4 56 c2 bd
       -0.07891379 -0.09938234 -0.06804143 -0.09489241
000250 32 26 67 bd d5 99 ff bd 72 62 95 bc 15 3f 58 bd
       -0.05643291 -0.12480513 -0.018235419 -0.052794535
000260 18 f5 91 bd c6 b2 a3 bd 64 f6 ec 3d 1d 7a 00 3e
       -0.07126826 -0.07993083 0.11570433 0.12546583
000270 41 ac 2a 3e a7 a2 fa 3d 9f 01 08 bd 34 3a 16 3d
       0.16667272 0.12238055 -0.03320467 0.0366766
000280 89 08 88 bd 01 55 99 bd 9d c4 c3 3c 52 05 b0 3d
       -0.06642253 -0.07486916 0.023897463 0.08594765
000290 61 75 96 3d ee ca 71 bd 61 99 88 3b 50 62 05 be
       0.07346607 -0.05903142 0.004168675 -0.13025784
0002a0 7b 31 51 3c 3b 52 9e 3c 32 51 ac 3c a0 d3 87 3d
       0.012768145 0.01932632 0.02103481 0.06632161
0002b0 85 92 85 bb 50 43 5d 3d 1e 3b b6 bc 31 7f 97 bd
       -0.0040763044 0.054019272 -0.022244986 -0.07397307
0002c0 2d 93 97 3d 78 df 25 3d c9 be 74 bd 47 81 9a 3d
       0.074011184 0.04049632 -0.05975226 0.07544189
0002d0 2e d4 b1 bc 60 72 e3 bd 1f 1c e2 3d 7b 54 14 3e
       -0.02170762 -0.111058 0.1104052 0.14485352
0002e0 41 42 93 3d d6 39 d1 3d 90 18 3e 3d 57 a5 5d 3d
       0.07190371 0.102161095 0.046410143 0.05411276
0002f0 52 e3 ac 3d b5 b2 b2 bd 4f 8b fa 3d 17 a3 3c bd
       0.084417954 -0.08725492 0.12233602 -0.046053972
000300 f5 2e 81 3d 44 c3 ad 3d 20 ae 34 3d 8c 70 f9 3d
       0.063077845 0.084845096 0.04411137 0.1217967
000310 4d 4a 99 bd d3 10 b6 3d 7e 81 0d 3e 70 df 2d bd
       -0.07484875 0.08889928 0.13818929 -0.042449415
000320 8c 3e 21 3d 83 ee 88 3d 9a 2d 89 3d a0 d3 92 3d
       0.03936629 0.066861175 0.06698151 0.071692705
000330 03 81 eb 3d f1 f3 fc 3d a2 5a e9 3d a2 04 f8 bc
       0.114992164 0.12351216 0.1139424 -0.030275647
000340 00 b3 e2 3d 64 94 be bd 02 c2 a3 bc 55 7d 47 3d
       0.11069298 -0.09305647 -0.019989971 0.04870351
000350 b0 97 cd bd 85 a2 a2 3d eb 42 b2 3d af 48 b8 3d
       -0.10038698 0.079411544 0.0870417 0.08998238
000360 c2 08 cf bd 1c f2 2d bc 67 82 57 bd 0d eb 1f bb
       -0.10109092 -0.010616805 -0.052614596 -0.0024401576
000370 84 12 2c 3d 71 ea 04 bc 6b f9 bf 3d 0c 7a 6a bd
       0.042009845 -0.008112536 0.093737446 -0.0572453
000380 92 2c 91 3b fb c5 95 bd 28 00 5d 3c 69 52 78 bd
       0.004430362 -0.073131524 0.013488807 -0.060625467
000390 1a 3e 73 bc 8d 6b 3f 3d 57 00 85 bc 9d 65 af 3d
       -0.014846349 0.046733428 -0.016235514 0.08564303
0003a0 e0 ee b5 3b 13 3f a7 3c 2a 27 ce 3b 8d 18 8f 3d
       0.0055521578 0.020415818 0.00629129 0.069871046
0003b0 db d1 af bd 45 58 95 3d 0b d2 a7 bd ed 05 08 be
       -0.08584949 0.07292227 -0.081943594 -0.1328351
0003c0 17 0d e1 bd 87 68 e0 bd d3 23 95 3c 44 c3 24 bb
       -0.10988825 -0.10957437 0.018205559 -0.0025140801
0003d0 94 7f 9c 3c 0c 69 c0 bd 3f fa 11 3e 59 42 8a 3d
       0.019103803 -0.09395036 0.14255618 0.06750936
0003e0 0c ab ce 3b 13 e8 8a 3d 35 3f 55 3d 24 64 fb 3d
       0.0063070115 0.06782546 0.052062232 0.1227496
0003f0 bb f6 a3 bc f7 4e 03 bb cd a4 df 3c cf 6d 88 bd
       -0.020015111 -0.002003608 0.027300263 -0.06661569

encoder.lstm.bias_ih_l0 f4 [256]
000000 ef d2 d6 3d b1 65 13 be da 60 9f bd 6a 36 07 3d
       0.10489451 -0.14394261 -0.07782145 0.033010878
000010 c9 16 a1 bd 75 d5 23 bd 8e d0 01 3e 4f ab c4 bc
       -0.07865674 -0.03999849 0.12677214 -0.024007468
000020 e8 94 fe ba 34 0d 3c 3d 31 43 b9 bc f7 a1 56 3d
       -0.001942304 0.04591103 -0.022615047 0.052400555
000030 5c 5b d3 3d c4 c2 26 bc e5 0e 61 3d 6f 21 96 3d
       0.1032016 -0.010178272 0.054945845 0.07330596
000040 d6 1e ca 3c 82 70 86 3d 26 5b 13 3d 7d ad eb 3d
       0.024672907 0.06564428 0.035975598 0.115077
000050 06 ca f9 3d 8a 12 e9 bd 52 75 77 bd f3 ce f7 bd
       0.12196736 -0.11380489 -0.06041462 -0.12100019
000060 ae 74 e1 bd 90 2f ea 3b e7 a7 7f 3d e6 f3 95 3d
       -0.11008583 0.007146783 0.062415984 0.073219106
000070 6a e9 8f 3c e1 ac 6e bd ac f2 b3 3d d7 26 99 bd
       0.017567355 -0.05827034 0.0878652 -0.07478111
000080 18 32 19 3d bf c6 26 3d ca b7 bd bd 61 43 0b 3e
       0.03740129 0.040716883 -0.092635706 0.13599922
000090 75 3c ee bd bb 5d 95 bd c3 29 7e bd 90 db 0d 3d
       -0.11632625 -0.07293268 -0.062051546 0.03463322
0000a0 bc 89 30 3d 71 c4 bd bd 48 99 58 bb cd ea c6 bd
       0.043100104 -0.09265984 -0.0033050347 -0.097127534
0000b0 87 31 a1 3d d5 40 02 be e9 11 a4 bd 10 69 b2 bc
       0.07870775 -0.12720044 -0.080112286 -0.021778613
0000c0 af 12 ae bd 0b 6a 9f bc 8f 67 bc 3d b5 99 9d bd
       -0.08499657 -0.019459745 0.0919944 -0.07695333
0000d0 bf a9 93 3d d8 7f 9b bc 86 38 db 3d 7a fb bd 3d
       0.07210111 -0.01898186 0.1070414 0.09276481
0000e0 cd 6c 67 3d 07 f0 e1 3d fa cc d3 3d 44 b7 0e bd
       0.056500245 0.1103211 0.103418306 -0.034842744
0000f0 14 62 ef 3d fe 5e ea bd a8 de 4e 3b bc 98 a6 bd
       0.11688629 -0.114438996 0.003156582 -0.081346005
000100 71 cf 43 3c 3f c9 8a bc 04 9c c7 3d 8a a2 b5 bc
       0.011951313 -0.016941665 0.097465545 -0.022172231
000110 c3 17 19 bd 6c 27 a7 3d b3 9b 32 bd a0 0a 9e 3d
       -0.037376177 0.08161816 -0.043605518 0.0771687
000120 e8 e8 ea 3d 6b 02 19 3e 42 2d df bc 63 e7 bd bd
       0.114702046 0.14942329 -0.02724326 -0.09272649
000130 65 d7 68 bd 9f 48 86 3c bf 10 8e 3d 32 0f 9c bd
       -0.05684604 0.01639205 0.06936788 -0.07620086
000140 0c 0e c2 3d 99 cf fa 3d c7 29 18 bc 69 16 c0 3b
       0.094753355 0.12246627 -0.009287304 0.0058620465
000150 4e 64 8c 3d fd b6 d8 3d 1d a0 83 bd 1c f6 33 bd
       0.06855069 0.10581777 -0.064270236 -0.04393588
000160 a9 35 90 3b 21 11 c4 3d 90 41 94 bd a0 bf 1d bb
       0.004400928 0.095735796 -0.072390676 -0.0024070516
000170 e2 31 8f bc a6 a9 0b bd aa 6e 37 bd ba 9e 43 3d
       -0.01747984 -0.034097336 -0.04478327 0.047758795
000180 09 dc 24 bd 8f ed b0 3d 16 9a 5a bd 61 33 97 bd
       -0.040248904 0.08639061 -0.053369604 -0.073828466
000190 1f 75 2e bd ad d6 c2 3c a9 d8 43 3d 33 de 21 3c
       -0.042592164 0.023784006 0.047814045 0.009879637
0001a0 86 e0 92 bd 65 48 a4 bd bc 8a d8 bd a1 f0 13 3d
       -0.07171731 -0.08021621 -0.105733365 0.036118153
0001b0 ac bf 66 3b e2 a4 0a bd 84 32 69 bd bf 01 3b bd
       0.003520946 -0.03384865 -0.05693294 -0.045655962
0001c0 5b 0f a3 bd 22 06 80 3c 88 da 5f bd 2a 0e 8c 3c
       -0.07961913 0.015627924 -0.054651767 0.017096598
0001d0 b6 b6 20 3d 58 34 a4 3c df 4c 8c 3d 1b c3 22 bc
       0.039236747 0.02004449 0.068505995 -0.009934212
0001e0 b1 4a fd 3c b3 61 b3 3d c7 3b 47 3d 7d c9 21 3d
       0.030919405 0.08758869 0.048640992 0.039498795
0001f0 55 46 ae bd 58 53 ee bb d1 d4 ba bd 07 3a ae 3d
       -0.085095085 -0.007273119 -0.09122623 0.085071616
000200 4b d4 fe bd 8a 5e 13 3d cc ba b0 bd 5b 8e 34 3d
       -0.124428354 0.03597883 -0.08629379 0.044081073
000210 22 76 c8 bd 47 c8 5e 3d 55 81 65 3c f8 be 3c 3c
       -0.09788157 0.054390218 0.014007886 0.01152014
000220 04 a7 96 bd eb c6 a0 bb 2a a2 94 3c 91 24 dc bd
       -0.073560745 -0.0049065254 0.018143732 -0.10749162
000230 73 9b b0 3d 79 1a ae 3d f1 a1 cc bd 8c 92 06 be
       0.086233996 0.08501143 -0.09991825 -0.1314184
000240 ab 29 d1 3b 89 c6 ca 3d 1f 14 b4 bd 3f 22 f5 bd
       0.006383141 0.09901149 -0.087929 -0.119694225
000250 1b 16 de 3d 5d f4 3d 3d 31 0c 73 3c df 3c d8 3c
       0.1084406 0.04637562 0.01483445 0.026396213
000260 4c 53 b3 3d c0 3d e6 bd 0b ea 18 bd a7 95 69 3d
       0.08756122 -0.11242247 -0.037332576 0.057027485
000270 ab d2 5b 3d b2 0e f3 bc f2 fa 97 bd b3 68 5f 3b
       0.053667706 -0.029670093 -0.07420911 0.0034089505
000280 12 f2 83 3d df 6a 09 bc 70 07 c9 bd fa 06 af 3b
       0.064426556 -0.008387296 -0.09815872 0.005341408
000290 91 f3 06 bd 38 69 a6 3d ce 52 e0 ba a2 0b f0 bd
       -0.032947127 0.08125538 -0.0017114521 -0.11720969
0002a0 24 ac 3c 3d 26 6c 86 bd 29 ef 16 3d b5 1f fb bd
       0.046062604 -0.065635964 0.036849175 -0.12261907
0002b0 c1 6a 93 3d c3 88 9e bd 8d 28 a7 bd cc 71 9d bd
       0.07198096 -0.07740929 -0.08162031 -0.07687721
0002c0 6f 33 94 bd 4b 67 24 bc 5a 17 c7 3d f0 14 ec 3c
       -0.07236373 -0.010034393 0.09721251 0.028818578
0002d0 ce 5d 8d bd 30 5a 01 bd 51 26 ab 3d 73 9d ce bd
       -0.069026574 -0.03158015 0.08356918 -0.10088625
0002e0 88 70 c8 3d d4 51 22 3d a8 b5 b7 3d 46 b5 5c bb
       0.09787089 0.03962882 0.08970195 -0.0033677383
0002f0 db f5 08 bb 2d 7d 28 3d d7 ad c6 3c 60 06 bb 3d
       -0.0020898494 0.041135002 0.024252815 0.09132075
000300 29 af 92 3c d7 14 17 3d af 54 fb 3c 60 db 06 3e
       0.017905788 0.03688511 0.030680029 0.13169622
000310 87 c4 c6 3d d8 6f 3f 3d 68 cb 89 bd 13 3a 1f 3d
       0.09705453 0.046737522 -0.0672825 0.038873743
000320 11 b9 a6 bc 09 28 c7 bd b0 aa 93 bd 4f f6 86 bc
       -0.020351918 -0.09724433 -0.072102904 -0.016474871
000330 d0 65 1b 3d 00 1d 46 bc 02 ef fc 3d 6a 24 cd bc
       0.037938893 -0.012091875 0.123502746 -0.025041778
000340 23 5f 9c bc 9a e8 a9 3d 71 92 b4 3c 9c 4f b1 3d
       -0.019088333 0.08296318 0.022042485 0.086577624
000350 88 e4 1e bd 41 96 24 bc 9a bf 98 bc 08 d3 ad 3d
       -0.038792163 -0.010045589 -0.01864605 0.08487517
000360 58 15 b1 3d da 0c 46 3d 54 7c d7 bd cf 7f 2e bb
       0.08646649 0.0483521 -0.105217606 -0.0026626473
000370 84 c2 e5 bd 77 d8 7e bd c0 5f b6 bd 48 4e 60 bd
       -0.112187415 -0.062218156 -0.089049816 -0.054762155
000380 5f 19 89 bd 56 ef 73 3b 27 b4 c7 bd fc 21 ae 3d
       -0.06694292 0.0037221513 -0.09751158 0.08502576
000390 c2 a8 50 bd 9d e3 01 be 30 e8 1f 3c c2 b8 57 bd
       -0.05094219 -0.12684484 0.009759948 -0.052666433
0003a0 2b f7 81 bd a5 c4 18 3d 34 1e 8c 3d 82 33 36 bd
       -0.06345972 0.03729691 0.06841698 -0.044482715
0003b0 11 7a 9d 3c a4 d7 aa 3d d4 b4 00 3e 59 25 e3 3d
       0.019223245 0.083419114 0.1256898 0.11091108
0003c0 ac 28 b6 bd 9c f1 a1 bc e4 34 af 3c 9a 9c 60 bc
       -0.08894476 -0.019768529 0.021387525 -0.013709212
0003d0 7e fd 1b bd 43 33 08 bd 00 ec 3a 3d 2b af 1c bd
       -0.038083546 -0.033252012 0.045635223 -0.03825299
0003e0 e4 6b d2 bd 5c 5d a6 bd 61 90 af bb 0e cc 0b bd
       -0.10274485 -0.08123276 -0.0053577875 -0.03413015
0003f0 16 fa 0f bc 29 fd 0e 3e 07 cb d2 3c dd 2e 5b 3d
       -0.0087876525 0.1396376 0.025731577 0.05351149

encoder.lstm.bias_hh_l0 f4 [256]
000000 bc 82 39 3d c8 86 e6 bd 15 40 8e 3d 68 0a 55 3d
       0.045290694 -0.11256176 0.069458164 0.052011877
000010 e3 21 aa 3d 9c c4 65 3c 2b c4 ac bd 7e 89 9a 3d
       0.08307245 0.014023926 -0.084358536 0.07545756
000020 6c 66 80 ba dc 84 34 3d 23 bf bc 3d 2f d2 6d bd
       -0.0009796149 0.044072017 0.09216144 -0.058061775
000030 fd 30 eb 3d d0 95 0e bd de 9f c5 3a 0b 42 a4 bd
       0.11483953 -0.03481084 0.0015077551 -0.08020409
000040 26 13 c7 3c 1a c3 e0 bd 4c a2 b5 bd 9b 32 1a bd
       0.024301123 -0.10974713 -0.08868846 -0.037645917
000050 20 65 fd 3d 06 93 79 bc 3a 23 be 3c 4e c0 10 3d
       0.12372804 -0.015232807 0.023210157 0.035339646
000060 b6 24 37 3d aa ae 76 bd 04 31 b1 bd 82 1d 99 3d
       0.044712745 -0.060225166 -0.08651927 0.07476331
000070 cc 7c ac 3d c9 6a c7 bd ee 2a 0a 3e 49 73 8d bd
       0.084222406 -0.097371645 0.13492939 -0.069067545
000080 ef 33 44 3c 89 9d 82 3d 80 fa c2 3d 10 de 1a 3d
       0.011975273 0.06377704 0.09520435 0.03780943
000090 8d f0 cb 3d 45 09 95 3d e5 88 1c bd 83 90 9d 3c
       0.09957991 0.07277159 -0.03821649 0.019233948
0000a0 61 81 77 bc af c3 48 3d 0f 6f e6 bc 53 25 34 3d
       -0.01510653 0.049014743 -0.028129129 0.043980908
0000b0 e1 ed c3 bc db 4b f2 bd 12 a8 97 bc 10 7b e1 3d
       -0.02391714 -0.118308745 -0.01851276 0.110098004
0000c0 8c a9 87 bd 1f c5 bb ba 54 9b 66 3d c5 11 22 bd
       -0.066241354 -0.0014325714 0.056300476 -0.039567728
0000d0 81 7b 82 bd d3 dd ca 3d 54 32 cb bd 6f d4 12 3d
       -0.06371213 0.09905591 -0.09921709 0.035847124
0000e0 65 10 4c 3d 8a 61 34 3d de 6f a3 bd b1 37 03 3e
       0.049820323 0.044038333 -0.07980321 0.12814213
0000f0 5e 02 90 bd 54 92 bb 3c d5 c2 83 bd 56 e4 e0 3c
       -0.070317015 0.022896923 -0.06433646 0.027452629
000100 d1 17 a6 3d bf af 39 3d 1e 38 49 3d 32 d3 17 3d
       0.08110011 0.04533362 0.049125783 0.037066646
000110 9b 29 84 3d 12 eb 9e 3d 5b e6 6b bd 7a 17 39 bd
       0.06453248 0.0775968 -0.05759273 -0.045188405
000120 34 73 a1 3c 50 a9 b7 3d 0e d8 f4 bc 24 2a 62 3d
       0.019708253 0.08967841 -0.02988818 0.05521597
000130 ce fd 01 3e 7b 6c 9f 3d 5e 87 8a bc 5a 4d 68 bd
       0.12694475 0.07784363 -0.016910251 -0.056714393
000140 13 04 55 bb c4 05 ee bd 3e cc aa 3d 8a 76 91 bd
       -0.003250365 -0.116221935 0.08339737 -0.07102688
000150 7a 9d 22 3e 13 8c 10 3d 9f 4f a9 bd b0 e1 e8 3d
       0.15880385 0.035289835 -0.0826714 0.113711715
000160 19 9e 42 bc d1 0d 09 3e ea 62 1d bd 8e 17 3d 3d
       -0.011878514 0.13384177 -0.03842441 0.04616504
000170 63 86 2a bc 5c 10 3d bd ac 99 03 3d 72 7b 00 3d
       -0.010408017 -0.04615818 0.032128975 0.031367727
000180 ff 3e eb bd c4 d7 1f 3d 23 18 ce bd 7b 72 97 3d
       -0.11486625 0.03902413 -0.100631975 0.07394882
000190 19 fb 28 3d 27 d3 f6 3c 2b 09 6a 3d 5a aa a2 3d
       0.04125509 0.030129982 0.05713765 0.07942648
0001a0 55 a9 f5 bd 98 51 27 3a f8 c8 f2 3d 23 6c cf 3d
       -0.11995188 0.0006382703 0.11854738 0.10128047
0001b0 a0 d4 37 bd 58 8d 85 3d 39 b5 09 3e d1 45 f9 3d
       -0.04488051 0.065211 0.13448037 0.121715195
0001c0 ff 9d 9c bd 64 d8 0b 3d d2 35 e5 bc 6b 0b 81 3d
       -0.07647323 0.034141913 -0.027979765 0.06301006
0001d0 f8 c2 b9 bd cf 9f 3a bd a3 f6 62 bd 09 b6 a3 bd
       -0.090703905 -0.04556256 -0.055410992 -0.07993705
0001e0 42 dd c1 bd 59 5c 9a 3d ab d3 83 bd ad 82 f3 3d
       -0.0946603 0.07537145 -0.06436857 0.11890159
0001f0 0b 91 90 bd 9f 66 45 3c c8 4d a2 bd 17 b3 bc 3d
       -0.07058915 0.012048393 -0.07924992 0.09213846
000200 97 1f 9f bd 7c 11 c5 bd 50 39 ec 3d c3 18 84 bd
       -0.07769697 -0.096224755 0.11534369 -0.064500354
000210 a2 77 bf 3d 74 59 c6 3d 55 36 f6 3d 13 c0 d7 bd
       0.0934899 0.096850306 0.12022082 -0.10534682
000220 2a 03 3a 3c 9b 7f eb 3d bf f0 8a 3d 72 2f 13 3d
       0.011353293 0.11498948 0.067842 0.03593392
000230 ed 80 ea 3d 03 39 3a bc 79 9d b8 3d c1 0e 3f 3d
       0.11450372 -0.011366132 0.090144105 0.04664493
000240 c3 dc 9f bd 4a 2a 0d be 4f be c5 bd 09 e1 ad 3d
       -0.07805779 -0.13785663 -0.09655439 0.08490188
000250 14 98 46 bd 46 e2 f5 bd 7f 49 9b 3d f4 03 f5 bd
       -0.048484877 -0.12006049 0.07582378 -0.119636446
000260 0e 5d ea 3d 31 c0 fc 3d c1 21 9d 3d 13 bf de bd
       0.1144353 0.12341345 0.07672454 -0.10876288
000270 0f 69 bc 3c ee a3 83 3c 8c bc 6f bd f4 ed b1 bd
       0.022999315 0.016069379 -0.05852942 -0.08687964
000280 ad 83 3a 3d 27 cc e1 3d 4c eb 1c bd 7e 59 f5 bd
       0.045535732 0.11025267 -0.038310334 -0.1197996
000290 74 c1 99 3c b4 ec b3 3d d3 87 bb 3c 72 80 d1 bd
       0.018769003 0.08785382 0.022891914 -0.10229577
0002a0 ed ad cc 3d 30 3f 90 3d d1 e2 94 3d ad 92 aa 3d
       0.09994111 0.07043302 0.07269824 0.083287574
0002b0 bf 01 95 bd f8 11 8a bc 43 70 a2 bd 6a e1 82 bb
       -0.07275724 -0.016854271 -0.079315685 -0.0039941566
0002c0 8f 7b 78 3d ac fd 50 bd eb 0a 0f 3c 13 3f b8 bd
       0.06066471 -0.05102317 0.00873063 -0.089964055
0002d0 56 5b bc 3d 6d 6a c7 bd c7 ab 1d bd 5b dc bf 3d
       0.091971084 -0.09737096 -0.038493898 0.09368201
0002e0 86 55 8f bd b9 6e c5 3d 33 f9 30 bd 54 4f 6c 3d
       -0.06998734 0.09640259 -0.043206405 0.05769284
0002f0 a8 fe f5 3d 6d a5 02 3d 68 cf ef 3c 9d d0 59 bd
       0.120114625 0.031896044 0.029273704 -0.053177465
000300 4c 9e 8f bd c3 9e 99 bd b3 b2 7d 3d e9 b2 8d bb
       -0.070126146 -0.075009845 0.061938 -0.0043243063
000310 35 ec 04 bd b1 f2 15 bc e8 9a ff 3d 17 2b 9e 3d
       -0.032451827 -0.0091521 0.12480718 0.077230625
000320 27 cc e7 bd fa 9e 6d 3d d5 5d 59 bd 14 be 9b bd
       -0.11318236 0.05801294 -0.053068 -0.07604614
000330 d8 66 8e 3d f9 4b 89 bd 12 75 b9 3d a3 d4 e7 3d
       0.0695321 -0.06703944 0.090555325 0.11319854
000340 b8 6c 0b 3e ae 77 d9 3c 9c 01 78 bd ee e8 3b bd
       0.13615692 0.026546326 -0.06054841 -0.045876436
000350 f7 26 b2 3c 42 6c 65 bd 7c 18 3d 3d e8 05 fd bd
       0.021747096 -0.056011446 0.04616593 -0.12354642
000360 6f 9a 11 3e 02 c0 0f 3d bc f1 b8 bd 1f ac 44 bd
       0.14219068 0.035095222 -0.09030482 -0.04801571
000370 ea 54 04 bd 97 72 bd 3d e3 5f 7f bd 14 34 e0 bc
       -0.032307543 0.09250372 -0.062347304 -0.027368583
000380 10 77 38 bd 4e 8d bc 3d 83 4a 2f bd 1a ca a0 3d
       -0.04503542 0.09206639 -0.04279567 0.07851048
000390 f2 70 7d 3d d8 58 85 bd 6e 00 23 bc 31 fc e8 3d
       0.06187529 -0.06511086 -0.009948833 0.11376227
0003a0 34 50 0b bd 0a fc 0a 3e 05 e2 20 3d ce 89 35 bd
       -0.034012035 0.13572708 0.03927805 -0.044320874
0003b0 8c cd 80 3d 12 97 7c 3c 23 6e d8 bc 8b f0 c0 bd
       0.06289205 0.015416877 -0.026419705 -0.0942088
0003c0 0d 01 62 3d 57 8b 77 bd 5a fc 06 3e aa f8 9a bd
       0.055176783 -0.06043562 0.13182202 -0.0756696
0003d0 03 c2 ba bd ef f1 fa bc 55 83 dd bc 0d c8 71 3d
       -0.09119036 -0.030632941 -0.027040163 0.059028674
0003e0 f8 5c 86 3d 67 df 0b 3d 74 ab 7e bc 7a 85 02 3d
       0.06560701 0.0341486 -0.015543807 0.031865574
0003f0 d8 c5 84 bd bf 33 5f 3c 5b 5d c0 3d 49 8a 0b be
       -0.06483048 0.013623177 0.09392806 -0.1362697

encoder.linear.weight f4 [32, 64]
000000 82 71 71 bd a7 04 65 3d 87 b0 35 bd 6c 4b 52 bc
       -0.05894614 0.05591264 -0.044357803 -0.012835365
000010 ca c3 90 bd 97 3d fc bd ea 4c 98 bd d3 b3 dd bd
       -0.07068594 -0.12316435 -0.07436545 -0.108253144
000020 0a 18 0a 3d 3b c5 b3 bd a2 b0 ed 3d 63 18 68 3d
       0.03371433 -0.08777853 0.11605956 0.056663882
000030 a0 64 1a 3d 44 c2 85 3d ef 7f 04 3d e0 c0 b8 3d
       0.03769362 0.06531194 0.03234857 0.09021163
000040 e3 d0 b1 bd ed 3f 01 3c 9e a8 33 bd 37 1c a8 bd
       -0.0868242 0.007888776 -0.043861978 -0.082085066
000050 80 cc 1f bd 74 f7 26 bd 06 d6 ad bd bc e9 07 be
       -0.039013386 -0.040763333 -0.08488087 -0.13272756
000060 c2 d5 0e 3d f6 01 ef bd 20 f8 f4 3d 82 8e 2f bd
       0.034871824 -0.11670296 0.119613886 -0.042860515
000070 74 2c 3a bd 1e f2 aa 3c 2c b1 67 bd b4 16 ed bd
       -0.04545255 0.020867404 -0.05656545 -0.11576596
000080 40 a9 bf bd ff ae 06 3e ee 3f cd bd 0d 56 c9 bd
       -0.09358454 0.13152693 -0.10021959 -0.09830866
000090 9b 6e 08 3b 55 c1 ec 3d e0 02 e7 3d 6c ff 0f be
       0.002081788 0.11560313 0.11279845 -0.1406228
0000a0 65 cd 4a bd 71 96 1f bd b5 ef 78 bd 4c 80 21 3c
       -0.049512286 -0.03896183 -0.060775477 0.0098572485
0000b0 fa 8c 23 bd d7 6c c7 bd db 06 fa bd 86 a4 ee bc
       -0.039929368 -0.097375564 -0.12208339 -0.029131185
0000c0 0f 6d 3b bd 54 87 ec 3d f9 7b a6 bd 46 f5 62 bd
       -0.045758303 0.11549249 -0.08129115 -0.055409692
0000d0 6d 64 26 bd 92 00 5e 3d 3d 55 db bd 29 85 7c bd
       -0.040623117 0.054199763 -0.10709617 -0.06165043
0000e0 6c e5 95 bd 94 68 ce 3d 3b e9 9b 3d 8e ca 1f bb
       -0.073191494 0.100785404 0.076128446 -0.0024382207
0000f0 a7 8b f5 3d 61 2c 99 bc 19 c0 c0 bd ea 37 5f 3d
       0.11989527 -0.01869792 -0.0941164 0.054496683
000100 88 ad 25 bd 0c 76 02 bd 39 9e 84 bd a8 a1 cc 3d
       -0.040448695 -0.03185086 -0.06475491 0.09991771
000110 8e 92 b8 bc a2 85 13 3e eb f7 9a 3c 48 2a 94 3d
       -0.02253082 0.14406446 0.018917045 0.07234627
000120 b9 53 8e bc 63 ae 90 bd dd e6 03 3d c8 b2 3a 3d
       -0.017373906 -0.070645116 0.03220259 0.045580655
000130 50 4e 46 3d e6 4b 64 bd ac 09 a4 3d c7 53 27 bc
       0.04841453 -0.055736445 0.08009657 -0.010212845
000140 f5 d4 c2 3c 3b c0 51 bd 81 fb b0 bc d9 42 c3 3d
       0.023783186 -0.051208716 -0.021604301 0.095342346
000150 52 4f 9b bc d2 96 d4 bd 3f bf 47 3d f4 8f 45 bc
       -0.018958721 -0.10380329 0.04876637 -0.012058247
000160 a0 cb 10 3c d8 fc 95 bd 18 01 96 bd 32 94 5f 3d
       0.0088376105 -0.07323617 -0.07324427 0.05458469
000170 7b 0d 30 3d ae 7e 04 3e cb 37 6b 3d 75 45 7f 3c
       0.042981606 0.1293895 0.057426255 0.015580525
000180 22 72 ac bc 67 20 a2 bd d2 4e bd bd e9 c4 54 3c
       -0.021050517 -0.079163365 -0.092435494 0.0129864
000190 dd 26 08 bd a9 97 93 3c 76 00 05 be 08 89 af 3d
       -0.033240188 0.018016653 -0.12988457 0.085710585
0001a0 3f 74 a0 bd 9f ec 7f bd f5 8e d4 3d f0 86 69 bc
       -0.07834672 -0.06248152 0.103788294 -0.014253363
0001b0 28 de 58 3d 32 16 da 3d ec e2 ad bc 9d 3e 9d 3b
       0.05294624 0.10648765 -0.021226369 0.004798724
0001c0 c0 05 ea 3c 4e 71 7e 3d 8b d6 da bd c6 38 8a bd
       0.028567195 0.062119775 -0.10685452 -0.0674911
0001d0 a3 5a a9 bd 93 6e c9 3d 4b de ac 3d 20 79 b2 3d
       -0.08269241 0.098355435 0.084408365 0.08714509
0001e0 67 3b 79 bd 6a b7 10 3d 17 ab 15 be 04 20 0b bc
       -0.060847666 0.035331167 -0.14616047 -0.00849152
0001f0 1b 41 5e 3d af ee 99 3d 6a 9e 06 be b1 2b 8e 3c
       0.05426131 0.075162284 -0.13146368 0.017354818
000200 40 6f 06 3e 31 42 f0 3b e4 1a 8b bd 0b 0a 0d be
       0.13128376 0.0073321094 -0.06792238 -0.13773362
000210 11 8a 05 be c5 5e 62 b7 ab 77 2a 3d 70 d7 ca bd
       -0.1304095 -1.3492715e-05 0.04161803 -0.09904373
000220 1e e3 50 3d 25 16 1a bd 51 8d b5 3d 6e 66 75 3d
       0.050997846 -0.037618775 0.088648446 0.059912138
000230 2e 51 04 be 18 0d f5 bd 0f 36 c5 bc 7a 09 f7 3c
       -0.12921593 -0.11965388 -0.024073629 0.030155886
000240 83 bb 64 3d a5 d0 a1 3d 30 a7 09 3d 38 a4 94 bd
       0.055842888 0.07901124 0.033606708 -0.07257885
000250 a8 89 5c 3d 7b 3a 84 3d 9d 90 9e 3d 19 39 1a bd
       0.053842217 0.06456467 0.077424265 -0.03765211
000260 52 41 33 bd df 47 c6 bc b7 ce b8 3c f0 d7 cd bd
       -0.043763466 -0.024204193 0.022559507 -0.100509524
000270 39 76 e8 3d 6f 51 a7 bc 20 ba 07 bc 61 9e dd bd
       0.11350674 -0.020424573 -0.008284122 -0.10821224
000280 92 80 35 3d df 87 ab bd 13 84 55 3c de 9d 17 bd
       0.044312067 -0.08375525 0.013031977 -0.03701579
000290 69 fe ab 3d ea f6 f7 3c a1 d6 06 3e c0 61 75 bd
       0.08398134 0.030269105 0.13167812 -0.059907675
0002a0 84 13 59 3d cb d5 9b bb f5 6e a4 3d 44 73 05 be
       0.052997127 -0.0047557107 0.08028976 -0.13032252
0002b0 5d 06 c2 bd 68 13 a1 bb 48 46 89 bd e2 2d 8c bd
       -0.0947387 -0.0049156435 -0.06702858 -0.06844689
0002c0 fb d5 ab bd 5e 5f 3a 3d 27 fa e0 3c 3e 19 c2 3d
       -0.08390423 0.045501105 0.027463032 0.09477471
0002d0 79 3f cc bc 74 3e be bd 34 6d b1 bd 96 5a 03 be
       -0.02493261 -0.09289256 -0.08663407 -0.12827525
0002e0 ce 49 16 3d 0f d5 f0 bd 1d 58 a7 bd e1 03 4d bc
       0.03669148 -0.11759388 -0.08171103 -0.012513132
0002f0 19 05 88 3d fa 9c 00 3d 1e be d0 ba 52 27 67 ba
       0.06641597 0.031399705 -0.00159258 -0.000881781
000300 e3 5d ac bd f5 b9 8e bc d5 92 a7 3c 23 ac d4 bd
       -0.08416345 -0.017422656 0.020455757 -0.10384395
000310 a9 52 a4 3d 73 45 54 bd 5a bf ad 3d 4d 7d 58 3d
       0.08023579 -0.051824044 0.08483763 0.05285387
000320 fd 61 c2 b9 28 8d 1d bd 46 9e 82 bd 10 50 cb 3a
       -0.0003707557 -0.038464695 -0.063778445 0.0015511531
000330 c4 1b e7 bd 38 aa a0 bc 9a ee c1 3d 04 12 eb bc
       -0.11284593 -0.019612417 0.09469338 -0.028695114
000340 ca 26 19 be fb 20 0f 3d 24 dd 4d 3d 0a 76 73 bd
       -0.14956203 0.034943562 0.050259724 -0.059438743
000350 aa f2 00 3d 01 02 38 3d 7c 37 ff bc 9b 86 9b 3c
       0.031481422 0.044923786 -0.031154387 0.018985083
000360 be 6c a6 3d 28 e1 9e bd 1a b7 93 bd 20 a3 33 3c
       0.0812621 -0.07757789 -0.07212658 0.010964185
000370 51 bd 36 bd ae 7a 05 3d 78 59 31 bd a1 3f e5 3d
       -0.04461414 0.0325877 -0.043298215 0.11193777
000380 ba 10 d9 3c 38 b0 c9 3d fe 73 a4 bd 64 5e 74 3d
       0.026497234 0.09848064 -0.08029936 0.05966033
000390 02 8f b7 bc 0c 44 82 bd 15 02 ef 3d 74 d6 11 3d
       -0.022407059 -0.06360635 0.11670319 0.03560491
0003a0 a6 8b 86 bd 92 e8 d7 bd c2 10 be bd fd 6e e7 3d
       -0.065696046 -0.10542406 -0.0928054 0.11300466
0003b0 53 55 c0 3d 9b c6 cb 3d 66 68 d1 3c 70 e6 a4 3d
       0.09391274 0.0994999 0.025562476 0.08051765
0003c0 6b 25 c7 bd 60 bc b3 3d 0a c3 69 bd 1d 9a 99 3d
       -0.09723934 0.08776164 -0.05707077 0.07500098
0003d0 3e 0d 87 bd 4b 54 6b 3d 82 cc 6e 3d bf 33 a7 bd
       -0.065943226 0.057453435 0.058300503 -0.08164167
0003e0 62 37 e3 bc a3 97 21 bc 83 89 3a bc 1a a6 16 bd
       -0.02773637 -0.009862813 -0.011385324 -0.0367795
0003f0 0b 65 19 bd c3 4f 1e bd 62 58 81 bd 9d 5d 3a bd
       -0.037449878 -0.038650285 -0.06315686 -0.045499433

encoder.linear.bias f4 [32]
000000 21 bf 9f 3c 87 ee fc bc 81 ff 96 3c 03 11 36 3d
       0.019500317 -0.030875457 0.01843238 0.044449817
000010 83 0a 57 3c ba 71 cf 3d da c8 a0 3c 86 41 76 3d
       0.013125065 0.101291135 0.019627023 0.06012108
000020 7b 31 a9 3c ac 41 97 3d d4 c7 57 bd 50 94 b5 3d
       0.020653477 0.07385573 -0.052680805 0.08866179
000030 ef 12 d6 bd 8f 68 db bd f3 17 a7 bd 4d ff 80 3c
       -0.1045283 -0.10713302 -0.08158865 0.015746737
000040 1e 4d 63 bd 2e ca b3 3c e7 3b 30 3d 58 4a 01 3d
       -0.055493467 0.021946993 0.043025877 0.03156504
000050 7f 43 e1 bd 55 e1 86 bd 29 f0 06 bd 50 9e 98 ba
       -0.10999202 -0.065859474 -0.03294388 -0.001164386
000060 da 8c e6 3d 29 f1 b8 3d db d3 c0 3d 56 35 e9 bd
       0.11257334 0.09030373 0.09415408 -0.11387126
000070 3b 77 23 3d b9 b1 20 3d a3 11 01 bc 51 e4 0d bd
       0.03990863 0.03923199 -0.00787774 -0.034641568

decoder.linear.weight f4 [64, 32]
000000 d4 43 2b be 0f 88 5a 3d ff a5 8e 3d d6 de 36 be
       -0.16725093 0.05335241 0.06965255 -0.17858443
000010 d5 98 08 3e 56 ae b7 3d f8 5f 16 be 6b 10 ce 3c
       0.13339551 0.08968799 -0.14685047 0.025154313
000020 7b 4e cf 3d a1 35 e6 bd c5 28 29 bd c4 0a e3 bd
       0.10122391 -0.11240698 -0.041298646 -0.11086038
000030 03 6e 2d be f1 b9 34 3d 78 ce 57 bd 65 2f 51 3d
       -0.16936497 0.04412264 -0.05268714 0.05107059
000040 47 e2 c1 3d 86 4f 36 3e 0b 58 44 3d 3b 09 86 3d
       0.09466987 0.17803773 0.047935527 0.06544729
000050 c4 3a 2d 3d af c8 15 3d 3e f2 4a 3e be 49 bb bd
       0.04229237 0.03656834 0.1981897 -0.091449246
000060 97 8e 14 bd d5 e9 2d 3e 47 b5 26 be dd 17 fb bd
       -0.036268797 0.16983731 -0.1628009 -0.12260411
000070 36 8f e3 3d 0f 3c da 3d 57 59 4f 3e 6a a4 6e bd
       0.111113 0.106559865 0.20248924 -0.058262266
000080 06 6a 0e 3e 79 b1 50 bd 73 f8 09 3c 3a 54 06 3e
       0.13907632 -0.0509505 0.008421051 0.13118067
000090 f4 c2 8b 3a 5b 56 c8 bd 78 17 c3 bc 82 de 9f bc
       0.0010662959 -0.09782096 -0.023814902 -0.01951528
0000a0 16 39 ef bd a5 6e 39 be f3 aa 6f bd 32 c6 d0 bd
       -0.1168081 -0.18108614 -0.05851264 -0.10194053
0000b0 2e 81 a5 3d 37 87 ff bd 8f 95 34 bc a4 86 38 3e
       0.0808128 -0.12476962 -0.011021986 0.18020111
0000c0 d1 58 12 be 8b 4c cc bd 4f ce 1c 3e 12 51 07 be
       -0.14291693 -0.09975537 0.15313075 -0.1321452
0000d0 0c ed 28 bd 0d 0f 4e 3e a7 6e 91 bc 79 72 25 be
       -0.04124169 0.20122929 -0.017752958 -0.16156949
0000e0 b7 e6 b0 bd 23 fa 89 3d 08 d9 e5 bd bc ca 2b be
       -0.08637755 0.06737163 -0.11223036 -0.16776556
0000f0 9a 6a 0d be 89 fd 0d bd 82 18 3f be 73 75 00 be
       -0.13810197 -0.034665618 -0.18661693 -0.12544803
000100 04 4c dc bd 38 36 b4 bd be a1 a1 bd b8 f2 99 bd
       -0.10756686 -0.08799404 -0.07892178 -0.07516998
000110 ea 4d 3d bd 87 b9 15 be 62 9d fc 3c bf 42 b1 3d
       -0.046216883 -0.14621554 0.030836765 0.08655309
000120 af c2 3b 3c 50 d2 0c be 37 76 33 be b8 6e c8 3d
       0.01145999 -0.13752103 -0.17525564 0.09786743
000130 94 69 07 be a1 ae 36 3d 74 54 2e be 45 50 9e bc
       -0.13223869 0.044600133 -0.17024404 -0.019325385
000140 05 99 56 3b e5 7f 17 3e 27 a1 17 be 12 3f 86 bd
       0.0032745015 0.14794882 -0.14807568 -0.065549985
000150 f9 c1 d3 3d 1d fe 84 bd f5 53 14 3e 1c d0 b5 bd
       0.10339732 -0.06493781 0.14485152 -0.08877584
000160 1f 63 fa bc 2a 8a 11 bd 92 e1 1c be e4 0f a0 3d
       -0.030564843 -0.035532154 -0.15320423 0.07815531
000170 79 a3 46 be a6 c3 4e bd 73 b9 ea bd 33 52 b6 bd
       -0.19398297 -0.050479554 -0.11461153 -0.08902397
000180 ef ad 24 bd b4 92 16 be 29 55 26 be fd 29 24 3e
       -0.04020494 -0.147044 -0.16243424 0.16031642
000190 d6 0f 38 bd 11 2c 84 3d c1 2b 02 be 32 0b ce bd
       -0.044936977 0.064537175 -0.12712003 -0.10060729
0001a0 bc d8 f6 bd 61 85 88 bd c9 b4 d4 bd 52 86 fa 3c
       -0.120530576 -0.06666065 -0.103860445 0.030581627
0001b0 1e c9 b8 bd d3 64 e8 bd 96 b5 94 3d 42 32 db 3d
       -0.09022735 -0.11347356 0.07261197 0.10702945
0001c0 f5 05 28 3e a4 2e 2f 3e 77 46 37 bc 1f a7 b0 3c
       0.16408522 0.17107636 -0.011186234 0.021564065
0001d0 9c b7 1f 3e 4e 7b 25 be 66 7f 8e bc be e0 2a 3e
       0.15597385 -0.16160318 -0.017394733 0.16687295
0001e0 47 fe 82 3d 5d d5 a0 3d 72 3f 1d be 1a 45 aa bd
       0.06396156 0.07853196 -0.15356234 -0.08313961
0001f0 bd 3f ca 3c 39 91 84 bd 33 23 9b 3c 92 84 bb bd
       0.024688596 -0.064730115 0.018937683 -0.09156145
000200 8e 47 7f 3d f3 1e f1 3d 63 5f 0e be b6 1d 03 be
       0.0623241 0.11773481 -0.13903575 -0.12804303
000210 41 4c 0c be 5c f9 0e 3e c3 82 27 3d fa a8 df bd
       -0.13700964 0.1396231 0.04089619 -0.109209016
000220 46 a4 51 3c e8 ee e7 bd 18 2e 0b be 12 52 23 3e
       0.0127955135 -0.113248646 -0.13591802 0.15949276
000230 67 c4 1c be cf c3 1d be 22 8c 66 bd 69 0a 01 be
       -0.15309297 -0.15406726 -0.056285985 -0.12601627
000240 94 3c 24 3e 81 65 42 3e 37 66 3c be d9 ef ff 3d
       0.16038734 0.18984033 -0.18398367 0.12496919
000250 37 58 93 3d 86 f9 d9 3d 19 38 e1 bd e9 64 a6 3d
       0.0719456 0.10643296 -0.10997028 0.08124716
000260 95 13 06 3e 6d 98 02 3e 84 04 ff bb 6d f5 e1 3d
       0.13093407 0.12753458 -0.0077825207 0.110331394
000270 41 8a ff bc f1 33 1e bd d2 33 c8 bb 17 a7 32 bb
       -0.031193854 -0.038623754 -0.006109693 -0.0027260238
000280 ef b8 f1 bd 8b be 9a bd ed 81 ba bd 1f 40 2c 3d
       -0.118028514 -0.075558744 -0.091068126 0.04205334
000290 51 45 0b 3e 9d 8e 1e 3e 20 df 02 be 29 c5 84 ba
       0.13600661 0.1548409 -0.12780428 -0.0010129559
0002a0 19 cd b0 3c d5 a6 d3 3d 83 50 f4 3d 2e 0e 5b 3d
       0.021582173 0.10334555 0.11929419 0.05348032
0002b0 68 39 a2 bd 21 1f eb 3d 93 f8 2d 3e cc 9f c7 bd
       -0.079211056 0.11480547 0.16989355 -0.09747276
0002c0 45 41 ce bb e4 6f 76 bc 94 11 06 be 14 19 90 3c
       -0.006294402 -0.015041325 -0.13092643 0.017590083
0002d0 27 da 48 3d 55 7a c8 3d 79 15 8f bd 3f 8c 6b be
       0.04903617 0.09788958 -0.069865175 -0.23002718
0002e0 ef 2e 5b 3c dd c4 f7 3d 87 bd 10 3e 14 69 b1 3d
       0.013377889 0.120980956 0.14134799 0.0866262
0002f0 d5 6a db bc fe f6 15 be 78 67 e2 bd 76 b6 64 bd
       -0.02678434 -0.14645001 -0.11054891 -0.05583807
000300 9c f2 25 be 25 b1 d9 3d 39 d9 78 bc 7c e7 dd bd
       -0.1620583 0.10629491 -0.015188509 -0.10835168
000310 4f 60 9c bd 66 24 fa 3a e9 5c 11 be ae f2 f3 bd
       -0.07635557 0.0019084334 -0.14195599 -0.11911522
000320 67 3d ef bd ae d0 5c 3d 66 3a 8b 3c 28 80 b9 bc
       -0.116816334 0.05390995 0.01699562 -0.022644117
000330 4a 29 21 3e fe d3 c2 bd 20 73 37 bd 3e d1 f3 bb
       0.15738407 -0.095130906 -0.044787526 -0.007440715
000340 47 47 8e bd 9b 37 21 3e 3e e3 d6 3d 20 6a 92 bd
       -0.06947189 0.15743868 0.10492562 -0.07149148
000350 55 3b 84 3c 9a ce 22 bd 16 9b ed 3d 08 20 1e 3e
       0.016141573 -0.03974781 0.11601846 0.15441906
000360 8b 7f 4c 3d 76 69 ab bc 85 7c a7 bc b4 df 0d 3e
       0.049926322 -0.020924311 -0.020445118 0.13854867
000370 17 e8 a0 bd 30 0b cc bd c2 e2 8d 3d 71 1d 01 3e
       -0.078567676 -0.09963071 0.06928016 0.12608887
000380 73 45 3f be 58 40 c2 bc 60 b5 ee bd 72 da f7 3d
       -0.18678837 -0.023712322 -0.11655688 0.12102212
000390 47 4e 22 3d d2 20 5a 3d f5 9c 0a be 4b 00 59 3d
       0.039625432 0.053253956 -0.13536437 0.052978795
0003a0 64 ef e4 bd ec fe 94 bd 0c 2b 81 bd d9 ef 90 bd
       -0.11178473 -0.07275185 -0.06307039 -0.07076997
0003b0 ec 55 3d be 29 8b 7a 3c 05 fe ab 3d 3f 90 3b be
       -0.18489808 0.015291967 0.0839806 -0.18316744
0003c0 e0 19 15 3d 35 ca f0 3d 5f a1 e0 bd 56 db 09 be
       0.03640163 0.11757318 -0.10968279 -0.13462576
0003d0 90 d2 91 bd bd f7 4a be 93 3a d1 bd 4c a5 10 be
       -0.0712024 -0.19821067 -0.1021625 -0.14125556
0003e0 ed 06 f9 bd a8 aa 12 be c7 eb 2b 3d a0 c4 e6 3d
       -0.12159524 -0.14322913 0.0419729 0.11267972
0003f0 61 e3 76 bd 1d 30 0c be 82 d5 19 be 4d 94 78 bd
       -0.06027544 -0.13690229 -0.15022853 -0.060688306

decoder.linear.bias f4 [64]
000000 df 8b c5 3d 64 80 28 be a0 a3 2a bd 21 19 7f 3d
       0.09645819 -0.16455227 -0.04165995 0.062279824
000010 ec 3e ed 3d 9f 75 ff 3d 2d 80 09 be 5d f6 4a 3d
       0.11584267 0.12473606 -0.13427801 0.049551357
000020 41 ff 25 be 41 be 26 3e d8 ee 04 3e 50 ea e0 3d
       -0.16210653 0.16283514 0.12981737 0.109821916
000030 32 40 f7 3c 42 e2 8e ba ae 1c dd bd 18 90 df 3d
       0.030181978 -0.001090117 -0.10796486 0.109161556
000040 76 e9 f0 bc a0 54 74 bc 52 4b 9c 3b 41 5a d0 3d
       -0.029408198 -0.014912754 0.004769721 0.101734646
000050 eb 19 59 bd b4 2a af 3d 26 8e 8e bd c7 af 79 bd
       -0.053003233 0.08553067 -0.069607064 -0.06095865
000060 3e ce 64 bd f5 8f b7 3d de 28 0b be 8e ef 0d 3e
       -0.05586075 0.089630045 -0.13589808 0.13860914
000070 4b 0b 77 3d 59 da d7 bd af ed 40 bd 79 4f 17 be
       0.060313504 -0.105396934 -0.047101673 -0.1477641
000080 8b 76 0b 3e af e2 f7 bd 5c 3d 00 3d 6a cd 23 3e
       0.1361944 -0.12103783 0.031308517 0.15996328
000090 f4 4a 94 3d 20 62 d3 bd 04 99 1e bd 07 65 29 bd
       0.07240859 -0.1032145 -0.038720146 -0.041356113
0000a0 7d d2 b0 bd 69 25 10 be 0e e2 a4 3d 1b a7 97 bd
       -0.086338975 -0.14076771 0.08050929 -0.0740492
0000b0 75 07 f1 bb bd 97 64 bd ee bb b1 bd b3 86 e6 3d
       -0.0073556253 -0.05580877 -0.08678423 0.112561606
0000c0 e4 d8 c3 bd ed 80 1c 3e f4 bc 15 3e 7b 96 f9 3d
       -0.09562853 0.15283556 0.14622861 0.12186905
0000d0 49 dd 7d 3d c0 80 ac bc 7d a5 81 3c b6 d0 f3 bb
       0.061978612 -0.021057487 0.015825981 -0.0074406518
0000e0 c5 8a 60 3b ea 17 fc bd 05 0c 06 3e 62 28 4c 3d
       0.00342624 -0.12309249 0.13090523 0.0498432
0000f0 66 c0 7b 3d 8d 4e 51 bd 20 c5 6b bd 97 66 9d 3b
       0.061462782 -0.051100302 -0.05756104 0.0048034894
