models/autoencoders/aapl_lstm_autoencoder.pth (torch, 228008 bytes, 14 tensors)

encoder.lstm.weight_ih_l0 f4 [256, 5]
-0.0049842014 0.12916674 0.07467371 -0.043766297 -0.089462094 -0.0043095537 0.10833842 -0.0013614821
0.10065941 0.025348164 0.00018323083 -0.11606673 0.063125946 -0.08659196 0.027783567 0.007893524
-0.059963856 0.05343362 -0.08768371 -0.033741336 -0.08949466 0.07486452 -0.02760683 -0.118079215
0.0025845484 -0.031970218 0.07665173 -0.048652977 0.062021684 0.094469875 -0.02624693 0.11279462
0.057660345 0.11445037 -0.037663564 0.09713436 -0.0015178485 0.012352985 -0.09261651 -0.0670232
0.07217649 -0.061787292 -0.13117503 0.038942106 -0.0037745312 0.12272176 0.11680266 -0.06296883
0.06361528 0.07225955 0.05476915 0.11538781 -0.030803435 -0.0416574 -0.20234278 0.14467421
-0.09442355 0.039296556 0.071172394 0.109635964 0.10794345 -0.043559156 -0.008047042 0.03398933
0.07665725 0.0875886 0.030626524 -0.016904518 0.027225556 -0.10999889 0.07769254 0.0031378944
-0.083241925 0.058813076 -0.030586014 0.03396563 0.045790963 0.07395076 -0.01952013 -0.0662342
0.1391629 0.1422674 -0.039271284 0.07330377 0.02947976 0.098932095 0.09828573 -0.047952447
0.11472263 0.12476996 0.05006653 -0.043154035 0.01613912 -0.053856403 0.03410051 -0.060520433
0.025169734 -0.115378484 -0.07580712 0.035690334 -0.08251199 0.15747076 -0.023893464 -0.0047314963
-0.017665792 -0.00037684425 -0.010939817 0.08729711 0.056011148 -0.06263547 0.12642504 -0.08064604
0.038292125 0.1279185 0.021765528 -0.057991203 -0.081850484 0.029071242 0.054820143 0.061527584
-0.023643604 0.045355145 -0.027286785 0.12402175 -0.085135564 -0.048083074 0.1661837 -0.054308444
0.10612596 0.04781361 0.11440445 0.005456894 -0.012537863 0.12039883 -0.041362233 -0.08414433
-0.032124285 -0.09527366 0.03773947 -0.1004389 -0.037392996 -0.03819381 -0.03628513 -0.02131044
-0.039981313 -0.07833541 -0.038008437 0.011705951 0.109594725 -0.08722638 -0.049646687 -0.0035725248
0.10345467 -0.101841934 -0.14673914 0.12110841 -0.08724038 -0.010616204 0.11039738 -0.067942046
-0.07789893 -0.11367137 0.026185378 0.02548754 -0.086771436 0.07307421 -0.050640624 -0.03830663
-0.05947333 -0.102493204 0.07226778 -0.06978301 0.07409707 -0.015242916 -0.096342996 -0.046901356
0.010246545 -0.09341122 0.052186005 -0.123506546 -0.044550795 -0.051473584 -0.08025181 -0.13982484
0.15846641 -0.048535794 -0.06631667 -0.01302822 0.13777946 -0.09830881 0.05779714 0.08762131
0.0846864 0.010438202 0.10418239 0.09697047 -0.07440372 -0.077351026 -0.020006679 -0.012408203
0.120797165 -0.057834357 -0.041492477 -0.022117559 0.05944899 0.004943425 0.13312465 0.09309154
0.009266951 -0.10148588 -0.051758043 -0.103632666 -0.06718549 0.097144134 -0.13700283 0.123283565
-0.044733986 0.06014962 0.0904726 -0.16366808 -0.04160807 0.029897902 0.12083572 0.04888251
-0.05552295 -0.1090946 0.106928065 -0.08079898 0.12266829 0.050163064 -0.028684849 0.013435106
-0.0253767 -0.10190457 -0.05982786 -0.15221107 0.052893 0.02573057 -0.10041789 -0.09091845
-0.06221519 0.06966929 0.10025574 0.053415425 0.048811533 0.042699203 0.06483802 0.120989785
-0.032931726 -0.053218313 0.10597668 0.0990175 -0.02475597 0.1255152 0.07272972 -0.042820282
00000000: 8352 a3bb 4944 043e 88ee 983d 4a44 33bd
00000010: e737 b7bd 2837 8dbb 89e0 dd3d c273 b2ba
00000020: 8526 ce3d f4a6 cf3c a721 4039 65b4 edbd
00000030: 2d48 813d 2057 b1bd 5d9a e33c d753 013c
00000040: a99c 75bd 36dd 5a3d 8493 b3bd 5b34 0abd
00000050: fa48 b7bd 9252 993d b827 e2bc 84d3 f1bd
00000060: 8761 293b 34f3 02bd 95fb 9c3d 5848 47bd
00000070: 730a 7e3d 6c79 c13d cd03 d7bc de00 e73d
00000080: 412d 6c3d f564 ea3d 1c45 1abd 61ee c63d
00000090: 8bf2 c6ba 2d64 4a3c baad bdbd 7643 89bd
000000a0: 45d1 933d ac14 7dbd bf52 06be c281 1f3d
000000b0: 205e 77bb 8c55 fb3d 3c36 ef3d cdf5 80bd
000000c0: ba48 823d d1fc 933d 9e55 603d 7250 ec3d
000000d0: 7c57 fcbc f3a0 2abd f232 4fbe 7a25 143e
000000e0: 2261 c1bd 6df5 203d d5c2 913d d288 e03d
000000f0: 7511 dd3d 166b 32bd bed7 03bc 6538 0b3d
00000100: 7afe 9c3d a761 b33d 7ae4 fa3c 587b 8abc
00000110: 2108 df3c 1947 e1bd 441d 9f3d 22a5 4d3b
00000120: be7a aabd fbe5 703d 858f fabc 8b1f 0b3d
00000130: 4e8f 3b3d 7f73 973d aee8 9fbc cca5 87bd
00000140: b880 0e3e 8cae 113e edda 20bd 4920 963d
00000150: 8a7f f13c e99c ca3d 074a c93d c969 44bd
00000160: b3f3 ea3d 6587 ff3d 9012 4d3d 49c2 30bd
00000170: 3036 843c 8898 5cbd faac 0b3d 46e4 77bd
00000180: c230 ce3c 8e4b ecbd c340 9bbd 0730 123d
00000190: 0cfc a8bd 0440 213e 3abc c3bc ab0a 9bbb
000001a0: dab7 90bc 2e93 c5b9 eb3c 33bc d4c8 b23d
000001b0: f26b 653d 0647 80bd 9175 013e c029 a5bd
000001c0: 34d8 1c3d 11fd 023e 9f4d b23c 2f88 6dbd
000001d0: 3aa1 a7bd d026 ee3c 168b 603d 5904 7c3d
000001e0: 3bb0 c1bc 51c6 393d 8988 dfbc 1eff fd3d
000001f0: 8e5b aebd c2f2 44bd 0f2c 2a3e 8872 5ebd
00000200: 9158 d93d 34d8 433d e14c ea3d bfcf b23b
00000210: 9c6b 4dbc a993 f63d 726b 29bd dd53 acbd
00000220: c194 03bd d61e c3bd b494 1a3d e9b2 cdbd
00000230: 6629 19bd 1d71 1cbd b79f 14bd 3b93 aebc
00000240: 72c3 23bd 516e a0bd bcae 1bbd 51ca 3f3c
00000250: 3373 e03d bfa3 b2bd 535a 4bbd 0521 6abb
00000260: 0be0 d33d 8192 d0bd c942 16be b007 f83d
00000270: 16ab b2bd 96ef 2dbc 0618 e23d 3325 8bbd
00000280: 7989 9fbd 89cc e8bd b882 d63c 3fcb d03c
00000290: 39b5 b1bd eea7 953d 8b6c 4fbd 6ae7 1cbd
000002a0: 4e9a 73bd f5e7 d1bd 2101 943d 65ea 8ebd
000002b0: 34c0 973d 6cbd 79bc 7a4f c5bd a31b 40bd
000002c0: 20e1 273c 624e bfbd fec0 553d 00f1 fcbd
000002d0: e57a 36bd f7d5 52bd 105b a4bd 3e2e 0fbe
000002e0: 0545 223e 78cd 46bd 09d1 87bd 5174 55bc
000002f0: 0f16 0d3e 2156 c9bd b2bc 6c3d cd72 b33d
00000300: 1070 ad3d fe04 2b3c 945d d53d 7498 c63d
00000310: fa60 98bd 376a 9ebd 0ce5 a3bc c74b 4bbc
00000320: 8164 f73d b8e3 6cbd 04f4 29bd e22f b5bc
00000330: c980 733d 74fc a13b d451 083e c7a6 be3d
00000340: 69d4 173c d4d7 cfbd 3e00 54bd 5d3d d4bd
00000350: 8c98 89bd 81f3 c63d 784a 0cbe 187c fc3d
00000360: fc3a 37bd 735f 763d b349 b93d 9b98 27be
00000370: 396d 2abd 72ec f43c b878 f73d 0739 483d
00000380: 086c 63bd fd6c dfbd 1afd da3d f079 a5bd
00000390: 8339 fb3d c977 4d3d 7dfc eabc eb1e 5c3c
000003a0: cce2 cfbc 58b3 d0bd 0f0e 75bd 38dd 1bbe
000003b0: 55a6 583d ebc8 d23c e5a7 cdbd 7433 babd
000003c0: 5bd5 7ebd c6ae 8e3d e252 cd3d 22ca 5a3d
000003d0: 9aee 473d 5ce5 2e3d ccc9 843d 7ec9 f73d
000003e0: 6be3 06bd 72fb 59bd 4d0a d93d b0c9 ca3d
000003f0: 08cd cabc 0e87 003e 52f3 943d 5264 2fbd

encoder.lstm.weight_hh_l0 f4 [256, 64]
0.08902688 -0.11135289 -0.10467258 0.044891473 -0.10169252 0.009716614 0.10833639 0.06129149
0.06263501 0.14607824 -0.09287175 -0.022674635 0.095380664 -0.04441737 -0.10985484 0.10552519
-0.04911511 0.030021682 0.040912278 0.03746538 0.09035321 -0.07820037 -0.063673094 0.0028585643
0.019784633 -0.108978465 0.09134076 0.018773977 0.057000943 -0.06470485 0.12882532 0.060557142
-0.058914162 0.0004360516 0.06591756 -0.04865197 0.08798773 -0.12784073 -0.0076756617 -0.053906523
-0.10289518 -0.10661356 -0.017803416 -0.0649345 -0.08296712 0.0029924468 0.095879816 0.019549396
-0.035836957 -0.083918594 -0.10563239 -0.08156372 -0.07481859 -0.043941308 0.065321214 0.04475946
-0.057128962 0.059423976 0.006615275 -0.040727146 -0.04361406 -0.05053766 -0.07901951 -0.13891931
0.07133843 0.20335619 -0.18409078 -0.20472956 0.05506789 0.019521596 0.08431761 -0.08752915
0.13504511 -0.09884336 -0.009222458 0.12758039 0.1002607 0.0282796 0.21617194 0.11029326
0.10526651 -0.1373673 -0.11957726 0.22602722 -0.06957933 -0.02493321 -0.07703315 0.15798058
-0.03294852 -0.10599076 0.014176535 -0.15033022 -0.09573316 0.1264719 -0.14131863 0.026068823
-0.13576789 0.062207393 -0.008910529 0.10439599 -0.068879895 0.19854575 0.070140935 -0.05467909
-0.0011224517 0.009106758 -0.038721517 -0.04416347 0.11935358 -0.12770864 0.11990511 0.13897271
0.032085598 -0.1391837 0.018266656 -0.07545367 0.112706155 0.035514053 -0.0370443 -0.019902695
-0.091456436 -0.03564639 -0.17202117 -0.20117246 0.06248794 0.18860227 0.0623521 0.13400933
-0.058284137 0.01067497 -0.15132752 0.05986142 -0.0050066467 0.044689573 0.039305598 -0.047422256
0.11850138 -0.1222292 0.017908132 0.08658817 0.05127449 0.06543068 0.16110718 0.076719336
0.010926091 -0.11118947 -0.010535761 0.16333345 0.0028621212 -0.1032829 -0.10468385 0.09672942
0.06679296 0.08155186 -0.02352922 0.0797207 0.05025582 0.11251317 0.01641624 -0.016314704
-0.13277632 0.11700293 -0.038094543 0.03711178 0.0036667152 -0.038873605 0.034215834 -0.054095794
-0.064184204 0.04955368 -0.056699444 -0.08642287 0.040991105 0.06963155 0.14392407 0.026015697
-0.09359432 0.13277858 0.10120061 0.08188238 -0.07238344 0.113487065 -0.021544816 0.060970232
-0.091215774 -0.046945844 0.064914666 -0.11588024 0.11845251 0.15412512 0.13029897 -0.0028036998
0.08526651 0.0743875 0.015508813 -0.005786333 -0.071728244 -0.09024918 -0.051896233 0.06557977
-0.039448425 -0.040675793 -0.030582396 0.1283067 0.019179221 0.07412753 0.014858841 0.060062822
-0.011575742 0.017479483 0.11616831 -0.07248089 0.0015690563 -0.054283775 0.037764866 -0.02042242
0.085794 -0.06507159 -0.07812545 0.031658377 -0.059236284 -0.054582417 -0.033493742 0.096081294
-0.0647651 -0.0745927 0.023544395 -0.0702986 -0.103127286 -0.13744602 0.009988051 -0.14708026
-0.007962096 -0.022569016 0.06288776 -0.021863267 0.09393348 -0.13201846 0.08579377 -0.04744346
-0.12142584 -0.031761046 0.019760191 -0.139132 0.012402941 -0.07903955 0.007465357 -0.098603904
-0.0056892973 0.03484833 0.100623086 -0.054384302 0.04407484 -0.085895 0.11355138 0.12960516
00000000: ba53 b63d fc0c e4bd 945e d6bd 1fe0 373d
00000010: 2b44 d0bd 6f32 1f3c 78df dd3d c90c 7b3d
00000020: c946 803d 8995 153e 8b33 bebd 28c0 b9bc
00000030: f056 c33d fdee 35bd 93fb e0bd 971d d83d
00000040: ed2c 49bd 08f0 f53c a293 273d 4c75 193d
00000050: 1b0b b93d 8427 a0bd 0a67 82bd c056 3b3b
00000060: 6213 a23c 1a30 dfbd dd10 bb3d e2cb 993c
00000070: d279 693d fa83 84bd c9ea 033e c40a 783d
00000080: fa4f 71bd db9d e439 c9ff 863d 4a47 47bd
00000090: e932 b43d aee8 02be 1e84 fbbb 16cd 5cbd
000000a0: b5ba d2bd 3658 dabd 78d8 91bc 61fc 84bd
000000b0: aaea a9bd ed1c 443b a35c c43d 0e26 a03c
000000c0: c6c9 12bd 83dd abbd cb55 d8bd e10a a7bd
000000d0: 7d3a 99bd cdfb 33bd 21c7 853d b255 373d
000000e0: 0f00 6abd 8e66 733d f3c4 d83b 82d1 26bd
000000f0: a8a4 32bd 9400 4fbd fbd4 a1bd dd40 0ebe
00000100: e219 923d 9b3c 503e 4b82 3cbe a0a4 51be
00000110: de8e 613d c1eb 9f3c b6ae ac3d 7c42 b3bd
00000120: 4449 0a3e 636e cabd cb19 17bc 6fa4 023e
00000130: 7b55 cd3d 9faa e73c 2d5c 5d3e 6fe1 e13d
00000140: f895 d73d 03aa 0cbe ece4 f4bd ae73 673e
00000150: 9c7f 8ebd bb40 ccbc 8ec3 9dbd a9c5 213e
00000160: 07f5 06bd af11 d9bd b344 683c 2af0 19be
00000170: bf0f c4bd da81 013e d5b5 10be 498e d53c
00000180: bd06 0bbe 2ecd 7e3d 78fd 11bc 91cd d53d
00000190: e710 8dbd 944f 4b3e 0da6 8f3d 2ef7 5fbd
000001a0: 3b1f 93ba 8334 153c 749a 1ebd c1e4 34bd
000001b0: a66f f43d 0ec6 02be cf90 f53d dd4e 0e3e
000001c0: 306c 033d 2c86 0ebe f4a3 953c 7487 9abd
000001d0: 7cd2 e63d 2f77 113d c4bb 17bd fa0a a3bc
000001e0: 834d bbbd f301 12bd 5126 30be 2700 4ebe
000001f0: 5bf3 7f3d f420 413e ea64 7f3d be39 093e
00000200: 59bb 6ebd 12e6 2e3c 9af5 1abe 4031 753d
00000210: cc0e a4bb 6a0c 373d e8fe 203d d73d 42bd
00000220: dab0 f23d 4e53 fabd 13b4 923c 2355 b13d
00000230: 3305 523d 8500 863d 48f9 243e 071f 9d3d
00000240: 5903 333c 4eb7 e3bd 2f9e 2cbc e240 273e
00000250: 6d92 3b3b fc85 d3bd 7d64 d6bd 131a c63d
00000260: bfca 883d a904 a73d 5ac0 c0bc 9b44 a33d
00000270: 0cd9 4d3d 4e6d e63d 5a7b 863c 6aa6 85bc
00000280: 84f6 07be 3b9f ef3d 0609 1cbd 8602 183d
00000290: 464d 703b ee39 1fbd e725 0c3d 8d93 5dbd
000002a0: 0273 83bd cdf8 4a3d ad3d 68bd 79fe b0bd
000002b0: 4ae6 273d fc9a 8e3d d560 133e df1e d53c
000002c0: 61ae bfbd 1cf7 073e 4442 cf3d f3b1 a73d
000002d0: c53d 94bd e86b e83d c17e b0bc ecbb 793d
000002e0: 56cf babd 494a 40bd fbf1 843d 9f52 edbd
000002f0: 3b97 f23d fad2 1d3e 186d 053e 47be 37bb
00000300: 35a0 ae3d 7958 983d ad18 7e3c 479b bdbb
00000310: 42e6 92bd 90d4 b8bd 2591 54bd b04e 863d
00000320: ac94 21bd a99b 26bd ef87 fabc d562 033e
00000330: be1d 9d3c 2dd0 973d 7f72 733c 6f04 763d
00000340: 2ea8 3dbc 2231 8f3c a7e9 ed3d dc70 94bd
00000350: cba8 cd3a aa58 5ebd 55af 1a3d eb4c a7bc
00000360: c4b4 af3d 4144 85bd 3c00 a0bd 37ac 013d
00000370: bfa1 72bd d091 5fbd bc30 09bd 45c6 c43d
00000380: 91a3 84bd 0fc4 98bd 2de0 c03c b6f8 8fbd
00000390: 6634 d3bd a6be 0cbe eca4 233c 359c 16be
000003a0: 7373 02bc a8e2 b8bc 4ccb 803d 981a b3bc
000003b0: 3260 c03d d92f 07be a5b4 af3d 1354 42bd
000003c0: 1cae f8bd df17 02bd 20e0 a13c 9e78 0ebe
000003d0: b435 4b3c 7ddf a1bd f49f f43b d8f0 c9bd
000003e0: 496d babb 1fbd 0e3d 7a13 ce3d 13c2 5ebd
000003f0: d287 343d b8e9 afbd a08d e83d 37b7 043e

encoder.lstm.bias_ih_l0 f4 [256]
-0.017658528 0.02535558 0.03351654 0.04677876 -0.010090934 0.009442209 -0.03016672 0.020934466
0.043286894 0.13981813 -0.121416375 0.11319011 -0.049727704 0.018411662 0.008077291 -0.07046347
0.08258732 0.06817106 -0.09984324 0.013059151 0.07963039 0.099612616 0.009217733 -0.005290857
-0.10369631 -0.012776342 0.10658836 -0.028846914 0.11437957 0.04965214 0.00036147662 -0.058209505
0.047285482 0.102869906 -0.1009186 -0.017657328 -0.054509416 0.0057110675 -0.0876428 0.06141147
-0.027049854 -0.04571718 0.021035315 0.09704134 -0.06886599 0.05505769 -0.01184332 -0.14553191
0.032707285 -0.01111285 -0.028498324 -0.014514285 -0.10804666 -0.07201807 0.0041946275 -0.09473005
-0.08739213 -0.067639254 -0.08705211 0.13238488 0.03979422 -0.059278574 0.15127344 0.078501195
0.10980828 -0.04409586 0.050687384 -0.014168875 0.029373815 -0.10750999 0.0846726 0.02976671
-0.0072828336 -0.06730547 0.012905362 -0.023750441 -0.07525937 0.13752167 -0.023491338 -0.025941977
0.09614064 0.078920186 0.13388538 0.01844304 -0.088961326 0.012447798 -0.091541424 -0.08548129
-0.083440624 -0.099730775 -0.115983 -0.13044176 -0.07931675 0.039423622 -0.011699017 -0.026874993
-0.062168945 0.100334525 0.017966345 -0.06499684 -0.015720712 0.15749271 0.049170982 0.11476051
0.0907566 -0.08604863 0.14288105 0.06775162 -0.042683806 -0.042464834 -0.12530217 0.035897356
0.14232248 0.0672889 0.09779911 0.037193086 0.04323817 -0.08605745 -0.06271396 0.044417743
0.07452905 -0.05504462 0.025990812 0.1455671 0.1223001 0.12433549 0.07703816 -0.023643227
0.03893146 0.08218863 -0.087972485 -0.07084743 0.059964333 -0.04665195 -0.086320296 0.012584007
0.08165362 0.08906486 -0.012190781 0.052696757 -0.0029164064 0.03387189 -0.030531196 -0.06483973
-0.09840916 -0.055949327 0.012399161 0.065161794 0.10439058 -0.07136207 -0.05106654 0.036415808
-0.09291794 -0.093523845 0.04364757 0.027818464 0.0799321 0.094944954 -0.020903278 0.121348284
-0.11543937 0.040869873 -0.09107862 -0.03133188 -0.10819879 -0.042497195 0.12192406 -0.075022586
-0.10057789 0.123201616 0.062021147 0.11125574 0.096298195 0.014175433 -0.033098526 -0.037443973
-0.08451448 -0.0020688523 0.044596404 -0.082123704 -0.07590393 0.05601791 -0.1120131 -0.07050678
-0.07060754 -0.0784304 -0.11721746 -0.102732375 -0.04557218 -0.05185735 -0.043049376 0.03797236
0.07819619 0.039645843 0.024011262 -0.0031930553 0.07834842 0.10901498 0.07104835 0.08572668
-0.12489111 -0.016044501 -0.13776049 0.095063455 0.010431528 -0.039668 0.018759549 -0.07555846
-0.0062901424 -0.09626472 0.088659234 0.027772618 -0.040575292 -0.08592334 -0.05057312 0.13188885
-0.09127731 0.112422556 0.046902996 -0.045773342 0.11054056 0.069567956 0.14039409 -0.07142328
0.09711023 0.08735505 -0.09688717 0.06506222 0.13416277 0.14395857 0.0058483044 0.009930129
-0.022843238 -0.038730204 0.058558065 -0.00732608 0.1305002 -0.04573547 0.049332507 0.010188796
0.056365866 -0.021059478 -0.035467952 -0.026419371 0.10595569 0.13066632 -0.0344022 0.0016382907
-0.058593687 -0.005252085 0.020871397 -0.023211645 -0.01571214 0.008593854 0.10351182 0.08504844
00000000: 9ea8 90bc 81b6 cf3c a448 093d 169b 3f3d
00000010: 7254 25bc 7fb3 1a3c 3220 f7bc c27e ab3c
00000020: 994d 313d 7c2c 0f3e 26a9 f8bd 37d0 e73d
00000030: 47af 4bbd 0ed4 963c 9d56 043c 274f 90bd
00000040: 8a23 a93d 459d 8b3d 9d7a ccbd 0df6 553c
00000050: 4215 a33d b301 cc3d f905 173c ed5e adbb
00000060: bb5e d4bd dd53 51bc 004b da3d 5d50 ecbc
00000070: d63f ea3d 0b60 4b3d 9284 bd39 176d 6ebd
00000080: 6cae 413d 75ad d23d 69ae cebd 1aa6 90bc
00000090: 4445 5fbd e823 bb3b 117e b3bd 988a 7b3d
000000a0: a897 ddbc f041 3bbd 4152 ac3c 9cbd c63d
000000b0: 9d09 8dbd 2c84 613d 7c0a 42bc 5106 15be
000000c0: 13f8 053d ac12 36bc 5175 e9bc 53cd 6dbc
000000d0: 9147 ddbd 367e 93bd 1673 893b d401 c2bd
000000e0: a5fa b2bd 7386 8abd 6048 b2bd e78f 073e
000000f0: 44ff 223d 17ce 72bd 6de7 1a3e 3cc5 a03d
00000100: 2ae3 e03d dc9d 34bd 939d 4f3d 9224 68bc
00000110: 5ba1 f03c 332e dcbd d468 ad3d 51d9 f33c
00000120: d6a4 eebb 73d7 89bd 0371 533c 4990 c2bc
00000130: 9621 9abd 7bd2 0c3e e870 c0bc 4584 d4bc
00000140: 62e5 c43d e8a0 a13d 4019 093e dc15 973c
00000150: 5b31 b6bd d9f1 4b3c 127a bbbd d110 afbd
00000160: ebe2 aabd a63f ccbd 7f88 edbd 8692 05be
00000170: d270 a2bd aa7a 213d 3cad 3fbc f228 dcbc
00000180: dda4 7ebd 307c cd3d 282e 933c 101d 85bd
00000190: b9c8 80bc c545 213e 8367 493d 8f07 eb3d
000001a0: 99de b93d 443a b0bd 694f 123e 5dc1 8a3d
000001b0: 37d5 2ebd 9bef 2dbd 364f 00be 1b09 133d
000001c0: fcbc 113e c3ce 893d e64a c83d c757 183d
000001d0: 821a 313d e33e b0bd 2d70 80bd 61ef 353d
000001e0: b0a2 983d 7876 61bd afea d43c 8b0f 153e
000001f0: 7a78 fa3d 9ba3 fe3d 2fc6 9d3d 71af c1bc
00000200: 9876 1f3d 8352 a83d eb2a b4bd 7518 91bd
00000210: 299d 753d 1d16 3fbd b2c8 b0bd 272d 4e3c
00000220: 033a a73d a367 b63d d7bb 47bc 8ed8 573d
00000230: 2e21 3fbb 40bd 0a3d 8f1c fabc b1ca 84bd
00000240: be8a c9bd 1f2b 65bd da25 4b3c 8c73 853d
00000250: baca d53d 4726 92bd 262b 51bd be28 153d
00000260: c34b bebd 6e89 bfbd cbc7 323d 8ce3 e33c
00000270: 71b3 a33d 8072 c23d 5a3d abbc 7385 f83d
00000280: 7a6b ecbd 2b67 273d 6d87 babd db55 00bd
00000290: 5497 ddbd 8a11 2ebd 52b3 f93d 71a5 99bd
000002a0: c8fb cdbd 2151 fc3d e309 7e3d 0dda e33d
000002b0: fd37 c53d 1340 683c 5292 07bd da5e 19bd
000002c0: ed15 adbd 9595 07bb b8aa 363d 7930 a8bd
000002d0: 8573 9bbd 0973 653d 2067 e5bd dc65 90bd
000002e0: b09a 90bd 1ea0 a0bd b50f f0bd 5a65 d2bd
000002f0: e5a9 3abd 5f68 54bd 8b54 30bd e888 1b3d
00000300: 5325 a03d ae63 223d 44b3 c43c 9442 51bb
00000310: 2375 a03d 3f43 df3d cc81 913d 7891 af3d
00000320: e9c6 ffbd c26f 83bc 1611 0dbe a1b0 c23d
00000330: 00e9 2a3c ea7a 22bd a0ad 993c 65be 9abd
00000340: 8a1d cebb 7026 c5bd f992 b53d 6783 e33c
00000350: 4732 26bd 93f8 afbd c325 4fbd df0d 073e
00000360: 99ef babd cc3d e63d 5b1d 403d d47c 3bbd
00000370: 1763 e23d a579 8e3d 78c3 0f3e 5e46 92bd
00000380: bae1 c63d 34e7 b23d c86c c6bd 573f 853d
00000390: f761 093e e069 133e 22a3 bf3b fbb1 223c
000003a0: be21 bbbc 90a3 1ebd 95da 6f3d 9d0f f0bb
000003b0: d8a1 053e 1e55 3bbd e210 4a3d e8ee 263c
000003c0: e5df 663d ed84 acbc d846 11bd 706d d8bc
000003d0: 4cff d83d 64cd 053e 52e9 0cbd eabb d63a
000003e0: efff 6fbd af19 acbb 7efa aa3c 5926 bebc
000003f0: bfb6 80bc 3ccd 0c3c 01fe d33d e02d ae3d

encoder.lstm.bias_hh_l0 f4 [256]
0.04196526 0.00026092486 0.03369448 0.021616157 0.039774805 0.009662881 0.015668372 0.05774104
-0.1342669 -0.07794541 -0.05636277 0.094480015 0.09051586 -0.01254586 0.081495225 0.07891969
-0.07870194 -0.05088299 0.1236924 0.021135725 -0.09524727 0.14213473 0.02250609 0.03277575
0.109576486 -0.05185964 -0.10410267 -0.102962196 -0.06433298 0.07745683 0.013260797 -0.030134073
0.11365199 -0.111631 -0.08713164 0.07365382 0.041055378 0.12967023 0.03137712 -0.032627743
-0.112933636 0.025112879 0.13576591 0.08600728 -0.03728674 -0.028045377 -0.01732661 -0.104004964
0.10359322 0.056631435 -0.03726261 0.082250655 0.030470273 -0.058427423 0.048469167 -0.11993103
-0.0036418359 -0.042300545 -0.047735937 0.119430125 -0.10404666 0.04086685 -0.03789721 0.08513282
-0.032979634 0.01923337 0.023804547 0.09286314 -0.060425088 0.07127515 -0.115462184 -0.08299772
-0.032980017 0.13442694 0.09692452 0.028791232 -0.100449115 0.019474035 0.03104664 0.029393125
-0.06796062 -0.116010174 0.004808947 -0.005517627 0.07893125 -0.09123067 0.076559566 0.085761145
0.08114192 0.11829099 0.11372388 0.056026556 0.0929542 0.044517484 -0.00054035865 -0.06020913
0.02376562 -0.03635913 0.12583661 0.10850173 -0.006994958 0.027294954 -0.09838332 -0.034039695
0.12060026 -0.029466167 -0.07262993 0.12994558 0.0035210184 0.0019189323 -0.08424949 -0.082555115
0.08131032 -0.086983606 0.05518654 0.1253877 -0.041355215 0.11945332 0.07393966 0.0148575585
-0.024470173 0.004146411 -0.0541685 0.072275475 0.009368182 -0.023138348 -0.0027538026 -0.024125457
0.092909664 -0.07633332 -0.08406452 0.07916834 0.00244077 -0.061830375 -0.00969087 -0.07844054
0.04396607 -0.047841027 -0.048466682 0.040939353 -0.10457695 0.015768196 0.034317113 -0.058665883
-0.023238787 8.645078e-05 0.08577408 -0.03604715 0.02694616 0.019734949 -0.10534192 -0.08683313
-0.023060555 -0.08766198 -0.009589898 0.03367853 0.064118095 -0.06788944 0.027801495 0.08360021
0.06371742 0.10748591 0.08954964 -0.1048262 -0.013866953 0.061620608 -0.005761003 -0.038159918
-0.062411632 -0.015641302 -0.014332052 -0.107498325 -0.06873203 -0.07052766 0.07849479 -0.039547257
-0.10115103 -0.010842132 0.12411283 0.054096773 -0.10501144 -0.042053487 -0.09758566 -0.03646117
-0.100293174 0.10940601 -0.11811723 -0.0081298975 0.07076582 0.042140987 0.061840694 0.10468665
0.023294885 0.033024907 -0.108112775 0.034807283 -0.01862081 -0.088044666 0.03909173 0.028733319
-0.031202393 0.07118516 -0.055132207 -0.07785831 -0.06415002 -0.048801653 0.0544924 0.0029287548
-0.10060969 0.06854066 -0.04636291 0.13137811 -0.08143645 0.052676417 0.09627814 -0.0735138
0.055531204 0.14131464 -0.10127324 0.03587638 0.12109383 0.11226313 0.06960623 -0.05396746
-0.107535854 0.0037318515 0.06937412 0.13436466 0.030299636 -0.050129052 0.121673405 0.030206943
-0.08239111 -0.06610003 -0.044052817 -0.050822258 0.14014573 0.0003324525 -0.11999066 -0.07970808
0.11586973 -0.018080076 0.058014132 0.013079194 -0.040971413 -0.07347215 0.10993769 -0.0796654
-0.090348765 -0.059705656 -0.004001223 0.054065976 0.0072487383 0.12183348 -0.021774016 0.08849198
00000000: c4e3 2b3d becc 8839 3903 0a3d 5e14 b13c
00000010: e8ea 223d 0f51 1e3c f55a 803c de81 6c3d
00000020: 437d 09be d8a1 9fbd a6dc 66bd bd7e c13d
00000030: 6160 b93d 278d 4dbc f8e6 a63d a5a0 a13d
00000040: 7c2e a1bd af6a 50bd 7152 fd3d d424 ad3c
00000050: 0011 c3bd c48b 113e b15e b83c dd3f 063d
00000060: a369 e03d c66a 54bd c833 d5bd d8dd d2bd
00000070: 02c1 83bd b0a1 9e3d d043 593c bbdb f6bc
00000080: 60c2 e83d cb9e e4bd 1372 b2bd d0d7 963d
00000090: af29 283d 46c8 043e 4c85 003d aba4 05bd
000000a0: c049 e7bd 86b9 cd3c 3806 0b3e 9624 b03d
000000b0: fbb9 18bd 6bbf e5bc 89f0 8dbc 8e00 d5bd
000000c0: af28 d43d 5df6 673d aea0 18bd 0873 a83d
000000d0: cb9c f93c 9851 6fbd 9b87 463d 669e f5bd
000000e0: deab 6ebb 5643 2dbd c286 43bd c897 f43d
000000f0: 6a16 d5bd 0064 273d 1b3a 1bbd 1e5a ae3d
00000100: a715 07bd 4d8f 9d3c c101 c33c 082f be3d
00000110: 4c80 77bd b5f8 913d 7077 ecbd b5fa a9bd
00000120: 0e16 07bd 37a7 093e 5d80 c63d 97db eb3c
00000130: 44b8 cdbd 0388 9f3c 8655 fe3c dac9 f03c
00000140: f02e 8bbd be96 edbd 5f94 9d3b 36cd b4bb
00000150: b5a6 a13d 25d7 babd 43cb 9c3d 8aa3 af3d
00000160: bc2d a63d 8c42 f23d 11e8 e83d 1a7c 653d
00000170: c65e be3d f757 363d dba6 0dba d99d 76bd
00000180: 1eb0 c23c 50ed 14bd 50db 003e 2836 de3d
00000190: f635 e5bb ab99 df3c 327d c9bd 356d 0bbd
000001a0: 45fd f63d 0863 f1bc 00bf 94bd 7410 053e
000001b0: e3c0 663b af84 fb3a ff8a acbd a812 a9bd
000001c0: 0686 a63d 7624 b2bd 480b 623d a265 003e
000001d0: 1664 29bd f1a3 f43d ad6d 973d 1e6d 733c
000001e0: ac75 c8bc 9ede 873b cadf 5dbd 2a05 943d
000001f0: 017d 193c a28c bdbc 2479 34bb c0a2 c5bc
00000200: 6c47 be3d a554 9cbd 052a acbd 0323 a23d
00000210: 53f5 1f3b d941 7dbd 74c6 1ebc 6fa5 a0bd
00000220: c415 343d f4f4 43bd 0085 46bd 06b0 273d
00000230: 712c d6bd 4e2c 813c 1a90 0c3d a34b 70bd
00000240: 455f bebc e94c b538 52aa af3d 2da6 13bd
00000250: 31be dc3c 30ab a13c 81bd d7bd 91d5 b1bd
00000260: 7de9 bcbc 2088 b3bd f31e 1dbc 80f2 093d
00000270: 5950 833d 9e09 8bbd f6bf e33c 9636 ab3d
00000280: 477e 823d 9321 dc3d cd65 b73d 1eaf d6bd
00000290: 3732 63bc e465 7c3d ccc6 bcbb 934d 1cbd
000002a0: 57a3 7fbd 3022 80bc fcd0 6abc 1528 dcbd
000002b0: 61c3 8cbd ce70 90bd e0c1 a03d 4efc 21bd
000002c0: 4528 cfbd 33a3 31bc de2e fe3d 9494 5d3d
000002d0: 3d10 d7bd 4740 2cbd feda c7bd 4f58 15bd
000002e0: 8266 cdbd 4210 e03d 72e7 f1bd 4333 05bc
000002f0: aced 903d 079c 2c3d ab4c 7d3d f465 d63d
00000300: ead4 be3c 2045 073d 3b6a ddbd 1592 0e3d
00000310: ab8a 98bc c350 b4bd a61e 203d 2362 eb3c
00000320: 299c ffbc 86c9 913d 4fd2 61bd 2d74 9fbd
00000330: 1661 83bd 3ee4 47bd 6c33 5f3d 5af0 3f3b
00000340: 740c cebd 0c5f 8c3d 09e7 3dbd fc87 063e
00000350: 27c8 a6bd 3ac3 573d 792d c53d 678e 96bd
00000360: b074 633d c9b4 103e 5868 cfbd 1cf3 123d
00000370: 0b00 f83d 36ea e53d b68d 8e3d fc0c 5dbd
00000380: c23b dcbd 1492 743b 0514 8e3d e496 093e
00000390: f136 f83c 1f54 4dbd e82f f93d 8d74 f73c
000003a0: acbc a8bd 745f 87bd ba70 34bd 002b 50bd
000003b0: 5d82 0f3e 054d ae39 aabd f5bd fd3d a3bd
000003c0: 1c4d ed3d ab1c 94bc 3aa0 6d3d 1e4a 563c
000003d0: a4d1 27bd 9178 96bd 0327 e13d 9d27 a3bd
000003e0: c608 b9bd eb8d 74bd b11c 83bb 4974 5d3d
000003f0: d386 ed3b d583 f93d 6c5f b2bc 493b b53d

encoder.linear.weight f4 [32, 64]
-0.10309141 0.11031142 -0.092833444 -0.026484935 0.019669762 -0.06674321 -0.038518474 0.110261455
-0.023838125 -0.12771517 -0.039672907 -0.045259062 -0.1092152 -0.013825438 0.023469971 -0.03142261
0.0035696838 -0.12778687 -0.10477694 -0.047299325 0.0021355685 0.036382705 0.028031886 -0.08237626
-0.1143783 -0.123520084 0.0093837045 0.083975255 0.09269754 0.13464454 -0.004839335 -0.020096458
0.009041399 0.042433366 0.040385574 -0.10518907 -0.06196864 0.13249001 -0.036227625 -0.095175855
0.053925097 0.085045785 0.11218452 0.0638374 0.10246151 -0.0850592 -0.07932765 0.057655398
-0.10412056 0.11315873 0.047758512 0.056364127 0.07903185 0.10309296 0.019273993 0.10265937
0.034205347 0.099920675 0.053825457 0.03779546 -0.059397522 0.024356963 -0.03903389 0.15460445
-0.07333174 -0.09728963 -0.07731841 0.109992385 -0.13062866 0.036670398 0.018598802 -0.07291657
-0.09844763 -0.015223252 0.059149507 -0.08638019 -0.0751859 0.059574913 -0.039019905 -0.07861404
0.016331717 -0.10216312 0.026893772 0.09611373 -0.047278345 0.112149276 -0.12657659 -0.07113457
-0.08221233 -0.08108758 0.054614432 -0.07608876 -0.048608027 -0.028682167 0.011157047 -0.029879423
0.04556287 0.048815653 -0.058043227 0.07676179 0.10673234 -0.114213824 -0.007339505 0.09768042
-0.024822224 -0.12199723 -0.011450413 -0.12705748 0.033622894 -0.0060045277 -0.115339376 0.10650218
0.11875036 -0.008878437 -0.08063168 -0.042936906 -0.025302896 0.029307831 0.02651236 0.017853282
-0.10814892 -0.05962892 0.13526988 0.09195596 0.04053625 0.031031536 -0.0463305 -0.14053845
-0.13820584 -0.17188758 -0.09494861 -0.11822764 0.0067562778 0.053421464 0.046125185 0.106888466
-0.018717067 0.08330369 -0.06161186 -0.11841772 0.016075935 -0.057447016 0.15400358 0.019831432
0.16024601 0.046669163 -0.08710055 0.07474424 0.060216464 -0.100427166 0.075668514 0.13205968
0.09312461 0.14229691 0.060607128 0.118541226 -0.07291463 -0.0028394784 -0.11966432 -0.10032413
0.05500486 -0.042315114 0.13009807 -0.017431192 -0.07105695 -0.10403959 0.06072887 0.039650295
-0.0795896 -0.06987506 -0.06250592 -0.081174575 0.04761441 -0.016684128 -0.063975446 0.045287155
0.09106886 0.03514935 0.13466494 0.1317084 0.08432303 0.08369191 0.13113795 -0.10533628
0.08470331 0.056327652 0.03081111 -0.04493227 -0.030994924 0.07169019 -0.017193966 0.04871811
0.047536977 0.033002753 -0.13088971 -0.052649185 -0.0829444 0.04760552 0.09013043 0.09670144
-0.020523375 -0.06642715 -0.016095782 -0.039792392 -0.110592775 0.110564455 0.121407665 0.08835297
0.028150886 -0.09948954 -0.022108166 0.052489404 -0.023819473 0.06360436 -0.0006329105 0.012041557
-0.11343805 0.1037147 0.08528557 0.025923094 -0.080103934 0.06617297 -0.12449883 0.039148916
-0.03998623 -0.10982606 0.113083825 -0.034927424 -0.069504924 0.051182125 -0.061673023 -0.019182606
-0.087567165 0.08565577 -0.07097966 0.11238449 0.113668755 -0.04610385 0.12762448 0.041722376
-0.09535405 0.07185556 0.06647025 0.11781324 0.04039647 0.06462773 -0.01955932 0.044293504
-0.060986444 -0.09022624 -0.035172887 -0.0028200138 -0.0019020803 -0.05968438 -0.10653218 -0.04706158
00000000: 9721 d3bd f4ea e13d 761f bebd eff6 d8bc
00000010: 7b22 a13c aab0 88bd 8cc5 1dbd c2d0 e13d
00000020: 2c48 c3bc c4c7 02be 0f80 22bd 9161 39bd
00000030: 38ac dfbd 1784 62bc 1944 c03c ffb4 00bd
00000040: 5bf1 693b 90da 02be 4b95 d6bd f0bc 41bd
00000050: e5f4 0b3b 0806 153d 20a3 e53c e2b4 a8bd
00000060: 2c3f eabd 19f8 fcbd 1cbe 193c 38fb ab3d
00000070: 35d8 bd3d 42e0 093e 4993 9ebb 54a1 a4bc
00000080: 6022 143c 9cce 2d3d 586b 253d 5e6d d7bd
00000090: d4d2 7dbd 76ab 073e 6b63 14bd 8feb c2bd
000000a0: 90e0 5c3d 7c2c ae3d ffc0 e53d 2fbd 823d
000000b0: 57d7 d13d 8533 aebd 8976 a2bd 1128 6c3d
000000c0: 293d d5bd c4bf e73d 6e9e 433d 12de 663d
000000d0: 73db a13d 6722 d33d 7ee4 9d3c 133f d23d
000000e0: e81a 0c3d 36a3 cc3d 1578 5c3d 6acf 1a3d
000000f0: d14a 73bd 4188 c73c 00e2 1fbd a150 1e3e
00000100: f42e 96bd c93f c7bd 1d59 9ebd b043 e13d
00000110: 85c3 05be b333 163d 845c 983c 4855 95bd
00000120: e99e c9bd f26a 79bc c146 723d 19e8 b0bd
00000130: 11fb 99bd d304 743d 56d3 1fbd 6600 a1bd
00000140: 18ca 853c e63a d1bd 5450 dc3c 46d7 c43d
00000150: f0a6 41bd 85ae e53d 4b9d 01be 00af 91bd
00000160: f05e a8bd 3f11 a6bd 62b3 5f3d 6cd4 9bbd
00000170: 3619 47bd ddf6 eabc 0ccc 363c b1c5 f4bc
00000180: 22a0 3a3d ecf2 473d bcbe 6dbd 4935 9d3d
00000190: 7c96 da3d f0e8 e9bd 3b80 f0bb ac0c c83d
000001a0: fa57 cbbc afd9 f9bd 839a 3bbc 5b1b 02be
000001b0: 29b8 093d a1c1 c4bb 0d37 ecbd d11d da3d
000001c0: 6433 f33d dd76 11bc 3922 a5bd 9cde 2fbd
000001d0: 0548 cfbc fa16 f03c 7330 d93c 0c41 923c
000001e0: 2e7d ddbd 743d 74bd 3084 0a3e 6853 bc3d
000001f0: 5709 263d d935 fe3c 0dc5 3dbd 50e9 0fbe
00000200: d585 0dbe 4c03 30be 6b74 c2bd 5521 f2bd
00000210: c463 dd3b 77d0 5a3d c3ed 3c3d 57e8 da3d
00000220: 8954 99bc 209b aa3d b85c 7cbd fd84 f2bd
00000230: aeb1 833c 904d 6bbd 1db3 1d3e 8775 a23c
00000240: 8817 243e 2a28 3f3d c661 b2bd 8213 993d
00000250: 8aa5 763d c2ac cdbd 18f8 9a3d a73a 073e
00000260: 1eb8 be3d 48b6 113e 2e3f 783d bec5 f23d
00000270: 4454 95bd 8b16 3abb 9112 f5bd bd76 cdbd
00000280: c74c 613d 9d52 2dbd 6e38 053e dccb 8ebc
00000290: 4e86 91bd b512 d5bd d6be 783d 5968 223d
000002a0: dfff a2bd a81a 8fbd 1b03 80bd db3e a6bd
000002b0: 5407 433d 27ad 88bc 8f05 83bd 067f 393d
000002c0: 4f82 ba3d c4f8 0f3d 9be5 093e 91de 063e
000002d0: 8eb1 ac3d aa66 ab3d 0749 063e 8cba d7bd
000002e0: ee78 ad3d d3b7 663d 9567 fc3c e60a 38bd
000002f0: 11e9 fdbc 4ed2 923d 5cda 8cbc a48c 473d
00000300: 22b6 423d e52d 073d f407 06be aca6 57bd
00000310: c1de a9bd 01fe 423d 4e96 b83d 680b c63d
00000320: a320 a8bc f50a 88bd 4ddb 83bc 59fd 22bd
00000330: 777e e2bd 9e6f e23d 95a4 f83d 67f2 b43d
00000340: b09c e63c 2cc1 cbbd 2f1c b5bc 21ff 563d
00000350: 0e21 c3bc 0143 823d e8e9 25ba f349 453c
00000360: 3552 e8bd 5f68 d43d 33aa ae3d ab5c d43c
00000370: 880d a4bd b285 873d 3ef9 febd 9d5a 203d
00000380: 9ac8 23bd 7cec e0bd 7e98 e73d 0f10 0fbd
00000390: 9958 8ebd 59a4 513d da9c 7cbd d724 9dbc
000003a0: 6a56 b3bd 4b6c af3d c95d 91bd d729 e63d
000003b0: 2acb e83d 64d7 3cbd feaf 023e 15e5 2a3d
000003c0: fc48 c3bd 0229 933d 8e21 883d 1148 f13d
000003d0: c576 253d 8b5b 843d de3a a0bc 1b6d 353d
000003e0: eccc 79bd 89c8 b8bd 7211 10bd fbcf 38bb
000003f0: 394f f9ba 9c77 74bd 8b2d dabd a5c3 40bd

encoder.linear.bias f4 [32]
-0.04897099 0.07752051 -0.11841133 -0.024830699 -0.1153205 -0.046424147 0.113524914 -0.06975534
-0.054087978 0.035134442 0.049470376 0.043044895 0.06298958 -0.005557975 -0.10869103 0.0809779
-0.022421634 -0.060834814 -0.08580592 0.06803257 -0.05269192 0.12574919 0.061725385 0.0069092396
0.120875865 0.026957564 -0.046839498 0.0019547844 0.08910338 -0.01245641 0.008825046 0.020463808
00000000: ce95 48bd 13c3 9e3d a481 f2bd c069 cbbc
00000010: 282d ecbd 3f27 3ebd c07f e83d e3db 8ebd
00000020: 5b8b 5dbd 22e9 0f3d 73a1 4a3d d84f 303d
00000030: ae00 813d ac1f b6bb 6799 debd bed7 a53d
00000040: 93ad b7bc ed2d 79bd 04bb afbd a954 8b3d
00000050: 7cd3 57bd 65c4 003e c2d3 7c3d e766 e23b
00000060: c48d f73d 1cd6 dc3c c6da 3fbd d71b 003b
00000070: d57b b63d f815 4cbc ed96 103c b7a3 a73c

decoder.linear.weight f4 [64, 32]
-0.12365034 0.17227376 -0.16664475 -0.102737166 0.114251226 0.020470226 0.10981477 -0.023110496
0.21302462 -0.20758909 -0.049817868 0.07736212 0.089005925 -0.14099203 -0.07185937 0.13149114
0.011403327 0.14764275 0.15574709 0.13924092 0.11342235 0.1239731 0.12492619 -0.071835935
-0.14433292 -0.11336874 -0.13893105 0.1529721 0.075270645 -0.100782596 0.0011696598 0.023155762
-0.12745562 -0.05810521 0.005734363 0.07638918 0.14441983 -0.024950208 -0.08351505 0.059140693
0.11438764 0.1576228 0.006021613 -0.063033774 -0.14284581 0.032863118 0.17820463 0.13809259
-0.1558523 -0.121249355 -0.105299205 0.027066585 0.07040045 0.13705947 0.11479953 -0.17297809
-0.076424226 -0.005822461 -0.004437927 -0.09948912 -0.14698622 0.16383941 0.08030392 -0.052335862
-0.11718426 -0.0406592 0.09654087 0.03022425 -0.03127349 0.08965875 -0.1614328 0.12909561
0.035244346 -0.09834793 -0.06666919 0.0271889 0.13781089 0.1736639 -0.08771704 0.08431508
0.066249855 -0.06521989 0.037387695 -0.057070605 -0.13357706 0.11912768 -0.14538682 0.09155835
-0.06688439 -0.18776695 -0.13399062 -0.03841907 -0.16061315 0.078941636 -0.08587156 0.12457432
-0.088400126 -0.14792028 -0.14665511 -0.04682816 0.063794486 -0.044955097 -0.053764377 0.11937309
-0.16560829 0.071126096 -0.11667947 0.15324794 0.17133716 0.16683817 0.12894185 0.091510266
-0.112934954 -0.104184 0.14523257 0.024207473 0.07335252 0.15362976 0.046626814 0.05650156
0.11668631 0.011564371 0.004589341 0.1308389 -0.06667746 0.1370455 -0.0796137 0.07858214
0.046594813 -0.024245799 -0.085304536 0.18286401 -0.06457793 0.1785924 -0.030946406 -0.13639532
0.09695847 -0.027703218 0.15285242 -0.17981313 -0.1343954 0.22026743 -0.11129122 -0.15672678
0.023192681 -0.15806493 0.05134236 0.020197444 0.047585253 -0.034584843 0.06790487 -0.085346185
0.01668246 -0.09745586 0.05504483 0.09667198 0.13719201 0.05075063 -0.043888196 -0.15810989
0.007590714 -0.08821419 0.041982386 -0.014518007 0.15307872 -0.0938444 0.04854164 0.19445242
0.05346557 0.06369539 0.011980971 -0.0082317805 0.13351825 0.07642878 0.10539839 -0.042318814
0.061649323 0.13705146 -0.011172056 -0.008412469 0.10623232 -0.023214912 0.07582065 -0.04745482
-0.08818087 0.09731317 0.12796572 0.13000607 -0.06477815 -0.14683023 -0.033621974 0.05167876
0.18135965 -0.09869577 -0.062715665 -0.08328476 -0.031589095 0.116638504 0.026318498 -0.058950577
-0.1121536 -0.095015526 -0.014561466 -0.03318398 0.028595043 0.17049195 -0.14053054 0.12967493
-0.13546251 -0.11566227 -0.035644848 0.042926896 -0.10744258 0.10462262 -0.064326644 0.078400314
-0.17669645 0.032589532 0.068532154 0.06270695 -0.09685095 0.011656553 0.18742883 0.051134013
-0.12759721 0.12556233 0.08863886 -0.040788654 -0.14790863 0.021245701 0.03641266 -0.115436494
-0.09804963 -0.10792924 -0.08904064 0.08056726 -0.08212979 -0.14039207 -0.058295336 0.1651936
0.015485164 -5.2060463e-05 0.064923674 0.12276403 0.14786436 0.030294035 -0.14216527 0.08957933
-0.11197 0.0923489 -0.17085977 -0.007424362 0.048875738 0.110706404 0.056310557 -0.0697327
00000000: 643c fdbd 8868 303e eca4 2abe dd67 d2bd
00000010: 8cfc e93d 2db1 a73c 91e6 e03d 3952 bdbc
00000020: 2023 5a3e 3c92 54be d20d 4cbd 0870 9e3d
00000030: bd48 b63d 3760 10be 012b 93bd 9da5 063e
00000040: 05d5 3a3c a92f 173e 2a7c 1f3e 2c95 0e3e
00000050: fa49 e83d 9ce5 fd3d 4dd9 ff3d b81e 93bd
00000060: 02cc 13be df2d e8bd f143 0ebe b8a4 1c3e
00000070: 7f27 9a3d 1b67 cebd 454f 993a 27b1 bd3c
00000080: ba83 02be bbff 6dbd 53e7 bb3b ee71 9c3d
00000090: cbe2 133e 6164 ccbc f009 abbd 833d 723d
000000a0: 1144 ea3d df67 213e f350 c53b da17 81bd
000000b0: 2c46 12be 7a9b 063d 467b 363e 2568 0d3e
000000c0: bf97 1fbe 9551 f8bd 1ca7 d7bd beba dd3c
000000d0: 1c2e 903d 5159 0c3e 041c eb3d 2b21 31be
000000e0: 4e84 9cbd 58ca bebb 086c 91bb f4c0 cbbd
000000f0: 8e83 16be 85c5 273e 6276 a43d 215e 56bd
00000100: 4dfe efbd 438a 26bd 38b7 c53d d998 f73c
00000110: a218 00bd 029f b73d a44e 25be a431 043e
00000120: 605c 103d a46a c9bd db89 88bd 42bb de3c
00000130: 4c1e 0d3e f3d4 313e fea4 b3bd 62ad ac3d
00000140: 01ae 873d 0192 85bd d723 193d dec2 69bd
00000150: 6dc8 08be 37f9 f33d 48e0 14be f282 bb3d
00000160: affa 88bd fb45 40be d634 09be 515d 1dbd
00000170: c677 24be 27ac a13d 6edd afbd d220 ff3d
00000180: 200b b5bd 6a78 17be c22c 16be e2ce 3fbd
00000190: afa6 823d d622 38bd 0938 5cbd e179 f43d
000001a0: 3895 29be 8faa 913d a5f5 eebd 07ed 1c3e
000001b0: 0273 2f3e a0d7 2a3e 5509 043e bc69 bb3d
000001c0: 714a e7bd 6c5e d5bd d9b7 143e c04e c63c
000001d0: d939 963d 1f51 1d3e c2fb 3e3d 2e6e 673d
000001e0: 3bf9 ee3d 7d78 3d3c 2f62 963b a2fa 053e
000001f0: 318e 88bd a855 0c3e 820c a3bd acef a03d
00000200: 34da 3e3d 209f c6bc 25b4 aebd b440 3b3e
00000210: 6f41 84bd ede0 363e 5183 fdbc 37ab 0bbe
00000220: 2a92 c63d dcf1 e2bc 5885 1c3e ef20 38be
00000230: f39e 09be c98d 613e a7ec e3bd fc7c 20be
00000240: 94fe bd3c c6db 21be 5e4c 523d 1c75 a53c
00000250: c1e8 423d d6a8 0dbd b511 8b3d fbc9 aebd
00000260: a8a9 883c f096 c7bd b076 613d f6fb c53d
00000270: 107c 0c3e e5df 4f3d 1cc4 33bd 8fe7 21be
00000280: 86bb f83b a4a9 b4bd b9f5 2b3d efdc 6dbc
00000290: abc0 1c3e 7e31 c0bd 99d3 463d 891e 473e
000002a0: b7fe 5a3d bb72 823d d64b 443c 97de 06bc
000002b0: 02b9 083e b186 9c3d 1cdb d73d 7e56 2dbd
000002c0: 0084 7c3d 3857 0c3e 000b 37bc 74d4 09bc
000002d0: 5590 d93d 332d bebc db47 9b3d fc5f 42bd
000002e0: 2c98 b4bd 214c c73d 7209 033e 5020 053e
000002f0: 68aa 84bd aa5a 16be 32b7 09bd 1cad 533d
00000300: 58b6 393e 0221 cabd 1271 80bd 3391 aabd
00000310: 9163 01bd 2be0 ee3d e499 d73c 2976 71bd
00000320: c9b0 e5bd 8097 c2bd 3793 6ebc edeb 07bd
00000330: 2740 ea3c 7195 2e3e 3de7 0fbe 81c9 043e
00000340: afb6 0abe 57e0 ecbd 5500 12bd 1dd4 2f3d
00000350: db0a dcbd 6244 d63d b0bd 83bd 5890 a03d
00000360: eaef 34be 9a7c 053d 965a 8c3d 806c 803d
00000370: ca59 c6bd 20fb 3e3c 58ed 3f3e e671 513d
00000380: d8a8 02be 6993 003e 4a88 b53d 0112 27bd
00000390: 5c75 17be 770b ae3c 7125 153d f869 ecbd
000003a0: 3fce c8bd 010a ddbd f05a b6bd 7300 a53d
000003b0: aa33 a8bd f0c2 0fbe 17c7 6ebd 8328 293e
000003c0: 7cb5 7d3c 7f5b 5ab8 b4f6 843d b56b fb3d
000003d0: c169 173e 322b f83c c693 11be 5e75 b73d
000003e0: 8750 e5bd 6c21 bd3d ddf5 2ebe 1048 f3bb
000003f0: ed31 483d 0aba e23d e6a5 663d 05d0 8ebd

decoder.linear.bias f4 [64]
0.08606189 -0.11884924 -0.02369545 -0.0775107 0.11185291 -0.009011735 0.06145351 -0.133538
0.14795473 0.05454579 0.06741556 -0.0025760604 -0.009452634 0.102779366 0.03744443 0.15376832
0.010618337 0.12520131 -0.074648015 -0.13090529 0.06979342 -0.090731174 0.16137742 -0.060191005
0.18389636 -0.055969693 0.10266962 -0.050995253 -0.04478442 0.07488965 0.10866088 -0.045938674
0.020547217 -0.096423455 0.0009695816 0.03756376 -0.027549373 -0.092230916 -0.08996985 -0.15186027
-0.023879157 -0.09597438 -0.12690409 -0.09264943 0.12898201 -0.11229835 0.091589496 -0.10110478
0.023603965 -0.068890326 0.06943683 -0.13712104 0.12099353 0.027769059 0.043803137 0.053765487
-0.006006478 0.08220491 0.12762222 0.034308594 -0.16354212 0.13291636 -0.030001475 -0.04162845
00000000: 3741 b03d 3b67 f3bd f61c c2bc eebd 9ebd
00000010: 2313 e53d f5a5 13bc adb6 7b3d 2fbe 08be
00000020: 7281 173e 686b 5f3d 2b11 8a3d 1fd3 28bb
00000030: 38df 1abc fd7d d23d 555f 193d 7175 1d3e
00000040: 89f8 2d3c c634 003e 0fe1 98bd 090c 06be
00000050: daef 8e3d 44d1 b9bd 1f40 253e d88a 76bd
00000060: 544f 3c3e 7a40 65bd 7344 d23d 66e0 50bd
00000070: de6f 37bd bf5f 993d 9889 de3d 312a 3cbd
00000080: a352 a83c a979 c5bd 852b 7e3a 75dc 193d
00000090: 39af e1bc 90e3 bcbd 1d42 b8bd 4281 1bbe
000000a0: 399e c3bc 378e c4bd 25f3 01be fcbe bdbd
000000b0: dc13 043e adfc e5bd 4693 bb3d 0610 cfbd
000000c0: 1a5d c13c 5f16 8dbd e634 8e3d 7569 0cbe
000000d0: 75cb f73d f07b e33c eb6a 333d 3339 5c3d
000000e0: fdd1 c4bb 0c5b a83d 66af 023e 2b87 0c3d
000000f0: 9677 27be 3a1b 083e a7c5 f5bc 9882 2abd

decoder.lstm.weight_ih_l0 f4 [256, 64]
0.059698425 -0.089441374 -0.07324392 -0.064146414 -0.013184919 -0.12107786 0.055926632 -0.05529484
-0.04673536 -0.05296353 0.057939038 0.05159265 0.087761715 -0.10744412 0.14276096 -0.05062919
-0.044596862 0.07253971 -0.010874036 0.10456577 0.04429703 -0.088428564 0.11115139 0.09112043
0.11040794 0.0050640483 -0.12392874 0.040435802 0.08781998 0.013060327 0.09797682 0.13049456
0.11778303 0.12926117 0.12891994 -0.13075365 -0.057313263 0.014295911 0.0022768753 0.06861237
-0.020296078 0.02389332 0.0024491588 0.007973209 -0.16276431 0.037901796 0.14009745 -0.113084376
0.023087287 -0.11025424 0.098909326 0.07979177 0.01220361 0.121344 0.11784007 0.03883362
-0.08738271 0.018537901 0.1387949 0.07865364 -0.08450392 -0.043610305 -0.11178006 -0.086651504
-0.11621566 0.016004348 -0.031481728 -0.04885488 -0.07644202 0.08568299 -0.039819863 -0.108058885
-0.043946814 -0.00046960538 0.08732546 -0.012642335 -0.016136065 -0.063716725 -0.07862099 0.060145468
0.099472426 0.11292458 -0.0109485565 -0.064052776 0.012869652 0.07301528 0.0892565 -0.06983345
-0.09149227 -0.102480374 0.04062864 -0.10011993 -0.0026199527 -0.02099427 -0.08583672 0.08170664
0.021058055 0.12211204 0.08246623 -0.15159065 -0.059018273 -0.08042802 0.09652453 -0.059518293
0.06755259 -0.06793726 0.051387455 -0.03451112 -0.086984545 -0.058891185 0.052871067 -0.08190792
-0.11172691 -0.040678468 -0.06655336 -0.1306012 -0.017988773 0.07404795 -0.01084718 0.1273474
0.079243384 -0.103522964 0.08688749 0.09385914 -0.07579549 0.03394528 -0.055806875 -0.019517545
0.13220252 -0.053768285 0.11787164 0.059866752 0.082411595 0.12888311 0.09222296 -0.005266693
0.0987448 -0.09213278 0.04873603 0.08473359 -0.025340429 0.10728091 0.051914982 0.041906238
-0.019781029 -0.077192426 0.088647716 0.10604101 0.00088957243 0.016674975 -0.054429658 -0.06827173
0.052153703 -0.1397386 0.05935374 -0.004591132 0.030464191 0.046866838 0.026532156 0.07117491
-0.05556721 -0.0879896 0.057756044 0.033256087 0.10155843 0.0146494685 -0.007967574 0.09083866
0.04453369 -0.11882944 -0.12177237 -0.032868244 -0.030767705 0.015672293 -0.010018027 -0.098257124
0.09976787 -0.085605055 -0.01218831 -0.080736354 0.083223425 -0.037586913 -0.057245333 0.0011812856
-0.015263513 -0.07621192 -0.07956278 -0.03887601 0.11292308 0.07764224 -0.04319867 0.013599321
0.04507103 -0.083890975 0.10668226 -0.04427732 -0.12244387 -0.07114148 0.07015226 0.16094898
0.02378143 -0.14961416 -0.0074841897 0.03885683 0.19651814 -0.09203281 0.042906836 0.02025214
-0.123623304 0.072815455 0.07344332 -0.07847071 0.04887073 0.026565813 0.14879325 -0.063941434
0.06895519 -0.11851487 -0.12684554 -0.11660356 -0.09314799 -0.0066878153 -0.00528763 0.04297459
-0.0003487844 0.11544208 0.0362031 -0.11798048 0.16679111 0.040578973 0.11432299 -0.06896861
0.038559802 -0.1790437 -0.079007834 -0.045922756 -0.061779723 -0.101829395 0.07524952 -0.10455158
0.0011661795 -0.011372072 -0.055023514 0.092958495 -0.1613025 0.105684265 -0.11371366 0.033904426
0.09019621 0.08926402 0.117085524 -0.0606848 -0.02679907 -0.034228567 0.006563266 0.101373896
00000000: 5686 743d 0a2d b7bd e900 96bd 325f 83bd
00000010: 8f05 58bc abf7 f7bd 5313 653d d87c 62bd
00000020: 946d 3fbd 49f0 58bd 7c51 6d3d d152 533d
00000030: 6abc b33d aa0b dcbd ee2f 123e 8e60 4fbd
00000040: 33ab 36bd b38f 943d 0329 32bc 9426 d63d
00000050: cd70 353d 091a b5bd 57a3 e33d 599d ba3d
00000060: 8f1d e23d 51f0 a53b 5ace fdbd 03a0 253d
00000070: f6da b33d fbfa 553c 12a8 c83d 5ea0 053e
00000080: 3b38 f13d 0a5d 043e 9703 043e 49e4 05be
00000090: 50c1 6abd 6639 6a3c a137 153b a484 8c3d
000000a0: f643 a6bc ecbb c33c 1182 203b 10a2 023c
000000b0: b0ab 26be ea3e 1b3d b575 0f3e c898 e7bd
000000c0: 8d21 bd3c facc e1bd f990 ca3d de69 a33d
000000d0: a6f1 473c 3483 f83d 2256 f13d 0010 1f3d
000000e0: b5f5 b2bd ccdc 973c 4020 0e3e 2915 a13d
000000f0: 6410 adbd b8a0 32bd f2ec e4bd 5876 b1bd
00000100: 7a02 eebd 8d1b 833c fcf2 00bd 0e1c 48bd
00000110: a28d 9cbd 907a af3d 271a 23bd fa4d ddbd
00000120: 9301 34bd 5e35 f6b9 b1d7 b23d cc21 4fbc
00000130: c82f 84bc ea7d 82bd 0b04 a1bd 185b 763d
00000140: 33b8 cb3d 0145 e73d 9361 33bc 1a2e 83bd
00000150: 3cdb 523c 0989 953d 1dcc b63d d704 8fbd
00000160: 4d60 bbbd 3be1 d1bd 386a 263d ae0b cdbd
00000170: 83b3 2bbb 2dfc abbc 2acb afbd d055 a73d
00000180: f181 ac3c e115 fa3d 0ee4 a83d 943a 1bbe
00000190: 25bd 71bd 72b7 a4bd a7ae c53d 74c9 73bd
000001a0: 0359 8a3d b122 8bbd a77b 523d 885b 0dbd
000001b0: f424 b2bd e237 71bd 558f 583d 57bf a7bd
000001c0: 14d1 e4bd 779e 26bd 214d 88bd 52bc 05be
000001d0: 315d 93bc 74a6 973d 5fb8 31bc 5b67 023e
000001e0: 5b4a a23d d903 d4bd 11f2 b13d 3939 c03d
000001f0: aa3a 9bbd 350a 0b3d c095 64bd 42e3 9fbc
00000200: 1960 073e 223c 5cbd b066 f13d d736 753d
00000210: 69c7 a83d eff9 033e 64df bc3d 3994 acbb
00000220: b73a ca3d 1cb0 bcbd 6e9f 473d ce88 ad3d
00000230: bb96 cfbc 18b6 db3d cea4 543d e0a5 2b3d
00000240: d30b a2bc 1017 9ebd ef8c b53d 072c d93d
00000250: 3232 693a f599 883c a2f1 5ebd 0cd2 8bbd
00000260: 1f9f 553d a317 0fbe e81c 733d 3571 96bb
00000270: 0a90 f93c 71f7 3f3d f759 d93c 27c4 913d
00000280: 719a 63bd e433 b4bd 9a91 6c3d 8937 083d
00000290: defd cf3d 5304 703c 6d8a 02bc 9f09 ba3d
000002a0: f568 363d d95c f3bd cb63 f9bd daa0 06bd
000002b0: 8e0c fcbc 2e63 803c a722 24bc 083b c9bd
000002c0: 1953 cc3d b451 afbd 7ab1 47bc 1a59 a5bd
000002d0: 0b71 aa3d bcf4 19bd 157a 6abd 5ed5 9a3a
000002e0: d013 7abc ff14 9cbd d0f1 a2bd 733c 1fbd
000002f0: 3744 e73d e502 9f3d 17f1 30bd b0cf 5e3c
00000300: 669c 383d 08cf abbd 3b7c da3d 235c 35bd
00000310: dac3 fabd a0b2 91bd fdab 8f3d cfcf 243e
00000320: 46d1 c23c 7434 19be ef3d f5bb 5728 1f3d
00000330: 0d3c 493e b37b bcbd 14bf 2f3d d1e7 a53c
00000340: 372e fdbd 4520 953d 7469 963d 40b5 a0bd
00000350: ad2c 483d 8ca0 d93c 425d 183e baf3 82bd
00000360: 6138 8d3d edb7 f2bd cce3 01be d9cd eebd
00000370: 60c4 bebd 7625 dbbb db43 adbb 2006 303d
00000380: 0ddd b6b9 e66c ec3d b449 143d c09f f1bd
00000390: 4acb 2a3e 2336 263d 2c22 ea3d 6a3f 8dbd
000003a0: e2f0 1d3d 3b57 37be dcce a1bd 8019 3cbd
000003b0: bc0c 7dbd ee8b d0bd 6c1c 9a3d 241f d6bd
000003c0: 7eda 983a ed51 3abc 5660 61bd 0661 be3d
000003d0: 7c2c 25be fe70 d83d b5e2 e8bd 5edf 0a3d
000003e0: cab8 b83d 0ed0 b63d 89ca ef3d a090 78bd
000003f0: b989 dbbc 4133 0cbd aa10 d73b 1e9d cf3d
