models/autoencoders/googl_lstm_autoencoder.pth (torch, 228084 bytes, 14 tensors)

encoder.lstm.weight_ih_l0 f4 [256, 5]
-0.0057643224 0.14499363 -0.09925056 -0.09265557 0.0057862494 0.06717502 0.008697194 0.034183238
-0.0911339 0.079308026 0.017998653 0.07885521 -0.12978932 0.09476056 0.025283903 0.054001812
0.06430837 0.09603388 0.01688916 0.028796665 0.10835882 0.14479695 0.02121488 0.0038651912
0.07660846 0.10412939 -0.016142642 0.025852956 -0.082327016 0.13061668 0.089320324 -0.108771004
0.106287114 -0.019844728 -0.11238151 0.031645015 -0.05259406 -0.06302125 -0.080754936 -0.103707746
-0.027493307 -0.1330207 0.015307991 -0.040147092 0.11585467 0.055682503 -0.03410168 0.06754212
0.12292156 -0.12538084 0.13015231 0.034670137 -0.05321548 -0.05805684 0.112157926 0.011294978
-0.123527005 0.07847911 -0.061852526 -0.032476198 0.12351147 -0.04657978 -0.006275524 0.07059923
-0.031034973 -0.04545573 -0.04572936 0.07007156 0.073333696 0.10086175 0.089666925 0.12728868
0.0647187 0.12489273 -0.12203596 -0.01680991 -0.1051758 0.12388682 0.048734 -0.008170321
-0.005683116 -0.056159675 0.027288757 -0.075031996 0.047199205 -0.049325995 0.028298507 0.08401445
0.024513 0.05315189 0.009717111 -0.08193613 0.028338827 0.13633426 -0.07876555 -0.06537915
0.14158139 0.05331151 0.021105472 -0.13507122 0.14641117 0.09142863 -0.021440247 0.015801061
0.06304873 -0.09809112 0.06034276 0.0010341575 0.12731476 0.1202421 -0.07390034 -0.11496775
-0.076005615 0.0011996247 -0.0673455 0.14054741 -0.011584239 0.03561354 0.0573671 -0.024984118
-0.0073053846 -0.0031140228 -0.08893685 0.12117702 -0.07486853 -0.06692209 -0.020345382 0.063470505
0.0044887112 -0.06876207 0.09470084 0.0011734385 -0.11607072 0.030912673 0.12552246 -0.029959997
0.104209244 -0.013103201 0.10736472 0.0703615 -0.10386175 -0.09271113 -0.11169256 -0.09045137
-0.051849388 0.07225774 -0.01641152 0.008475875 -0.08511374 0.04874148 0.14127749 0.0006362905
-0.08473014 -0.017204888 -0.072065435 0.05732781 0.039184947 -0.06262031 0.08724205 0.08741555
-0.020662911 0.04505582 0.03950941 0.13727027 0.026928576 0.085598014 0.13878885 -0.022535313
-0.08176875 -0.114262834 0.06528386 -0.00730855 0.12280514 -0.11997282 0.0763358 -0.0030041295
-0.10956499 0.100779675 -0.056385547 0.061638836 0.020106222 0.0077730627 -0.0816683 0.025658747
-0.13417873 0.07662814 -0.046468228 -0.049911764 0.028026866 0.16941883 0.08544386 0.02765349
-0.09561084 -0.05793109 -0.21449964 -0.057755947 0.13345817 0.11005722 -0.01469835 -0.06020151
0.028712155 0.059573013 0.09913294 -0.04509871 -0.017069997 0.13826883 0.05372478 -0.02610436
0.014757348 -0.03367106 -0.08324198 -0.052327603 1.5363208e-05 0.14605486 -0.07387525 -0.08264564
0.0039542727 -0.04570484 0.04963098 -0.01213265 0.074154295 0.079906724 -0.07637067 -0.06587945
-0.078593224 0.075977884 -0.016385319 0.10410098 -0.055564087 -0.040828075 0.06624695 0.076615445
0.035099834 0.110714376 -0.09869542 0.09289688 0.027970951 -0.069729574 -0.04436504 -0.07297325
0.061977707 0.085771956 0.032521326 -0.041245323 0.10129307 -0.066970445 -0.014630518 0.034039494
-0.073621295 -0.08464232 0.026710104 0.07913177 0.004365208 -0.053300593 0.10702917 0.051735934
00000000: a4e2 bcbb 3679 143e e143 cbbd 34c2 bdbd
00000010: 949a bd3b 0f93 893d ad7e 0e3c b903 0c3d
00000020: 69a4 babd 3f6c a23d e971 933c d77e a13d
00000030: 7ee7 04be d311 c23d 3020 cf3c 0131 5d3d
00000040: 1bb4 833d 69ad c43d 235b 8a3c fce6 eb3c
00000050: 3beb dd3d a745 143e d4ca ad3c 264f 7d3b
00000060: e5e4 9c3d ca41 d53d 933d 84bc 94c9 d33c
00000070: 119b a8bd 61c0 053e 93ed b63d 55c3 debd
00000080: 0fad d93d 6991 a2bc 4728 e6bd 349e 013d
00000090: de6c 57bd 4911 81bd d862 a5bd ba64 d4bd
000000a0: a539 e1bc 9436 08be 5ece 7a3c 4771 24bd
000000b0: 3745 ed3d 5613 643d 34ae 0bbd 8653 8a3d
000000c0: 4dbe fb3d d663 00be a646 053e 4602 0e3d
000000d0: 7af8 59bd 02cd 6dbd 0eb3 e53d 920e 393c
000000e0: bafb fcbd a8b9 a03d 1359 7dbd c305 05bd
000000f0: 95f3 fc3d 70ca 3ebd e9a2 cdbb 5496 903d
00000100: 0e3d febc ca2f 3abd b64e 3bbd ae81 8f3d
00000110: fa2f 963d 9b90 ce3d 4ba3 b73d f757 023e
00000120: 3d8b 843d c2c7 ff3d fded f9bd f0b4 89bc
00000130: 6966 d7bd 60b8 fd3d 4e9d 473d cfdc 05bc
00000140: 6f39 babb b007 66bd ac8c df3c 60aa 99bd
00000150: f453 413d 0e0a 4abd 45d2 e73c c50f ac3d
00000160: 7dcf c83c ccb5 593d 8434 1f3c 21ce a7bd
00000170: d426 e83c 359b 0b3e d54f a1bd 81e5 85bd
00000180: b6fa 103e 2b5d 5a3d 62e5 ac3c 1c50 0abe
00000190: cfec 153e ef3e bb3d 75a3 afbc 3a71 813c
000001a0: b11f 813d ffe3 c8bd f829 773d 918c 873a
000001b0: cd5e 023e 7d41 f63d 1059 97bd 3674 ebbd
000001c0: d5a8 9bbd ba3c 9d3a 70ec 89bd a9eb 0f3e
000001d0: d2cb 3dbc 81df 113d c4f9 6a3d 7eab ccbc
000001e0: 0262 efbb a214 4cbb 8624 b6bd a82b f83d
000001f0: ac54 99bd 730e 89bd 5cab a6bc d3fc 813d
00000200: 0a16 933b 21d3 8cbd 84f2 c13d 10ce 993a
00000210: 7cb6 edbd 933c fd3c f688 003e ab6e f5bc
00000220: a86b d53d cfae 56bc 09e2 db3d b119 903d
00000230: 78b5 d4bd 55df bdbd 12bf e4bd 913e b9bd
00000240: 0660 54bd defb 933d 7471 86bc 65de 0a3c
00000250: 1d50 aebd 25a5 473d 0cab 103e bccc 263a
00000260: ff86 adbd 44f1 8cbc 0b97 93bd 91d0 6a3d
00000270: 6580 203d 143f 80bd f6ab b23d ed06 b33d
00000280: 4445 a9bc 748c 383d 9ed4 213d 9490 0c3e
00000290: 5199 dc3c 034e af3d aa1e 0e3e fa9b b8bc
000002a0: 6076 a7bd a202 eabd 8bb3 853d 907c efbb
000002b0: 4381 fb3d 4fb4 f5bd f255 9c3d eee0 44bb
000002c0: 9c63 e0bd 9365 ce3d 88f4 66bd 0179 7c3d
000002d0: ceb5 a43c 2db5 fe3b b641 a7bd 4b32 d23c
000002e0: 2666 09be 37ef 9c3d 7855 3ebd 4770 4cbd
000002f0: 9998 e53c 217c 2d3e 31fd ae3d 9289 e23c
00000300: 9ecf c3bd 2749 6dbd cba5 5bbe 8091 6cbd
00000310: 42a9 083e ae65 e13d 59d1 70bc dc95 76bd
00000320: c135 eb3c d502 743d 3606 cb3d 6db9 38bd
00000330: 61d6 8bbc 5896 0d3e 840e 5c3d d0d8 d5bc
00000340: cec8 713c aaea 09bd c57a aabd 7855 56bd
00000350: 3de0 8037 688f 153e e84b 97bd 1e42 a9bd
00000360: d892 813b 0035 3bbd db49 4b3d 06c8 46bc
00000370: 35de 973d 23a6 a33d 3a68 9cbd ceeb 86bd
00000380: 7cf5 a0bd 4b9a 9b3d 813a 86bc e532 d53d
00000390: 2b97 63bd 573b 27bd 7bac 873d 8fe8 9c3d
000003a0: d8c4 0f3d 38be e23d d320 cabd b840 be3d
000003b0: 5623 e53c 61ce 8ebd 1eb8 35bd 0073 95bd
000003c0: 56dc 7d3d 35a9 af3d 1535 053d dbf0 28bd
000003d0: be72 cf3d cd27 89bd d7b4 6fbc ff6c 0b3d
000003e0: c3c6 96bd f458 adbd 26cf da3c d60f a23d
000003f0: 050a 8f3b b951 5abd 1c32 db3d 0fe9 533d

encoder.lstm.weight_hh_l0 f4 [256, 64]
-0.09598507 -0.058355164 0.027569173 -0.056031965 -0.10814605 0.08110063 -0.039179537 0.10270776
0.053281795 0.044895947 -0.10727853 -0.10067291 -0.10453945 -0.13497241 0.11239754 -0.105905406
0.111513324 -0.072837144 0.056913365 0.067707844 0.13408683 -0.04730248 0.09730712 0.027770108
0.100474745 -0.110288195 -0.014975246 -0.009175932 -0.089829735 0.095705554 -0.096574806 0.12865366
0.04802903 0.08969792 0.012397851 -0.1169656 -0.039843317 0.08182286 0.054946113 0.029589253
-0.04678929 -0.0002659958 -0.09067954 0.07484572 0.04311296 0.034031834 0.13929802 -0.07600894
0.014445659 0.049452987 -0.10604486 0.1309763 0.06753258 -0.1018492 0.039630417 -0.0129987635
-0.087376244 -0.015554354 0.020510921 0.1317911 0.08299646 0.06985347 -0.038634583 0.07722787
0.040046863 -0.0173735 -0.039928064 0.11101011 0.0812423 -0.08024134 -0.02232015 -0.10352262
-0.09139659 0.09752255 0.076179914 0.09532348 0.038594827 -0.11257048 0.13684787 0.05819545
0.034904487 0.02657407 -0.015213505 0.08003533 -0.027210137 0.13100037 0.075676024 -0.02135526
0.0039942404 -0.061429437 -0.05589502 0.08598979 0.011341971 0.09626363 -0.12382948 0.13836935
-0.037971742 0.05980222 -0.048794176 -0.012096185 0.04012062 0.10798537 0.044244446 -0.057833444
0.10818498 0.0065328926 0.12784879 0.10295424 0.04285379 0.09190782 0.13195309 -0.02201801
0.103553526 0.0324557 0.0985282 0.09694742 -0.07255258 -0.0720083 -0.042998992 -0.08215757
-0.13530217 0.07960327 0.014620898 0.1091216 -0.09879479 0.08391147 -0.041162025 0.059367575
-0.10572392 -0.029570043 0.0132033415 -0.08236559 -0.015925212 0.0075952737 -0.14142486 -0.050906453
-0.050755177 0.0024711236 0.0941609 -0.09051174 -0.112164654 -0.09927988 0.03833779 0.13823123
0.06845134 -0.074435845 -0.07653024 0.08754034 0.018172938 -0.104797676 0.095490895 -0.10402909
0.05655286 0.044906102 0.054730542 0.019534908 -0.08175804 -0.06600044 -0.09094732 0.006594149
0.0054697986 0.0896185 -0.09878488 0.09773393 -0.07647409 -0.013650256 0.0001673122 0.06333866
0.057585604 0.08988808 -0.105508044 -0.13487613 0.11421353 -0.09828487 -0.006181884 -0.010335126
-0.061707035 -0.15057668 0.13197759 -0.017633278 0.024729744 -0.027207762 -0.13137165 0.07002065
-0.031369537 0.045592993 0.037638552 -0.04464038 -0.016396735 0.14602269 -0.09788354 0.06572615
0.13558443 0.13963173 -0.022572337 0.057676855 -0.09880805 0.027846934 0.10804399 -0.07834427
-0.06131114 -0.06180729 0.08541996 0.0998711 -0.03229558 -0.094404176 0.1407959 0.009157876
0.078660786 -0.085178286 0.05886362 0.11313178 -0.091489084 0.058128204 0.023966532 0.05092014
-0.0017881823 0.009585758 0.053122405 -0.022422705 0.02531133 -0.03766006 0.1127166 0.10645402
0.03568311 0.022350106 -0.07626091 -0.029558983 -0.08572174 -0.00043039094 0.032005377 -0.08084368
-0.008289345 0.032440003 -0.09208763 0.106033064 -0.04733478 -0.08314822 -0.03718837 0.082731105
0.07705512 -0.05784031 0.09602534 0.0052682115 -0.002602728 -0.08236345 -0.10312464 0.00483839
0.09105662 0.027804628 0.12031974 0.13475122 0.119790174 0.09936927 0.045946125 -0.09419935
00000000: d293 c4bd d305 6fbd bfd8 e13c c681 65bd
00000010: ad7b ddbd 1618 a63d b97a 20bd 7258 d23d
00000020: 033e 5a3d d0e4 373d d9b4 dbbd 992d cebd
00000030: c718 d6bd 3536 0abe ae30 e63d efe4 d8bd
00000040: 1961 e43d a42b 95bd fd1d 693d 69aa 8a3d
00000050: 0f4e 093e 3fc0 41bd f548 c73d 237e e33c
00000060: b4c5 cd3d c7de e1bd bc5a 75bc a656 16bc
00000070: a7f8 b7bd 4601 c43d 03c9 c5bd c9bd 033e
00000080: 17ba 443d 8bb3 b73d 5b20 4b3c a98b efbd
00000090: bf32 23bd be92 a73d 2d0f 613d 2965 f23c
000000a0: 20a6 3fbd 5a75 8bb9 32b6 b9bd b648 993d
000000b0: 3797 303d f764 0b3d 24a4 0e3e 93aa 9bbd
000000c0: 7cad 6c3c 378f 4a3d 0c2e d9bd a71e 063e
000000d0: 854e 8a3d 5096 d0bd 8153 223d c4f8 54bc
000000e0: 51f2 b2bd b0d7 7ebc 8506 a83c 3ff4 063e
000000f0: 0cfa a93d 560f 8f3d 4c3f 1ebd a529 9e3d
00000100: 2e08 243d df52 8ebc 9c8b 23bd 4559 e33d
00000110: 5d62 a63d 9255 a4bd bfd8 b6bc ab03 d4bd
00000120: 232e bbbd e7b9 c73d 3704 9c3d f538 c33d
00000130: 9c15 1e3d 5a8b e6bd d921 0c3e 5a5e 6e3d
00000140: 02f8 0e3d ddb1 d93c 1142 79bc 90e9 a33d
00000150: cbe7 debc f624 063e 08fc 9a3d 3af1 aebc
00000160: 1ee2 823b 6f9d 7bbd 2df2 64bd 6a1b b03d
00000170: add3 393c de25 c53d 4f9a fdbd b2b0 0d3e
00000180: 4288 1bbd 2cf3 743d 67dc 47bd 142f 46bc
00000190: 8555 243d 6f27 dd3d aa39 353d c3e2 6cbd
000001a0: 1690 dd3d e011 d63b cbea 023e acd9 d23d
000001b0: 7587 2f3d 2b3a bc3d b61e 073e 1d5f b4bc
000001c0: df13 d43d 45f0 043d 27c9 c93d 5e8c c63d
000001d0: 7296 94bd 1679 93bd b61f 30bd 3a42 a8bd
000001e0: a78c 0abe 0a07 a33d 7e8c 6f3c 257b df3d
000001f0: ec54 cabd c7d9 ab3d 8399 28bd 6a2b 733d
00000200: c885 d8bd e03c f2bc d452 583c 4aaf a8bd
00000210: 9775 82bc c6e1 f83b aed1 10be 4983 50bd
00000220: a9e4 4fbd 93f2 213b 6ed7 c03d 385e b9bd
00000230: 95b6 e5bd 4053 cbbd 1608 1d3d 7d8c 0d3e
00000240: 3730 8c3d d271 98bd e3bb 9cbd 5a48 b33d
00000250: 6adf 943c 2aa0 d6bd bb90 c33d 340d d5bd
00000260: f9a3 673d 76ef 373d 222d 603d ac07 a03c
00000270: c270 a7bd 3d2b 87bd 9742 babd bb13 d83b
00000280: ff3b b33b e789 b73d ba4f cabd ba28 c83d
00000290: 739e 9cbd 53a5 5fbc 8770 2f39 b3b7 813d
000002a0: e2de 6b3d 3e17 b83d 9a14 d8bd f81c 0abe
000002b0: c9e8 e93d 9449 c9bd 6791 cabb a954 29bc
000002c0: 84c0 7cbd c630 1abe 2225 073e aa73 90bc
000002d0: 0896 ca3c d0e2 debc 4a86 06be fd66 8f3d
000002e0: 587d 00bd b8bf 3a3d e22a 1a3d d5d8 36bd
000002f0: 7252 86bc f986 153e 2a77 c8bd 6f9b 863d
00000300: a5d6 0a3e 9ffb 0e3e 9fe9 b8bc 913e 6c3d
00000310: e05b cabd 411f e43c 2b46 dd3d f672 a0bd
00000320: 6421 7bbd a429 7dbd a9f0 ae3d 3889 cc3d
00000330: 5f48 04bd fa56 c1bd cd2c 103e ea0a 163c
00000340: e818 a13d f471 aebd fb1a 713d a2b1 e73d
00000350: a15e bbbd d717 6e3d 7655 c43c a391 503d
00000360: 7161 eaba 950d 1d3c e196 593d d2af b7bc
00000370: b559 cf3c 6f41 1abd f6d7 e63d 9104 da3d
00000380: 7428 123d 9217 b73c ae2e 9cbd ae25 f2bc
00000390: e18e afbd 18a6 e1b9 1218 033d 5f91 a5bd
000003a0: 08d0 07bc cfdf 043d 7098 bcbd dd27 d93d
000003b0: 1de2 41bd 9d49 aabd d552 18bd ed6e a93d
000003c0: 13cf 9d3d f6e9 6cbd efa8 c43d f6a0 ac3b
000003d0: 8892 2abb 2bae a8bd 0333 d3bd 5b8b 9e3b
000003e0: e57b ba3d 88c6 e33c 326a f63d 39fc 093e
000003f0: 8d54 f53d 1e82 cb3d 0132 3c3d 97eb c0bd

encoder.lstm.bias_ih_l0 f4 [256]
0.026590208 -0.07270721 0.07272193 0.107497625 0.10504437 -0.021745063 0.10152431 0.04477946
-0.074621335 -0.08622425 0.12186505 0.08369118 0.010135669 0.037024368 0.0759233 -0.09721161
0.022506028 0.03803718 -0.0046468363 -0.09951228 -0.0021536627 0.019082129 -0.0505705 0.008705945
0.08552757 0.042795204 0.09429377 0.06835391 0.1137552 -0.05132733 0.046856545 -0.061012074
0.053609908 0.11455579 -0.11680212 -0.09250205 -0.06662883 0.05821706 -0.015819546 0.11525384
0.14140674 0.030039994 0.06164342 0.09236487 -0.07120912 -0.09757548 0.03568878 0.047726743
0.07487367 0.11797881 0.09752911 -0.14768985 0.032060347 0.026315121 0.023889536 0.07222746
-0.03024714 0.11084327 0.05019462 0.010437375 0.13351367 -0.09610808 -0.023745146 0.1362349
0.035317194 0.07485888 -0.08466683 0.07660117 0.10744856 0.049769875 -0.08611641 0.0045894966
-0.03699387 0.069787994 -0.098764345 0.09875121 -0.075688 0.017270917 -0.05017287 0.045796342
0.10523403 -0.10369267 -0.02871103 -0.10356448 -0.0622838 -0.08534402 0.010944483 -0.017054617
0.017249957 0.11244855 -0.002198324 -0.10829948 0.045991827 0.07015199 0.035729524 -0.042832028
-0.08316731 -0.022216467 -0.016081251 0.07015821 0.0056856005 -0.070744485 -0.09430435 -0.08894517
0.1448163 -0.030251296 -0.0075684697 0.027382772 0.05917058 0.105385795 -0.07866341 0.08870148
0.1435373 -0.09712507 -0.110257685 -0.049838215 0.0027061487 0.10160781 0.049472854 0.05581454
0.044570588 0.09932332 0.0378769 0.14324887 0.11824949 0.023687322 0.08924343 0.1517589
0.10810969 0.08741831 -0.058255643 -0.055651914 0.09525835 -0.011846382 0.014353699 -0.05951408
-0.115570255 -0.005514434 0.062086344 -0.062182143 -0.064116195 -0.05748478 0.06693625 0.009454846
-0.06731141 0.09514553 -0.091675356 0.048818227 -0.1033983 -0.0046551405 -0.11060135 0.08645339
0.0486425 -0.11115679 0.11656138 0.01330718 0.025887638 0.04054974 -0.056064434 -0.011892128
-0.014877578 -0.026192697 0.01654577 0.112187386 0.030804478 0.117593616 -0.10422849 0.08720605
0.0048720706 -0.10144636 0.09760754 0.010155222 0.07608151 -0.09564661 0.09574269 -0.06819318
0.056072384 0.04835768 -0.058224406 0.10145653 -0.11670887 -0.056099873 0.023083031 0.111127734
-0.08862318 0.004035851 0.10299098 -0.0010026458 0.041200325 0.1162755 0.0944967 0.05093548
0.11586091 0.0706279 -0.024351915 0.073785536 -0.11844858 -0.0055007255 -0.11920733 0.05829468
-0.008081344 0.053635377 -0.07454788 0.024866302 -0.08644121 0.13378637 -0.08515888 0.056831803
-0.06137043 0.10517915 0.035425 0.014990163 -0.028203249 -0.07601216 -0.066991314 0.060542233
-0.08861736 -0.041830737 -0.008265872 -0.086812004 -0.03613774 0.050064098 -0.07961033 0.13369323
-0.06970194 0.01886559 0.11190206 -0.103647284 -0.110367455 0.08129558 -0.054333907 0.10777959
0.12622099 0.09144171 -0.09965849 -0.025005592 0.12367719 -0.11527322 0.100002244 0.060768954
0.13763355 -0.07052569 0.09422739 0.019822702 -0.035601463 -0.07855773 -0.0967703 -0.060526263
0.11503909 0.12597474 -0.103197806 0.0072384668 0.11262944 0.11518011 0.107492805 -0.07067358
00000000: b5d3 d93c 85e7 94bd 3cef 943d b727 dc3d
00000010: 8121 d73d b422 b2bc faeb cf3d ab6a 373d
00000020: 12d3 98bd 5796 b0bd 6294 f93d 4866 ab3d
00000030: 1410 263c dda6 173d ad7d 9b3d e116 c7bd
00000040: 905e b83c e0cc 1b3d 7d44 98bb 18cd cbbd
00000050: 7724 0dbb 2052 9c3c 0323 4fbd 61a3 0e3c
00000060: 1429 af3d 064a 2f3d 181d c13d 23fd 8b3d
00000070: 7cf8 e83d 9b3c 52bd a6ec 3f3d cce7 79bd
00000080: 1096 5b3d 3a9c ea3d f335 efbd b771 bdbd
00000090: b274 88bd 0375 6e3d fe97 81bc 350a ec3d
000000a0: eecc 103e 6f16 f63c d07d 7c3d cb29 bd3d
000000b0: 16d6 91bd a7d5 c7bd 662e 123d 1e7d 433d
000000c0: 5e57 993d e09e f13d 58bd c73d 023c 17be
000000d0: b651 033d cf92 d73c fdb3 c33c feeb 933d
000000e0: dac8 f7bc cc01 e33d e098 4d3d 8601 2b3c
000000f0: cfb7 083e 50d4 c4bd 2e85 c2bc 2981 0b3e
00000100: c3a8 103d 9d4f 993d ce65 adbd 13e1 9c3d
00000110: fe0d dc3d 7fdb 4b3d cd5d b0bd 7d63 963b
00000120: e286 17bd 02ed 8e3d f644 cabd 133e ca3d
00000130: 4f02 9bbd bd7b 8d3c 1182 4dbd f294 3b3d
00000140: f084 d73d d35c d4bd 6533 ebbc 9d19 d4bd
00000150: 4c1d 7fbd d8c8 aebd 7d50 333c 20b6 8bbc
00000160: c84f 8d3c 6d4b e63d c211 10bb 1ecc ddbd
00000170: ed61 3c3d d9ab 8f3d 1f59 123d a370 2fbd
00000180: 9f53 aabd 4fff b5bc d4bc 83bc 1caf 8f3d
00000190: 464e ba3b 7ce2 90bd a422 c1bd e328 b6bd
000001a0: b94a 143e 91d1 f7bc ed00 f8bb d651 e03c
000001b0: da5c 723d 82d4 d73d 481a a1bd 1fa9 b53d
000001c0: 71fb 123e 82e9 c6bd c8ce e1bd 2823 4cbd
000001d0: a459 313b c117 d03d 0ca4 4a3d c99d 643d
000001e0: a68f 363d 066a cb3d cf24 1b3d d5af 123e
000001f0: ca2c f23d ea0b c23c 42c5 b63d af66 1b3e
00000200: 9d68 dd3d 5f08 b33d 789d 6ebd 43f3 63bd
00000210: cf16 c33d 5417 42bc c72b 6b3c 09c5 73bd
00000220: 19b0 ecbd 6db2 b4bb 404e 7e3d b4b2 7ebd
00000230: 5a4f 83bd 2975 6bbd df15 893d 80e8 1a3c
00000240: 91da 89bd a9db c23d 4ac0 bbbd 9ff5 473d
00000250: 7dc2 d3bd 268a 98bb f682 e2bd 7a0e b13d
00000260: 5c3d 473d 2ca6 e3bd bcb7 ee3d 5c06 5a3c
00000270: 5012 d43c 7c17 263d d2a3 65bd 33d7 42bc
00000280: 16c1 73bc 1192 d6bc ff8a 873c 80c2 e53d
00000290: ac59 fc3c ecd4 f03d bf75 d5bd 1699 b23d
000002a0: e4a5 9f3b 1cc3 cfbd 76e6 c73d 1762 263c
000002b0: 9fd0 9b3d 5fe2 c3bd be14 c43d dea8 8bbd
000002c0: 28ac 653d b412 463d b77c 6ebd 71c8 cf3d
000002d0: 0f05 efbd fbc8 65bd a018 bd3c f096 e33d
000002e0: 1280 b5bd 2c3f 843b efec d23d 366b 83ba
000002f0: acc1 283d d921 ee3d 7c87 c13d b9a1 503d
00000300: 7c48 ed3d 5ca5 903d ab7d c7bc df1c 973d
00000310: 2b95 f2bd 6e3f b4bb f922 f4bd 67c6 6e3d
00000320: 9d67 04bc c5b0 5b3d 8fac 98bd 6ab4 cb3c
00000330: 1708 b1bd 4bff 083e c767 aebd 77c8 683d
00000340: 8f5f 7bbd 2b68 d73d ce19 113d 4d99 753c
00000350: 800a e7bc 43ac 9bbd be32 89bd 22fb 773d
00000360: 057d b5bd b556 2bbd 946d 07bc 7eca b1bd
00000370: 2b05 14bd 0310 4d3d be0a a3bd e1e6 083e
00000380: e4bf 8ebd 038c 9a3c e82c e53d 0745 d4bd
00000390: 5508 e2bd 4c7e a63d 3b8d 5ebd 8cbb dc3d
000003a0: 1340 013e cb45 bb3d c019 ccbd 87d8 ccbc
000003b0: 774a fd3d 5e14 ecbd facd cc3d dee8 783d
000003c0: cfef 0c3e c66f 90bd 4afa c03d 3863 a23c
000003d0: d7d2 11bd e0e2 a0bd 822f c6bd 63ea 77bd
000003e0: 9d99 eb3d 86ff 003e 5f59 d3bd a930 ed3b
000003f0: 44aa e63d 8de3 eb3d 3025 dc3d 4fbd 90bd

encoder.lstm.bias_hh_l0 f4 [256]
0.09519768 0.07016006 -0.13669297 -0.034279 -0.031481374 -0.05701056 0.0031254638 0.03566807
-0.12737383 -0.050132602 -0.0015956289 -0.07696046 -0.03750655 0.07942129 0.0096903425 0.07350636
0.010704604 0.10753738 0.11342047 0.07629298 0.052315798 -0.0760445 0.092335396 0.009369823
0.0921323 0.03699201 -0.0050960914 -0.09940701 0.04267576 0.09500125 0.044286244 0.08042244
0.012558032 0.031989217 0.05376481 0.05794243 -0.10553905 0.11750643 -0.044670258 -0.038199503
0.06531584 0.06240215 0.06565023 0.1032661 -0.09827532 0.063321196 0.092831045 -0.032664493
-0.049289446 -0.050726306 0.03441112 -0.091139905 0.03659524 0.044807125 -0.03163044 0.057221502
-0.056545585 -0.028804602 0.11473814 0.09853657 -0.07699144 -0.060967334 0.04030053 0.061275028
0.040520556 0.06971405 0.09393759 0.04210609 -0.10980429 -0.035375807 -0.044152174 -0.08196021
-0.040404994 0.0141050685 0.1053125 -0.03437846 -0.07540261 0.11083214 -0.019074542 0.07337116
0.11563708 -0.088245146 0.016040053 0.08678644 -0.09111844 0.009347459 -0.093968555 0.108958155
0.071934395 -0.012924319 0.16000226 -0.05952884 -0.038072363 0.05396993 0.12564449 -0.04246859
-0.066640936 0.040439446 -0.042135518 0.019200865 -0.06162221 0.103138104 -0.012608315 0.113923945
-0.01751769 -0.0077888872 -0.11104643 0.11333448 0.02583113 0.09797858 0.09696674 0.1351905
0.100412786 0.1274936 -0.04759678 -0.009708324 -0.030877437 0.098604836 -0.057737246 0.13383995
-0.07290324 -0.008767077 0.032048374 0.026338538 0.11438446 0.11719819 -0.06178166 0.10380664
-0.08188366 -0.01909144 0.0234356 0.049658537 0.0040914468 -0.0444742 0.09655334 -0.02549709
0.07781143 -0.0931549 0.001146225 -0.06622638 0.092756346 0.02564023 -0.053437114 -0.07509067
0.037197452 -0.067190476 0.06386693 0.0707144 0.09981533 0.007801849 -0.042935017 -0.097415745
-0.1040546 -0.051140554 0.010830698 -0.085638516 0.12339247 0.072969295 -0.036626425 -0.016402537
-0.00995163 -0.10338832 -0.079418376 -0.1044666 0.077509776 0.005761995 -0.04962671 -0.042300627
-0.012768088 0.068794005 0.071939155 -0.096205324 -0.101500906 -0.074252866 -0.06406557 0.10631892
0.031367872 0.0040862462 -0.024808694 0.012286148 -0.017466456 -0.0028786953 -0.07306072 -0.09091449
-0.02122863 -0.09465042 -0.011365321 -0.07121021 0.027400145 -0.09346328 0.019965596 0.025296275
0.12259157 -0.10143691 -0.1099083 -0.004982578 -0.0541022 -0.043559432 0.0008786535 -0.06643697
0.025314359 0.04028434 -0.012787521 -0.0962533 0.089717574 -0.033915088 -0.0024245498 -0.017391844
-0.071683936 -0.13335925 0.07371645 0.036957245 0.095962904 0.02993433 -0.100254074 0.030285422
0.12017115 -0.049192525 0.075970635 0.123371534 -0.10199121 0.013761255 0.044927265 0.019571625
-0.07209925 0.007974273 0.089631975 0.059833672 -0.020288909 -0.036310256 -0.09293836 0.03889046
-0.007062692 0.010539195 0.1226776 0.0024639969 0.086366184 0.008188076 0.10990487 0.03341609
0.17080612 0.117337584 -0.05393684 0.021444168 -0.037262674 -0.043784644 0.028008789 0.04810234
0.021123892 0.019426651 0.10010099 0.11563508 0.13359316 0.026830971 0.12516342 -0.0006195103
00000000: 00f7 c23d 14b0 8f3d 3ef9 0bbe 2368 0cbd
00000010: 9df2 00bd e883 69bd 95d4 4c3b af18 123d
00000020: 496e 02be d857 4dbd 6c24 d1ba 729d 9dbd
00000030: 78a0 19bd a1a7 a23d 3ec4 1e3c 818a 963d
00000040: 5d62 2f3c 8f3c dc3d fe48 e83d 7e3f 9c3d
00000050: 1749 563d 38bd 9bbd 571a bd3d e383 193c
00000060: dcaf bc3d ef84 173d 1dfd a6bb e795 cbbd
00000070: c7cc 2e3d 0490 c23d 7e65 353d 85b4 a43d
00000080: 34c0 4d3c 2007 033d 7d38 5c3d 0b55 6d3d
00000090: dc24 d8bd 36a7 f03d 29f8 36bd 1577 1cbd
000000a0: 50c4 853d 6699 7f3d a173 863d 2d7d d33d
000000b0: 9244 c9bd 8bae 813d 341e be3d 34cb 05bd
000000c0: bbe3 49bd 63c6 4fbd adf2 0c3d 8fa7 babd
000000d0: e4e4 153d ad87 373d ec8e 01bd 1861 6a3d
000000e0: 589c 67bd a1f7 ebbc d4fb ea3d 8bcd c93d
000000f0: b0ad 9dbd e2b8 79bd 2b12 253d 86fb 7a3d
00000100: e2f8 253d 3dc6 8e3d 5a62 c03d 6f77 2c3d
00000110: 12e1 e0bd 39e6 10bd e9d8 34bd c1da a7bd
00000120: b57f 25bd f218 673c 14ae d73d 6ed0 0cbd
00000130: af6c 9abd f6fb e23d 3742 9cbc 9e43 963d
00000140: 22d3 ec3d dfb9 b4bd 6e66 833c 17bd b13d
00000150: 4e9c babd 1626 193c 9672 c0bd 7425 df3d
00000160: 5752 933d 86c0 53bc a2d7 233e 83d4 73bd
00000170: c4f1 1bbd 930f 5d3d f3a8 003e 8bf3 2dbd
00000180: 0b7b 88bd d5a3 253d 4b96 2cbd 224b 9d3c
00000190: 9267 7cbd 123a d33d 1b93 4ebc f550 e93d
000001a0: 4281 8fbc ec39 ffbb 506c e3bd e81b e83d
000001b0: ce9b d33c fea8 c83d 8096 c63d 616f 0a3e
000001c0: 38a5 cd3d af8d 023e d7f4 42bd aa0f 1fbc
000001d0: aef2 fcbc 55f1 c93d e47d 6cbd 570d 093e
000001e0: 4b4e 95bd c9a3 0fbc 2845 033d ebc3 d73c
000001f0: 6642 ea3d 9b05 f03d c40e 7dbd 9398 d43d
00000200: 9fb2 a7bd a765 9cbc 04fc bf3c c066 4b3d
00000210: 8b11 863b 942a 36bd c2bd c53d 46df d0bc
00000220: 995b 9f3d ffc7 bebd ee3c 963a b2a1 87bd
00000230: 0af7 bd3d 760b d23c e0e0 5abd 23c9 99bd
00000240: 5b5c 183d 299b 89bd aacc 823d b6d2 903d
00000250: fb6b cc3d a7a6 ff3b a1dc 2fbd e881 c7bd
00000260: 941a d5bd c278 51bd 3d73 313c 3f63 afbd
00000270: 31b5 fc3d ed70 953d 9705 16bd 9d5e 86bc
00000280: 290c 23bc 41bd d3bd 1aa6 a2bd 96f2 d5bd
00000290: 72bd 9e3d 1ecf bc3b 6145 4bbd 6c43 2dbd
000002a0: 3e31 51bc dfe3 8c3d d654 933d 4c07 c5bd
000002b0: b5df cfbd e311 98bd cf34 83bd bcbd d93d
000002c0: 997b 003d ebe5 853b 9a3b cbbc d74b 493c
000002d0: d015 8fbc 7ea8 3cbb dca0 95bd 6031 babd
000002e0: aae7 adbc 14d8 c1bd 9d35 3abc a9d6 91bd
000002f0: 4576 e03c ad69 bfbd e48e a33c 223a cf3c
00000300: 4a11 fb3d 28be cfbd 9a17 e1bd e544 a3bb
00000310: 459a 5dbd 606b 32bd 7055 663a 1b10 88bd
00000320: 0f60 cf3c 3101 253d c082 51bc 7320 c5bd
00000330: d9bd b73d 8cea 0abd 32e5 1ebb 5779 8ebc
00000340: 07cf 92bd 548f 08be a6f8 963d 7b60 173d
00000350: 3388 c43d d738 f53c 0252 cdbd 2219 f83c
00000360: 4b1c f63d 1a7e 49bd 7e96 9b3d 37aa fc3d
00000370: c4e0 d0bd e376 613c a705 383d ac54 a03c
00000380: c6a8 93bd 86a6 023c f890 b73d 2714 753d
00000390: ed34 a6bc 10ba 14bd 7856 bebd 9a4b 1f3d
000003a0: 286e e7bb 96ac 2c3c 653e fb3d 027b 213b
000003b0: c1e0 b03d 4827 063c ce15 e13d 4fdf 083d
000003c0: cde7 2e3e b04e f03d e0ec 5cbd aeab af3c
000003d0: bfa0 18bd 8757 33bd b072 e53c f606 453d
000003e0: 030c ad3c a424 9f3c bf01 cd3d 16d2 ec3d
000003f0: a5cc 083e a0cc db3c d72a 003e a266 22ba

encoder.linear.weight f4 [32, 64]
0.050546102 0.09805061 -0.075195976 0.040568948 -0.045773204 -0.0803073 0.019335153 0.046145108
0.045418758 0.004186117 -0.069412395 0.06761346 0.07270258 0.09646665 -0.122447364 0.09015387
-0.028015658 -0.094137274 -0.03766219 -0.12315767 -0.0043444745 -0.07876354 -0.025592634 0.032828815
0.005387764 -0.027904497 -0.0873296 0.118342936 0.0040313397 -0.07735421 0.13118173 -0.1320378
-0.044629388 0.06584174 0.06785847 -0.031215275 -0.023764562 -0.06987322 0.06175768 -0.029286059
0.042746183 -0.002294853 -0.08958475 -0.071579695 0.15030347 -0.066057704 -0.01590476 -0.027207412
-0.07411072 -0.070725106 -0.02020866 0.0146313915 0.030268915 -0.10318883 -0.024035508 0.1198535
0.07040396 -0.02121969 -0.11696759 -0.028309403 0.006789583 0.021527074 0.112802036 0.05828598
-0.010845532 0.02720454 -0.05236881 -0.10279391 0.09729066 0.06530117 -0.12740287 0.079658605
0.067390874 0.079459004 0.08740046 -0.076171584 -0.03332385 -0.050109632 -0.1167265 0.089092724
0.06292955 0.099851936 0.047767993 -0.10526003 0.034708478 -0.06945479 0.046888594 -0.013443218
0.11637915 0.06370892 0.14616951 0.039364114 0.036614407 0.07726019 -0.09220781 -0.1043591
0.06663166 -0.07135952 0.06115598 0.12408545 -0.13494182 -0.018938761 -0.111089855 -0.060730077
-0.03456453 -0.031208064 0.038164124 0.050389353 -0.025804939 -0.11921851 0.036669742 -0.12164698
0.07427508 0.10217863 0.07153272 -0.065723464 0.013429904 -0.00011795501 0.063005745 0.041655008
-0.008129907 -0.10906281 -0.044919193 0.066291444 -0.032155406 0.057090614 0.03012528 -0.13811497
-0.045443397 0.013584778 -0.10115052 0.00096106227 -0.058249924 0.056333225 0.08760499 -0.10625669
0.086472996 0.06855231 0.1293869 -0.03852775 0.12556168 -0.12831442 0.15038665 0.0018138685
0.042922776 0.055084378 0.06435187 0.008663679 -0.0046816533 -0.10306841 0.07879399 -0.02611924
-0.10912051 -0.07429113 0.060628276 0.029554147 -0.10183608 0.10246093 -0.03654414 0.13775559
-0.034041055 -0.059300344 -0.005439692 -0.015222016 0.14062214 0.106787555 0.12266859 -0.019454313
-0.123069696 -0.022494469 0.056026187 0.08790421 -0.022366006 0.022829391 0.06525102 -0.022437057
0.07265554 0.06630941 0.10518097 0.09394127 -0.027706929 0.05426216 0.028598934 -0.15760262
0.07386978 0.13253391 -0.084584855 0.15559404 -0.05242763 -0.032870214 -0.09709606 0.054003324
0.10013892 -0.053717777 -0.112540305 -0.105088286 0.12970014 0.14151119 0.06490849 -0.1471478
0.124868006 0.04850352 -0.045114942 0.06640027 0.14270781 0.00295679 0.093036264 -0.10504393
0.04430323 -0.017036272 -0.06488592 0.12459792 0.03797985 0.0888761 0.093398124 0.023719832
0.08821425 -0.12947947 -0.067014776 0.0025935073 -0.022179862 -0.044788692 0.0057763443 -0.007168577
0.1311376 0.052233838 -0.14968632 -0.03459438 0.070083104 -0.11882158 0.01566604 -0.07115792
-0.057722315 0.056278143 -0.059732173 0.14243044 -0.05844396 -0.026146462 0.068557896 0.13983381
0.051244687 0.12156313 0.072443336 0.0502826 0.09853831 -0.028992578 -0.04148672 -0.15386465
-0.07232959 0.14145477 0.15712658 -0.047904924 0.05077418 -0.020562764 -0.07877689 -0.007248331
00000000: 6e09 4f3d c2ce c83d 5900 9abd a02b 263d
00000010: af7c 3bbd 2778 a4bd c164 9e3c a702 3d3d
00000020: 0509 3a3d b22b 893b 1628 8ebd ed78 8a3d
00000030: 17e5 943d 4f90 c53d afc5 fabd 98a2 b83d
00000040: 1881 e5bc 0bcb c0bd ab43 1abd 173a fcbd
00000050: 185c 8ebb c74e a1bd a5a7 d1bc 8277 063d
00000060: d78b b03b f997 e4bc dcd9 b2bd c85d f23d
00000070: 5419 843b e26b 9ebd 8154 063e eb34 07be
00000080: 4ecd 36bd 09d8 863d 62f9 8a3d 2db7 ffbc
00000090: e6ad c2bc b119 8fbd 9ff5 7c3d 51e9 efbc
000000a0: 9f16 2f3d 3f65 16bb 3678 b7bd 6098 92bd
000000b0: 27e9 193e 4349 87bd b34a 82bc 14e2 debc
000000c0: 5cc7 97bd 53d8 90bd a28c a5bc 81b8 6f3c
000000d0: 84f6 f73c aa54 d3bd 1de6 c4bc c075 f53d
000000e0: f42f 903d ead4 adbc b48c efbd 1fe9 e7bc
000000f0: 267b de3b 8c59 b03c c104 e73d 48bd 6e3d
00000100: 75b1 31bc 0edc de3c ad80 56bd 9d85 d2bd
00000110: 5340 c73d 9fbc 853d e675 02be 0d24 a33d
00000120: 3a04 8a3d 67bb a23d 03ff b23d d9ff 9bbd
00000130: 977e 08bd c23f 4dbd 4e0e efbd 3f76 b63d
00000140: 35e1 803d 2c7f cc3d 5fa8 433d 9292 d7bd
00000150: 7a2a 0e3d 503e 8ebd 410e 403d f140 5cbc
00000160: 3158 ee3d d279 823d 76ad 153e 443c 213d
00000170: fdf8 153d 973a 9e3d 73d7 bcbd 39ba d5bd
00000180: 2e76 883d f124 92bd b17e 7a3d 8320 fe3d
00000190: 302e 0abe 7625 9bbc 1483 e3bd 1ac0 78bd
000001a0: 8993 0dbd 0ea8 ffbc fc51 1c3d 1165 4e3d
000001b0: e164 d3bc d628 f4bd 0333 163d 0d22 f9bd
000001c0: 881d 983d 0843 d13d bf7f 923d 069a 86bd
000001d0: 1a09 5c3c 9d5e f7b8 2809 813d 719e 2a3d
000001e0: 4d33 05bc 535c dfbd 30fd 37bd cfc3 873d
000001f0: 63b5 03bd d9d7 693d 4bc9 f63c 036e 0dbe
00000200: db22 3abd b092 5e3c 0128 cfbd ccef 7b3a
00000210: 7997 6ebd abbd 663d 3f6a b33d 1c9d d9bd
00000220: c118 b13d 2765 8c3d 007e 043e 46cf 1dbd
00000230: 3e93 003e db64 03be f5fe 193e 54bf ed3a
00000240: cbcf 2f3d 28a0 613d eaca 833d 1af2 0d3c
00000250: 8e68 99bb 8815 d3bd be5e a13d 04f8 d5bc
00000260: 937a dfbd f325 98bd 5b55 783d 8a1b f23c
00000270: 6f8f d0bd 09d7 d13d 4faf 15bd cd0f 0d3e
00000280: a26e 0bbd ebe4 72bd 723f b2bb c365 79bc
00000290: 40ff 0f3e 6fb3 da3d ab39 fb3d a75e 9fbc
000002a0: f70b fcbd 5246 b8bc b77b 653d 1f07 b43d
000002b0: ea38 b7bc b404 bb3c 54a2 853d ebcd b7bc
000002c0: 6ecc 943d 3acd 873d 1f69 d73d 4864 c03d
000002d0: a4f9 e2bc 0042 5e3d 5048 ea3c 9562 21be
000002e0: 0a49 973d f8b6 073e d33a adbd 0b54 1f3e
000002f0: 5bbe 56bd eba2 06bd 4dda c6bd 9732 5d3d
00000300: a215 cd3d 2c07 5cbd 887b e6bd 8738 d7bd
00000310: 1dd0 043e 4fe8 103e beee 843d eaad 16be
00000320: ccba ff3d a1ab 463d 72ca 38bd ddfc 873d
00000330: ff21 123e b4c6 413b cc89 be3d 4621 d7bd
00000340: 4e77 353d a78f 8bbc e9e2 84bd 322d ff3d
00000350: c290 1b3d ac04 b63d 8447 bf3d 1850 c23c
00000360: aca9 b43d 4496 04be 0b3f 89bd d5f7 293b
00000370: 8bb2 b5bc 5974 37bd 7d47 bd3b 62e6 eabb
00000380: ef48 063e 26f3 553d 5f47 19be d6b2 0dbd
00000390: bb87 8f3d bb58 f3bd 1156 803c 3ebb 91bd
000003a0: 3c6e 6cbd e983 663d b9a9 74bd 49d9 113e
000003b0: ef62 6fbd 1b31 d6bc 1568 8c3d 9830 0f3e
000003c0: f3e5 513d 17f6 f83d 2c5d 943d 21f5 4d3d
000003d0: 74ce c93d d881 edbc fbed 29bd b28e 1dbe
000003e0: 8921 94bd 85d9 103e cae5 203e f437 44bd
000003f0: 96f8 4f3d 3e73 a8bc c755 a1bd 6883 edbb

encoder.linear.bias f4 [32]
0.10704208 0.06550866 0.06888321 -0.11755713 0.092038885 -0.023594707 -0.039237823 0.05871414
0.10783785 0.09533094 0.013303249 0.09990504 -0.05422578 -0.08893727 0.046097018 0.013384301
0.07556088 -0.09555456 -0.110348105 -0.009997255 0.13183014 -0.08154402 0.069238216 0.114498876
-0.057157755 0.032809526 0.033777233 0.15617818 0.037189767 -0.049205102 -0.105548285 -0.039092243
00000000: e138 db3d 6829 863d a412 8d3d cbc1 f0bd
00000010: e27e bc3d b049 c1bc d7b7 20bd 3d7e 703d
00000020: 17da dc3d de3c c33d dff5 593c 039b cc3d
00000030: da1b 5ebd be24 b6bd 3ad0 3c3d d449 5b3c
00000040: aabf 9a3d 1cb2 c3bd 30fe e1bd 87cb 23bc
00000050: 7bfe 063e 8d00 a7bd c4cc 8d3d 637e ea3d
00000060: 401e 6abd 4863 063d ff59 0a3d 2ced 1f3e
00000070: 4c54 183d 4a8b 49bd b329 d8bd 301f 20bd

decoder.linear.weight f4 [64, 32]
-0.03827866 0.038365375 -0.07380345 -0.088071726 0.19771256 0.10588858 0.035865784 0.02722595
-0.08266329 -0.1440392 -0.05928088 0.08102918 -0.17743818 0.18402053 -0.12178525 0.09161518
-0.20144227 -0.041018292 -0.103674814 0.11345361 -0.10738756 -0.10450692 -0.10909453 -0.11933981
-0.1285723 -0.01708762 -0.21080162 -0.11073898 -0.03487178 -0.030464415 0.039391927 0.052224692
0.0051833047 0.1615266 -0.1638388 0.06649072 0.03324734 -0.18017778 0.13987914 0.026076728
0.09974909 -0.05439568 -0.112100534 0.04300891 -0.08172517 -0.05575597 0.15630364 0.00580812
0.049383838 -0.17224234 0.18575834 0.13710696 -0.055361237 0.069470495 -0.1870955 -0.054899435
-0.14797235 0.20818272 0.045145534 0.15983246 -0.007368686 0.050271496 0.03787195 0.038694598
0.20751983 -0.13833953 0.025372533 -0.17948544 -0.031509645 -0.05610082 0.113080315 -0.13235235
-0.010418251 0.19374156 -0.09695866 0.0151836965 -0.04527801 -0.052544482 -0.008271936 -0.12742116
0.05876915 -0.112477295 0.02702916 -0.12464319 -0.040091954 -0.11317106 0.079244316 0.05303242
0.02600149 0.17313808 0.18647203 0.13210426 0.1677675 -0.134481 0.12387339 -0.06355267
0.0899222 -0.1204908 0.06819372 -0.2013461 -0.01271991 0.026080828 -0.0043247635 0.08517975
0.093341105 -0.028560363 -0.019924162 0.07191984 0.025653355 0.083104864 0.089364596 0.1438128
-0.02920614 0.05611427 -0.18316564 0.030150888 0.12580572 -0.014418001 -0.022689657 -0.13199754
0.100378565 0.079676226 -0.17766447 0.059906054 -0.043990873 0.099330254 0.14111768 0.11915981
-0.03900984 0.1137086 -0.0069014668 0.0005537539 -0.15320586 -0.051685255 0.04482512 -0.035626836
0.017096654 0.18870005 0.1019077 0.12747765 0.062266912 -0.0026140767 0.0031977033 -0.07312531
0.15695417 0.10797215 -0.15183404 -0.15080565 -0.045772973 -0.12859747 -0.17325519 -0.036775243
-0.028875927 -0.048476785 -0.12506132 -0.098530956 -0.08910105 0.07735313 0.03338374 0.0218009
0.17666766 -0.0010259278 -0.14499968 -0.00822594 -0.16499531 0.03457119 0.05464284 0.16123614
-0.032552704 -0.024255635 -0.019836966 -0.11678698 0.14634532 -0.020514196 -0.095282376 -0.021551892
-0.1146689 0.12520058 -0.009715217 -0.020549972 -0.13236924 -0.10634905 -0.08370456 0.053696603
-0.14479141 0.17684473 0.064915754 0.072612196 0.15780023 0.1280971 0.0086398 -0.023753632
-0.096567675 0.15492 0.08390491 -0.044450246 -0.07397308 0.196125 -0.16148081 0.11392585
0.0928887 0.020108072 0.1393161 0.06140396 -0.020729236 -0.0047680163 0.05806543 -0.15287007
0.13668807 -0.116964795 -0.100173816 0.0098046865 0.0042323363 0.043321125 -0.040610205 -0.018685283
-0.07072127 -0.03485558 0.063630976 0.12036505 -0.024074363 -0.10279687 0.055570487 0.106381044
0.14080298 -0.11813893 -0.037054364 0.101599984 -0.07239866 0.05576705 -0.107375495 0.011961902
0.057766862 0.09270473 -0.041206352 0.13381653 -0.103340484 -0.07650192 0.07528798 0.13490553
-0.043682802 -0.14813866 -0.012958485 -0.019436553 -0.05692788 -0.1324002 0.11781074 0.11145496
0.07755685 0.028171934 0.015111635 0.07283287 0.16139916 0.091079034 0.07775037 0.0458552
00000000: 16ca 1cbd 0325 1d3d 4326 97bd f35e b4bd
00000010: 2975 4a3e 1ddc d83d 00e8 123d f508 df3c
00000020: 5f4b a9bd 037f 13be 82d0 72bd a0f2 a53d
00000030: 5bb2 35be e16f 3c3e 8c6a f9bd bda0 bb3d
00000040: e246 4ebe cc02 28bd 7653 d4bd 5e5a e83d
00000050: 02ee dbbd b907 d6bd f46c dfbd 6e68 f4bd
00000060: 75a8 03be 56fb 8bbc 61dc 57be 1ecb e2bd
00000070: b6d5 0ebd 8290 f9bc 6e59 213d 8fe9 553d
00000080: b6d8 a93b 3b67 253e 5cc5 27be 492c 883d
00000090: 5d2e 083d 8680 38be 7a3c 0f3e dd9e d53c
000000a0: 4049 cc3d 01ce 5ebd f794 e5bd 1c2a 303d
000000b0: 875f a7bd 5f60 64bd 100e 203e 0b52 be3b
000000c0: b546 4a3d 4c60 30be 6f37 3e3e c465 0c3e
000000d0: 77c2 62bd 8c46 8e3d f695 3fbe 3bde 60bd
000000e0: 1086 17be da2d 553e 86ea 383d 1fab 233e
000000f0: 0575 f1bb 7ce9 4d3d 9e1f 1b3d 3a7e 1e3d
00000100: 1480 543e e1a8 0dbe 0fda cf3c 08cb 37be
00000110: 4210 01bd f9c9 65bd a796 e73d 6087 07be
00000120: 50b1 2abc 3064 463e 4392 c6bd 0ac5 783c
00000130: 6f75 39bd e238 57bd 0487 07bc b17a 02be
00000140: ecb7 703d 7f5a e6bd 426c dd3c ee44 ffbd
00000150: 7637 24bd 3bc6 e7bd d84a a23d 8638 593d
00000160: 1401 d53c 1c4b 313e 86f2 3e3e 5746 073e
00000170: 3ecb 2b3e 63b5 09be 55b1 fd3d e727 82bd
00000180: 2129 b83d e1c3 f6bd 26a9 8b3d ac2d 4ebe
00000190: 2b67 50bc 76a7 d53c bfb6 8dbb b972 ae3d
000001a0: 9f29 bf3d 6cf7 e9bc ff37 a3bc b64a 933d
000001b0: fc26 d23c e232 aa3d c904 b73d aa43 133e
000001c0: b741 efbc 14d8 653d c68f 3bbe fffe f63c
000001d0: 37d3 003e 7b39 6cbc a9df b9bc 5d2a 07be
000001e0: 4793 cd3d 4a2d a33d aded 35be 0d60 753d
000001f0: c62f 34bd a96d cb3d 2781 103e 0f0a f43d
00000200: c8c8 1fbd 0ee0 e83d b325 e2bb cc29 113a
00000210: ffe1 1cbe ebb3 53bd 8c9a 373d 72ed 11bd
00000220: 480e 8c3c 963a 413e fcb4 d03d 8089 023e
00000230: 970b 7f3d ee50 2bbb 8f90 513b b9c2 95bd
00000240: 98b8 203e 8120 dd3d 627a 1bbe cc6c 1abe
00000250: 717c 3bbd 0eaf 03be cf69 31be a3a1 16bd
00000260: 358d ecbc 988f 46bd 1310 00be 99ca c9bd
00000270: 9c7a b6bd 516b 9e3d 63bd 083d cd97 b23c
00000280: 5ee8 343e 6d78 86ba cc7a 14be 18c6 06bc
00000290: 88f4 28be 859a 0d3d 2cd1 5f3d 161b 253e
000002a0: fc55 05bd c1b3 c6bc 2281 a2bc 032e efbd
000002b0: 8cdb 153e 630d a8bc 6823 c3bd 988d b0bc
000002c0: 87d7 eabd 9534 003e 932c 1fbc 6a58 a8bc
000002d0: cd8b 07be 88cd d9bd 4c6d abbd f8f0 5b3d
000002e0: 3344 14be c916 353e 8df2 843d b4b5 943d
000002f0: 6296 213e e32b 033e f38d 0d3c fa96 c2bc
00000300: 46c5 c5bd 59a3 1e3e 56d6 ab3d 7611 36bd
00000310: 337f 97bd fed4 483e 3a5b 25be f551 e93d
00000320: 6e3c be3d afb9 a43c e1a8 0e3e b882 7b3d
00000330: 5cd0 a9bc 053d 9cbb 04d6 6d3d f989 1cbe
00000340: f5f7 0b3e 3d8b efbd ee27 cdbd d6a3 203c
00000350: 69af 8a3b 7e71 313d e356 26bd e111 99bc
00000360: 50d6 90bd bac4 0ebd f550 823d f481 f63d
00000370: 9937 c5bc 2a87 d2bd e19d 633d 4ede d93d
00000380: a82e 103e d3f2 f1bd 51c6 17bd a713 d03d
00000390: c045 94bd fd6b 643d afe7 dbbd dafb 433c
000003a0: f29c 6c3d fadb bd3d fec7 28bd 3307 093e
000003b0: 2da4 d3bd 0aad 9cbd 9630 9a3d ad24 0a3e
000003c0: bdec 32bd a9b1 17be d34f 54bc 6839 9fbc
000003d0: 352d 69bd eb93 07be c246 f13d 8042 e43d
000003e0: 20d6 9e3d d4c8 e63c cb96 773c 6629 953d
000003f0: d245 253e a587 ba3d 963b 9f3d aad2 3b3d

decoder.linear.bias f4 [64]
0.070387386 -0.11151634 -0.15663038 0.076774165 -0.06939254 -0.018952742 -0.010032264 -0.012644199
-0.008543789 -0.1293253 0.053330496 0.007739892 0.121443324 -0.12458508 0.021056738 -0.15060303
0.15981363 0.15435539 -0.0020436477 -0.084251106 0.13494614 -0.037931796 0.01967132 0.07342312
-0.16451941 0.04493286 0.119474486 -0.15092573 0.05893983 -0.118389025 -0.10791016 -0.0041714055
-0.15036072 0.009539303 -0.08831484 0.13898619 -0.17512208 -0.13500527 -0.17239021 0.05830581
-0.04218631 0.12499369 -0.02824578 -0.1318768 0.12586716 -0.027607163 -0.042929433 -0.011498239
0.03496549 -0.023891697 -0.109766096 -0.17163925 -0.17069909 0.12078035 -0.009331085 0.13921314
-0.038523886 0.04037548 -0.14466983 0.12782241 0.0024735078 0.07365012 -0.13344382 0.08213061
00000000: 4327 903d ae62 e4bd b763 20be c63b 9d3d
00000010: ad1d 8ebd c842 9bbc 5d5e 24bc 9d29 4fbc
00000020: 40fb 0bbc da6d 04be 1471 5a3d ec9e fd3b
00000030: 47b7 f83d 7626 ffbd 2e7f ac3c ae37 1abe
00000040: 2fa6 233e 570f 1e3e b8ee 05bb d88b acbd
00000050: 522f 0a3e 5f5e 1bbd c025 a13c dc5e 963d
00000060: c777 28be 850b 383d 0aaf f43d 468c 1abe
00000070: e46a 713d f275 f2bd 0100 ddbd 49b0 88bb
00000080: 29f8 19be bd4a 1c3c 69de b4bd 6552 0e3e
00000090: 3453 33be d23e 0abe 0f87 30be 13d2 6e3d
000000a0: 8dcb 2cbd b1fc ff3d b263 e7bc b60a 07be
000000b0: 52e3 003e 6b28 e2bc c6d6 2fbd 1c63 3cbc
000000c0: f937 0f3d 85b8 c3bc 0ccd e0bd 33c2 2fbe
000000d0: becb 2ebe b05b f73d 68e1 18bc e48d 0e3e
000000e0: 39cb 1dbd c260 253d 5424 14be e1e3 023e
000000f0: 931a 223b e0d5 963d 7fa5 08be 1834 a83d

decoder.lstm.weight_ih_l0 f4 [256, 64]
0.052290834 0.08132389 -0.007424474 -0.011688663 0.08560168 -0.06611432 0.029280853 0.09771096
0.024820803 -0.12818319 0.110990815 0.10057276 -0.109652154 0.032944422 -0.028299335 -0.1192322
0.10959935 0.11846658 -0.011815396 0.016555412 0.029799014 -0.038439367 -0.10935266 0.023366634
-0.015020686 0.10744182 0.022909388 0.02671888 0.08485348 -0.08252527 0.07755228 0.016483845
-0.09694755 -0.0190167 0.040818777 0.048608568 0.034740854 -0.1039899 -0.021232173 0.10536211
-0.12905112 0.104274444 -0.014908226 -0.02431725 -0.043445162 -0.0478213 -0.04905847 -0.0887429
0.06854705 -0.0023680972 0.08168989 -0.117983386 0.053001955 0.10492832 0.012340681 -0.10715481
0.07275422 -0.08605911 0.016426051 0.017172122 0.05807065 -0.10228349 -0.09117641 -0.064947374
-0.12069427 -0.14811659 -0.10860375 -0.045566317 -0.0036137025 -0.11723845 0.04349177 0.10093827
-0.07345282 0.09633906 0.12629935 0.036996022 0.034111768 0.033726953 -0.051816937 -0.010305582
0.051339976 -0.03474284 0.04248554 0.04040919 -0.09587353 0.14059584 0.014658015 -0.00806176
-0.080224276 0.004947695 0.0060196803 -0.037592318 0.06262747 0.043392695 0.03182244 0.046633463
0.112001814 -0.020699834 -0.08048424 -0.0051514665 0.05647938 0.019330982 0.032834314 0.074201256
-0.05295735 -0.11624136 0.006299379 -0.06889775 -0.070477836 -0.046523836 -0.033667207 -0.015953379
0.0017169241 0.030606017 -0.04436741 -0.03623478 -0.06324674 0.070306756 -0.0036858188 -0.089462385
0.042319268 -0.0067194644 -0.072984 -0.06346183 0.03223364 0.07523011 -0.101853795 -0.05926172
-0.012763557 -0.09228936 0.081727445 0.030381903 -0.099110015 0.03080232 -0.07656605 -0.13524905
-0.01164179 -0.11185425 -0.12588134 0.054120798 -0.056885853 -0.08278615 -0.099406384 -0.028135672
-0.026147742 0.07933557 -0.095688805 -0.012500255 -0.09068469 0.024529414 -0.025432602 0.038312025
-0.10962285 -0.023604391 0.015775744 -0.0022101859 -0.11548632 -0.068469465 -0.073360674 -0.01202316
0.006051879 -0.003114522 -0.0061613787 0.049920354 -0.081777595 0.07496882 0.029518973 -0.025944188
0.040595792 0.047356933 -0.09897511 -0.07959727 0.075210944 0.09935604 0.04243263 -0.08456122
-0.015593702 -0.00057882036 -0.019435871 0.114439756 -0.10454179 0.06390533 0.01005986 -0.007997445
-0.022536878 0.11124426 0.13670245 -0.06818432 -0.052923106 0.003317575 0.07141599 0.025860894
0.14064309 -0.073404364 -0.0597585 0.021651147 -0.03502576 -0.088236675 0.19076808 0.033331558
-0.15881403 -0.10661512 0.105944365 0.11354242 0.09778886 0.19904763 0.19915542 -0.013501685
0.15937015 -0.013865872 -0.13420445 0.021600304 -0.10666091 -0.121851094 -0.23259155 0.112532824
-0.13105574 -0.14803538 -0.11733198 -0.06827695 0.007348288 -0.05002818 -0.038407665 0.032994296
-0.111058444 -0.017033407 -0.13334332 -0.04107918 0.0062870043 0.00036068243 -0.036458794 -0.1445446
-0.031523343 0.0836556 -0.09340253 -0.15645729 0.009795406 0.042018402 -0.029274562 -0.035076004
0.057974104 -0.068315744 -0.0010528108 0.051962454 -0.05361601 0.08702845 0.048061978 0.12164681
0.09182191 0.029255334 -0.07578608 0.018448494 -0.14384 0.1974772 -0.06392314 0.12680489
00000000: ea2e 563d 248d a63d 0149 f3bb ce81 3fbc
00000010: ef4f af3d f266 87bd 66de ef3c af1c c83d
00000020: ff54 cb3c 7442 03be 274f e33d 17f9 cd3d
00000030: 4f91 e0bd bbf0 063d 02d4 e7bc 0330 f4bd
00000040: a075 e03d 9b9e f23d 5d95 41bc 379f 873c
00000050: 101d f43c 9972 1dbd 4af4 dfbd 626b bf3c
00000060: 5319 76bc 750a dc3d 78ac bb3c 8de1 da3c
00000070: a9c7 ad3d 0203 a9bd bbd3 9e3d 2109 873c
00000080: 708c c6bd e9c8 9bbc 9731 273d c719 473d
00000090: 6d4c 0e3d a8f8 d4bd 18ef adbc 17c8 d73d
000000a0: fa25 04be d78d d53d a241 74bc f834 c7bc
000000b0: 8ef3 31bd 44e0 43bd 89f1 48bd d6be b5bd
000000c0: 6562 8c3d 1432 1bbb 074d a73d 46a1 f1bd
000000d0: 9418 593d a9e4 d63d 9130 4a3c fb73 dbbd
000000e0: 2a00 953d c23f b0bd ed8f 863c 8dac 8c3c
000000f0: 7ddb 6d3d 027a d1bd b3ba babd 2103 85bd
00000100: 8f2e f7bd e0ab 17be a56b debd bfa3 3abd
00000110: ded3 6cbb b61a f0bd 6d24 323d b9b8 ce3d
00000120: 6f6e 96bd 6a4d c53d 9e54 013e 2489 173d
00000130: c8b8 0b3d 4625 0a3d ff3d 54bd bed8 28bc
00000140: de49 523d 824e 0ebd 5105 2e3d 1b84 253d
00000150: 5759 c4bd 5bf8 0f3e 2c28 703c 7915 04bc
00000160: a04c a4bd 4620 a23b bd40 c53b 67fa 19bd
00000170: d542 803d 8abc 313d 3f58 023d bb02 3f3d
00000180: 3561 e53d b392 a9bc ecd4 a4bd a2cd a8bb
00000190: ec56 673d 025c 9e3c 467d 063d d4f6 973d
000001a0: cee9 58bd f30f eebd 056b ce3b 431a 8dbd
000001b0: af56 90bd c78f 3ebd a0e6 09bd a9b0 82bc
000001c0: 6a0a e13a 78b9 fa3c 9aba 35bd ec6a 14bd
000001d0: 8287 81bd fdfc 8f3d c78d 71bb 0e38 b7bd
000001e0: f856 2d3d f42e dcbb a378 95bd 47f8 81bd
000001f0: 6c07 043d 3e12 9a3d b998 d0bd 6bbc 72bd
00000200: 3d1e 51bc 3402 bdbd b860 a73d 78e3 f83c
00000210: 31fa cabd 2655 fc3c a9ce 9cbd ba7e 0abe
00000220: 35bd 3ebc d713 e5bd 0ae7 00be c5ad 5d3d
00000230: 2401 69bd c98b a9bd 9395 cbbd c87c e6bc
00000240: ca33 d6bc b07a a23d 7ef8 c3bd dfcd 4cbc
00000250: e5b8 b9bd e9f1 c83c 0858 d0bc 12ed 1c3d
00000260: f281 e0bd ff5d c1bc 223c 813c c4d8 10bb
00000270: 1784 ecbd b839 8cbd 1f3e 96bd cafc 44bc
00000280: d74e c63b 021d 4cbb 64e5 c9bb 4979 4c3d
00000290: 037b a7bd 4189 993d c6d1 f13c e888 d4bc
000002a0: c647 263d 58f9 413d 76b3 cabd e503 a3bd
000002b0: 3208 9a3d 2e7b cb3d d6cd 2d3d 6f2e adbd
000002c0: ba7c 7fbc fabb 17ba fa37 9fbc 645f ea3d
000002d0: 021a d6bd cce0 823d 1cd2 243c b707 03bc
000002e0: 429f b8bc 08d4 e33d bafb 0b3e 39a4 8bbd
000002f0: e6c5 58bd ac6b 593b 8c42 923d 3ada d33c
00000300: be04 103e 0755 96bd 54c5 74bd bf5d b13c
00000310: 2c77 0fbd 6eb5 b4bd b558 433e ac86 083d
00000320: 25a0 22be 0759 dabd 5cf9 d83d ee88 e83d
00000330: 8745 c83d 24d3 4b3e 66ef 4b3e 2c36 5dbc
00000340: ee31 233e af2d 63bc e46c 09be 1ff3 b03c
00000350: 0971 dabd 118d f9bd 7b2c 6ebe 9c77 e63d
00000360: 7a33 06be 9696 17be c04b f0bd c9d4 8bbd
00000370: e8c9 f03b 59ea 4cbd 5b51 1dbd 0725 073d
00000380: 9c72 e3bd a589 8bbc 278b 08be a442 28bd
00000390: 3703 ce3b fa19 bd39 d155 15bd 8003 14be
000003a0: 9f1e 01bd a153 ab3d d349 bfbd 5736 20be
000003b0: e97c 203c 7d1b 2c3d 35d1 efbc dbab 0fbd
000003c0: 4176 6d3d 20e9 8bbd 78fe 89ba 95d6 543d
000003d0: 769c 5bbd f93b b23d a3dc 443d f621 f93d
000003e0: 200d bc3d e2a8 ef3c bb35 9bbd 4c21 973c
000003f0: cb4a 13be 7737 4a3e 23ea 82bd 24d9 013e
