models/autoencoders/googl_lstm_autoencoder.pth (torch, 228084 bytes, 14 tensors)

encoder.lstm.weight_ih_l0 f4 [256, 5]
000000 31 3f 99 3d ca 07 80 bd 5a b6 81 bd ef 4c 18 be
       0.07482756 -0.06251486 -0.06333609 -0.14873098
000010 fc 42 46 3e 82 7b 72 bd 1b 50 75 3d 4f a7 d0 bd
       0.1936149 -0.059199817 0.059890848 -0.101881616
000020 5c f0 c2 3d cf fa 22 bd d0 06 79 bd df ff d8 3c
       0.09518501 -0.03978997 -0.060797513 0.026489196
000030 83 37 5b 3c 7e 9a 0f 3d f1 e2 8f 3d 69 d8 d0 3d
       0.013379934 0.035059445 0.070257075 0.10197527
000040 9e 9c 34 3d b6 24 aa bd 5b c8 bd 3c b3 17 0b 3d
       0.044094674 -0.08307783 0.023166826 0.03395815
000050 07 f5 f3 3d db ac e0 3d 85 e3 b5 bd ff 98 00 3d
       0.1191197 0.109704696 -0.088812865 0.03139591
000060 49 78 8f 3c 5e 32 a4 3d 81 c8 18 bc 56 a6 03 3d
       0.017513411 0.08017419 -0.009325148 0.032141052
000070 ad f3 ca bd df 08 a8 3d c7 0e d0 bd ad b0 1b bd
       -0.09909759 0.08204817 -0.101590686 -0.038010288
000080 d9 58 2a bd dd 26 cf 3d 07 d3 37 3d b6 e4 94 3c
       -0.041588638 0.101148345 0.044878986 0.018175464
000090 2d 4f c4 bc 34 31 b5 bc 64 b3 8b bd bf c9 5e bd
       -0.023963535 -0.022118188 -0.068213254 -0.05439162
0000a0 32 04 a6 3c 32 ae d1 bd 3a 75 00 3e 1a 2d 0f 3e
       0.020265672 -0.10238303 0.12544718 0.13982049
0000b0 03 03 57 bd 52 c8 50 bc fd c6 6d 3d 69 bc f6 3c
       -0.052493107 -0.012743073 0.0580511 0.030119138
0000c0 c2 04 d6 bd 4b e2 8c 3d 47 bb c5 3d 4f 6f b1 3d
       -0.10450126 0.068790995 0.09654861 0.086638086
0000d0 be c5 87 3d ac d9 81 3d 95 a2 a0 3d 7e 2d 5d 3d
       0.06629513 0.06340346 0.0784351 0.053998463
0000e0 49 0a 98 3c 72 3b 02 3e 5b 9d 16 3e 3b 9d a0 3d
       0.018559592 0.12717989 0.14708464 0.07842489
0000f0 29 43 fb 3b b5 fe 81 bd 79 f7 9c 3d e3 4a 8d bc
       0.007667918 -0.0634741 0.07664389 -0.017247623
000100 59 05 ee bd 95 4c b4 bd 28 b1 97 3d b6 52 ea bd
       -0.11622114 -0.08803669 0.07406837 -0.11441557
000110 e3 aa 16 be bb cd 9e 3d 6b 70 c9 bd bb 4f bf 3c
       -0.14713626 0.07754084 -0.09835895 0.023353448
000120 1c 45 1a bc 65 28 3f bc 07 86 a4 bd d6 47 ad bc
       -0.009415891 -0.011667346 -0.08033376 -0.021152418
000130 1a 98 06 bd 5d 2c 02 3d 9a d3 83 3c 39 16 95 3d
       -0.0328599 0.03178059 0.01609211 0.07279629
000140 a2 11 c7 3c dc b5 1b 3c 78 1c 1e 3d 1a 29 b5 3d
       0.0243004 0.009503808 0.03860137 0.0884573
000150 70 9c 19 3e 47 3c 7c 3d 9d 28 b6 3c cf 1f be bd
       0.15001082 0.061580922 0.022236163 -0.09283411
000160 fa 4c c7 bd ca be cd bd 8d ed 95 bd 9d 09 35 bd
       -0.09731479 -0.10046156 -0.073207 -0.04419862
000170 c9 ff c4 bd a7 74 cc bd 05 6e b0 bd 21 df a2 3d
       -0.096191 -0.09983187 -0.086147346 0.07952715
000180 5e 94 1a bd a5 e3 63 3c c5 4b b1 3d 0a e1 df bd
       -0.03773915 0.013909255 0.0865703 -0.10931595
000190 77 8c 47 bd 90 8d 8f bd b7 e3 97 bd a2 64 14 bc
       -0.048717942 -0.07009423 -0.0741648 -0.009057196
0001a0 02 4f 4a bd a6 e3 96 bd 81 a0 d0 3d 36 63 99 3d
       -0.049391754 -0.07367639 0.10186864 0.07489626
0001b0 29 9c 45 3d 66 3c a3 bd 12 34 ad 3d 3d ee 26 3d
       0.04824463 -0.079705045 0.08457197 0.040754545
0001c0 5b 43 23 bd 79 29 cf 3d f7 dd 1d 3d f5 ef 04 3e
       -0.039859157 0.10115332 0.03854176 0.12982161
0001d0 e1 90 aa 3d e1 57 a3 3d d3 1a 84 bd cd 15 45 3e
       0.08328415 0.07975746 -0.06450429 0.19246598
0001e0 39 f3 b7 bd d7 5c 8e bd c2 20 83 3d 35 07 a7 3c
       -0.08981938 -0.069513015 0.064027324 0.020389179
0001f0 e0 d5 fa 3c a4 f4 be bd 45 76 b7 bc a4 31 02 3e
       0.030619562 -0.09324005 -0.022395262 0.12714249
000200 0a cc 05 bd a8 16 10 3e 29 ef 43 bd c3 5c 5b 3c
       -0.03266529 0.14071143 -0.047835503 0.013388815
000210 5b 56 f5 3d 4a 02 e7 3d 35 06 25 3e ee 8a 9d bd
       0.119793616 0.112797335 0.16115649 -0.07692514
000220 41 1b 81 3d 6b 1d a8 3d 46 c2 22 3d fd dd 28 3e
       0.063040264 0.08208736 0.039736055 0.16490932
000230 6d 44 9d 3d db 58 0a 3e ba 36 f6 3d d1 41 63 3d
       0.07679067 0.13510458 0.12022157 0.05548269
000240 0a b1 7b 3d 34 59 24 3d 5c 11 b1 bd 3b e3 92 bb
       0.061448134 0.040124133 -0.08645889 -0.0044826544
000250 db d1 12 3d a0 d6 d2 3d dd 53 ed 3d 39 9a f9 3d
       0.035844665 0.10294843 0.11588261 0.12187619
000260 3f a0 3f 3d de d1 46 bd 6e d2 9c 3d b5 0d 00 bc
       0.046783682 -0.04853999 0.07657324 -0.007815768
000270 19 b8 9b bd c4 af 65 ba ab 06 84 bd 2f 19 09 3e
       -0.07603473 -0.0008761848 -0.06446584 0.13388513
000280 2b 5f f3 3d 12 1d ea 3d c7 98 5c 3b bb 6a ae bc
       0.11883386 0.11431326 0.0033660398 -0.021291127
000290 45 50 49 bd 45 1e bb 3c f0 ab 96 bc 42 35 04 be
       -0.049148817 0.022841582 -0.018392533 -0.12910941
0002a0 95 fe 12 3c ec 46 c3 bc a1 b2 c2 3c 57 6f f5 bc
       0.00897183 -0.02383753 0.023766818 -0.029960318
0002b0 a7 19 73 3d 6d 28 d8 bc 0a e2 14 3e 83 41 21 3d
       0.059350636 -0.026386464 0.14539352 0.039369117
0002c0 60 bd b2 bc e5 ab 8c 3d 43 6f a0 3d 6d 97 04 3e
       -0.021818817 0.06868724 0.078337215 0.1294839
0002d0 54 b2 a9 bd 76 04 5d bd 5f e6 67 3d c7 95 cb bd
       -0.082859665 -0.053959332 0.056616183 -0.09940677
0002e0 91 2d a7 3d cc 8d 11 3d da c8 e4 bd 5e bb 4d 3d
       0.08162988 0.03553562 -0.11171122 0.050227515
0002f0 7e 40 9e bd be bf d4 3d e8 87 af 3d 35 e8 a6 bd
       -0.07727145 0.103881344 0.08570844 -0.08149759
000300 b0 5d e4 bd b5 9b c3 3c 6f d1 0d 3e a0 4a b6 3d
       -0.11150682 0.023877958 0.13849424 0.08900952
000310 e6 b9 ae bd 29 84 aa 3d 7e ab 2a bc c7 5e 12 3d
       -0.08531551 0.08325989 -0.0104168635 0.035734918
000320 15 59 58 bc cb 25 07 be d4 8c c2 bc 81 e0 8b bd
       -0.013204833 -0.1319801 -0.023748793 -0.0682993
000330 49 ec 91 bd ae 6f e5 3c 81 79 04 3e 1d 09 c6 bc
       -0.07125146 0.028007355 0.12936975 -0.024174267
000340 fe 7b 71 bd f5 14 07 be d1 0e 56 3d 92 37 ee 3b
       -0.05895614 -0.13191588 0.052260224 0.007269808
000350 d1 d2 9b bd d7 0d c7 3c b0 18 03 bd cd 5a b5 3b
       -0.076085694 0.024298592 -0.032005966 0.005534506
000360 2a 58 8f 3a 41 de 29 3d 31 39 6a bd f8 54 89 bc
       0.0010936309 0.041471723 -0.05718345 -0.01676415
000370 f5 63 c4 3d 10 ae fe 3d b6 7c d3 3d 6a 73 8b 3d
       0.09589378 0.124355435 0.10326521 0.06809123
000380 ae 15 55 bb 28 cc 6a bd 92 9b 48 bd 9d ae 6c bd
       -0.0032514143 -0.057323605 -0.04897649 -0.05778371
000390 70 a3 77 3d cd 8c 71 3d f1 b9 ad bc 0d 68 b6 bd
       0.0604586 0.05897217 -0.021206828 -0.08906565
0003a0 52 a7 03 3d 94 e5 a9 bc cd 03 89 bd 44 4e be bd
       0.03214199 -0.020739354 -0.06690178 -0.09292272
0003b0 da 9e eb 3d aa ee 75 3c 8c 90 87 3b 7b 8d de 3c
       0.11504908 0.015010515 0.0041371044 0.027167073
0003c0 e9 48 52 3c 8c 14 a2 3d 75 0b 98 bd 46 36 7c bd
       0.012834766 0.07914075 -0.0742406 -0.061575197
0003d0 8d 90 9e 3d f1 13 06 3e 9c ea 2d 3c 91 9e 70 3d
       0.077424146 0.13093545 0.010615017 0.05874497
0003e0 d7 5d 9e bc 53 33 ea 3d d8 93 49 3d a5 d6 c8 3d
       -0.019331856 0.114355706 0.04921326 0.09806565
0003f0 91 75 91 bc 33 66 96 3c 8d 66 32 bc ce 14 ca bd
       -0.017756255 0.01835928 -0.010888708 -0.098672494

encoder.lstm.weight_hh_l0 f4 [256, 64]
000000 a8 69 18 3e da 5c cc 39 11 05 d6 3d 4c e3 9d 3d
       0.14884055 0.00038979092 0.10450185 0.07709369
000010 37 d2 91 bd 36 e2 06 bc 2a 67 ce 3c 53 77 0c 3d
       -0.071201734 -0.008232644 0.025195677 0.034293484
000020 58 5e 36 bc 64 e1 b5 3c 44 a9 3b 3c ea 09 a5 3d
       -0.011130892 0.022202201 0.01145393 0.080585316
000030 53 0b a7 bd 02 0c e7 3d a4 7a 2b 3c ea 7f 90 3d
       -0.08156457 0.11281587 0.0104662515 0.07055648
000040 87 72 87 3c ef d4 06 be 2e 5f 11 be c6 8a 19 3d
       0.016534103 -0.13167165 -0.14196464 0.03748586
000050 de d0 91 bd 07 0a f0 bd 22 7d d1 3d 31 2f 9b bd
       -0.071199164 -0.117206626 0.10228945 -0.075773604
000060 e9 9b 13 bd 91 17 36 3d ef 33 3d bd b9 01 7a 3d
       -0.03603736 0.04445607 -0.046192106 0.0610368
000070 02 c6 95 bd a3 0c bc 3d a3 e9 a9 3d 7b c5 87 3d
       -0.073131576 0.09182098 0.08296516 0.06629463
000080 5d a7 02 bc 12 96 a6 3c 85 4b 99 3d a6 48 ad 3d
       -0.007974473 0.020335231 0.07485107 0.08461122
000090 07 28 c4 bd 87 5e 82 3d 6a 6a 8d bc f0 52 50 bd
       -0.09577947 0.06365686 -0.017262656 -0.050860345
0000a0 b2 5c ef 3d d6 c0 0e 3e 77 dd cf bd 7c 57 ac bd
       0.11687602 0.13940749 -0.10149663 -0.08415124
0000b0 53 ac 14 bd 4e ca 9b 3d 2e 2d 6b 3d b4 e5 88 bb
       -0.036297154 0.07606946 0.057416134 -0.0041777734
0000c0 12 a3 23 3d a0 e2 39 3d c1 d7 b7 bd a7 21 db bb
       0.039950438 0.045382142 -0.08976699 -0.0066873613
0000d0 00 f7 8e bd e4 b8 d5 bd a5 9c bd bd 05 3b a3 3d
       -0.06980705 -0.10435656 -0.09258393 0.079702415
0000e0 6d 4a 1c 3d 61 87 ab 3d 57 87 e5 bc 77 77 82 bd
       0.038156915 0.08375431 -0.028018637 -0.06370442
0000f0 69 5b 1d 3e c0 7d d1 bd 43 92 60 bb bc 38 94 3d
       0.15366901 -0.10229063 -0.0034266866 0.07237384
000100 cd 06 5b 3b 6b 21 4d bd 14 53 55 3d 63 a0 51 3d
       0.0033420802 -0.050080698 0.052081183 0.051178347
000110 eb 0d 84 3d 3c b8 75 bd 0f db b0 3d 5a e9 d8 bd
       0.06447967 -0.059990153 0.08635532 -0.10591383
000120 57 8c b9 bd 4e 1d 9f 3c 11 e3 12 3d c2 27 ce 3d
       -0.09059971 0.019423153 0.03586108 0.10066177
000130 6d d0 b0 3d 08 af d5 3b d8 77 9a 3d 88 7e bc 3d
       0.08633504 0.0065211095 0.0754239 0.092038214
000140 cb 41 38 3d 96 c9 8d bd ae 39 00 be a3 0d a8 bd
       0.04498462 -0.06923215 -0.12522003 -0.08205726
000150 7e 33 ab bd 7f 12 ff 3c 77 e2 cd 3c 70 5f 87 3d
       -0.08359431 0.03113675 0.0251324 0.0661
000160 71 2c cc bd 5e ca 76 bd 1e 77 9a bd 0c 14 23 3c
       -0.09969414 -0.060251586 -0.07542251 0.00995351
000170 06 f6 04 be 7d 4d 0f 3e 4b eb 90 bd 86 a7 ae bd
       -0.12984475 0.13994403 -0.070761286 -0.08528046
000180 18 f2 a6 bd 58 a2 f8 bd cd 17 c1 3d b9 45 95 3d
       -0.081516445 -0.121403396 0.09428368 0.07288689
000190 19 4e 0a be e4 40 63 3d 76 a4 cd bd 58 f6 ff bd
       -0.13506354 0.055481806 -0.10041134 -0.12498158
0001a0 fc 1d f8 3d 0c b4 59 bd fc f5 e4 3d 08 d2 0c 3d
       0.12115094 -0.05315022 0.1117973 0.03437999
0001b0 f3 c6 d4 3d 55 0e e0 3d d1 67 2d bd 9f 5a a4 bd
       0.10389509 0.109402336 -0.042335335 -0.08025097
0001c0 a6 1a be 3d 81 75 03 3d 63 d3 be 3c bd 7a fa 3d
       0.092824265 0.032094482 0.023294156 0.12230442
0001d0 31 cc 29 bd 7c c3 77 bd ef f6 06 3e d9 3a ac bc
       -0.041454498 -0.060489163 0.13180135 -0.021024154
0001e0 d3 78 0b be 04 96 b7 bd 8e 8c e1 3d 38 eb 5f 3d
       -0.1362031 -0.0896416 0.11013137 0.05466768
0001f0 b3 9b 00 3e f0 fd 92 bc 6b 05 e5 bd ec 30 fe bd
       0.12559395 -0.017943352 -0.11182674 -0.12411675
000200 d3 77 5f 3d 41 78 a6 3d 9f 85 65 bd 21 ea ed bd
       0.054557633 0.08128405 -0.056035634 -0.11616922
000210 9c a4 f0 3b b0 13 7b bd 5b b4 8f bd 64 54 6e bc
       0.0073438417 -0.061298072 -0.07016822 -0.0145464875
000220 38 d2 93 bc 96 84 10 3e c9 c6 25 bc 3a 70 b8 3d
       -0.018044576 0.14113078 -0.010118195 0.090057805
000230 72 ff 3a bd 7e 36 19 bd ae 15 8f 3d 71 a0 06 3e
       -0.045653768 -0.037405483 0.06986557 0.13147141
000240 36 fd a1 bd f3 3c 3b 3d 2b f0 8f 3d 82 6e a9 3d
       -0.07909624 0.045712423 0.0702823 0.08273031
000250 d0 e2 d9 bd cf 05 be bc ff 4d e8 3d 70 a6 c1 bc
       -0.10638964 -0.02319613 0.113430016 -0.023638934
000260 e2 b5 85 bd 45 42 34 3d ec 79 c2 bc 53 bf 88 3d
       -0.06528832 0.044008512 -0.023739778 0.06677117
000270 7b 7c ae bc 03 38 f5 bc 68 50 c6 3d 83 e6 77 bd
       -0.021299591 -0.029933935 0.09683305 -0.060522567
000280 ed d3 c1 3c ae 99 a0 bb 2e 62 a8 bd 3b 49 7e 3c
       0.023660624 -0.0049011325 -0.08221851 0.015520389
000290 d9 70 b4 bd 08 df 99 3d 53 59 77 3b 5c 36 31 bd
       -0.088105865 0.07513243 0.003774245 -0.04326473
0002a0 43 7c ab 3c 80 d4 a5 bd 1f 49 12 3e 26 f1 be 3d
       0.020933276 -0.08097172 0.14285706 0.09323339
0002b0 ef 96 ad bc db d5 80 bd c4 be 74 3d f0 a2 c4 3d
       -0.021190135 -0.0629079 0.05975224 0.0960139
0002c0 fd 89 6a bd 05 fb f7 bd 93 1b 26 bc ec 00 4d 3d
       -0.057260502 -0.12108425 -0.01013841 0.050049707
0002d0 53 cf 91 3c 20 a7 00 3e 2d 05 f0 bd 69 8b 63 3d
       0.017799055 0.12563753 -0.11719737 0.055552874
0002e0 9a f5 30 3c 61 81 e1 bd 28 dc cc 3d ee 2e c8 bc
       0.0108007435 -0.11011005 0.10002929 -0.02443644
0002f0 97 ed 00 3e f7 4a dd 3d 3e 5a 85 bd 38 0d 9c 3c
       0.12590633 0.10805314 -0.06511353 0.019049272
000300 ab 15 0b bd ab 45 d6 bd 5b 68 07 be aa 17 ae bd
       -0.03395621 -0.10462507 -0.13223402 -0.08500607
000310 38 ab 9c 3d 39 fd 68 bd 8f ce cf bd 11 83 7b bd
       0.07649845 -0.056882117 -0.1014682 -0.06140429
000320 51 e3 c6 bd 79 ec f6 bc c2 c9 fe 3d 0d fd a2 3d
       -0.09711326 -0.030142056 0.12440826 0.07958422
000330 a8 ea d5 bd c1 d7 05 bd 4f 68 ba 3d e7 f2 d5 3d
       -0.10445148 -0.032676462 0.091019265 0.104467206
000340 3e 6b 74 3d 68 60 73 3d 92 ba 79 3c 92 d0 8d bd
       0.059672587 0.059418112 0.015242236 -0.06924547
000350 e9 f7 45 3d 70 ea a4 3d 19 b3 68 3b 82 84 44 3d
       0.04833213 0.08052528 0.003550714 0.04797793
000360 ba 5c 8f bd 76 19 ae bd 91 78 23 3c f5 f9 4d 3d
       -0.07000108 -0.0850095 0.009977476 0.050287206
000370 48 e7 98 3d 5e ca 8d bd ac fe bc bd cd 57 b1 bb
       0.074659884 -0.06923364 -0.09228262 -0.005412078
000380 f9 7c a1 bd 6b 5c 5e 3d 7f bf 9a bd e8 1e 9f 3c
       -0.07885165 0.054287355 -0.07556056 0.019423917
000390 0f e1 50 bb 0a 61 44 bd 85 10 f0 3d c6 f7 12 3e
       -0.0031872427 -0.047944106 0.11721901 0.1435233
0003a0 bf 09 11 bc c3 59 d3 3d 06 d9 bd bd b2 73 75 bd
       -0.008852421 0.10319855 -0.092699096 -0.05992479
0003b0 e3 bc 8d bc 10 cd d0 bd 4d a6 4d 3d 7f 90 8b 3d
       -0.017301982 -0.101953626 0.050207425 0.0681467
0003c0 bd 26 e9 bc e6 04 ef bc 01 f9 82 3d ea 90 fe 3d
       -0.028460855 -0.02917714 0.0639515 0.12429984
0003d0 66 f0 32 bd f1 66 82 bd 77 91 bb 3c 89 00 86 bd
       -0.043686293 -0.06367291 0.022896511 -0.06543071
0003e0 90 18 f0 3d c0 c8 fc 3d 1d 9d ce 3c 0a ff 41 bd
       0.11723435 0.123429775 0.025221402 -0.047362365
0003f0 1d 72 ae bd 57 90 b7 bd 78 1a ab bd d8 c0 ce 3d
       -0.08517859 -0.089630775 -0.08354658 0.10095376

encoder.lstm.bias_ih_l0 f4 [256]
000000 77 2d 7f 3d 75 6b ed 3d ac 84 aa 3d 2d 11 a3 3d
       0.062299218 0.115927614 0.083260864 0.079622604
000010 68 d0 00 3e db 40 66 3d 24 cd 2d 3d e5 01 ab bd
       0.125795 0.056214195 0.042431965 -0.08349971
000020 ad 6e 04 3e f6 fa b2 bd 75 6e ac bd 4d 2d 6f 3d
       0.12932844 -0.08739273 -0.084195055 0.05839281
000030 85 b6 92 3d 6e d4 95 bd 24 12 e7 bd 80 2b f2 bd
       0.07163719 -0.07315908 -0.11282757 -0.11824703
000040 1f dd 73 bd 62 21 ec 3c 8d 99 83 3d 80 e2 bc bd
       -0.05953705 0.028824512 0.06425772 -0.09222889
000050 e6 97 4a bd 57 93 a8 bd cd 25 18 bc c4 e1 8f 3d
       -0.049461268 -0.08231228 -0.009286356 0.07025483
000060 77 9f 7a 3d 0d 95 96 3d b9 2b 98 39 45 d5 9b 3c
       0.061187234 0.07352648 0.00029024275 0.019022593
000070 03 ed 2e 3d 46 90 e9 3b 83 b7 df bd 6e c0 22 3d
       0.0427065 0.0071277944 -0.10923674 0.039734297
000080 df c6 9b bb 38 d6 b2 3d a3 5e d1 3d bc 43 e2 bd
       -0.004753932 0.08732265 0.10223129 -0.110480756
000090 28 f0 5a 3d 7a f4 9f bd 4c 63 7a 3c 24 cc ee 3c
       0.053451687 -0.07810302 0.015282463 0.029150076
0000a0 da dc e7 bd 6a ea ab 3d da 24 99 bd ae 61 07 3d
       -0.11321421 0.0839432 -0.07477732 0.03305214
0000b0 f4 83 dd 3d 13 c8 a8 bd d0 fe fe 3b a3 64 01 bd
       0.10816184 -0.08241286 0.007781841 -0.031590115
0000c0 c5 ae af bd 37 2c b2 3d ac 99 14 3c 0f 8d bd bb
       -0.085782565 0.086998396 0.009069841 -0.0057846378
0000d0 47 e7 eb 3d d0 14 c9 bd a8 36 c8 3c de e2 a8 bd
       0.11518722 -0.09818423 0.024440125 -0.082463965
0000e0 61 7e b4 bd c1 a6 b8 3d 21 9a e7 3c 03 88 80 bc
       -0.08813167 0.09016181 0.028271737 -0.015689855
0000f0 d5 4c c2 bd 8d dd b0 bd b9 bd 61 bd bd 66 93 bd
       -0.09487311 -0.086360075 -0.055112574 -0.0719733
000100 01 7e af bd 86 55 32 bc 12 6c 64 bd 15 cf 08 be
       -0.08568955 -0.010884648 -0.055767126 -0.13360246
000110 fc 4c 18 3e ef 39 0a 3e 60 b4 67 3b f3 98 11 3e
       0.14873117 0.13498662 0.0035355315 0.14218502
000120 f8 d6 64 3d 3e 25 95 bd c5 80 f0 bd 40 7b cf bd
       0.055869073 -0.07282494 -0.11743311 -0.1013093
000130 18 1d bf bd f0 74 bc 3b a2 4d 4a bd 3d d2 84 3c
       -0.09331721 0.0057512447 -0.049390443 0.01621353
000140 87 7b ab bd 16 67 b4 3d 31 c1 b0 3d 78 52 79 bd
       -0.0837317 0.088087246 0.08630598 -0.060869664
000150 cb 99 bd bd b0 92 84 bd 5c d2 f1 bc 4d 9a 0f 3e
       -0.09257849 -0.06473291 -0.029519252 0.14023705
000160 d3 de a2 3c d3 36 49 bc 43 eb e5 bd 96 cd 06 3e
       0.019881641 -0.0122811375 -0.11226513 0.13164362
000170 dc 00 ed 3d 4d 54 a3 3d 79 1f 93 bc 92 c3 e5 3d
       0.115724295 0.079750635 -0.017959343 0.11218943
000180 9f 99 13 bd 6d d3 9f bc 4c 7b 99 3c 60 09 0b 3e
       -0.036035176 -0.019509995 0.01873555 0.13577795
000190 08 48 d1 bd 1e 0b de 3c dc f3 4e 3d bb a9 00 3d
       -0.10218817 0.02710491 0.05052553 0.031411868
0001a0 73 7c 95 3d 16 88 83 3d c6 5f be bd 80 6f 2c bc
       0.072991274 0.06422441 -0.09295611 -0.010524631
0001b0 16 12 03 3d 52 5f ee 3d 46 b7 8e 3b d8 1a c3 3d
       0.03199967 0.11639275 0.004355344 0.095266044
0001c0 3a 34 9c 3d 01 1d cb 3d 4f 27 b2 bd 77 46 e7 bd
       0.07627149 0.099176414 -0.08698904 -0.11292737
0001d0 de b9 cb 3d fb a3 76 3d a1 ab 48 bd 3e 7f 0e 3b
       0.09947561 0.060214978 -0.048991803 0.0021743323
0001e0 c3 e1 df 3d 94 57 1a 3d 60 df 08 bd c5 ce 10 bd
       0.109317325 0.037681177 -0.033416152 -0.03535344
0001f0 d7 97 fe 3c 7f 55 ec bd 00 bc 00 3d 03 9e 31 3b
       0.031078262 -0.115397446 0.03142929 0.002710224
000200 c7 79 1b 3d 08 de b6 3d 07 94 e1 bd ae 7f 86 bd
       0.037957933 0.08929068 -0.11014562 -0.06567322
000210 55 b2 9a bd 57 49 e1 3b 10 49 64 bc a5 23 a1 bc
       -0.075535454 0.006875198 -0.013933435 -0.019670317
000220 be 92 0a 3d 64 4a c7 3c dc 74 66 3d 58 63 fd 3d
       0.03383135 0.024327464 0.05626379 0.12372464
000230 3d c5 f3 bc 90 8a c8 3d ea e6 59 bd 2e af 34 bd
       -0.029757136 0.09792054 -0.053198732 -0.044112377
000240 ad 30 35 3d 31 ae bd 3c c2 24 f0 3d 5a 87 ba 3d
       0.044235874 0.02315435 0.11725761 0.091078475
000250 85 fa ac 3d bc 47 e2 bd 72 27 d8 3d 00 8e c1 bc
       0.0844622 -0.110488385 0.105543986 -0.023627281
000260 cb 25 88 bd c5 fe 1a bd 63 f8 6e bd a8 32 ac 3d
       -0.066478334 -0.037840623 -0.05834235 0.084080994
000270 e0 5e 31 3b 35 04 a7 bc 39 f2 7f 3d 2f b2 e6 bc
       0.0027064607 -0.020387748 0.06248686 -0.028161136
000280 75 b7 f0 3d 18 7b 61 3d 1c ff 7e bd 13 1e cc bd
       0.11753742 0.055049032 -0.06225501 -0.09966674
000290 18 22 3f bd 69 67 9c bc f5 67 8d 3b 46 41 82 bd
       -0.046663374 -0.019092279 0.004315371 -0.06360106
0002a0 f3 54 c3 3d 0c 4e b8 bd 37 00 e7 3d 78 e7 86 3d
       0.09537687 -0.08999261 0.11279338 0.06587118
0002b0 6d e1 70 bc 68 c0 c1 bd 93 55 82 3d 4b 41 ed bd
       -0.014702183 -0.09460527 0.06363978 -0.11584719
0002c0 9b 9a ea 3d 4f 7c 3f 3b 65 dc 25 bd 74 ec 27 3d
       0.1145527 0.002921838 -0.040493388 0.040996984
0002d0 68 db 40 3d af 7d cb 3d e1 ca ef 3d 82 25 da 3d
       0.047084242 0.099360816 0.11708618 0.10651685
0002e0 91 23 6e 3c 95 e5 69 bd 18 f6 7c 3d c2 9a 2b 3d
       0.014534847 -0.057103712 0.06175813 0.041895635
0002f0 6e a5 bd bb a0 64 b7 3d 05 e9 cc 3c 99 2f 11 bd
       -0.005787543 0.089547396 0.025013456 -0.035445783
000300 d0 ee 28 bd be 61 c5 bd f4 a4 de bd cc 13 d6 3d
       -0.041243374 -0.096377835 -0.10871306 0.10452995
000310 f0 c4 ca bd 88 37 c1 bd 98 1f 50 3d 2c 5c 57 3d
       -0.09900844 -0.0943442 0.05081138 0.052578136
000320 75 e4 07 3e 23 cd cc bd 03 7d a0 3d 90 c3 b3 bd
       0.13270743 -0.10000064 0.07836344 -0.08777535
000330 d1 c9 f3 bd ad f6 cd 3c 4c 5d c0 3d 90 8c 8f bd
       -0.11903728 0.025142038 0.09392795 -0.07009232
000340 06 bc 83 bd 34 df 81 3d cd 9b c7 bc 74 26 bc bd
       -0.06432347 0.06341401 -0.024366284 -0.09187022
000350 b9 8b eb 3d 2d 97 a2 3d 0d ef 1d bd 89 64 dc 3b
       0.11501259 0.07938991 -0.038558055 0.006725852
000360 52 93 3a 3c 07 d6 a3 3d 85 ec b0 3b 33 b3 b5 3d
       0.011387663 0.07999807 0.005399289 0.0887207
000370 cd e2 ce bd 9e 7d 34 3d b5 15 89 bd eb 33 7c bd
       -0.101018526 0.04406511 -0.066935934 -0.06157295
000380 4c 4f 66 3d 44 e4 b2 3d c5 f1 b1 bd 1e 7b 97 bd
       0.056227967 0.087349445 -0.08688692 -0.073965296
000390 ac 99 9f 3d 3f 9d 80 3d d5 e8 e4 bd 9e 09 06 3e
       0.077929825 0.06279992 -0.11177222 0.13089606
0003a0 f9 37 22 bc 7c a5 dd bd 82 19 bf bd e5 ee c4 bb
       -0.00990104 -0.10822579 -0.09331037 -0.0060099238
0003b0 51 26 2f 3d 0f ec de 3c a6 19 84 bd 9e 80 a9 bd
       0.04276115 0.02721217 -0.064502046 -0.08276485
0003c0 01 b3 08 3e 62 21 e1 3d 40 a1 13 3d bc e9 b7 bd
       0.13349535 0.109926954 0.03604245 -0.08980128
0003d0 15 41 16 bd 44 e2 fd bd e3 52 8a 3d 52 a8 0c bd
       -0.03668316 -0.12396672 0.06754091 -0.03434021
0003e0 51 c6 be bd c2 c7 7b bd 1c a1 42 bc d1 d1 30 3d
       -0.093151696 -0.0614698 -0.011879232 0.043168847
0003f0 e0 b4 8f 3d ac 8c d8 3d 36 7a 76 3d a0 09 38 3d
       0.07016921 0.10573706 0.060175143 0.044931054

encoder.lstm.bias_hh_l0 f4 [256]
000000 96 bd f4 3c f2 5e ea bd 0c da b6 3d 1a 2f a8 bd
       0.029875558 -0.11443891 0.08928308 -0.08212109
000010 ad 12 a6 3c c0 1e bc bd cd 37 b4 bc 6d 14 9e bd
       0.020272577 -0.091855526 -0.021999264 -0.0771874
000020 dc dc 1e 3d 3e 37 70 3b 01 a6 fd bd 93 f5 29 bd
       0.038784847 0.003665402 -0.12385178 -0.041493963
000030 07 4e 06 be 92 fd b7 3d 5a 04 74 bd 7e cd 3a 3d
       -0.13115703 0.089839116 -0.059574462 0.04560613
000040 68 0c 07 bd 14 56 33 bd 07 64 ea 3c a1 18 78 bc
       -0.032970816 -0.043783262 0.02861215 -0.015142591
000050 05 05 20 3c 37 1b a5 bd 7c a2 b7 bd a9 67 b5 bd
       0.009766822 -0.080618314 -0.08966538 -0.08857662
000060 ea ef 57 bc 6f 60 3e bc db 30 ab bd b7 68 18 3d
       -0.013179759 -0.011619671 -0.08358928 0.03720924
000070 ea f2 da 3d 7c 30 08 3e 5f 5d 4f 3d 49 90 9c bd
       0.106908634 0.13299745 0.050626155 -0.07644708
000080 3a 04 93 bd f6 d9 f3 3d c7 1f 61 3d 7d da e7 3d
       -0.071785405 0.11906807 0.054961946 0.1132097
000090 e3 38 89 bd 56 c4 02 3e a1 3f 95 3d 72 b8 c6 3d
       -0.067003034 0.12770209 0.07287527 0.09703149
0000a0 1c c9 a0 3d 81 09 ad bb 1c 3c 6b bd 47 d2 61 bd
       0.078508586 -0.005280674 -0.05743037 -0.055132177
0000b0 46 ef d8 bd e3 ff ee 3d b4 b0 e0 3c 92 16 17 3e
       -0.10592513 0.116699 0.027428009 0.14754704
0000c0 9c d3 59 bd 09 ed 68 bd 6f 73 92 3d 6f 5c 44 3c
       -0.053180322 -0.05686668 0.071509235 0.0119849285
0000d0 84 d6 43 bd 6c 7c fd bd 70 2e e2 3d 84 81 88 bd
       -0.047812 -0.12377247 0.110440135 -0.06665328
0000e0 a3 d6 8f 3d 80 cb 87 bd de 01 60 3d 40 75 ca 3d
       0.070233606 -0.066306114 0.05468928 0.09885645
0000f0 e0 f1 77 bd b0 5c 09 be f5 68 a7 3d 76 ea fa bd
       -0.060533404 -0.13414264 0.08174316 -0.12251751
000100 0f 6d 4c 3d ff d5 59 bd 7d 1d 76 bd fb c0 5f bd
       0.049908694 -0.0531826 -0.060086716 -0.0546274
000110 09 58 1a 3d 71 4f 11 bb 40 9d 20 3e 76 6d 38 3d
       0.037681613 -0.0022172595 0.15684986 0.045026265
000120 62 a6 98 3d 3a 27 ab bd 15 b8 b9 3c 9f ef 45 bd
       0.0745361 -0.08357091 0.022670785 -0.048324224
000130 33 ed 7c bd de 09 08 3e 4b 07 84 bc ee 72 06 3e
       -0.06174965 0.13285014 -0.016116759 0.1312978
000140 c3 35 db 3d e9 76 0a 3e fb fc e3 bd 53 c4 95 3d
       0.107036136 0.13521923 -0.111322366 0.073128365
000150 78 69 d4 bc ea 6f ac bd b3 3f 68 bc 9a 53 45 bd
       -0.025929198 -0.084197834 -0.014175343 -0.04817543
000160 78 c9 d9 bd 14 e5 2c bd 12 4e 30 bd dc ea 52 bb
       -0.1063413 -0.042210653 -0.043043204 -0.0032183444
000170 3a c0 81 bd 0c 29 f9 3d b7 19 4a 3c 0e 4d aa bd
       -0.063354924 0.12166032 0.012335232 -0.08315478
000180 4b 5f b1 3d 14 eb 18 3e 2d 22 c0 bd a1 d9 c0 bd
       0.08660754 0.14933425 -0.093815185 -0.094165094
000190 1c 62 b3 3d 8f 72 e1 3d b0 8f e7 3d 78 53 99 3c
       0.08758947 0.110081784 0.11306703 0.018716559
0001a0 89 27 43 bd 6d 28 b8 bd d3 83 83 bd 75 c2 0f be
       -0.047645126 -0.089920856 -0.06421628 -0.14039023
0001b0 71 3b b4 3d 1f 93 41 3d c1 d6 67 bc 54 02 b8 bd
       0.088004 0.047259446 -0.014150322 -0.08984819
0001c0 21 8e 59 bd b3 b9 cb 3d 25 0e ba 3d 4c bb fe 3c
       -0.05311406 0.09947529 0.09084729 0.03109517
0001d0 de 43 5a bd e7 b2 b3 3d 21 e7 c0 bd a8 20 88 bd
       -0.05328738 0.08774357 -0.09419084 -0.06646854
0001e0 0f ae 80 3d 07 37 40 bd d0 d2 da bb 21 49 9b 3d
       0.06283199 -0.04692748 -0.006677963 0.075823076
0001f0 55 47 01 3e 34 f4 50 3d 8d 66 00 bd 1b 08 42 bd
       0.12624867 0.05101414 -0.0313478 -0.04737101
000200 f7 60 64 3d 56 d7 80 3d 9e 19 f1 3d 70 c6 c5 bd
       0.055756535 0.06291072 0.11772464 -0.096569896
000210 e1 09 35 3d 07 31 40 bd ff 04 84 bc 11 5c df bd
       0.044198874 -0.046921756 -0.016115664 -0.10906232
000220 03 18 cf 3c e9 33 71 3d e9 51 b8 bd 83 eb 4a bd
       0.025280004 0.058887396 -0.08999998 -0.049541008
000230 4e 2c 25 3d ca 5b 7b bd 89 96 80 3d 23 02 3c 3c
       0.040325455 -0.061366834 0.06278712 0.011475119
000240 1b c9 33 bd f7 82 77 3d e9 1d ae bc be ba a7 bd
       -0.04389296 0.060427632 -0.021254497 -0.08189915
000250 11 70 f0 3d c1 0d bc bc 9e 8d 52 3d 51 a9 a6 3d
       0.11740125 -0.022955777 0.051404588 0.08137763
000260 0d 8c 55 bd ee 22 b7 bd bb 5d 6c bd 66 6c b7 bd
       -0.052135516 -0.08942209 -0.057706576 -0.08956222
000270 70 9f b9 3c 00 7a 8f 3d 39 93 a4 3d b6 59 d9 bb
       0.022659034 0.070056915 0.08035893 -0.006633009
000280 b5 01 01 3d df 81 e0 bd 6e 92 9d 3c 9f 84 22 bc
       0.03149577 -0.10962271 0.019234862 -0.009919315
000290 90 94 92 bd a3 38 c4 3d de ba 66 bd 72 69 9b 3d
       -0.07157242 0.09581115 -0.056330554 0.075884715
0002a0 db 41 ae 3d af f4 66 bd dd 2b 61 bd 20 88 cc 3d
       0.08508655 -0.056385692 -0.054973472 0.09986901
0002b0 b6 f5 d1 bd 7f 13 ab 3c b2 52 54 bd d7 b5 ab 3d
       -0.10251944 0.02088332 -0.051836677 0.083842926
0002c0 a9 0e 1b bd 8d ee 52 3d 46 bf 79 3d 13 df 9e 3c
       -0.037855778 0.05149703 0.06097343 0.01939348
0002d0 63 a0 89 bd db 10 a3 bc 35 a6 8a bd ac f4 28 3d
       -0.067200445 -0.019905498 -0.06769983 0.041248962
0002e0 ce e1 4e bd 4e 27 5f bd c9 c0 30 bc a8 85 bb bc
       -0.050508313 -0.054480843 -0.010788151 -0.02289088
0002f0 e3 a2 12 3d fa 31 cc bd e5 8b b2 bd fd 98 22 bd
       0.035799872 -0.0997047 -0.08718089 -0.039696682
000300 32 d1 f0 3d 8c f8 1c 3c c3 6d 6d bb b4 3b bd 3d
       0.11758651 0.009580743 -0.0036228753 0.09239903
000310 15 2c 12 bc 63 05 2b bd 94 0e 92 3d 89 2e ec 3d
       -0.008921643 -0.041753184 0.07131687 0.115323134
000320 cb 73 11 3d e7 fe cb 3d db 21 1e bd 2d 48 02 bd
       0.03551082 0.09960728 -0.038606506 -0.031807113
000330 7d 04 4c bd 31 34 00 3e c5 80 38 bd 40 39 f1 bc
       -0.049808968 0.1251991 -0.04504468 -0.029446244
000340 eb f5 67 3d 75 2c fa 3d 8a db 8d bd c8 8e 91 bd
       0.05663101 0.12215511 -0.069266394 -0.071073115
000350 e1 84 15 bd f4 75 60 3d fc ec ca bd 8d d0 95 bd
       -0.036503676 0.05479999 -0.099084824 -0.073151685
000360 b0 af 6f 3d b8 a8 b6 bb 54 a8 eb bd 6a 5f 37 3d
       0.058517158 -0.005574312 -0.115067154 0.04476873
000370 9f 7a b1 bb 26 c4 09 3d 9e bd eb 3c 23 e8 16 bc
       -0.005416229 0.033634327 0.02877694 -0.009210619
000380 28 b7 0e bd c4 d8 e0 3c 0e 4b 5e bc 01 a3 13 3e
       -0.03484264 0.027447112 -0.013567699 0.1441765
000390 ff 9f 9b bd ef cf ef 3d 61 19 61 bd de ce 8e bc
       -0.07598876 0.11709582 -0.054955844 -0.017432626
0003a0 ab f3 2d 3d 40 2f d4 bd 56 d2 5b bd a8 fb de bd
       0.042468708 -0.10360575 -0.05366739 -0.10887843
0003b0 37 23 b0 3c 3f d4 16 3d 9c 03 e1 3d 84 ee 91 3d
       0.021501167 0.036823507 0.109870166 0.07125571
0003c0 e8 3c bf bd 54 e9 c7 3d 4d 3e eb 3d 16 8c 3d bd
       -0.09337789 0.09761301 0.11486492 -0.046276174
0003d0 50 77 c3 bd 35 79 e0 3c ab 03 2a bd f0 32 6b 3d
       -0.095442414 0.027401546 -0.041507404 0.057421625
0003e0 f5 a6 d9 3d 7c d0 ed 3d a1 69 1d 3d 78 8f df 3d
       0.10627548 0.11612031 0.038430814 0.10916036
0003f0 22 dc 9f bd 33 d9 5f bc ba 28 55 3d bf e6 96 bd
       -0.07805659 -0.013662624 0.052040793 -0.0736823

encoder.linear.weight f4 [32, 64]
000000 9e 4c 4f bb 6b b0 2e 3d 35 c2 ac 3d 3a f9 c0 bd
       -0.003163136 0.042648714 0.084354796 -0.09422536
000010 30 4d a0 bd 32 6e 9a 3c 88 08 57 3d c6 49 ec bd
       -0.07827222 0.018851373 0.05249837 -0.11537509
000020 26 87 f8 bc 7b be 99 bd 4a 5b 12 bd 5b 8d 4d 3d
       -0.030337881 -0.075070344 -0.03573159 0.050183635
000030 50 a9 7e bc 0a 35 93 3d 95 2b c1 3d 44 49 da bc
       -0.015543297 0.07187851 0.09432141 -0.026646264
000040 c2 b5 ab 3c c7 0f e3 3d 1e 19 f9 3d 0b 30 49 bd
       0.020960692 0.11086994 0.12162994 -0.049118083
000050 cb 92 56 3c 9e e9 4b bc d7 82 f5 bc 01 71 8d bc
       0.013096522 -0.012445835 -0.029969616 -0.017265799
000060 27 19 6c bd 11 94 87 bd 20 9e c6 bd 23 45 d7 bd
       -0.057641175 -0.06620038 -0.09698129 -0.10511234
000070 4f c7 a7 3d 89 b3 bb bd 99 0e 1d 3c ba 76 c4 bd
       0.08192312 -0.09165103 0.009586 -0.09592958
000080 68 dc 00 3e 34 c9 09 be 5b 1f 8e bd 29 98 71 bd
       0.12584078 -0.13455659 -0.06939574 -0.058983
000090 34 62 57 bd 0e cb 28 bd 14 3d dd bd 7a 06 0e 3d
       -0.05258389 -0.041209273 -0.10802665 0.034674145
0000a0 a9 9d 4b 3d be d1 4a 3d 50 19 ae 3c 7a c4 91 bd
       0.049710903 0.049516432 0.021252304 -0.07117553
0000b0 f4 90 c3 3d 44 42 16 3d ee a7 ff bd df 2c c8 3d
       0.09549132 0.03668429 -0.12483202 0.097741835
0000c0 40 ce 2f 3c 91 80 cc 3b 6c 02 a3 bd 92 dd b4 3d
       0.010730326 0.0062409122 -0.07959446 0.08831324
0000d0 c0 f5 0e bd f5 ac b0 bd 8a fc ac 3d 63 46 8c bc
       -0.034902334 -0.08626739 0.084466055 -0.017123407
0000e0 5e dd 58 bd 92 f2 05 3c 5c b8 5f bd 6e a8 0f be
       -0.052945487 0.008175509 -0.05461918 -0.14029095
0000f0 87 25 a3 bd 13 9c 94 bd 72 17 fb 3d 65 dd 1b 3d
       -0.07966142 -0.07256331 0.12260331 0.038052935
000100 d9 5d 39 bd b1 e2 d4 bc 13 42 cd 3d 17 a6 71 3d
       -0.045255516 -0.025987001 0.10022368 0.058996286
000110 fd 27 2d bd d9 7e d6 bd 0c 80 0f bc d1 77 7b 3d
       -0.042274464 -0.10473413 -0.008758556 0.061393563
000120 57 c1 e1 bd 50 4a 17 bc 27 4b 81 3d f9 91 f2 bd
       -0.11023205 -0.009234026 0.06313162 -0.11844248
000130 7a d3 ed bd cf db 00 3e 8b 56 05 bc 69 4c ab 3d
       -0.116126016 0.1258385 -0.008138309 0.083641835
000140 7e 40 ca bd c4 70 dc bd 97 ba 97 3d bb 8c 1d bd
       -0.09875582 -0.10763696 0.07408636 -0.03846429
000150 9e 4d c0 bd c8 44 a8 bd 40 35 2c bd c6 9b da bd
       -0.09389804 -0.08216244 -0.04204297 -0.10674243
000160 f3 94 ab 3c 52 db b6 bb 9a e9 8d 3d 95 b9 84 3d
       0.020945048 -0.0055803442 0.069293216 0.064807095
000170 87 c9 ee bd f0 8b 20 3e 72 d8 ad bd 05 b9 49 3d
       -0.11659532 0.15678382 -0.08488549 0.049248714
000180 2a da 23 3d 63 40 dc bd 97 b3 8f 3d f8 0b c4 bd
       0.04000298 -0.10754468 0.07016676 -0.09572595
000190 4c 1f 59 3d d0 25 c2 3c ca cf ad 3c 70 63 d4 bd
       0.053008363 0.023699671 0.021217246 -0.10370529
0001a0 cd a8 55 3d 9c 0a 37 bd 1d 30 a3 bc 07 bb b0 bc
       0.052162934 -0.044687852 -0.019920403 -0.021573557
0001b0 1c ea 92 3d be e5 c2 bd ce 43 83 bd 8d a5 04 3e
       0.07173559 -0.09516476 -0.06409417 0.12953778
0001c0 36 19 26 3c f8 71 1b 3d 23 6d 2c bd 5a 26 d2 3d
       0.010137847 0.037950486 -0.04209627 0.10261221
0001d0 91 0c 0d bd cc 6c 8c bd 47 b7 49 bb 0b 42 e5 bd
       -0.034435812 -0.06856689 -0.0030779408 -0.11194237
0001e0 c9 58 1b bd 0a 45 a8 bd 43 34 1c bd 4c 0f 21 be
       -0.03792647 -0.08216293 -0.03813578 -0.15728492
0001f0 64 4e 9a bd 84 6c 6d bc 10 b2 1f 3d 47 3a b5 3d
       -0.07534483 -0.014491204 0.038988173 0.08849006
000200 11 1f 56 3d d2 73 c2 3d ff eb 89 bc 47 ff 45 3c
       0.05227572 0.09494747 -0.016836165 0.012084789
000210 6d 09 ff bd 7c ec 51 3d a9 54 be bd 3e 53 f3 3d
       -0.1245297 0.05125092 -0.092934914 0.118811116
000220 fe 22 c3 3d c9 c3 f2 bb 44 25 43 bd cd 8e b9 3c
       0.095281586 -0.0074085933 -0.04764296 0.0226511
000230 d7 31 32 bd 3b 5e e6 3d 76 46 52 3d e1 d1 b8 bc
       -0.043504562 0.11248442 0.051336728 -0.022561016
000240 c8 bd 1f be 26 b9 b9 bd 99 0f 05 3c de 7f f9 3c
       -0.1559974 -0.090685174 0.008121395 0.03045648
000250 cb 95 d9 3d 9b 48 10 3c d8 26 c7 bd be d0 d4 3c
       0.10624274 0.008806373 -0.09724206 0.025978442
000260 ea 04 86 3d c8 74 53 bd 37 74 ea bd b8 fa 00 be
       0.06543906 -0.051625043 -0.114479475 -0.12595642
000270 c4 65 0b be ec 87 1e 3e 76 ec d0 bd 58 c8 a2 3c
       -0.1361304 0.15481538 -0.10201351 0.019870922
000280 04 05 17 bd 0f 1d 4c 3c fe fb 68 bc 3a e3 c2 bd
       -0.036870018 0.0124581 -0.014220236 -0.09515996
000290 ae 83 ee bd 85 05 fd 3d be 3a 6e bd 7b e0 13 3c
       -0.1164621 0.123545684 -0.05816149 0.009025688
0002a0 c8 f4 e7 bc 62 a4 2b 3d 38 1a 98 bd a0 6b ac bd
       -0.028314963 0.041904815 -0.07426876 -0.08418965
0002b0 1b 53 9b 3a 8d bc d2 bd 8b d5 26 3d 3c a9 88 bd
       0.0011850329 -0.102898695 0.040730994 -0.06672904
0002c0 f8 f2 06 3d 43 ed 6a bd c1 10 bb bd 7a 34 a5 bd
       0.032946557 -0.057355177 -0.09134055 -0.0806665
0002d0 4f 8e 95 3d 28 6b e9 3c 98 fa 9b 3d 97 07 9f 3d
       0.07302534 0.028493479 0.07616156 0.077651195
0002e0 2c 25 83 3c 5a 5b a2 bd cd af 1f 3e c4 80 23 be
       0.016008936 -0.0792758 0.15594406 -0.15967089
0002f0 ef 20 5a bd 14 fe 3f bd 04 58 f6 3d 94 27 ac ba
       -0.053254064 -0.046873167 0.120285064 -0.0013134354
000300 ff 95 bb bd 41 f1 08 be 5b c9 b2 bd 88 7a cf bd
       -0.09159469 -0.13373281 -0.08729812 -0.10130793
000310 1e 5d a4 bd 80 77 af 3d a7 e0 de 3d 9c 8a 84 bd
       -0.08025573 0.08567715 0.10882693 -0.0647175
000320 ad d5 9d 3c 42 2d c9 bb 6e 3f ad 3d de eb 66 bc
       0.019266928 -0.0061394284 0.08459364 -0.014094321
000330 42 53 e4 3c 07 c5 a1 3d f0 22 98 bd b6 1d e9 3d
       0.027871732 0.07898908 -0.07428539 0.1138262
000340 aa d6 2e 3d 8a b5 0f bd 3b b9 69 3d a1 78 09 bc
       0.04268519 -0.03508524 0.057061415 -0.008390577
000350 17 6d 23 3d dd 02 01 3e 82 95 ac 3d ad 81 92 bd
       0.039898958 0.12598749 0.08426954 -0.0715364
000360 41 9c b6 3d 24 9e d1 bd 2c 49 a6 bc 7a 96 0d 3c
       0.08916522 -0.10235241 -0.020298563 0.008641833
000370 0d b9 9d 3a 39 0d 82 bd 2b 79 e6 3d e9 de 1f 3e
       0.0012033299 -0.06350178 0.1125358 0.15612377
000380 12 2d 07 be f8 f5 ec 3c af bd e0 3d af 27 c3 bc
       -0.13200787 0.02892588 0.10973679 -0.023822634
000390 55 20 54 3d df 77 c6 bd 08 52 1f 3e aa 6e 88 bd
       0.051788647 -0.09690832 0.15558636 -0.066617325
0003a0 43 5a 0f bd 2f f4 c5 bd 4e 96 86 bd 9f 53 bd bd
       -0.03499819 -0.09665715 -0.06571637 -0.09244465
0003b0 a0 61 55 bd e3 86 0d 3e 8e 77 e0 3c 7c 05 67 3d
       -0.052095056 0.13820986 0.027400758 0.056401715
0003c0 5d e9 02 3d 84 ec 3e 3d d3 69 88 3d 99 5d e6 3d
       0.031960834 0.046612278 0.06660809 0.11248321
0003d0 3e 3b 86 bd 1f 61 65 3a b4 30 0e be 40 d2 8d 3c
       -0.06554268 0.0008750129 -0.13885766 0.01731217
0003e0 45 69 f0 3d c6 2f 16 3b 64 32 0f 3d 24 88 1d 3e
       0.117388286 0.0022916659 0.034960166 0.15383965
0003f0 f0 98 6c 3c b2 1d 72 bd 9c a9 99 bd de 09 e6 bd
       0.01444076 -0.05911035 -0.075030535 -0.11232351

encoder.linear.bias f4 [32]
000000 f4 c6 88 bc 39 14 76 bc e0 19 ba bd 48 27 5c bd
       -0.01669643 -0.01501947 -0.090869665 -0.0537484
000010 5d 16 a8 3d 07 bf c2 3c 2c 32 09 bd ac d8 ae 3d
       0.082073905 0.02377273 -0.033495113 0.08537421
000020 32 ac 33 bd 8c ea 37 ba 53 02 a9 bd 65 42 d8 bd
       -0.04386539 -0.0007015846 -0.082523964 -0.10559539
000030 80 e0 03 be b8 a0 b0 bc d0 e0 8b bd da 0d e0 3d
       -0.12878609 -0.021561012 -0.06829989 0.10940142
000040 a3 2f c2 3d 98 29 89 bd 07 10 fb bd 9d 2d c3 bc
       0.09481742 -0.066973865 -0.12258916 -0.023825461
000050 8e 59 94 3d f4 af c5 3d e3 fb 49 bd c3 17 df 3d
       0.07243644 0.09652701 -0.049312484 0.10893204
000060 96 e8 cc bd fd b6 bd 3d 78 f9 9c bd 99 fb b8 3d
       -0.100053 0.09263418 -0.0766477 0.090323634
000070 1a b3 dc 3d 80 0a f5 bd 8d f8 a2 bd 6f 2e d9 bd
       0.107763484 -0.11964893 -0.079575635 -0.1060456

decoder.linear.weight f4 [64, 32]
000000 c6 be b2 bc 5a c5 bf 3d 2d d9 3a bd dd 8f 1d bd
       -0.021819483 0.09363814 -0.04561727 -0.038467277
000010 ee dc 25 bd 65 8e f8 3c d7 bb 93 3d d3 52 49 be
       -0.040493898 0.030341337 0.07213562 -0.19660501
000020 9f 99 ba 3d 61 0f 2f 3d 09 3d 4a 3e 85 f5 51 3e
       0.09111332 0.042739276 0.19749846 0.20503815
000030 4a dd 06 3d 42 d0 fe bd d9 7b f8 bd 2b 0c 0d 3e
       0.03292588 -0.12442066 -0.12132997 0.13774173
000040 db 78 bd bd ce 47 8a bd 65 76 2f bd 37 ec 72 bd
       -0.09251567 -0.06751977 -0.04283752 -0.059307303
000050 d1 d6 0a 3e 7a 38 33 be 95 e6 a0 3d 48 68 cf bd
       0.13558508 -0.17502013 0.0785648 -0.10127312
000060 24 ec be bc 17 0e 22 3e 69 a6 fc bd 72 01 22 3d
       -0.02330596 0.15825687 -0.12336428 0.03955216
000070 04 9c 21 be f4 40 93 bd e4 33 aa 3d 8b a4 5e 3d
       -0.15782171 -0.07190123 0.083106786 0.05435614
000080 60 15 b5 3d 18 82 b0 3d 97 ae 2b be 2e ba 83 bd
       0.088419676 0.086185634 -0.1676582 -0.06431995
000090 c9 59 98 3d 22 8e 2c 3c 29 d3 06 3e 6e 2c 57 3d
       0.07439 0.010531934 0.13166489 0.052532606
0000a0 03 2d d3 bc 7c ec 63 bd f5 84 8a 3b 1d 36 2c 3e
       -0.0257783 -0.05564545 0.0042272755 0.16817518
0000b0 c1 eb f1 bd 6b 41 06 3e 29 3a 05 be 27 67 f7 3d
       -0.118125446 0.13110892 -0.13010468 0.120802216
0000c0 b5 e8 2c bd 70 8b 03 3e bd e7 30 3e dc b2 18 3e
       -0.042214114 0.1284616 0.17275901 0.1491198
0000d0 f8 1e 9a bd cb 07 0e 3d c1 17 1d be db fd a5 bd
       -0.07525438 0.0346754 -0.15341093 -0.0810506
0000e0 b8 86 95 3c 78 8c ff bd 96 d8 e6 3d b6 97 27 3e
       0.018252715 -0.12477964 0.11271779 0.16366467
0000f0 ed a0 1b be 2f 59 35 3e 62 c2 cf bd 6c e4 d0 3c
       -0.15198107 0.17709802 -0.101444975 0.025499545
000100 39 b2 4a 3d 5f e7 47 bd d0 8f 24 3e 50 a1 4a 3d
       0.049486373 -0.048804637 0.16070485 0.049470246
000110 dd 6f ca 3d f8 e9 2f bd de 59 13 bd 83 75 1e 3e
       0.098846175 -0.04294774 -0.035974376 0.15474515
000120 fa d3 1d bc d2 83 4c 3d 7a 96 38 be e8 ca 1f bd
       -0.009633059 0.0499304 -0.18026152 -0.039011866
000130 65 00 8b bc 0e 2c 53 3c 56 63 b2 3d 54 09 86 bd
       -0.016967962 0.012888921 0.08710353 -0.06544748
000140 e4 21 90 3d 0b c7 27 be a8 11 c3 bd cc f6 12 be
       0.07037714 -0.16384523 -0.09524852 -0.14351958
000150 fd a6 e3 bd 2f 5b c4 bc 69 ee ba bc f2 55 21 be
       -0.11115835 -0.023969261 -0.022818761 -0.15755442
000160 80 10 0b bd bb f3 98 3d 16 5a 10 bd 2e f0 1e bd
       -0.033951283 0.07468363 -0.035242163 -0.038803272
000170 a5 c2 ec bd 44 55 22 3e 21 13 3e 3d 93 2b 02 bd
       -0.11560563 0.15852839 0.04640496 -0.031779837
000180 1a eb 58 3d fa 0c 34 3d 16 57 df bd 89 d0 87 3d
       0.052958585 0.043957688 -0.10905282 0.06631572
000190 8a 89 1b 3e c3 f4 3f be 6a ac d4 bd b3 fe f7 3d
       0.15189186 -0.18745713 -0.10384448 0.12109127
0001a0 44 76 6b bd e6 5b 51 bd 3e 14 90 3d 3a f1 0d bd
       -0.057485834 -0.05111303 0.07035111 -0.03465388
0001b0 57 7e fa bd d5 d3 2a 3b 7d a0 9b bc 72 48 1a bd
       -0.12231129 0.0026066203 -0.018997425 -0.037666745
0001c0 ad f9 e8 bd 9e 02 8b bd de 6e a1 bd 65 c1 19 be
       -0.11375747 -0.067876086 -0.07882474 -0.1501518
0001d0 1d 6e 89 3d 61 ed 19 3e 69 ec 45 3d 5e 09 63 3d
       0.067104556 0.15031959 0.04832116 0.055428855
0001e0 3e a3 b3 bd 5f b2 17 3e 0c a8 17 3d 92 3e a3 3d
       -0.0877137 0.14814137 0.037025496 0.07970919
0001f0 5a af 96 3d da 2b 0a bd e1 c6 86 bd 43 17 5c bd
       0.073576644 -0.033733226 -0.06580902 -0.05373312
000200 87 06 66 3d 54 52 c5 3b 55 9c 2f bd 5d 4a 9a bd
       0.05615857 0.006021777 -0.0428737 -0.07533715
000210 5a 65 ee bc 1f 94 2b be 32 47 40 3e c7 61 02 3e
       -0.029101063 -0.16755722 0.18777159 0.12732612
000220 b8 bf 87 3d c3 6c 11 be 73 80 de bc 0b 74 9e bd
       0.06628364 -0.14201646 -0.027160859 -0.07736977
000230 8b a0 24 bd ba 9a 44 3d 9e e4 9e bd 99 34 ab bd
       -0.04019217 0.04799912 -0.07758449 -0.083596416
000240 78 04 04 3e 6b ac 86 bd 54 97 ce bd 94 49 4f 3c
       0.1289233 -0.06575855 -0.10087457 0.01265182
000250 fa 81 0e bd af 9b 22 be 40 ed 14 bd 1b b8 d3 bc
       -0.034791924 -0.15879701 -0.03635907 -0.025844624
000260 fc ad 0c 3d ec 4e 83 bd 8a 3a 31 bc 71 a6 30 be
       0.034345612 -0.064115375 -0.010817179 -0.17250992
000270 08 74 05 3e 60 f6 d4 3c b8 c9 a2 bd c1 5a c4 bd
       0.13032544 0.025996387 -0.07948631 -0.095876224
000280 28 fb 89 bd 24 f8 de bd ab 3f 77 be e4 06 f3 bb
       -0.067373574 -0.10887173 -0.24145381 -0.007416593
000290 72 f2 87 3c e5 83 53 bd 43 6f c1 3c 72 1f e1 bd
       0.0165951 -0.051639456 0.023612624 -0.10992326
0002a0 9c 09 07 3d 2a ab bc 3d 9d c4 a3 bd 2c 9c 1f 3c
       0.03296815 0.092123345 -0.079964854 0.009741824
0002b0 55 9a f3 bd 0e fd 0a bd 60 a1 f9 3d 34 f6 99 bc
       -0.11894671 -0.033932738 0.12188983 -0.018794157
0002c0 0c e5 d6 3b ee 7c aa 3d 71 3f 88 bd ab be 71 3e
       0.0065580662 0.0832461 -0.066527255 0.2360789
0002d0 c0 53 5c be 92 fc 3e 3e 29 32 ba 3d 21 60 29 bd
       -0.21516323 0.18651035 0.090915985 -0.04135144
0002e0 49 f7 f7 3c 04 d3 18 be 64 fa f3 bd 4e b9 ff bd
       0.030269282 -0.14924246 -0.119129926 -0.12486516
0002f0 2c 39 6f bd 4e 88 3e be 47 bc 10 3e 92 6a 55 bd
       -0.058404133 -0.18606684 0.14134322 -0.052103586
000300 a2 9d 11 be 7e 51 09 be 79 06 b0 3c c5 32 09 3e
       -0.14220288 -0.13409993 0.021487461 0.13398273
000310 f9 6f a3 bd 03 8c 29 3e df 7d 09 be 28 94 d6 bd
       -0.079803415 0.16557316 -0.13426922 -0.10477477
000320 81 da 7a bd 46 e5 04 be 3e 88 ba bd fa c6 36 3e
       -0.061243538 -0.12978086 -0.091080174 0.17849341
000330 a0 7b 29 bc 18 7a 12 3c 05 42 eb 3d 27 06 87 bd
       -0.010344416 0.008940242 0.114872016 -0.0659297
000340 2c b3 89 3c a0 de f0 bd 19 23 0c 3d 69 be aa bd
       0.016809069 -0.11761212 0.03421316 -0.08337099
000350 95 d0 16 3d 10 be de bc c5 be d0 3d 7e 0e 10 be
       0.036820013 -0.027190238 0.101926364 -0.14068028
000360 e3 7b 06 bc f7 35 11 3e b6 89 21 3d 78 db c2 bc
       -0.008208248 0.14180742 0.039437972 -0.023786291
000370 df da 79 bd d1 75 15 3e dd 47 d0 bd a8 33 2a 3e
       -0.060999747 0.14595725 -0.10169957 0.16621268
000380 e8 79 06 be e4 5c 5f 3c 6e 8b ff 3d a2 5b 28 be
       -0.13132441 0.013632987 0.12477766 -0.16441205
000390 18 c0 cb 3c e0 e0 1f bc 86 cc ba bd c1 47 84 3c
       0.02487187 -0.009758204 -0.09121041 0.016147496
0003a0 9c 9e b4 3d a5 ee a2 3d 3a 85 94 3d f3 bb ab bd
       0.08819315 0.07955674 0.072519735 -0.08385458
0003b0 6b 12 9a 3d 9d 05 39 bd 74 79 9d 3d f2 e5 eb bd
       0.07523044 -0.04517137 0.07689181 -0.11518468
0003c0 20 cc 2a bd f9 73 04 be d9 3f 24 3d e1 18 5d be
       -0.041698575 -0.12934865 0.040099952 -0.21591522
0003d0 4c e2 06 3d 7f a7 06 3e 83 ff 63 3b 36 22 fa bd
       0.032930657 0.13149832 0.0034789748 -0.122135565
0003e0 6b c7 3a bd ed f9 d0 3c 04 da cc 3d 92 d9 2d be
       -0.045600336 0.025509799 0.10002521 -0.16977528
0003f0 38 22 1c 3d 81 64 13 3e a8 63 28 bd 0f 3f f0 bd
       0.03811857 0.14393808 -0.041110665 -0.117307775

decoder.linear.bias f4 [64]
000000 95 e1 89 3d c9 8f e3 bd b8 77 17 be 03 75 31 be
       0.067324795 -0.11111409 -0.14791763 -0.17329793
000010 7e c6 19 be 65 43 d9 3b 6c ad 67 3d 26 7b 93 bd
       -0.15017125 0.0066303485 0.056561872 -0.07201223
000020 d9 df 77 3d 5b a5 c5 bd 83 fb 74 bd 61 c9 d6 3b
       0.060516212 -0.0965068 -0.059810173 0.006554768
000030 3a bc b0 3d bf 73 33 bb d7 34 1e be a3 ae 38 be
       0.08629651 -0.0027382222 -0.15449844 -0.18035369
000040 7d 68 20 3e c7 31 d2 bd 8d 9d 90 bd 62 dd 0b be
       0.15664859 -0.102634005 -0.070613004 -0.1365867
000050 7b 57 18 be ae 34 1b bd db ba b5 bd ec c0 ff bd
       -0.14877121 -0.037892036 -0.088735305 -0.12487969
000060 53 c6 09 3d bd ea bf bd cd 9e 52 bc b8 9d 64 bd
       0.033636402 -0.09370945 -0.012855244 -0.055814475
000070 d0 e5 e2 bd 22 59 a8 bd a2 91 34 3e d3 bb 8a bd
       -0.110789895 -0.08220126 0.1763368 -0.06774106
000080 6b 33 11 3d 13 fe 14 bd ff 5f 2d 3e b9 60 21 bd
       0.035449427 -0.036375117 0.16931151 -0.039398883
000090 09 f7 df 3b ec 87 97 bd fa b1 90 3b 7e ca b4 3d
       0.006834869 -0.07398972 0.0044157477 0.08827685
0000a0 b3 e9 74 3d 09 bb 31 be 45 f0 99 3d db 36 47 3d
       0.059793185 -0.17356504 0.07516531 0.0486363
0000b0 16 1a fd 3b dc db 19 be 43 cd cd bd 0b 47 ae bd
       0.007724057 -0.15025276 -0.10048916 -0.08509644
0000c0 a9 d5 5f 3d d4 6b 28 bc 07 9d 85 3d 2e 91 26 be
       0.05464712 -0.0102796145 0.06524091 -0.16266319
0000d0 31 b9 de 3d a0 53 aa bd f6 ab c4 bd f5 b2 3c 3d
       0.10875166 -0.083167315 -0.096031114 0.046069104
0000e0 5d bf f5 3d 74 9b 09 be 9c 61 00 be 1b 37 b8 bd
       0.1199939 -0.13438207 -0.12537235 -0.089948855
0000f0 7c 4c fe bb 2c a0 e9 3d da 40 b9 bc 49 57 75 bc
       -0.0077605825 0.114075035 -0.022613931 -0.014974424
