models/autoencoders/msft_lstm_autoencoder.pth (torch, 228008 bytes, 14 tensors)

encoder.lstm.weight_ih_l0 f4 [256, 5]
00000000: 10f9 0dbd 79cd 003e d652 793c 1b11 cdbd
00000010: 1b82 323e 2832 023e 90e3 943d 36fb ec3d
00000020: a164 4dbc 88d9 c2bd fc5b 113e e8b2 843d
00000030: 5426 8cbd fd4a 153e 2eb4 a73d c8a4 55bd
00000040: b8d5 1f3d bc82 5cbd 9261 803d 1c12 8d3e
00000050: 767c ee3d 4a0a 113d 8e5e a0bc af90 fe3d
00000060: 6550 293d b224 5b3d 9a0e 8dbd af4c c63c
00000070: e80b f93c 1559 9dbd bd1d 7dbd c3e8 22bc
00000080: 28e0 ad3d 57a9 ba3d 68c6 cebc 012d e5bd
00000090: 0e8f fe3d 33f8 c03c 479d 8b3d beba 3b3e
000000a0: 12fc 0abb b76f 85bd 8980 43bd d43a de3d
000000b0: 640c f23d a611 8f3d 228c 9abc e9bb 9f3d
000000c0: 14d3 34bd 9dc1 8e3c 630b 0c3e 8561 c03d
000000d0: b240 e4bb d215 043e 61a6 1abd 47f6 b33d
000000e0: 47bc b63c 4f7c 0c3e 0e86 a2bd c4fc 46bc
000000f0: c594 a8bd 0e01 7b3d f71f f63d aedf 593d
00000100: 95b5 b43c 6ca7 d83d fdc4 cb3c e5bd 62bb
00000110: a1cb dfbd 83d6 c03d e4f8 c03d 8404 1a3e
00000120: 281c e03d d247 01bd 0c96 9fbd f346 9f3d
00000130: 3373 4f3c 9166 03bc 1da7 7a3d 6a58 55bd
00000140: 4791 1bbc 20aa 5e3d 6373 c5bc 09f3 4c3d
00000150: ec80 993d 56ce b6bd fe37 5e3d 9ef6 95bd
00000160: 7e5b 263d e5ba 3e3d fee7 4cbd 6eb5 c43d
00000170: db35 1e3c 7c0c c3bd cf69 e23d bff1 ce3c
00000180: d2d1 e6bc 1cb9 96bc a3d4 04be d4a3 fb3d
00000190: 6bc7 efbb a1e9 93bd d0de a13c c4da dfbc
000001a0: e785 533b 5d18 7cbd bf52 a0bd bc5f b2bd
000001b0: 76a7 7dbd 1a52 673d de09 20be 13b2 843b
000001c0: 8cbb 1fbd e4f1 0dbd 6302 443c 91ea a9bc
000001d0: 9a8b 013e 3674 ccbd ea1c 453d bc09 8abd
000001e0: 20bf 693d eddc d3bd ca81 a7bd 4e5f 8bbc
000001f0: d63f 4bbd 280a a5bd 40f5 963c d526 42bd
00000200: 6356 bd3d cc9d de3d 0146 8e3d 79be 803c
00000210: 6861 893d 3152 ad3d a552 dd3d defd 21bd
00000220: 359e 59bd 8b07 94bd 863a ccbd d930 363e
00000230: e94e e63d f4a3 8fbc 8194 d43d 63d7 26bd
00000240: 0055 4bbc ba3d f0bd 456a 2fbd 7665 14be
00000250: 0270 05be 907c af3c 23f2 ea3d 0875 c43d
00000260: fb1e 84bb 47de cd3c 80d0 013e ecff 20bd
00000270: 9afd 3f3d 6c98 303c 2855 e53d 63a9 bc3d
00000280: 7734 843d 40fe e93d fca1 67bd 72ff 0c3e
00000290: 44e4 ed3d c4ee 83bd daa4 fd3d 257e 8fbd
000002a0: 17a1 cd3d 4ba3 ab3d b656 033e 8108 c33c
000002b0: f2c7 073e 0181 5d3d ce01 8abd d79c 033e
000002c0: 6a95 a43c e18a cfbc 3b82 0bbd a0e0 bd3d
000002d0: b969 10be 4136 0bbe 93fd 39bc fda1 50bd
000002e0: e8d9 433e f7d5 903d b94b 01bd c4d4 e13d
000002f0: 276d 943d 36d5 f7bd 1810 e8bc c8f5 2fbd
00000300: 9b57 563c 8a74 923d 6f14 8b3d 26aa 68bd
00000310: fbdf 373d e1b6 7abd cea3 83bd 3ed1 cf3d
00000320: f554 033e ad14 c03c c41e 3b3d 6dbe 993d
00000330: b38d 4fbd 55fb e53d 1520 d6bd 8dd6 e6bc
00000340: 2a59 b63b 7ab1 093b a9bd 093e 83a4 fe3d
00000350: 7cd7 973d 7051 7e3b cddd 013e 83df 263d
00000360: 7ee9 163d baea 0abe e75b 973d 7628 4f3e
00000370: db22 dfbd 2066 b8bd d1e2 01be 0e91 04be
00000380: e5e1 da3d 3d1c 90bc 38e2 44bd 7cd6 e83d
00000390: 3da1 e73d ffb5 91ba 9637 a8bd 0ed0 37bd
000003a0: 56de 083e de8e 9dbd 842f b8bc fe98 303d
000003b0: 0c69 75bd fa7a de3c 98fa 53bd 999d 9dbb
000003c0: df45 92bc bbf8 8dbd 63d6 143d 85df 89bd
000003d0: 43dc 893c f4a2 9cbd 2238 ac3d 1a6c 4fbd
000003e0: 8679 b53d 9ecf 9d3b 3800 c53d 33fe 073e
000003f0: 0bf9 b63d 3e5c 3cbd 8afc bd3d e2f2 ed3d
-0.034661353 0.12578382 0.0152175035 -0.10013028 0.17432444 0.12714446 0.072699666 0.11571352
-0.012536199 -0.09514147 0.14195246 0.06479436 -0.06843248 0.14579387 0.081886634 -0.0521591
0.039022177 -0.053835616 0.0626861 0.2755288 0.11644833 0.035410203 -0.019576337 0.1242994
0.041336436 0.053501792 -0.06887551 0.024206487 0.030401185 -0.07683007 -0.06179594 -0.00994319
0.0849002 0.0911433 -0.025241092 -0.111902244 0.12429629 0.02355585 0.06817108 0.18332955
-0.0021207375 -0.065154485 -0.047730003 0.10851064 0.118187696 0.06985788 -0.018865649 0.07799513
-0.044146612 0.017426306 0.13676219 0.093936004 -0.00696572 0.12898949 -0.037756328 0.08787208
0.022306575 0.13719295 -0.07935725 -0.012145225 -0.082315005 0.061280303 0.120178156 0.053191833
0.022059241 0.10578808 0.024874205 -0.003459805 -0.10927511 0.09415915 0.09422472 0.15040785
0.109428704 -0.031562634 -0.07792291 0.07777204 0.012661743 -0.008020059 0.061194528 -0.05208627
-0.009495086 0.054361463 -0.024102872 0.050036464 0.07495293 -0.08926074 0.054252617 -0.07322429
0.040614597 0.046564955 -0.050025932 0.096049175 0.009656395 -0.095238656 0.11055338 0.025261758
-0.028176222 -0.018398814 -0.1297174 0.12287107 -0.0073174736 -0.072222956 0.019759566 -0.027325995
0.0032275857 -0.061546672 -0.078282826 -0.08709666 -0.06192728 0.056474783 -0.15628764 0.0040495484
-0.038997218 -0.034654513 0.01196346 -0.020741733 0.1265091 -0.09983103 0.048123278 -0.06740138
0.057067037 -0.103448726 -0.08179052 -0.017013218 -0.049621426 -0.08058578 0.018427491 -0.047400314
0.092449926 0.10869941 0.06946946 0.015715824 0.06708032 0.084629424 0.10806779 -0.039548747
-0.053129394 -0.07228001 -0.099721 0.17792071 0.1124552 -0.017534234 0.10379887 -0.040732753
-0.012410402 -0.117305234 -0.042825956 -0.1449183 -0.13031009 0.0214217 0.11471965 0.095926344
-0.0040320135 0.025130404 0.12677193 -0.039306566 0.046872713 0.010778528 0.11197883 0.092119955
0.064553194 0.114254475 -0.056550965 0.1376932 0.11615804 -0.06442025 0.123849586 -0.07006482
0.10040491 0.08380755 0.12826046 0.023807766 0.13259867 0.054078106 -0.067386255 0.12852798
0.020090777 -0.025334777 -0.034059744 0.092713594 -0.1410283 -0.13594915 -0.011351961 -0.050935734
0.19126093 0.070720606 -0.031566355 0.1102691 0.07247382 -0.12101214 -0.028327987 -0.042959005
0.01308241 0.07151134 0.06791007 -0.05680289 0.04489134 -0.061209563 -0.06427728 0.10147332
0.12825377 0.023447359 0.045683637 0.07507024 -0.050672244 0.112295784 -0.10455338 -0.028178478
0.0055648284 0.0021010325 0.13451256 0.12433722 0.07414147 0.0038805865 0.12682267 0.0407405
0.03684377 -0.13566104 0.07390576 0.20230278 -0.1089532 -0.09003854 -0.1268418 -0.12945959
0.10687617 -0.01759159 -0.0480673 0.11369035 0.11310051 -0.0011116861 -0.08213727 -0.04487615
0.13366064 -0.076932654 -0.022483595 0.043114655 -0.059914634 0.02715825 -0.051752657 -0.004810047
-0.017855583 -0.06932207 0.036337268 -0.06732086 0.016828662 -0.07648268 0.08409144 -0.050640203
0.088610694 0.0048160097 0.09619182 0.13280563 0.0893422 -0.045986407 0.09276684 0.11618592

encoder.lstm.weight_hh_l0 f4 [256, 64]
00000000: f737 383d aa09 d8bc 3ba9 f8bd cb5e 153d
00000010: da28 e63c a595 dc3c 4fdd d9bc 6ca9 443d
00000020: f384 143e 964a 883c e24b bdbd 7799 31ba
00000030: 0228 03bc 1259 83bd 8d42 0bbd 35ba 713d
00000040: 51dc bebd 81fb 773d c3c4 ed3d 20db 33bd
00000050: 4a8b aa3d 77c2 ed3d cf02 4ebd 280c 463d
00000060: e401 053d aaaa e3bd f083 a9bd 6342 c53b
00000070: dc4b 933d f9b3 45bc 88f9 dfbb 4e70 873d
00000080: 5933 4ebd b8f7 78bd 72bc f8bd 514b 0fbe
00000090: ecc2 83bd efe5 a23d 1450 b63c 4d3f f3bd
000000a0: a0c3 e4bc 472c 813d f921 d43d c648 703d
000000b0: 3201 dd3d de30 47bd d605 dc3d 349f 05bd
000000c0: 9493 d6bd 1c44 d2bd 8e20 8bbd 8281 d53d
000000d0: f52c 9b3d a5bf 8dbd ddc4 843d 2760 12bc
000000e0: 902b 3a3b b2d2 debc 58a8 d63c d12b beba
000000f0: c62d d03d f344 863d 8b4d e7bd 8a4b 04be
00000100: 578c 02be 254e 90bd 4c9d 7fbc c0ef 773d
00000110: 05ba 69bd 0986 8f3d 0102 bcbd 6577 adbd
00000120: bafa 10be d9da 123e 2239 eebd adad 12bd
00000130: e783 56bd c09c 47bc 18e8 d5bd 4066 a43d
00000140: b609 ee3d 4c8e 72bd 0118 8b3d 05c7 bdbd
00000150: bfad 9e3d 47e3 c23d c366 103e e312 d7bd
00000160: 07c7 5b3d c4c7 b43d a60f 8a3d 7e49 acbd
00000170: 5193 293d 78b5 8a3c d4ea 15bd 1812 2fbd
00000180: 652b b5bd a5df af3d d93f a5bd 1584 a93d
00000190: f638 be3d 5501 5abd eab2 cebd 7f9c 0abe
000001a0: 23e8 85bd 4fad 72bc 8a84 aebd b761 e63d
000001b0: e930 923d 3819 9c3d 8067 83bd 7af8 42bd
000001c0: d115 eb3c fe73 8dbd 7dcf 093e c6ca 7abd
000001d0: 42fa f23c 6357 173d ff48 6abd b6a6 073d
000001e0: 3272 a0bc ff0a f83c 5dd2 e93d f8c1 823d
000001f0: a302 bc3b 356b f1bd 44e0 24bd 5910 bfbd
00000200: e62a 853d fa33 e2bb c054 9ebd 8800 613d
00000210: 21ce fdbd 7c5b d2bd 109b b4bd 72d5 d73d
00000220: 4325 96bd 4691 223e 6f99 5cbd eff5 82bc
00000230: d83e 89bd 7996 9ebd 9a15 e6bc 81b1 243b
00000240: d9a7 84bd 6345 ba3d 099c 6b3d 5989 8bb9
00000250: 3404 81bd 34bb 2fbd 4611 6dbd b404 26bd
00000260: 802c bdbd cb5f 6e3d e6d7 d0bd 4667 c63d
00000270: 2fd2 92bd fe79 ea3d eaf2 eebd b273 513d
00000280: c8f3 a13d 9e91 c33d 1866 19be 96b7 0ebe
00000290: f37f fcbd 411f 9a3c 8130 9d3d d6d3 9cbd
000002a0: 5538 933d fe85 f13c db29 b83d 44dc 17bc
000002b0: 753c 6ebd 3724 bc3d 29f0 003e abcb 85bb
000002c0: d95f 55bd 60b1 a03d ed78 4f3c daaf ba3d
000002d0: bd3d 923d 9e99 9dbd 371f 8c3d ee15 9fbd
000002e0: 9f77 92bc c4da 0a3e 7564 803d 4300 643d
000002f0: a27b c6bd b7a0 4cbd a0d3 7cbd af07 80bd
00000300: 1e9b 483d 27d7 65bd b0d1 b13d e416 4bbe
00000310: e1b8 40bd 35bc c73d 122d 8f3d e1c7 dfbd
00000320: f75e 603e 2044 e7bc 60d1 9b3d 2825 08bc
00000330: 3e2c 3dbd 7f17 fabb f9dc cb3d 810c ebbb
00000340: 5be0 07be 5f59 8dbd 3080 f43a 2955 d63d
00000350: 1045 ad3c 1ba0 003e f690 7bbd ed85 79bd
00000360: 5f68 cebd 883f cabd bcd2 a83d 0b2f 0ebe
00000370: 3934 3fbe 0df8 88ba afc8 f9bc e8b0 c03d
00000380: 574b ae3d c5a1 403e 8e54 253d 50dc 59bd
00000390: 58d8 f2bd 19d8 f5bb 8a88 9e3c fbd1 8d3d
000003a0: b373 b33d a429 5abd 2cdd 1ebd 5f33 46bc
000003b0: f6e7 203e a8af 193d 0100 b7bd 2d8a e33c
000003c0: 4c95 043c 9037 213e ba08 27be 24e3 713c
000003d0: 767a 95bc 9479 e03d 7c39 c53d 2fff 1d3d
000003e0: fa01 723d d151 3f3e 5868 1c3e 09ce e73d
000003f0: 8369 8dbc 4c49 c73d 35a8 afbd b47b 36be
0.044975247 -0.026371796 -0.12141653 0.036467355 0.028095651 0.026926825 -0.026594786 0.048013136
0.14503841 0.016637128 -0.09242989 -0.0006774882 -0.008005144 -0.06413473 -0.033999015 0.05901547
-0.09319366 0.060542587 0.11609795 -0.043910146 0.083273485 0.11609357 -0.050295647 0.048351437
0.032472506 -0.11116536 -0.08277118 0.006019877 0.071922034 -0.012066835 -0.0068351664 0.06613217
-0.050341938 -0.060783118 -0.12145318 -0.13993575 -0.06433663 0.079540126 0.022254981 -0.11877308
-0.027925313 0.06307273 0.10358042 0.058663152 0.107912436 -0.048630588 0.107433006 -0.03262253
-0.10477367 -0.10266897 -0.06793319 0.10425092 0.07576934 -0.06921319 0.06482861 -0.008934057
0.0028407313 -0.027200077 0.02620332 -0.0014508908 0.101649806 0.0655612 -0.11294087 -0.12919441
-0.12748848 -0.07046155 -0.015601467 0.060531378 -0.057062168 0.07007987 -0.0918007 -0.08470038
-0.14158145 0.14341296 -0.11631991 -0.03581016 -0.052371886 -0.012183368 -0.10444659 0.08027315
0.11622946 -0.059217736 0.06791688 -0.092664756 0.07747983 0.09516006 0.141017 -0.10501649
0.053656604 0.08827165 0.06741266 -0.08412455 0.041400257 0.016932234 -0.036600903 -0.042741865
-0.088461675 0.08587579 -0.080688186 0.08277146 0.09288208 -0.053223927 -0.10092719 -0.13536261
-0.06538417 -0.014811828 -0.085213736 0.112491064 0.07138235 0.076219976 -0.064162254 -0.047600247
0.028696926 -0.069068894 0.13458057 -0.061228536 0.029660348 0.036948573 -0.05719852 0.033117972
-0.019585703 0.03027868 0.11417077 0.06384653 0.005737619 -0.11788026 -0.04025294 -0.0932929
0.06502323 -0.0069031687 -0.077310085 0.054932147 -0.123928316 -0.102713555 -0.08818638 0.10538758
-0.07331326 0.1587573 -0.053857263 -0.01598641 -0.067014396 -0.07743544 -0.028086472 0.0025130215
-0.06477327 0.09095266 0.057521854 -0.00026614478 -0.0629963 -0.04290314 -0.0578778 -0.04053183
-0.09237003 0.058196824 -0.10197429 0.096876666 -0.071689956 0.114490494 -0.11667426 0.051135726
0.07907826 0.09549259 -0.14980352 -0.1393722 -0.12329092 0.018813731 0.07675267 -0.07657592
0.07188479 0.029482838 0.08992358 -0.009268824 -0.058163125 0.09186595 0.12591614 -0.004083117
-0.05209336 0.078463316 0.012663108 0.09115572 0.07140682 -0.07695316 0.06841891 -0.07767855
-0.017879305 0.13560015 0.06269161 0.055664312 -0.0969155 -0.049957957 -0.06172526 -0.062514655
0.048976056 -0.05611339 0.08682573 -0.19832951 -0.047051314 0.097526945 0.06991018 -0.10926796
0.21911226 -0.028230727 0.076082945 -0.00830964 -0.04618477 -0.0076321955 0.099542566 -0.0071731214
-0.13269179 -0.06901812 0.0018653926 0.10465462 0.021151096 0.12561075 -0.061417542 -0.060918737
-0.10078501 -0.09875399 0.082433194 -0.13885133 -0.18672265 -0.0010449901 -0.030491201 0.09408742
0.08510464 0.1881171 0.04036384 -0.053188622 -0.118576705 -0.0075025675 0.019352216 0.06924816
0.08762302 -0.053262368 -0.038785145 -0.012097209 0.15713486 0.037521034 -0.089355476 0.027775848
0.008092236 0.15743852 -0.16311923 0.014763627 -0.01824687 0.10960689 0.09630105 0.03857344
0.059083916 0.18683554 0.15274179 0.11318595 -0.017262226 0.09730777 -0.08577005 -0.17820626

encoder.lstm.bias_ih_l0 f4 [256]
00000000: 84ec 01bd a8b7 dd3c 5031 4b3d 0411 d6bc
00000010: 4bc0 e4bd 5441 de3d 7e0f 693d c974 d4bd
00000020: b73b cebd 5327 063e 08b8 d13d 1745 8b3d
00000030: 8a1c dcbd a245 0c3e fb35 8abd 017a c4bd
00000040: 7421 c93b a65e f5bc 2f72 713d 538b 24ba
00000050: 3bc7 d8bc 059e ac3c 2944 323d 534d fc3c
00000060: ba98 7abb b16f 82bd d340 073c 58ef 833d
00000070: c313 f1bd 0b01 c03d 62d2 12bd bb4e e7bc
00000080: 4136 783d 0107 0c3d 81fc 9fbd 7d89 c3bc
00000090: c422 0f3d 0a3a edbd c901 cd3c ed3c 873d
000000a0: e5eb a83d ad91 6abd c606 dbbd 7315 00bd
000000b0: 4bd7 febc 4d8f c4bc bc53 d03c 5e3f 8dbd
000000c0: 2880 cabd 8b5c 083d 79c2 4ebb 8fe6 343d
000000d0: a73e a4bd 6a20 82bd bd0a a2bd a208 8e3d
000000e0: c741 583d 4851 bdbd 0ca8 18be 5f85 0f3e
000000f0: 48b4 08bd cb19 aebd bfb6 d1bd fe91 b13d
00000100: 71f4 96bd 0373 01bb 42e7 803d d702 2b3c
00000110: bde5 813d 7235 cebc 1bbf 9f3d 6b95 563c
00000120: 6462 98bd d1bd 9ebd 29c8 4bbd 62b2 a8bd
00000130: e308 dabd 374a 533d 0396 2c3d ae4a be3d
00000140: f409 0b3e 08b7 553d 2fc9 153d d5dd ae3d
00000150: fa20 153e b508 3cbc ee60 47bc 898f 8a3c
00000160: 6210 b4bd 0435 8d38 1e15 91bd 6c81 0e3e
00000170: dac6 f33d 4b54 873d bea1 7fbd a1bb fd3a
00000180: 3c2c a83b 90d9 a63d e2a9 ee3d 45e6 3abd
00000190: c6cb 0b3d 7c82 09bd 8714 c1bd 1527 7d3d
000001a0: 3286 c8bd 5d8a b23c 1462 d23d 6291 c2bd
000001b0: 422b 003e 1741 833d 098c 4cbc 3783 cd3d
000001c0: 3f18 41bd 5f05 753d 6cdd a6bd cdac f93c
000001d0: 107d 083e 97f8 493c 2d77 98bc f9bb d13c
000001e0: 5b29 e3bd 790d e03d ffb9 bfbd 5704 793d
000001f0: f92b a43d 95a7 c5bc 694a a0bc 6771 c83d
00000200: 1153 a83d d63b e03d 395d a0bd 9ac1 a4bd
00000210: 0605 93bd bb87 4ebd 58b8 56bd 6587 27bd
00000220: 9a0b fb3d fea6 383d 9493 a3bd 7f72 cd3a
00000230: 15b6 b43d 037c c5bd f1c6 2d3d 49da 68bd
00000240: d2df a9ba 23ff 553d 2277 523c dc68 4d3d
00000250: f851 363b 0b5d b6bd e984 4cbb c1f5 92bd
00000260: e258 92bd 2a5a 9e3d 3aa2 b6bd a794 943d
00000270: fe90 d4bd 1c4d df3c c687 aabd 4f73 c6bd
00000280: 0a8c 3bbd fa22 763d 98c1 b2bd 1ffd a0bd
00000290: 74fd 47bd f8b0 73bd 7418 3ebd ac03 e53d
000002a0: 38ec 6abd 7c1a 68bc cffa 043c 302d ad3c
000002b0: fa2c 5e3d 207c 933c 3aa4 b73d 79b0 93bc
000002c0: 57a6 01bc 60dc 3a3c 2b6e 96bc dd8a 3bbd
000002d0: cf3d ce3d cb21 863d 6c78 223d b5a4 e43d
000002e0: d349 513d 9fe5 db3a febf d13c beab eabd
000002f0: 5e49 823d cc53 debd 2e88 15bd ced7 c4bc
00000300: 9640 e93c 3541 b2bd 273f 04bd f457 7ebc
00000310: a031 d5bc fb30 4dbd 082f 05be 9722 9abd
00000320: ac6a cb3d 5462 5a3d fc63 6abb 8c60 b1bd
00000330: 5b44 22bd 31d2 f7bc d294 c53d 4e8c 5abd
00000340: 3bbe 7cbd 3184 b23b 36d7 9cbd 52fe fe3d
00000350: 3875 42bd 7b46 95bb 4a60 853d 3bfb fcbd
00000360: 7650 873c 2465 acbd 39be 333d bad2 af3d
00000370: b59e 183d 4842 e5bd 8237 7c3d 652d f13d
00000380: 5a42 41bc 4462 1c3e 4d25 96bd d5c8 c63d
00000390: 71b2 cd3d f52e 43bc d74f f73c b6ae 51bd
000003a0: 6e30 ccbc b84d bdbd dd55 0d3e c945 c6bd
000003b0: e97b d03d dc34 9abc 85f7 97bd b881 55bd
000003c0: 48ee b83d c062 e33b 6a2c 723d 1e35 ae3d
000003d0: f90a 0c3e 1a0d 023e f68d aebd 2c98 9bbd
000003e0: 4c85 683d 8969 01be 3454 9bbd e390 66bc
000003f0: 61b2 e6bd b675 85bd 558d 293d 8bd5 b4bd
-0.0317197 0.027065113 0.049607575 -0.02613116 -0.111694895 0.10852304 0.05689954 -0.103738375
-0.100699835 0.13100938 0.10240179 0.06800287 -0.10747631 0.13698438 -0.06748577 -0.09593583
0.006138021 -0.029952358 0.058946785 -0.00062768644 -0.026462188 0.021071443 0.043522034 0.03079859
-0.0038238005 -0.0636896 0.008255201 0.064421356 -0.117713474 0.09375199 -0.035845168 -0.028235784
0.060598616 0.034186367 -0.07811833 -0.02386927 0.034945264 -0.11583336 0.025025265 0.066034175
0.08248118 -0.057267834 -0.10694651 -0.031270456 -0.031108519 -0.023994112 0.025430553 -0.06896852
-0.09887725 0.03329138 -0.003154902 0.04416519 -0.080197625 -0.06353839 -0.079122044 0.0693524
0.052797105 -0.09244019 -0.14907855 0.14015721 -0.033375055 -0.08501013 -0.10239934 0.08670424
-0.07370842 -0.001975239 0.06294109 0.010437689 0.06342647 -0.02517197 0.07800122 0.013097147
-0.074406415 -0.07751048 -0.049751434 -0.08237149 -0.10646226 0.05158445 0.04213525 0.09291588
0.13578016 0.052176505 0.036568817 0.08538405 0.14563361 -0.011476685 -0.012169106 0.016914146
-0.08792187 6.733279e-05 -0.07084106 0.13916558 0.11903162 0.066078745 -0.06241011 0.0019358286
0.0051322263 0.081469655 0.11653496 -0.04562976 0.03412988 -0.033571705 -0.094277434 0.06180485
-0.09791221 0.021794492 0.10272613 -0.09500386 0.12516502 0.06408899 -0.012484559 0.10034793
-0.047142264 0.059819575 -0.081477016 0.030477906 0.13328958 0.012327335 -0.018611515 0.025602328
-0.11091872 0.1094007 -0.09361648 0.060795154 0.080161996 -0.02412776 -0.019566732 0.09787255
0.08218969 0.10948913 -0.07830281 -0.08044739 -0.071786925 -0.05042241 -0.052421898 -0.040900607
0.12258072 0.04508113 -0.07987133 0.0015674381 0.08823792 -0.09642794 0.042426053 -0.056848798
-0.001296038 0.05224527 0.012845786 0.05014883 0.0027819853 -0.08904465 -0.003120715 -0.0717578
-0.07145859 0.07732041 -0.08917661 0.07254916 -0.103792176 0.027258448 -0.08326678 -0.09689962
-0.04578785 0.06009195 -0.08728331 -0.07860779 -0.048825696 -0.059494942 -0.04641004 0.11182341
-0.057354182 -0.014166471 0.008116438 0.021139711 0.05424211 0.018003523 0.089668706 -0.018028485
-0.007913194 0.011405081 -0.018363079 -0.045786727 0.10070383 0.06549414 0.039665624 0.11164228
0.051095795 0.0016776806 0.025604244 -0.114585385 0.0636165 -0.10855827 -0.036506824 -0.024028685
0.02847318 -0.087038435 -0.03228679 -0.015523899 -0.02602464 -0.05009554 -0.13006222 -0.07526129
0.099324554 0.05331643 -0.0035765162 -0.08660993 -0.03961597 -0.030251594 0.09647526 -0.05335646
-0.061704855 0.0054478873 -0.07658236 0.124508515 -0.04747507 -0.004555521 0.06512506 -0.12352606
0.016517859 -0.084177285 0.043882582 0.08585115 0.03726073 -0.11194283 0.061576374 0.117762364
-0.011795605 0.1527186 -0.07331333 0.097062744 0.100438006 -0.011913051 0.030189438 -0.051192008
-0.024925437 -0.09243339 0.13802285 -0.09681279 0.10179884 -0.018824033 -0.074202575 -0.052125663
0.090298235 0.006939262 0.059124388 0.08506225 0.1367606 0.1270031 -0.08523171 -0.07597384
0.056767747 -0.12637915 -0.0758442 -0.01407263 -0.11264492 -0.06516592 0.04139455 -0.088297926

encoder.lstm.bias_hh_l0 f4 [256]
00000000: 0493 093e 99a9 723d 93ca 1a3d 1e28 acbd
00000010: 2732 9f3d 5253 e33d 3071 73bd 99ea 85bb
00000020: d372 5abd 8450 cd3d 6251 9136 351c cabd
00000030: 739f 283d bed2 0f3e 3930 093e 2dc7 c0bd
00000040: a968 1c3d 6cc4 bb3d ece9 7abd b3ae aabd
00000050: dfed 1d3d bedd 10bd 4cb9 88bd 4807 373d
00000060: 2d50 773d c27d fabc a9f2 b83d 7d6c 1cbc
00000070: d7c1 72bd 7136 903d 3d25 1dba 9abe 74bd
00000080: 026e b4bb 01e7 8d3c 7754 9abd 4f53 6e3d
00000090: a3d1 1c3d c47b 7fbd 5294 c8bd cce0 5abd
000000a0: 4120 693c 7dbb f43d a6b8 c03d db4a b53d
000000b0: 2983 8d3c 3b85 5abd 1692 d2bd bd29 af3c
000000c0: 4547 39bc 29f0 e63b 4892 07bd bbdb 38bc
000000d0: 66f0 93bc 5543 123e 7701 b53d 74b0 093d
000000e0: 5db5 ddbd aa36 31bd dfa6 78bd bcd4 b53d
000000f0: 4280 b13d 788c 2cbd 2f6d 9abd 6984 0cbe
00000100: b7a3 3d3d 1d8e 863d c8c1 9fbd 12f3 483e
00000110: 3549 aa3c 03f2 d2bd bcec 25bd 930b 003e
00000120: 60a8 74bc 55d7 a93d 9a37 923c 80a4 063e
00000130: 53cd b73d bae2 c0bd 164a a43b 3a7c d73d
00000140: 7e0c bfbd 199a 5a3d 5e1a e23c 1a5b 113d
00000150: 3e10 72bd 81ad 423c 43fe d13d 6e0b e03c
00000160: b8e4 ef3c a2af 083e f3b0 d1bc dc79 48bd
00000170: 8211 b03d 049d 583d 7a1b 0fbe acb4 21bd
00000180: 7d9d 053d a6fe 15bd 9fba 6a3d 5c4d 2d3d
00000190: 30b7 a6bd 5723 833d e268 a4bc 8a00 81bd
000001a0: 6c30 9abd 7474 bbbd cb0b d2bc 1b86 a9bc
000001b0: 4243 b8bd 2774 ee3d 8cfa e93c a137 993d
000001c0: 833c fb3d e5b1 c33d 208f d83d d3db 5cbd
000001d0: 3acb cfbc dfb5 b1bd 31ef aabd 9ea4 7dba
000001e0: 0561 cf3d ff96 fbbc 0c45 17bd 15ea e43c
000001f0: 5565 69bd 5da2 c5bd 753f f3bc 83d7 c23d
00000200: 1d8a a93d d3d2 ce3d 6b39 833d 86a6 c93d
00000210: c927 3cbd 0264 39bd db44 983c 019d 923c
00000220: 4b0b cfbd 00d9 5abd 22c5 c7bd dd33 f23d
00000230: 3814 a73c 4156 6dbb 34d4 8f3d 0ae0 c43d
00000240: 1482 6fbc 4321 18ba 5c8a 9abd de3d 01bd
00000250: 5a58 9f3c 1f0d b1bd f27a a6bd 2069 53bd
00000260: 54fc ef3d 180e f9bd 669d 873d b391 cebd
00000270: 09a8 9c3c cc94 b9bc 38c1 49bd 0206 92bc
00000280: 172d b1bd 7278 a63d 98fb c2bd 1078 cbbd
00000290: d3d7 cbbd d9de cd3d e7ab 79bd 0293 eabd
000002a0: 0787 de3d 95ab 8dbd b902 c1bd ec75 d83d
000002b0: 570e 993d faa9 f03c 7e1c be3d be84 f83b
000002c0: 0250 5dbd 9483 d3bc ac30 eebc c13c b43d
000002d0: 9391 cdbd d82c a83c 4f8f e43d 3acf 00be
000002e0: 89e3 86bb 7aa6 a83d 81f6 b3bd 5a4b d13d
000002f0: ba57 afbd 893c e8bd d690 52bd e193 70bd
00000300: 0b87 e63d 398a 793d 2db4 843d 71ac 0d3e
00000310: af22 a2bc eff7 2f3c 3af0 4c3d dfa9 e23d
00000320: f405 bfbd 877a ac3c 8d1f 533d 5611 2c3d
00000330: cb98 c6bd 6c22 083e ce6f d13d 167b 57ba
00000340: e021 913d cc92 f43a 5e3a dc3d 2752 093d
00000350: 7d7d 0abc bbaa f13d 57cb 773d 719d e5bc
00000360: e5f5 02be d5c7 2c3d c292 193d 3edf 8abd
00000370: 7dd3 bbbd e9ca 83ba 6093 1b3d 32a4 10bd
00000380: eccd 063e 5e21 0e3e ab95 c5bd ae34 25bd
00000390: b339 59bd 1b26 08be 7dd5 c83d 5c46 843b
000003a0: ab29 903c ac67 f53c e4c6 f23c 5cda 393c
000003b0: 6171 a23d 9aa4 a1bd 45ee c6bc fdef b9bd
000003c0: 932f 283d 9f3d d3bc 02f7 c83d 21eb 30bd
000003d0: 7739 d8bc db6a b3bc 5c0d 7d3d 72cd 143e
000003e0: f31f 823d 4e77 1ebc 7330 303d a0aa 033d
000003f0: 3e1f 853d 4f76 88bc 49f6 fa39 2420 3c3d
0.13434988 0.059243772 0.037790846 -0.08406089 0.07773238 0.110998765 -0.059434116 -0.004086804
-0.05333216 0.10025123 4.330811e-06 -0.09868661 0.041167688 0.14045236 0.13397302 -0.0941299
0.03818575 0.09168324 -0.06125824 -0.083341025 0.03855693 -0.03536772 -0.066759676 0.04468468
0.060379196 -0.030577544 0.09030659 -0.00954735 -0.05926689 0.07041634 -0.00059946236 -0.059752084
-0.005506278 0.017322065 -0.07535642 0.058184918 0.038285863 -0.06237389 -0.09793915 -0.05343704
0.014228881 0.11949823 0.09410219 0.08852168 0.017274456 -0.053349715 -0.1028177 0.021382207
-0.011308496 0.0070476723 -0.03309849 -0.011282857 -0.018058967 0.14283498 0.0883817 0.033615544
-0.10825608 -0.043265022 -0.060706016 0.088784665 0.08667041 -0.04212615 -0.07540356 -0.13722385
0.04629871 0.06570075 -0.07800633 0.19623974 0.020786861 -0.10300066 -0.04050897 0.12504415
-0.014932722 0.082930245 0.017848779 0.1314869 0.08974709 -0.09418245 0.0050137145 0.10521741
-0.093285546 0.053369615 0.027600463 0.03548727 -0.05909752 0.011882187 0.10253575 0.0273492
0.029283866 0.13348249 -0.025597071 -0.04894434 0.08597089 0.052884117 -0.13975325 -0.039478943
0.032620896 -0.036619805 0.057306882 0.042310104 -0.08140409 0.06403225 -0.020069543 -0.06298931
-0.07528767 -0.09153071 -0.025640389 -0.02069383 -0.089972034 0.11643248 0.028561853 0.074813135
0.12267401 0.09555415 0.10574174 -0.05392058 -0.02536546 -0.08677267 -0.083464034 -0.0009675714
0.10125927 -0.030711649 -0.036931083 0.02794365 -0.056981403 -0.09650109 -0.029693345 0.09513762
0.08278296 0.10098805 0.06407436 0.09846215 -0.04593638 -0.04526139 0.01858752 0.01789713
-0.10109576 -0.053429604 -0.09754397 0.118262984 0.020395383 -0.0036214741 0.070228964 0.096130446
-0.014618415 -0.0005803296 -0.07545921 -0.03155314 0.019451309 -0.08645081 -0.08128919 -0.051613927
0.1171805 -0.12160891 0.06621818 -0.10086384 0.019123094 -0.02265396 -0.049256533 -0.01782513
-0.08651178 0.08128442 -0.09520644 -0.099350095 -0.099532746 0.100522704 -0.060954954 -0.11453821
0.10865598 -0.06917492 -0.094243474 0.10569367 0.07473438 0.029377926 0.09282778 0.0075841835
-0.05403138 -0.025819577 -0.029075943 0.088006504 -0.10037532 0.020529196 0.111601464 -0.1257905
-0.00411648 0.08234878 -0.08787251 0.1021945 -0.085616544 -0.11339671 -0.051407658 -0.05873478
0.11256226 0.060922835 0.06479678 0.13835312 -0.019791929 0.010740264 0.050033785 0.110675566
-0.09327307 0.02105452 0.05154376 0.04200872 -0.09697112 0.13294381 0.10226403 -0.00082199404
0.07086539 0.0018659472 0.1075332 0.033525612 -0.00845277 0.118001424 0.060496654 -0.028029175
-0.12789114 0.042182762 0.037493475 -0.06780861 -0.091711976 -0.0010054979 0.037982345 -0.03531284
0.1316449 0.13879916 -0.096476875 -0.040333442 -0.053033542 -0.13295786 0.09806345 0.004036708
0.017597994 0.029956661 0.029635854 0.011343565 0.079317816 -0.078927234 -0.024283538 -0.09078977
0.041060995 -0.02578622 0.09812738 -0.043192986 -0.026394589 -0.021901539 0.06178032 0.14531496
0.0635375 -0.009671999 0.043014955 0.032145143 0.065000996 -0.016657976 0.00047867213 0.04592909

encoder.linear.weight f4 [32, 64]
00000000: 2952 5c3c de05 db3d 55f5 4a3d f489 963d
00000010: 960f 5ebd 01cd 4a3d 3f56 d1bd e535 103e
00000020: 3fd6 223d 1110 cf3d 114a 7dbd f871 7f3d
00000030: df8a 34bc ef18 87bd 2f18 d4bd 3f4d 82bd
00000040: 22c6 fc3d a9d8 fcbc a452 92bc 5da9 2dbe
00000050: 1815 723b 3c2a 783d 2e9a ed3d 18a0 773d
00000060: 74f5 0b3d 6813 d23d 2585 e0bd 7558 e33d
00000070: a617 e0bc 69e1 d4bd 1823 0a3e d969 69bd
00000080: 2f2d 8dbd 1c12 813c d937 63bb 8625 533d
00000090: d64e 173e 22e7 dabd 69f4 99bd e05e c1bc
000000a0: 98d3 33bd 196a 873d dcb7 9bbd c3d1 6237
000000b0: f096 383d 1019 1b3d 648d 4a3d fef2 823d
000000c0: ec69 e83d 6c81 a2bd 2799 b7bc b67c 8abd
000000d0: 3b4c f83d 7747 6fbc bbb3 4ebb 7351 6a3b
000000e0: 2187 06be 9333 eabd 953d a93d cb56 c8bc
000000f0: ffa7 933d e227 d0bc b132 ed3d 3c88 0e3d
00000100: c733 023e 9fec 5ebd c058 afbd d49e d33c
00000110: 6af1 183c c2cc 1fbd dc6c 843d c5d3 72bd
00000120: 9f73 da3d 39a4 c7bd d7bd 51bd fa3c a13d
00000130: 84d2 29bd 74f1 d2bc 2cc0 083d eabb 9a3d
00000140: 4fbc afbc 2cdd db3d 6987 033b 760a 7838
00000150: 5027 b9bb d04a bd3a 4652 6a3c eedf 6ebd
00000160: 8cff d93c 20c2 113d c0f1 193e fb6d 52bd
00000170: 95e9 9e3b c900 c8bc ece1 6ebd 82bf b03b
00000180: a248 bc3c 949c c83d f3a9 bc3b 20c1 b3bc
00000190: 65f8 37bd 6fae c3bd 82c0 6e3c 9927 03bd
000001a0: 8345 113e ca64 d13d ebd1 69bd d2f9 ee3c
000001b0: 7715 40bc 8686 933d 164e d63d 48c1 ddbd
000001c0: 9a13 c8bd ad2f 7c3d 9524 ffbc 5c6c ae3c
000001d0: 16b4 863d 3156 963c 362e a6bc ede7 813d
000001e0: f340 513d efba e4bd 7457 c23d ecce b93d
000001f0: 752c ee3a 989b 8fbd 2d0b 0bbd f8ce acbd
00000200: 5d87 08be 0bb9 0cbd 1485 6f3d d5fa a03d
00000210: 5a1a b33d 11ed 9cbc 2ed3 343d 5b5d 74bd
00000220: 4ce3 15be b44f 46bd f4e8 90bd 2245 a73d
00000230: c887 85bd 684c 263c b9b8 933d 60b6 d4bd
00000240: 555a d83d 069d 923d 5771 233c a363 4cbd
00000250: 6f8b 153e 9da6 c4bc 4d57 263d 460b 33bc
00000260: fd6c 6dbd 31b1 243e 82ae f9bd 05d8 b53d
00000270: 4240 923c 99c2 c5bc d8c5 c13d e61c 363d
00000280: 600d 38bd 271f c03d 5ec9 d23d 23ca b33d
00000290: 7070 973d 3af7 e23d def6 22bd cc07 d8bd
000002a0: 2544 89bd a51c adbd c83f e8bd 60cc a7bd
000002b0: 14e2 993c c94e e63d 7c8c 6f3d db15 ca3d
000002c0: d744 9abd fb0b 04be 6f3d 293d b176 f53d
000002d0: 6a40 acbd dec2 b23c 4be0 f7bd fb26 523c
000002e0: c933 053e 2f85 d33d 47d0 9e3d ab6e c3bc
000002f0: fde8 23bd eacb fc3b ed40 dcbd 4780 243c
00000300: 0a67 10be 6299 9c3c 6561 c23d c4cc 933d
00000310: 535a bcbd bbc0 f53c 21ec 753d 336c 0f3e
00000320: ce0a d0bd 247f c13d 0142 a0bd 45e4 f1bd
00000330: 1d81 923d 0d17 c83d 7229 abbd bd00 c0bd
00000340: 9914 94bd c291 7dbc 29b6 9dbd a2d0 c63d
00000350: 8ffc 39bd a66f 813c 933e c4bd a2cb 9fbd
00000360: 53cc 34bd 6015 a83c 4250 82bc 5f9f 0f3e
00000370: 6fae 783c 320b e43c 5590 5abd 6c12 4ebd
00000380: 73d2 8cbd f7e9 873d c0f4 c03d bdf1 75bd
00000390: edc9 d83d 58a5 bebd 7224 ddbc 970a 03bd
000003a0: 7945 cfbd cd73 8d3d ed74 d2bd aa7b 1abe
000003b0: f388 23bd 2bfd 6f3c e07a 5f3d 9409 bfbc
000003c0: 453d 8a3d 399e 16be 0dd6 f33d 9b49 b03d
000003d0: a38d 1fbd 0b2c a73d f44f a0bd 0a1a e73d
000003e0: 2a1a 79bc b526 9b3d 84d1 e4bd ad88 fbbd
000003f0: 1f73 393d df97 c1bd 88df d5bd ac82 5bbd
0.013447323 0.106944785 0.049550373 0.07350531 -0.054214083 0.049511913 -0.10221528 0.14083059
0.039755102 0.10110486 -0.061838213 0.06236455 -0.011019438 -0.065965526 -0.10356175 -0.0636239
0.12342478 -0.03086503 -0.017861672 -0.16959138 0.0036938842 0.060587153 0.11601673 0.06045541
0.03416963 0.10257608 -0.10962895 0.11100856 -0.027355026 -0.10394556 0.1348995 -0.05698571
-0.06893384 0.015755706 -0.003467074 0.051549457 0.14776167 -0.10688616 -0.07517321 -0.02360481
-0.043902963 0.066120334 -0.07603428 1.3519489e-05 0.04506582 0.0378657 0.049451247 0.06394003
0.11348328 -0.079348415 -0.022411896 -0.06762068 0.12123915 -0.014604441 -0.0031540233 0.0035754114
-0.13137485 -0.11435618 0.08263699 -0.024455449 0.07209777 -0.025409643 0.11581934 0.034797892
0.12715064 -0.05442488 -0.085618496 0.025832571 0.009334901 -0.03901363 0.06466076 -0.05928399
0.10666584 -0.0974812 -0.051206436 0.078729585 -0.04146053 -0.0257499 0.033386394 0.07555373
-0.021452097 0.107355446 0.0020069724 5.913755e-05 -0.0056504384 0.0014441852 0.014301842 -0.058319025
0.026611112 0.035585523 0.15033627 -0.051374417 0.0048496225 -0.024414437 -0.058320925 0.0053939233
0.022983853 0.0979549 0.005757564 -0.021942675 -0.04491462 -0.09554755 0.014572265 -0.032020185
0.14186673 0.10224302 -0.05708496 0.029171858 -0.011723868 0.07203393 0.104641125 -0.10827881
-0.09769364 0.061568905 -0.031145373 0.021291904 0.065773174 0.018351646 -0.020285707 0.063430645
0.05108733 -0.11168467 0.094893366 0.0907267 0.0018171208 -0.07012099 -0.033946205 -0.08437914
-0.13332887 -0.03435616 0.058476523 0.078603424 0.087452605 -0.01915601 0.04414671 -0.059659343
-0.14637488 -0.048415855 -0.07075682 0.08167483 -0.06520039 0.010150053 0.072129674 -0.10386348
0.105641045 0.07158856 0.009975753 -0.04989971 0.14603971 -0.024005229 0.0406106 -0.010927981
-0.057965267 0.16083218 -0.12191488 0.08879093 0.017852906 -0.024140643 0.09461564 0.044461153
-0.04493463 0.09380942 0.10292314 0.08778789 0.073944926 0.11082311 -0.039786212 -0.10548362
-0.06702451 -0.08452729 -0.1134029 -0.08193278 0.01878456 0.11245496 0.058483586 0.0986745
-0.075326614 -0.12895195 0.041318353 0.11985529 -0.084107235 0.021821436 -0.12103327 0.0128266765
0.13008036 0.10328137 0.077545695 -0.023856482 -0.040017117 0.007714738 -0.10754571 0.010040349
-0.14101806 0.019116107 0.09491233 0.0721679 -0.091969155 0.029999128 0.060039643 0.14006118
-0.10158311 0.09448078 -0.07825089 -0.11811117 0.07153533 0.097700216 -0.083575144 -0.09375141
-0.07230491 -0.015476646 -0.0770076 0.09707762 -0.045406874 0.015800308 -0.095822476 -0.07802512
-0.04414017 0.020518005 -0.01590741 0.14025639 0.015178307 0.02783737 -0.053360302 -0.050310537
-0.068760775 0.06636422 0.09421682 -0.060044993 0.10585389 -0.093088806 -0.026994918 -0.03199252
-0.10120673 0.06906853 -0.10276208 -0.15086237 -0.039925527 0.014647762 0.054560542 -0.023319997
0.067499675 -0.14708795 0.11906061 0.08607789 -0.038953435 0.081626974 -0.0782775 0.112842634
-0.015203992 0.07575742 -0.111727744 -0.12281928 0.045275804 -0.09452795 -0.10443026 -0.053591415

encoder.linear.bias f4 [32]
00000000: a9aa 393c 6293 f6bc 703e 233d 0dec b2bd
00000010: e921 ab3c 3a64 06bc 4742 ec3d 566c 35bd
00000020: bf68 573b 5069 bfbd b66e edbb 5e10 8ebd
00000030: b549 113d 142d 60bd efb3 e0bd 2030 81bd
00000040: 08e8 113d 2de7 d6bd 41da bfbd d7a2 a6bd
00000050: 1f5c 053e 0402 25bd ee1f 8e3c 8231 313d
00000060: d89c 1fbd c495 abbc 946e 9b3c 7b7c b63c
00000070: 19ee 9c3c a418 a43d d8c9 903c 914f afbd
0.011332192 -0.030099574 0.039854467 -0.08736429 0.020890193 -0.008202607 0.11536079 -0.04429277
0.003286883 -0.09346259 -0.007245864 -0.069367155 0.035470683 -0.05473049 -0.109718196 -0.06308007
0.035621673 -0.10493312 -0.093678005 -0.08136528 0.13023423 -0.040285125 0.01734921 0.043260105
-0.038967937 -0.020945437 0.018973626 0.022276154 0.019156503 0.08012512 0.017674372 -0.08560098

decoder.linear.weight f4 [64, 32]
00000000: 1849 c5bd beee 9c3b adff 56bc ff31 3abe
00000010: eb46 9e3d 9d52 283e 06a9 913d cd3b 8f3c
00000020: 7d6c 963c 11c6 093c 4a0b fcbd 252a 44be
00000030: dcd4 48bd 8d20 0d3e 522e f9bc 808e 1c3e
00000040: 0282 f0bd 3144 c43c 4239 5eba 59bc 30be
00000050: 4c5b 953d 35f3 0f3e 8ad3 24be aba3 d1bd
00000060: c1c7 1dbd 07bd 51bd 68a1 a2bd 132a 8b3d
00000070: f556 8f3d 68ae a8bc 0a35 e1bd 40a7 fd3d
00000080: 8251 b3bc 61e1 0bbe f23d a33c 7f87 153d
00000090: 556e 97bd ee73 ebbd 7f23 90bc 1009 bf3c
000000a0: 6fec c93d 64b4 a2bd 3065 a23c 96e6 ebbd
000000b0: 0065 263e 168d 073e 6836 a93d 271d dbbd
000000c0: bb39 243e afea cb3c 41ea 143d d5c0 c5bd
000000d0: ca35 febd e7ff 313e 7807 97bd bf9c 423e
000000e0: 6ac1 023e f295 573a 4258 753c e5be adbd
000000f0: 18c6 3c3e 63a7 6a3d 4119 0abe f3e0 163e
00000100: d165 403d 1368 a8bd c406 883d f722 0b3e
00000110: 9358 41be cc1b 79bd 3bda 083e a7db 00be
00000120: b089 34be 30d1 313e c4b1 083e 670f 04bd
00000130: 31fd 4a3e e513 3fbd 5366 f8bd f274 fc3c
00000140: 0eb7 8cbd 222e e9bd 00a8 2dbe 0cea 083e
00000150: 5461 a5bd 00e1 263d 3c5c 31be f3db 17be
00000160: 30ad 2ebe 6895 27be b35d f4bc b0c6 143e
00000170: 5be9 89bd 9b9d 42be 0fbd 22bc a982 7cbd
00000180: 93cd 99bd 12cd c3bd 41e5 823d bc64 503e
00000190: efe8 ecbd 185f 1c3e e05f e43c ce86 b2bd
000001a0: bbc7 a73d ae74 b9bc 3b07 303e f58c a9bd
000001b0: 740b 17be 3a4e 20be b504 1ebe 17cc ba3c
000001c0: 9af3 01be edb4 a6bd 86a2 78bc 2e5c dc3d
000001d0: fd7d 9d3d f626 4d3d d48f 393d 54cf e1bd
000001e0: 2e97 e33c 6de9 febd 34fd b23d 34c6 e2bd
000001f0: 00cd b9ba e6d9 423e 511a bb3d 1fb5 66bd
00000200: d172 5cbd e5b4 43be bdd8 ecbd 2a6c 29ba
00000210: 1b88 ad3d 4b1b 11be e3d4 983b 9831 6fbc
00000220: 9478 0b3e 188e 17be 1a9e e9b8 e6d8 1d3e
00000230: 9771 073e 5fe7 a33d b5c6 983d 1e59 ac3d
00000240: 891d b4bd 370b 463e a927 70bd 4b43 123e
00000250: 54d9 d9bd 8a74 cc3d 6f5d ab3d 9853 12be
00000260: 812d 9dbd 6e72 293e ad49 9e3d b06c e03c
00000270: a600 0abe 3456 1d3e 3137 413a 30ea dabd
00000280: 6f62 4fbd e913 fd3d 0c47 063e f268 b5bc
00000290: 60e9 3dbe 7884 3b3c 6d31 3b3c f2f6 9fbd
000002a0: 14dc a63d 4830 973d eef6 0e3e 87a2 6bbd
000002b0: ea21 4f3e ea88 ca3c 1dac 25be 6256 70bc
000002c0: 8f84 3c3d 2f30 ddbd 2843 8abd 9e48 21be
000002d0: 1762 a33d ae84 2ebe b2aa a43d 2402 02be
000002e0: 1ffc d7bd 59c5 27be 86b1 e6bd 7d77 463d
000002f0: 64d9 113d 0d2c 0f3c 1a03 20be 5647 8ebd
00000300: ca97 c1bd b394 1c3d 5443 333e d872 4c3d
00000310: 700a 283d 084e bfbd 27c4 063e 3d7e bdbd
00000320: 9b7b a63a c8ec 41be 44f1 13be a0f5 b63d
00000330: 8f16 ae3d d999 28be c71a 32be fd67 3bbe
00000340: e8ac 2abe ae82 cabd 21bb c4bc 1a72 96bd
00000350: 8fce 29be 23ba f1bd c429 c53d cbc7 6f3d
00000360: cf35 c83d 7a4d 0a3e 5f92 83bd a7af 3bbe
00000370: 52ae 80bd dbf8 043e 4ace 4e3d d7ab 8dbd
00000380: d5cb 0b3e 9aa2 69bc e183 42bc e060 e63c
00000390: fdcf 26bc 0444 da3d 15a4 8cbc 721b a93d
000003a0: 3ef0 293d 3cdb 80bd a167 35be ab4a eebc
000003b0: 956e 8cbd 815f 15be ae6e adbd 075e fabc
000003c0: c56d 19be fc25 1b3e 6f2d 40bd 5021 803d
000003d0: beb6 adbd f531 0b3e 5159 13be 2e12 54be
000003e0: c918 3a3b 869c 03bd ba8b dabd d91f 88bd
000003f0: 5fe7 c93d 15ff cc3d dd66 c5bd dc14 07bd
-0.09633082 0.0047892025 -0.013122481 -0.18183134 0.0772837 0.16437764 0.07112317 0.01748457
0.018362278 0.008409039 -0.12306841 -0.19156702 -0.049031124 0.13781948 -0.030417595 0.15288734
-0.11743547 0.023958297 -0.000847716 -0.17259349 0.07292804 0.1405762 -0.16096321 -0.10236295
-0.03852058 -0.05120566 -0.07940942 0.067951344 0.069990076 -0.020590976 -0.109964445 0.12385416
-0.021889452 -0.13660194 0.019926999 0.036506172 -0.07394091 -0.11496721 -0.01759505 0.023319751
0.09859549 -0.07944563 0.01982364 -0.1151859 0.16249466 0.13237414 0.0826233 -0.1069892
0.16037647 0.02489218 0.036356214 -0.096559204 -0.12412603 0.17382775 -0.073744714 0.19005106
0.12769094 0.0008223943 0.014974656 -0.08483676 0.18434942 0.05728854 -0.13486196 0.14734249
0.0469721 -0.082229756 0.066419154 0.13587557 -0.18881445 -0.060817525 0.13364498 -0.1258379
-0.17630649 0.17364955 0.13349062 -0.03224125 0.19823147 -0.046649832 -0.12128892 0.030817483
-0.068708524 -0.11385752 -0.16958618 0.13370532 -0.080752045 0.04074192 -0.17320341 -0.14829998
-0.17058253 -0.16365588 -0.029829836 0.14528918 -0.06733962 -0.19005434 -0.00993277 -0.061648045
-0.07509913 -0.095605984 0.06391383 0.20350927 -0.11567866 0.1527065 0.027877748 -0.08717118
0.081923924 -0.022638645 0.17190258 -0.082788385 -0.14750463 -0.15654841 -0.15431483 0.022802396
-0.12690583 -0.081399776 -0.015175467 0.107597694 0.07690046 0.050085984 0.04530318 -0.11025873
0.027782049 -0.12446866 0.08739701 -0.110729605 -0.0014175475 0.19028434 0.09135879 -0.056325074
-0.053820435 -0.19111975 -0.11564777 -0.0006462956 0.08473226 -0.14170568 0.00466405 -0.014599226
0.13620216 -0.14800298 -0.000111397545 0.15414771 0.13226925 0.08003115 0.07459775 0.08415435
-0.08794696 0.19340216 -0.058631573 0.14283483 -0.10637155 0.099831656 0.083674304 -0.14289701
-0.07674695 0.16547558 0.07728896 0.027395576 -0.1347681 0.15364915 0.000737059 -0.10689199
-0.050630983 0.12357313 0.1311304 -0.022144768 -0.18546057 0.011445157 0.011425358 -0.07810773
0.08147445 0.07382256 0.13961384 -0.057528045 0.20227781 0.024723489 -0.16178937 -0.014669033
0.046024855 -0.10800206 -0.0675109 -0.15750358 0.079776935 -0.17042801 0.0804037 -0.12696129
-0.10546135 -0.16383876 -0.11264329 0.048453797 0.03560771 0.00873853 -0.15626183 -0.069472
-0.094527796 0.038227748 0.17506152 0.04991421 0.04102558 -0.09341055 0.13160764 -0.09252594
0.0012701632 -0.18937981 -0.14447504 0.08933568 0.085003965 -0.16464938 -0.17393027 -0.18301387
-0.16667521 -0.098882064 -0.024015011 -0.07345982 -0.16582702 -0.11803081 0.09627107 0.058540147
0.09775888 0.13506117 -0.064244024 -0.18328725 -0.06283249 0.12985556 0.0504897 -0.069175415
0.13651974 -0.014259959 -0.011872263 0.028122365 -0.010181424 0.10657504 -0.017168084 0.08257188
0.04148888 -0.06291816 -0.17715313 -0.029088339 -0.06857029 -0.14587213 -0.08468376 -0.030562414
-0.1498328 0.15151209 -0.04691833 0.06256354 -0.08482121 0.13593276 -0.1438954 -0.2071006
0.002839612 -0.032131694 -0.10671182 -0.066466995 0.09858584 0.100095905 -0.0963876 -0.032978877

decoder.linear.bias f4 [64]
00000000: d128 9fbb 3743 ea3d caa7 0ebe 0fa1 e1bd
00000010: 325f 713d 1c42 d3bd b02b 8dbc 3100 5d3d
00000020: d64c dd3d c102 16be f18d c9bd 082c d3bd
00000030: 0010 0ebe f7c6 83bd c2a4 9bbb f816 c93d
00000040: e846 133e 2304 88bd dcd9 e53c cd36 a4bd
00000050: 8c26 0b3e 7906 23be 65bb 35be 45ad 963d
00000060: 620d 25be f149 003c 52c5 e93c ce18 abbd
00000070: 3983 b1bd a5c7 c33d c731 f7bb 2eda d8bd
00000080: 18f5 ea3d b6b3 283e a471 0bbe 94fe 053d
00000090: 68b3 c3bd 98d3 dbbd f5b7 8abc 73a7 8b3d
000000a0: 2f6b ec3d 3269 d0bd 737e 0d3e bcb7 b13d
000000b0: 77e1 403c 4037 a33d 7339 203e f923 4bbe
000000c0: 5d8c 0abe 3c43 65bd 6d76 76bd d82d 273e
000000d0: 747a eb3d d105 643d b45a 873d 91c5 763d
000000e0: b248 c2bd 8646 debd 851f 7ebd 4ea3 bbbd
000000f0: 652f 29be c07f 293e aac9 67bd 16e9 09bd
-0.0048571606 0.114386015 -0.13931194 -0.110170476 0.058928676 -0.10315344 -0.017232746 0.05395526
0.10805671 -0.14649488 -0.09841526 -0.10311133 -0.13873291 -0.06434434 -0.0047498653 0.09818834
0.14382517 -0.06641414 0.028057985 -0.08018265 0.13588923 -0.15920438 -0.17747267 0.07357267
-0.16118386 0.007830129 0.028536472 -0.083543405 -0.08667607 0.095595635 -0.0075437757 -0.105884895
0.11472529 0.16474804 -0.13617569 0.032713488 -0.095557034 -0.10733718 -0.01693342 0.06819048
0.11543881 -0.101763144 0.13817768 0.08677623 0.011772505 0.079695225 0.15646915 -0.19837941
-0.13530107 -0.055972323 -0.060171533 0.16326082 0.114979655 0.05566961 0.06609097 0.060247008
-0.09486522 -0.10853295 -0.062041778 -0.09162007 -0.16521986 0.16552639 -0.056588806 -0.033669554

decoder.lstm.weight_ih_l0 f4 [256, 64]
00000000: 25ec a33d 903a e93d 7f63 e13a 0a5e a33d
00000010: baba 0d3c bb23 a9bd 3661 3b3d df44 a2bd
00000020: f080 cc3d abec c8bd 91f0 d93d 5b36 7338
00000030: 95bc 4ebd fbad f6bd 40cf d4bd d972 e03d
00000040: 35c8 263d 2605 05be 46cc 143d 08c2 a5bc
00000050: cfce b13c db8c 0fbe 2a5e 73bc ff0c 26bc
00000060: 3349 41bc 5e11 8dbd ac6d a5bd d656 cf3d
00000070: adcf f0b9 a4b3 49bd 1dd0 773d 3984 87bd
00000080: 1540 c0bb 2968 c03d e17c ed3c 64cc 1abd
00000090: f1ee 443d 73f2 a9bd 8d5a 5d3d eeb4 a93d
000000a0: 7e29 153e d49f f93a 7717 92bd a99f b03d
000000b0: 2479 dabd b6a3 d13c 035c 093e e237 02bc
000000c0: 2fbf 42bd 2146 dd3d d9fb fabd 6f64 3dbd
000000d0: 2b7c a3bd ba1e c43d 67ce 42bd cee4 d23d
000000e0: f5d8 d8bd c7f7 da3c 32db dc3d 4050 653d
000000f0: b996 87bd d701 eb3d 98e9 63bd 05e6 49bd
00000100: f97f b23d 2d2b 64bd 473e 833d 0625 7f3d
00000110: a374 873d dc70 a43d cd7c 97bd bc3a c6bd
00000120: 813b 8a3c a72d dc3c f9db a4bd 06ee 06bb
00000130: 9994 993c 115d e33c 839b 883d f8bf de3c
00000140: f1e8 b53d d48b 1e3d 2416 ad3d cf39 f3bc
00000150: 8344 e7bd a39a 023e abc3 fa3c cef7 c43d
00000160: 3e24 c33d 17d5 823d 427a f23d 61fa 7bbb
00000170: 45e1 233c ac70 83bc 0761 c1bd 7a3b 483d
00000180: 6de5 21bd 2ea2 7dbd 5b85 bfbc 6357 dcbd
00000190: b916 35bd 8d15 9ebd 18ff 003d daea c33d
000001a0: e976 2e3c daed 353d db77 993d 3f2e ac3d
000001b0: a0bc 0cbc c918 873c 6fb7 c03d 45a0 6d3d
000001c0: c066 933d 91ba 9abc 8692 a6bd d7ad 55bd
000001d0: 292f 613c 69ad 93bd 6220 c3bd 4768 533a
000001e0: 24ab b4bd 9d5f ab3c 3dc0 4f3c 6393 73bc
000001f0: a2aa 993b 3f77 00be 2b94 6d3c 6a0c 85bd
00000200: ce44 1a3b 3073 793c 52ab 0dbe 92dd 5e3d
00000210: 87aa ce3d ded3 1dbd f535 b53b c4a8 963d
00000220: 1fd6 d43c 5339 323d 0d1d 8dbd 9b92 9cbd
00000230: e98e d4bd 530a 0e3c cc1d c1bc 8379 1ebd
00000240: e20f 9fbd 7cce c03c 0a9b c73c 373f cd3d
00000250: 8a48 703d e9fe a13c 1816 1b3d d483 f8bd
00000260: 5a75 0a3e cb04 96bd aed6 623d 6219 bfbd
00000270: a050 7abd dc77 b4bc 48e5 23bd bb83 833c
00000280: b707 fe3d e1be 7c3d 2b05 c2bc e76e 123d
00000290: 77d3 d6bd 0310 81bc 5b6f 2dbd 1ad6 9f3c
000002a0: 758f 573d b386 8fbd f798 c1bc abe0 98bd
000002b0: cef1 783c 25a4 803d 0769 74bd e9e0 0cbd
000002c0: 6f18 47bd e395 dabd 6c4c 92bd 087f d6bd
000002d0: 3afc 5ebd 4b47 a4bd 424a 4bbd 4a45 893d
000002e0: 9abf 0dbe 57dd 46bd 5ed6 6abb ce75 e63c
000002f0: 44af 103d fe3a 43bd 688c 81bd 3f97 503d
00000300: 25dc b5bd f8a2 413d 8086 b33d fd20 1d3e
00000310: bb13 fc3c e766 3fb9 a40c aa39 adce ba3d
00000320: e231 cbbc 118b 0cbe 8fc2 8fbc f3ea c5bd
00000330: 9e0e 93bd 4ce9 933d 5558 05be fd1a f0bc
00000340: 45ff cb3d 8401 adbd 8b18 303e c665 04be
00000350: ef9a 113e 6aa5 75bb 3d82 8e3d 117c eb3d
00000360: 8193 8a3c cd86 f2bd a793 17bd 1cb4 553d
00000370: 2a1d 5ebd 6140 55bd 2b22 5a3d 41c4 bb3d
00000380: f998 0cbe 89f2 0d3e d70d 1abe 984a 18bd
00000390: 156d bdbc d0bd c63c 146e 223e a391 a53c
000003a0: ab19 e0bd 0779 32be c130 b03c 1f3a fc3a
000003b0: 53f1 eb3d b77f 0cbe 25d5 d3bd 9530 0dbe
000003c0: 7950 42bd c8c9 17be 09c6 653c 5d9f 783d
000003d0: e48e 603d 5801 063e d864 353e f95a ccbc
000003e0: f02c f8bc 9cc5 5cbd 2fd1 e0bd f184 06be
000003f0: ba4c 86bd df2c 8abd bac0 f3bc e6eb 213e
0.08004025 0.11388123 0.001719579 0.07976921 0.008650476 -0.08258768 0.045747004 -0.07923292
0.099855304 -0.09810766 0.106415875 5.7986337e-05 -0.050472815 -0.12044903 -0.10391092 0.109594055
0.040718276 -0.12990245 0.036327623 -0.020234123 0.02170506 -0.14018576 -0.014853993 -0.010134934
-0.011797237 -0.06888078 -0.08077559 0.101239845 -0.00045931098 -0.049243584 0.060501207 -0.06617016
-0.005867014 0.09394867 0.028990211 -0.03779258 0.048079435 -0.08298197 0.054041434 0.08286463
0.1456661 0.0019044825 -0.07133382 0.08624203 -0.10667637 0.025590759 0.13414006 -0.007947894
-0.047545608 0.10804392 -0.122550674 -0.04623836 -0.079826675 0.09576173 -0.047560122 0.10297547
-0.10588256 0.026729478 0.10783996 0.055984735 -0.06620545 0.1147496 -0.055642694 -0.04929163
0.08715815 -0.055705238 0.06408363 0.062291168 0.066140436 0.08029339 -0.07396851 -0.096791714
0.016874077 0.026877237 -0.08049769 -0.002058865 0.018747615 0.027754338 0.066702865 0.027191147
0.08882321 0.03870757 0.084514886 -0.029690651 -0.112923644 0.12754302 0.03061088 0.096175775
0.09528397 0.063883 0.11839725 -0.0038448798 0.010002439 -0.016044937 -0.094423346 0.048884846
-0.039525438 -0.061922245 -0.023379019 -0.10758855 -0.044211123 -0.07718954 0.031493276 0.09566279
0.010648468 0.044416286 0.07493564 0.08407258 -0.008589894 0.01649131 0.09409987 0.058014173
0.071973324 -0.01888779 -0.08133416 -0.05216774 0.013744154 -0.0721081 -0.09527661 0.000806455
-0.08821705 0.020919615 0.0126801105 -0.014866683 0.0046895305 -0.12545489 0.014500658 -0.064965084
0.0023539546 0.015225217 -0.13834885 0.054410525 0.10091119 -0.03853213 0.005530114 0.07356408
0.025981007 0.0435117 -0.068903066 -0.0764515 -0.103788204 0.008669454 -0.023573779 -0.0386901
-0.07766701 0.02353596 0.02436592 0.10021823 0.05866293 0.019774871 0.037862867 -0.12134519
0.13521329 -0.07325133 0.055380516 -0.09331013 -0.061112046 -0.02202981 -0.04001358 0.016054025
0.12403815 0.061705474 -0.023684105 0.035750296 -0.104895525 -0.015754705 -0.042342525 0.019511271
0.052627046 -0.07008114 -0.02363251 -0.07464727 0.0151943695 0.06281308 -0.059670474 -0.03439418
-0.048607286 -0.1067312 -0.071434826 -0.10473448 -0.05443976 -0.080214106 -0.049631365 0.06702669
-0.13842621 -0.04855093 -0.003583334 0.028132346 0.035323396 -0.04766368 -0.063256085 0.05092549
-0.0887988 0.04727456 0.08765888 0.15344615 0.030771127 -0.00018253514 0.00032434345 0.091214515
-0.02480406 -0.13724925 -0.017548827 -0.09663954 -0.071805224 0.07222232 -0.13021977 -0.029309744
0.09960798 -0.08447555 0.17196862 -0.12929448 0.14219259 -0.0037482628 0.06958435 0.11498273
0.016916038 -0.118421175 -0.037006047 0.05217372 -0.05422703 -0.05206335 0.05325524 0.09168292
-0.1373023 0.13862051 -0.15044342 -0.037180513 -0.023123303 0.024260432 0.15862304 0.020211047
-0.10942396 -0.17428981 0.021507623 0.0019243396 0.11520638 -0.13720594 -0.103433885 -0.13788064
-0.047440026 -0.14823067 0.014024266 0.060698856 0.05482377 0.1308645 0.1771425 -0.024945723
-0.030294865 -0.053899392 -0.109773986 -0.1313665 -0.06557603 -0.0674684 -0.029754985 0.15812644
