models/autoencoders/msft_lstm_autoencoder.pth (torch, 228008 bytes, 14 tensors)

encoder.lstm.weight_ih_l0 f4 [256, 5]
-0.062434345 0.035391796 -0.14735483 0.02379112 0.24240726 0.09962244 0.15781717 -0.025043983
0.096532434 0.0119746355 -0.012310574 -0.029055605 0.0048500085 0.12697229 -0.012373707 0.03806056
0.020362847 0.057328988 0.058484316 0.050285272 0.09722283 -0.020443771 -0.08040897 0.07561173
0.11032157 -0.09226518 -0.06533807 0.12975125 -0.06506828 0.09345402 -0.041208465 0.05390261
0.058794938 0.05560052 0.15786673 -0.105617374 0.03461074 0.034353286 -0.022878742 -0.026929492
0.1239156 -0.00075917 -0.031044915 -0.010068298 0.0052006356 0.13043472 -0.009382883 -0.034876447
0.10585917 0.035151687 -0.06581407 0.028019764 -0.014422624 -0.023672562 -0.044942334 -0.08522376
0.018851692 0.12752122 0.10732349 -0.05758017 0.058405943 0.09525641 -0.01473882 -0.08489896
0.14647005 -0.013709966 -0.10781101 0.12996368 -0.108792 -0.037298735 -0.03013751 -0.036514986
-0.003930054 0.074240774 -0.07075132 -0.06669184 -0.028873768 0.049097493 -0.056755655 -0.049847633
-0.09192011 0.025470046 0.00639817 0.11182715 0.016784431 -0.09338688 -0.0058648987 -0.0696347
0.1457363 0.13891326 -0.073793024 -0.06409214 -0.04530011 0.029053086 0.018468844 -0.023429044
0.10054291 0.043004833 0.064199984 0.020224947 0.04899405 -0.06519033 0.034392375 0.011291172
0.1503984 0.04116358 0.031218078 -0.024934813 0.054538563 0.040925328 0.09059035 0.087733425
0.11551559 0.03711174 -0.106667474 0.12678553 0.13317135 0.07661959 -0.056884278 0.19314781
0.11902934 0.10878783 -0.07173863 0.057550985 0.11177081 0.060326513 0.13080603 0.01325119
-0.06301711 -0.0382797 -0.09036729 -0.094296694 0.13754223 0.10899709 -0.058685537 0.06092129
-0.10102755 -0.09475505 0.14095598 -0.03235822 -0.036023505 -0.034899365 -0.111002706 -0.0800525
0.06521731 0.07879499 0.04872805 -0.07392928 0.1324361 -0.069866955 0.021294698 0.10266354
-0.049003355 -0.067581475 0.01041243 0.11393622 -0.11266821 -0.06061221 0.06457764 0.12686472
0.015684899 0.10039381 -0.093336426 0.061735015 -0.06281801 0.024356512 0.08341171 0.062413577
0.129031 -0.074697234 -0.020438788 -0.00070852897 0.09403366 -0.10692347 -0.027771026 0.104295515
-0.062002532 0.04416115 0.102454364 -0.13413206 -0.08062147 0.15560165 0.05170732 0.028485755
0.035465047 -0.06848801 0.056358896 -0.07912539 -0.033320673 0.06618858 0.115660444 -0.024120603
0.084933154 -0.09375011 0.031782087 -0.011524923 -0.004330005 -0.09247947 0.14991036 0.11159502
0.085347675 -0.027015526 -0.11506894 0.11329877 -0.040428028 -0.0038800314 0.07592557 -0.05181398
-0.046644088 -0.09495534 0.029695155 -0.0705405 0.08708284 0.019384349 0.09311304 0.0458367
0.11922656 0.08567707 0.12002476 -0.13940953 -0.13208082 -0.041329566 0.08693047 0.063808866
-0.005508501 0.008089852 0.060544033 0.055930734 -0.023136336 0.115110114 0.0520251 -0.10231299
0.07250604 0.10130232 -0.08008372 -0.05865475 0.010515908 0.03441012 -0.051266756 -0.03889779
0.04568707 -0.07005682 -0.0034465473 0.108423255 -0.052214842 -0.008281419 -0.09792107 0.086591445
0.018412538 -0.052427858 -0.04375479 0.041539498 0.0011000353 -0.0006943315 0.09978193 -0.03615787
00000000: 28bb 7fbd fdf6 103d 2fe4 16be 98e5 c23c
00000010: 9c39 783e da06 cc3d d39a 213e 0a29 cdbc
00000020: ccb2 c53d 4331 443c 4ab2 49bc 0506 eebc
00000030: d2ec 9e3b 0605 023e 17bb 4abc 64e5 1b3d
00000040: fccf a63c cdd1 6a3d 408d 6f3d eef7 4d3d
00000050: c31c c73d b279 a7bc 75ad a4bd 53da 9a3d
00000060: 46f0 e13d 87f5 bcbd f7cf 85bd 83dd 043e
00000070: 8542 85bd d264 bf3d 35ca 28bd fcc8 5c3d
00000080: f6d2 703d 5fbd 633d d1a7 213e ec4d d8bd
00000090: fec3 0d3d 08b6 0c3d 336c bbbc 3d9b dcbc
000000a0: 76c7 fd3d 0903 47ba e851 febc 81f5 24bc
000000b0: 186a aa3b ae90 053e aaba 19bc 9bda 0ebd
000000c0: b1cc d83d 37fb 0f3d 87c9 86bd b489 e53c
000000d0: df4c 6cbc f6ec c1bc 7415 38bd cb89 aebd
000000e0: dd6e 9a3c ec94 023e 6bcc db3d 2fd9 6bbd
000000f0: 123b 6f3d cb15 c33d 177b 71bc 82df adbd
00000100: 3ffc 153e c49f 60bc 05cc dcbd 3315 053e
00000110: 57ce debd 8fc6 18bd f0e2 f6bc bd90 15bd
00000120: afc7 80bb 8c0b 983d 11e6 90bd bb95 88bd
00000130: ae88 ecbc 741a 493d 9e78 68bd 082d 4cbd
00000140: 9c40 bcbd 8fa6 d03c bda7 d13b a205 e53d
00000150: 817f 893c 9f41 bfbd 562e c0bb a39c 8ebd
00000160: e63b 153e 473f 0e3e cc20 97bd bd42 83bd
00000170: 9c8c 39bd bd00 ee3c f94b 973c 44ee bfbc
00000180: 71e9 cd3d d625 303d 487b 833d caae a53c
00000190: fcad 483d 8282 85bd 05df 0c3d 9cfe 383c
000001a0: 0a02 1a3e 249b 283d 0ebd ff3c 1844 ccbc
000001b0: d463 5f3d 51a1 273d 6f87 b93d 95ad b33d
000001c0: 7093 ec3d 7b02 183d 7a74 dabd 11d4 013e
000001d0: 125e 083e bbea 9c3d 7dff 68bd 8ac8 453e
000001e0: a8c5 f33d 27cc de3d b4eb 92bd 95ba 6b3d
000001f0: 18e8 e43d ef18 773d 04f2 053e 851b 593c
00000200: 1d0f 81bd 2dcb 1cbd 7c12 b9bd a01e c1bd
00000210: dfd7 0c3e de39 df3d 3f60 70bd 9a88 793d
00000220: 88e7 cebd f00e c2bd c456 103e 0e8a 04bd
00000230: 628d 13bd a3f2 0ebd 6355 e3bd 91f2 a3bd
00000240: a790 853d 455f a13d 1097 473d 3c68 97bd
00000250: 549d 073e 6816 8fbd 3872 ae3c 4341 d23d
00000260: beb7 48bd 2868 8abd e698 2a3c 6557 e93d
00000270: 97be e6bd 8244 78bd 4841 843d d3e8 013e
00000280: 9e7d 803c 459b cd3d 2b27 bfbd dbdd 7c3d
00000290: bba6 80bd 4f87 c73c c2d3 aa3d 61a5 7f3d
000002a0: b420 043e ddfa 98bd 3f6f a7bc 93bc 39ba
000002b0: b894 c03d b1fa dabd 1080 e3bc e398 d53d
000002c0: 5ef6 7dbd 52e2 343d 98d3 d13d ea59 09be
000002d0: df1c a5bd 0a56 1f3e 0ecb 533d f55a e93c
000002e0: cc43 113d 7143 8cbd 96d8 663d 7e0c a2bd
000002f0: 427b 08bd e18d 873d 62df ec3d 9298 c5bc
00000300: 6ff1 ad3d 0f00 c0bd ef2d 023d 08d3 3cbc
00000310: b7e2 8dbb e065 bdbd 1a82 193e ee8b e43d
00000320: c3ca ae3d aa4f ddbc 44a9 ebbd 2f09 e83d
00000330: dc97 25bd 2048 7ebb de7e 9b3d e53a 54bd
00000340: df0d 3fbd f277 c2bd 4143 f33c 8a77 90bd
00000350: 7d58 b23d edcb 9e3c 0db2 be3d 43bf 3b3d
00000360: 0e2d f43d 7677 af3d 8bcf f53d 5fc1 0ebe
00000370: 3240 07be 3149 29bd 9a08 b23d 39ae 823d
00000380: a880 b4bb 4c8b 043c 05fd 773d a017 653d
00000390: 6a88 bdbc dabe eb3d 4518 553d 7989 d1bd
000003a0: 0c7e 943d 9777 cf3d ef02 a4bd f73f 70bd
000003b0: ea4a 2c3c a0f1 0c3d 17fd 51bd 4a53 1fbd
000003c0: 5d22 3b3d f379 8fbd 78df 61bb 030d de3d
000003d0: 3bdf 55bd caae 07bc d88a c8bd db56 b13d
000003e0: e4d5 963c 98be 56bd 3938 33bd 5225 2a3d
000003f0: 0f2f 903a cc03 36ba 785a cc3d 461a 14bd

encoder.lstm.weight_hh_l0 f4 [256, 64]
-0.0066036484 -0.09128589 -0.09888103 -0.070264064 -0.0020234133 0.14719036 -0.0005773359 0.097962804
-0.00652344 -0.07747851 -0.14328656 -0.16221593 0.117670484 -0.14577284 -0.0804721 -0.011987242
-0.017330643 -0.06095624 0.045799542 0.1737148 0.034132555 -0.074967146 0.06887035 -0.08581144
-0.17041086 0.051177 0.14710833 0.006450883 -0.03876723 0.043903932 -0.0836138 -0.058748603
0.050536852 0.071689904 0.13234112 0.102137 -0.060554713 0.024116596 0.09119141 0.0026280805
-0.07374686 -0.0063594 0.07934267 -0.07765633 0.08172057 0.0016364262 0.044819437 0.00047660957
0.1139692 0.13465407 0.066064455 0.07202708 0.12127306 0.099484995 0.007301883 -0.0030691444
0.06549579 0.010808951 0.018968554 -0.03704997 -0.06320869 0.038792975 -0.07737915 -0.038991503
0.07559248 -0.10259781 -0.00431937 -0.05431858 -0.00012129733 0.06717095 0.08226825 0.035683796
0.043666914 -0.07131326 0.034377664 0.038331997 0.08078467 -0.09479337 -0.059252005 0.09242033
0.073512994 0.067876846 0.009012964 -0.034416776 -0.028851958 -0.077631794 -0.11006315 0.052015685
-0.015819822 0.13694063 0.09441896 0.008626212 0.10159127 -0.011679374 0.040548597 -0.10004443
0.04332124 -0.006725449 -0.0063444762 0.09692344 0.04602927 -0.14757818 0.029163497 -0.041097593
0.037578363 -0.022360407 0.06496902 -0.023487044 -0.06931862 -0.01040466 -0.12558211 0.081252985
0.082431376 0.007635715 0.024581447 -0.14945205 0.022543853 -0.025550801 -0.07589759 -0.09864946
-0.14396721 0.073837884 -0.031099344 0.014514525 -0.004198953 -0.14121123 -0.008781635 -0.06526022
-0.11702489 0.066981286 0.11834496 0.027850522 0.006592853 -0.112114616 -0.05658072 -0.0070278454
-0.074980326 0.029185515 0.062843226 -0.077097856 0.11413412 0.042870864 -0.016785074 0.014704451
0.14039288 0.039779473 0.042012457 -0.034292113 0.12640072 0.042793423 0.015821736 -0.0045052655
-0.038721524 -0.08162273 -0.016465673 0.045074187 -0.03652978 0.12937802 0.12618604 -0.0029910565
0.09837594 -0.106034584 -0.05376819 -0.07911298 0.06497155 0.03854633 0.07802048 -0.08250181
-0.11130995 -0.118815936 0.08358433 0.0070876763 -0.09292329 -0.10779878 0.017072318 0.068415605
0.10244854 -0.06346126 -0.09442281 -0.06122495 0.0507939 0.07868018 0.091857806 -0.11528011
0.018849771 0.034748048 0.020570772 0.04536159 -0.08336676 -0.037500747 -0.04677207 0.016762728
0.13087146 0.028325627 -0.11760559 -0.028916093 0.08703716 0.072762474 -0.030724311 -0.043806467
-0.051022574 -0.093493715 -0.09161491 0.007809845 0.11236381 0.048423238 -0.124227054 0.015822139
-0.021220071 0.07377505 0.061231576 0.099414505 -0.08389877 0.11740682 0.029134804 -0.08215478
-0.03440077 -0.09029869 0.007360578 -0.005171367 -0.04686475 0.043435585 -0.036292598 -0.010064223
-0.0043931836 0.0057966644 0.014359485 -0.033858333 0.0629706 0.08804889 0.03809493 0.027638143
0.11311124 -0.10515865 -0.107318774 -0.05744287 0.018627187 -0.11764623 0.0319488 0.10428217
-0.0347461 0.0509104 -0.11833946 -0.08033418 0.04382084 0.13219939 0.13043925 -0.064931445
-0.103565656 0.10559309 -0.03381185 0.09680438 0.07102259 0.00953185 0.093465686 0.0727269
00000000: 6b63 d8bb 19f4 babd 2382 cabd 9be6 8fbd
00000010: 3e9b 04bb 12b9 163e 5b58 17ba b9a0 c83d
00000020: 95c2 d5bb 0ead 9ebd b6b9 12be ef1b 26be
00000030: 39fd f03d 7a45 15be 8ece a4bd 2366 44bc
00000040: fef8 8dbc 40ad 79bd 4d98 3b3d 4be2 313e
00000050: 94ce 0b3d 6088 99bd e60b 8d3d e9bd afbd
00000060: 2f80 2ebe f99e 513d 91a3 163e ee61 d33b
00000070: 63ca 1ebd 9cd4 333d b63d abbd 60a2 70bd
00000080: bbff 4e3d 28d2 923d 6e84 073e 342d d13d
00000090: 3808 78bd 2b90 c53c 90c2 ba3d e03b 2c3b
000000a0: 9808 97bd 8462 d0bb 697e a23d 480a 9fbd
000000b0: 1d5d a73d 5a7d d63a 9694 373d 74e1 f939
000000c0: af68 e93d c2e2 093e cd4c 873d ef82 933d
000000d0: 035e f83d cabe cb3d a244 ef3b b323 49bb
000000e0: a822 863d 0718 313c f163 9b3c b6c1 17bd
000000f0: 8f73 81bd 62e5 1e3d f678 9ebd 8eb5 1fbd
00000100: 3bd0 9a3d cd1e d2bd 8089 8dbb 297d 5ebd
00000110: 0261 feb8 ec90 893d 427c a83d 2c29 123d
00000120: 14dc 323d b00c 92bd 98cf 0c3d 0302 1d3d
00000130: 6f72 a53d 0723 c2bd 3bb2 72bd df46 bd3d
00000140: fb8d 963d 0403 8b3d 1cab 133c 9bf8 0cbd
00000150: f15a ecbc 6bfd 9ebd ca68 e1bd 660e 553d
00000160: 9298 81bc 2a3a 0c3e ba5e c13d f554 0d3c
00000170: 150f d03d d85a 3fbc 4916 263d 18e4 ccbd
00000180: 9d71 313d 2861 dcbb 53e5 cfbb cc7f c63d
00000190: 3089 3c3d bc1e 17be 49e8 ee3c f355 28bd
000001a0: c5eb 193d 2c2d b7bc 7a0e 853d e767 c0bc
000001b0: ecf6 8dbd 4f78 2abc 9998 00be f767 a63d
000001c0: c8d1 a83d 0535 fa3b 085f c93c f509 19be
000001d0: e3ad b83c ea4f d1bc 3270 9bbd ba08 cabd
000001e0: 246c 13be 5138 973d 0dc4 febc 55ce 6d3c
000001f0: 5f97 89bb ad99 10be d9e0 0fbc 26a7 85bd
00000200: bfaa efbd 7c2d 893d d85e f23d c726 e43c
00000210: dc08 d83b 599c e5bd 2fc1 67bd d749 e6bb
00000220: 498f 99bd 7616 ef3c f3b3 803d 7be5 9dbd
00000230: 26bf e93d 5c99 2f3d da80 89bc f0ea 703c
00000240: 27c3 0f3e cdef 223d 4115 2c3d e375 0cbd
00000250: 316f 013e 2848 2f3d 969c 813c e8a0 93bb
00000260: 769a 1ebd d129 a7bd 05e3 86bc b69f 383d
00000270: 40a0 15bd ac7b 043e ea36 013e 9a05 44bb
00000280: 5379 c93d a928 d9bd 093c 5cbd fc05 a2bd
00000290: ce0f 853d c2e2 1d3d 34c9 9f3d b5f6 a8bd
000002a0: 79f6 e3bd c555 f3bd 432e ab3d bd3f e83b
000002b0: 914e bebd 9bc5 dcbd 3fdb 8b3c 7b1d 8c3d
000002c0: 8ad0 d13d faf7 81bd bf60 c1bd 03c7 7abd
000002d0: 440d 503d 1323 a13d f21f bc3d fa17 ecbd
000002e0: d66a 9a3c f853 0e3d 0984 a83c 13cd 393d
000002f0: 31bc aabd 629a 19bd 1294 3fbd fd51 893c
00000300: 2b03 063e 250b e83c 33db f0bd 71e1 ecbc
00000310: 8a40 b23d 7e04 953d 8db1 fbbc 696e 33bd
00000320: 0cfd 50bd a279 bfbd 99a0 bbbd bae9 ff3b
00000330: ff1e e63d 7257 463d c16a febd 6e9d 813c
00000340: b7d5 adbc 6017 973d f6cd 7a3d d599 cb3d
00000350: 1ed3 abbd fd72 f03d 1dac ee3c c440 a8bd
00000360: d2e7 0cbd 85ee b8bd 0131 f13b 9274 a9bb
00000370: 41f5 3fbd 83e9 313d 8ca7 14bd 69e4 24bc
00000380: b2f4 8fbb f2f1 bd3b 0c44 6b3c 09af 0abd
00000390: bbf6 803d fa52 b43d 6e09 1c3d 6369 e23c
000003a0: dea6 e73d 6b5d d7bd f2c9 dbbd 3749 6bbd
000003b0: 0b98 983c 82f0 f0bd bfdc 023d e491 d53d
000003c0: ed51 0ebd 6c87 503d f55b f2bd 3f86 a4bd
000003d0: 7b7d 333d 475f 073e de91 053e c7fa 84bd
000003e0: 3b1a d4bd 3141 d83d 4b7e 0abd 6041 c63d
000003f0: 4b74 913d 7a2b 1c3c f06a bf3d d7f1 943d

encoder.lstm.bias_ih_l0 f4 [256]
0.11565964 -0.007182316 -0.07778455 0.045294266 -0.04403912 0.008592474 0.1314686 0.07414266
0.0745875 -0.05885199 -0.012041014 0.1264652 0.067526795 -0.084503 0.12138731 0.13647924
0.059286192 0.021885479 0.07663975 0.1447032 0.05518277 -0.03361985 -0.12744199 -0.00039290072
0.111368686 -0.07335575 0.062988974 -0.083515875 0.049980387 -0.09880029 -0.09908758 -0.051022634
0.07695472 0.12337747 0.124787 0.01607412 0.13146622 -0.08600122 0.030466055 -0.004842847
-0.060798496 0.059026863 0.051445123 0.041889124 0.0008644674 -0.066639885 -0.054318804 -0.049213
0.050507832 0.004644456 -0.027448747 0.016519275 0.12566979 -0.0033990298 -0.10210449 0.0366044
0.0750616 0.06657921 0.019227365 0.017075835 -0.079741865 -0.07910464 0.0758721 -0.064113475
-0.044620782 0.055869933 0.05855346 0.10272274 -0.046077438 -0.03195982 0.05835231 0.09925476
0.10614181 -0.08854141 0.04886798 0.05519959 0.0059102336 0.0072866157 -0.0743527 -0.014096302
0.01700301 -0.05680251 -0.09221394 0.0722599 -0.078720406 -0.07593593 0.08661687 0.14805666
0.08793965 -0.031906754 -0.09483711 0.11509702 -0.07884551 0.04400867 -0.09613464 -0.059116393
-0.040731963 0.06756425 0.025432931 -0.018337255 0.044176236 -0.085520126 0.08084369 0.07673878
0.01227814 0.07239125 0.05677338 0.00045405867 -0.068430364 -0.0061516115 -0.074214935 -0.083338924
-0.039826706 -0.005396478 -0.032968547 -0.038719144 0.08821015 0.06451962 0.11846808 0.022067405
0.031665307 -0.046743304 0.09707547 0.12565894 0.05336666 -0.10621931 -0.087185256 0.09180105
-0.065098725 -0.09392482 -0.00635278 -0.05607564 0.02882204 0.11513507 0.013247606 0.095591985
-0.0036452613 -0.04428617 0.016385445 -0.085708484 -0.08478837 0.0037706522 -0.11212481 -0.05985467
-0.03247447 0.034147926 0.0035360763 0.09943174 0.06874327 0.047496457 -0.0798548 0.08020644
0.0763125 -0.12005528 0.04614299 0.11159501 -0.025858212 0.02669626 -0.040908534 0.020683888
-0.055150118 0.016825361 0.02990938 -0.09929179 0.072517574 -0.06830966 0.08868967 0.10447373
-0.12640966 -0.049676575 0.08249644 0.041716628 -0.077366814 0.07229316 -0.068735234 -0.05765539
-0.026682885 -0.10867194 -0.109650895 -0.039555565 0.054826736 -0.01188589 -0.0023783965 -0.09449766
-0.0753359 -0.058874663 0.014323673 -0.002993549 0.05544968 -0.09635558 -0.06445581 -0.024688534
-0.09496222 -0.045553867 -0.05779161 -0.020294443 0.0510902 0.14976539 0.11283294 0.004764943
-0.031234607 0.12119372 -0.045939717 0.13372812 -0.06094757 0.043680944 0.068483 0.08701803
-0.016821349 -0.05533355 -0.10432208 0.023258273 -0.08680767 -0.105679944 0.0085530905 -0.087894395
-0.06520312 -0.0066169845 0.07472066 -0.08983349 -0.048825413 0.0068374514 -0.03791021 -0.035671763
0.07544311 -0.039318144 0.014702008 0.005204098 0.080492094 -0.022934651 -0.070518635 -0.06664863
0.016176231 0.014062829 0.13802801 -0.09897532 -0.1279261 -0.05313227 -0.11649819 -0.09318855
-0.12373605 0.113090314 0.09983977 0.025858706 -0.07309063 0.09627989 0.12076295 -0.0490692
-0.08116894 0.016650956 0.08308605 0.07955218 0.042014346 0.01963059 0.0022607136 -0.07304581
00000000: f6de ec3d a259 ebbb 824d 9fbd 7b86 393d
00000010: 5d62 34bd 73c7 0c3c b49f 063e 1bd8 973d
00000020: 55c1 983d c90e 71bd ac47 45bc 1880 013e
00000030: 7d4b 8a3d e90f adbd e999 f83d 37c1 0b3e
00000040: 14d6 723d 2d49 b33c 4df5 9c3d 132d 143e
00000050: 5407 623d f8b4 09bd 2780 02be 3efe cdb9
00000060: 4415 e43d 8a3b 96bd 5d00 813d 5f0a abbd
00000070: 3cb8 4c3d ce57 cabd 6eee cabd 1cfd 50bd
00000080: 709a 9d3d 54ad fc3d 5490 ff3d dfad 833c
00000090: 159f 063e 6821 b0bd f393 f93c bfb0 9ebb
000000a0: d807 79bd 27c6 713d 1fb8 523d ee93 2b3d
000000b0: 6d9d 623a 7e7a 88bd 657d 5ebd 9293 49bd
000000c0: 4de1 4e3d 8530 983b 32dc e0bc 6e53 873c
000000d0: 95af 003e 42c2 5ebb 291c d1bd 7fee 153d
000000e0: e5b9 993d ae5a 883d b582 9d3c 9fe2 8b3c
000000f0: b44f a3bd 9d01 a2bd d562 9b3d ed4d 83bd
00000100: 48c4 36bd dfd7 643d c1d5 6f3d 4d60 d23d
00000110: b2bb 3cbd 4de8 02bd d502 6f3d 1446 cb3d
00000120: e160 d93d 3355 b5bd ca29 483d f718 623d
00000130: a2aa c13b 90c4 ee3b 3a46 98bd 2df4 66bc
00000140: e549 8b3c c0a9 68bd aada bcbd 00fd 933d
00000150: 2a38 a1bd 4c84 9bbd 2f64 b13d 2a9c 173e
00000160: b419 b43d a8b0 02bd f539 c2bd fdb7 eb3d
00000170: c179 a1bd 6f42 343d 3de2 c4bd 0824 72bd
00000180: 8fd6 26bd 205f 8a3d b958 d03c 0338 96bc
00000190: 24f2 343d 2d25 afbd 6091 a53d 3929 9d3d
000001a0: 402a 493c dd41 943d 348b 683d b90e ee39
000001b0: 3825 8cbd 7593 c9bb 00fe 97bd 99ad aabd
000001c0: 5421 23bd f0d4 b0bb 070a 07bd f797 1ebd
000001d0: 86a7 b43d dd22 843d 659f f23d b4c6 b43c
000001e0: 7bb3 013d e875 3fbd 81cf c63d bdac 003e
000001f0: 0097 5a3d 8289 d9bd 2f8e b2bd 3002 bc3d
00000200: 7b52 85bd a85b c0bd fb2a d0bb 92af 65bd
00000210: 331c ec3c f0cb eb3d 7d0c 593c bbc5 c33d
00000220: 56e5 6ebb 6a65 35bd c53a 863c ee87 afbd
00000230: 86a5 adbd 0c1d 773b b1a1 e5bd 2c2a 75bd
00000240: f303 05bd b2de 0b3d 84bd 673b dea2 cb3d
00000250: 46c9 8c3d a58b 423d ea8a a3bd 4643 a43d
00000260: ba49 9c3d 8bdf f5bd 6f00 3d3d ed8b e43d
00000270: 9ad4 d3bc 1db2 da3c b58f 27bd 4271 a93c
00000280: 17e5 61bd 57d5 893c 8404 f53c 7e59 cbbd
00000290: 1884 943d efe5 8bbd eea2 b53d 53f6 d53d
000002a0: 8971 01be aa79 4bbd e5f3 a83d 0edf 2a3d
000002b0: 7e72 9ebd 700e 943d 0fc5 8cbd 0f28 6cbd
000002c0: 1196 dabc 658f debd a690 e0bd 0405 22bd
000002d0: 0092 603d 09bd 42bc dfde 1bbb fd87 c1bd
000002e0: b549 9abd 8f26 71bd d7ad 6a3c 6b2f 44bb
000002f0: 341f 633d 1356 c5bd 6801 84bd 9c3f cabc
00000300: 8d7b c2bd b196 3abd e5b6 6cbd 8840 a6bc
00000310: f543 513d 195c 193e f514 e73d 3d23 9c3b
00000320: b8df ffbc 6a34 f83d 492b 3cbd 06f0 083e
00000330: 29a4 79bd caea 323d d140 8c3d 8236 b23d
00000340: edcc 89bc 6fa5 62bd d1a6 d5bd 2288 be3c
00000350: 38c8 b1bd ba6e d8bd 4322 0c3c fa01 b4bd
00000360: 3789 85bd 4ad3 d8bb 2507 993d 9ffa b7bd
00000370: 28fd 47bd b30c e03b bd47 1bbd 8e1c 12bd
00000380: eb81 9a3d 100c 21bd b1e0 703c 2387 aa3b
00000390: 0ad9 a43d 73e1 bbbc 136c 90bd 147f 88bd
000003a0: 0484 843c c867 663c 3757 0d3e 93b3 cabd
000003b0: 0fff 02be 39a1 59bd 9a96 eebd a3d9 bebd
000003c0: 5469 fdbd e59b e73d cb78 cc3d a3d5 d33c
000003d0: 8ab0 95bd 642e c53d 9152 f73d c9fc 48bd
000003e0: e73b a6bd 9667 883c 0529 aa3d 41ec a23d
000003f0: 3c17 2c3d 55d0 a03c 7b28 143b 0b99 95bd

encoder.lstm.bias_hh_l0 f4 [256]
-0.08473608 0.08860339 -0.038441528 0.067393884 0.07332741 0.006906256 -0.1061628 -0.055357847
0.110409565 0.10253689 -0.07649259 0.019583365 -0.07625956 -0.026544705 0.029199572 0.0554228
0.060997546 0.061304078 0.06496255 0.022406578 0.05967766 0.060728107 -0.084628075 0.0971068
0.026410505 -0.06556193 -0.017357804 -0.012410565 0.09611454 0.115732655 -0.1351566 -0.034010444
-0.022688787 -0.10012779 -0.043653514 0.04683856 0.13235685 -0.038637534 0.02132384 -0.0048607583
-0.024360402 -0.112964585 -0.011909873 0.078520454 0.07299401 0.11539997 -0.033877574 0.12374319
0.01855607 -0.11937497 0.06144645 -0.109371774 0.14292774 -0.13338572 0.0796692 0.019797726
-0.13143533 0.12849844 0.11035146 -0.057492387 -0.09878856 0.06371357 -0.06277732 0.08211966
0.048734687 0.15000463 0.050645147 -0.041846845 -0.017257243 -0.005948762 -0.0028589447 -0.0801899
-0.09163491 0.12376898 -0.023848576 0.12604243 -0.06611574 0.10200533 -0.11200367 -0.083007
0.13729581 -0.017506337 -0.11963237 0.04400176 -0.06645797 0.11219682 0.03570906 -0.013804621
-0.04350096 0.056083053 0.053208187 0.0789988 -0.106809214 -0.057669517 0.08825799 -0.03918931
-0.09687139 -0.06622321 0.047762875 -0.1284009 0.004387536 0.13705096 -0.07673606 -0.04288723
0.022011474 -0.07625477 0.07170734 0.045360178 -0.14452295 -0.039236147 0.03607763 -0.0015121147
-0.08179433 -0.015064123 -0.09113172 0.05975424 -0.024146393 0.056113232 -0.008226633 0.02396416
-0.012309214 -0.08704968 0.11681914 0.11232349 0.06113684 0.028985273 0.0072012516 -0.049543135
0.07151393 0.016365003 -0.116618216 0.07852994 0.092754185 -0.071308225 -0.075746186 -0.026897306
-0.021747181 0.015275865 0.05007306 -0.002730075 0.08690931 0.05987098 -0.039573163 0.026255952
0.11383418 -0.13114454 0.046333797 0.060363848 -0.14419249 -0.112382576 -0.11400735 -0.094096065
-0.11659314 0.084155224 -0.03632838 -0.011275648 0.05154394 0.093627 0.084790185 -0.10451506
0.040483233 0.10649161 0.07325255 -0.023657618 -0.08287903 0.10286633 0.086665556 0.11855418
-0.09003849 0.053999167 0.099994875 0.046795003 0.08337441 0.08810665 -0.09842915 0.10048103
-0.06673123 -0.0022104713 0.061870027 -0.016589986 -0.050289504 0.06086338 0.118401594 -0.072948046
0.06764851 0.081852116 -0.049456917 -0.08595324 -0.06393678 -0.07405848 -0.089315146 -0.048569035
0.114609286 -0.044000298 0.081493266 0.059751853 0.08673667 -0.051450245 0.114252664 -0.05974639
-0.08499382 0.08322443 0.014532344 -0.09114492 -0.09780776 0.05018771 0.06575125 0.057322703
-0.014522493 -0.058798283 -0.035549432 -0.049383268 -0.124883205 0.056178957 -0.043189757 0.15231562
-0.024062745 0.03183537 0.03819867 0.030901793 0.004287011 -0.0027570052 -0.059655894 0.12420264
-0.041521456 0.13525945 0.018166497 -0.099829994 0.0026886722 -0.02992548 0.041923355 0.011563223
0.10932709 0.0416028 0.10394479 0.0390639 0.03335338 -0.0093399985 -0.029316472 0.10407715
-0.09766573 -0.05754374 0.103880055 0.1253746 0.012841084 0.0067051854 0.12857227 0.11114174
0.01405908 -0.106182985 0.059802704 -0.050656885 -0.08233256 -0.017081145 0.13186419 0.08460798
00000000: 1c8a adbd b275 b53d dd74 1dbd ce05 8a3d
00000010: ae2c 963d e04d e23b e26b d9bd e9be 62bd
00000020: 691e e23d dcfe d13d 26a8 9cbd 4b6d a03c
00000030: f92d 9cbd 4874 d9bc f133 ef3c 0503 633d
00000040: 90d8 793d fc19 7b3d 160b 853d 008e b73c
00000050: 9070 743d 09be 783d 7c51 adbd eedf c63d
00000060: d85a d83c 5545 86bd f431 8ebc af55 4bbc
00000070: b3d7 c43d 3e05 ed3d 7e66 0abe 894e 0bbd
00000080: d6dd b9bc cc0f cdbd 07ce 32bd cad9 3f3d
00000090: 8e88 073e 6442 1ebd 55af ae3c ff46 9fbb
000000a0: 778f c7bc fa59 e7bd a121 43bc 55cf a03d
000000b0: e27d 953d d256 ec3d 36c3 0abd 126d fd3d
000000c0: e602 983c dd7a f4bd 46af 7b3d 4ffe dfbd
000000d0: a65b 123e 4496 08be 9b29 a33d d72e a23c
000000e0: fc96 06be 1895 033e f2ff e13d 237d 6bbd
000000f0: a851 cabd 437c 823d 6591 80bd 5a2e a83d
00000100: 069e 473d d09a 193e 4971 4f3d 9967 2bbd
00000110: 105f 8dbc d5ed c2bb 225d 3bbb 9a3a a4bd
00000120: 15ab bbbd 977a fd3d 175e c3bc 4411 013e
00000130: b067 87bd 2ce8 d03d 2e62 e5bd 93ff a9bd
00000140: 4697 0c3e 7369 8fbc d101 f5bd 313b 343d
00000150: 1e1b 88bd 72c7 e53d aa43 123d c72c 62bc
00000160: 102e 32bd 58b7 653d d4f0 593d 1fca a13d
00000170: cabe dabd df36 6cbd 9bc0 b43d f884 20bd
00000180: 8264 c6bd 09a0 87bd 01a3 433d 877b 03be
00000190: 52c5 8f3b 1657 0c3e cc27 9dbd 85aa 2fbd
000001a0: 6851 b43c 762b 9cbd 4cdb 923d 98cb 393d
000001b0: d3fd 13be 15b6 20bd 23c6 133d 2632 c6ba
000001c0: c983 a7bd 83cf 76bc 44a3 babd ddc0 743d
000001d0: a8ce c5bc fdd6 653d 00c9 06bc 7c50 c43c
000001e0: 96ac 49bc 1a47 b2bd e03e ef3d dc09 e63d
000001f0: a06a 7a3d 8672 ed3c 7af8 eb3b beed 4abd
00000200: e575 923d e60f 863c 88d5 eebd 4ed4 a03d
00000210: e8f5 bd3d 0c0a 92bd d120 9bbd bd57 dcbc
00000220: 2527 b2bc 9f47 7a3c 6919 4d3d 0feb 32bb
00000230: 82fd b13d 463b 753d 7817 22bd b916 d73c
00000240: e521 e93d c14a 06be 82c8 3d3d 1540 773d
00000250: 32a7 13be d628 e6bd af7c e9bd 70b5 c0bd
00000260: 62c8 eebd 9359 ac3d 11cd 14bd 7fbd 38bc
00000270: bd1f 533d 83bf bf3d 7aa6 ad3d fe0b d6bd
00000280: bfd1 253d 4618 da3d 6f05 963d 9fcd c1bc
00000290: 7bbc a9bd 95ab d23d b67d b13d 89cc f23d
000002a0: 1a66 b8bd 3b2e 5d3d 1dca cc3d 1eac 3f3d
000002b0: 34c0 aa3d 4271 b43d 3995 c9bd 00c9 cd3d
000002c0: 62aa 88bd 8edd 10bb 6d6b 7d3d b9e7 87bc
000002d0: 5efc 4dbd e14b 793d 897c f23d c965 95bd
000002e0: 4d8b 8a3d 15a2 a73d 5693 4abd 4108 b0bd
000002f0: 49f1 82bd f9ab 97bd dcea b6bd 53f0 46bd
00000300: 46b8 ea3d a839 34bd f1e5 a63d 5cbe 743d
00000310: ffa2 b13d 7ebd 52bd 4dfd e93d a1b8 74bd
00000320: 3d11 aebd 9271 aa3d 1219 6e3c 30aa babd
00000330: 6f4f c8bd a191 4d3d 97a8 863d 36cb 6a3d
00000340: c0ef 6dbc 78d6 70bd 489c 11bd 1c46 4abd
00000350: c4c2 ffbd e81b 663d bee7 30bd a0f8 1b3e
00000360: 3c1f c5bc ce65 023d 3576 1c3d c225 fd3c
00000370: 0e7a 8c3b dfae 34bb bd59 74bd f45d fe3d
00000380: 6712 2abd 7481 0a3e e8d1 943c ab73 ccbd
00000390: 6f34 303b 4826 f5bc d3b7 2b3d ac73 3d3c
000003a0: e2e6 df3d b367 2a3d 02e1 d43d 7801 203d
000003b0: 8e9d 083d cb06 19bc 1929 f0bc 6726 d53d
000003c0: f804 c8bd fcb2 6bbd 11bf d43d 3362 003e
000003d0: 6963 523c 2cb7 db3b 73a8 033e 489e e33d
000003e0: 0e58 663c 7776 d9bd aef3 743d 987d 4fbd
000003f0: f99d a8bd c2ed 8bbc 6807 073e f346 ad3d

encoder.linear.weight f4 [32, 64]
-0.0052111335 -0.050404686 0.0968337 -0.10572395 -0.10263461 -0.077261135 -0.006638304 -0.055914927
0.069841824 0.08983557 -0.05788291 0.017913727 -0.009366737 -0.1064506 0.081623584 -0.15621077
0.0138578275 0.0036046342 0.06977181 0.02661549 -0.112295896 -0.036462635 -0.031289455 0.11151528
-0.04376684 0.033525508 0.066459 -0.064769365 0.021029694 -0.0928191 -0.069502324 -0.08773739
-0.031329777 -0.12530397 0.106921375 0.036968533 0.13338599 0.08650228 -0.011913965 0.005428319
0.03612184 -0.027197305 0.009274165 -0.04453122 -0.024909094 0.034254763 0.09222769 -0.060212355
0.10751092 -0.039271247 -0.061064072 0.13499762 0.11966602 -0.009994733 0.15922822 -0.09351316
-0.040633243 0.018585164 0.073257245 0.0327653 -0.011385899 -0.007838511 0.14339697 0.06051006
0.009900526 -0.12346956 -0.04966646 -0.06364495 -0.00087674736 -0.043004207 0.044749115 0.021566667
-0.07699683 0.00811271 -0.0071154097 0.07126365 -0.042513866 0.122225285 0.03702698 0.043525938
-0.04314473 -0.040220037 -0.017861936 -0.035654142 0.072432466 0.1424838 0.02325607 -0.09450744
0.11686368 0.1421903 -0.10113788 -0.10489425 -0.105806835 0.05884555 -0.08176476 0.098457806
-0.00045259812 0.120713726 -0.1301564 -0.093415014 -0.122263506 -0.13390887 -0.0891358 0.012246196
-0.06008214 -0.13578144 -0.07665041 -0.08801719 -0.08559194 -0.14961782 0.061295237 -0.13836272
0.024518242 -0.100705884 -0.037708614 -0.032192655 0.028815642 0.079882436 -0.11201794 -0.10830612
-0.14618172 0.12444891 0.00017042295 -0.019828495 -0.04323916 0.05509987 -0.13979156 0.09451175
-0.07296914 -0.022071995 -0.02530765 -0.07784872 -0.07908074 0.058041546 0.003993422 0.05704447
0.07060186 -0.038442556 -0.10157249 0.10905033 -0.1253907 -0.07118056 -0.10660035 -0.07100359
0.08643697 -0.10395242 0.04818979 0.097038224 -0.036741763 -0.09183283 0.10448861 0.099833444
0.12663361 0.018459804 -0.085535474 0.113192394 -0.006541056 0.08747724 0.007114646 -0.007520411
-0.051545814 0.11603752 -0.088271424 0.11042909 -0.10638201 -0.118517645 0.043048553 -0.002427205
-0.075597934 0.09739536 0.08492396 -0.06435388 -0.015482271 0.011468798 -0.1025505 -0.04462515
-0.070225805 0.08803688 0.08675453 -0.08212549 0.0761444 0.10083772 -0.06738908 -0.0075036776
-0.0716445 0.066430815 0.10915107 -0.12073794 -0.022355871 -0.029291924 -0.059496272 0.056039
0.03560907 0.124040455 -0.0069995984 -0.16253853 -0.058950428 0.017601976 0.008386139 -0.044223495
0.024926836 0.019190088 0.009754494 -0.09490553 0.042082746 0.013867044 0.055156685 -0.06808469
0.036199264 -0.016974643 -0.026946964 0.054619938 -0.029986436 -0.07705733 0.030409424 0.024732273
-0.063221544 0.05238098 0.15491235 -0.009231761 0.031019451 0.033129763 0.026166555 0.11530846
0.11186054 0.036991607 -0.051406406 -0.0066364636 0.007919722 0.058287933 0.0085093845 -0.073529765
-0.004014077 0.05089735 0.13932784 0.057857893 0.06938511 0.0023884298 0.13725942 0.05594286
-0.032970157 -0.008220295 -0.052649267 0.09320025 -0.053982988 0.08728271 -0.015821503 0.0462811
-0.04573264 -0.017794698 -0.12331077 0.018790774 0.009833961 0.014179692 0.092157155 0.0047691683
00000000: 28c2 aabb 2575 4ebd bf50 c63d cc85 d8bd
00000010: 1832 d2bd 163b 9ebd 2186 d9bb 0d07 65bd
00000020: 3b09 8f3d b6fb b73d a116 6dbd cfbf 923c
00000030: f176 19bc c602 dabd 442a a73d b7f5 1fbe
00000040: f10b 633c ba3b 6c3b 86e4 8e3d ba08 da3c
00000050: 64fb e5bd d859 15bd 5f29 00bd 2062 e43d
00000060: dc44 33bd 0b52 093d a81b 883d cda5 84bd
00000070: 7746 ac3c f117 bebd 3c57 8ebd a9af b3bd
00000080: a753 00bd af4f 00be 98f9 da3d 516c 173d
00000090: 5696 083e 1b28 b13d cb32 43bc 0ae0 b13b
000000a0: 7ff4 133d e2cc debc abf2 173c 5e66 36bd
000000b0: 280e ccbc b94e 0c3d dfe1 bc3d 3ba1 76bd
000000c0: af2e dc3d e3da 20bd 521e 7abd d13c 0a3e
000000d0: 7513 f53d f3c0 23bc b90c 233e d483 bfbd
000000e0: 0b6f 26bd ea3f 983c e507 963d e834 063d
000000f0: ec8b 3abc 196d 00bc a8d6 123e 66d9 773d
00000100: d135 223c 9cdd fcbd 0f6f 4bbd 4958 82bd
00000110: 85d5 65ba 2e25 30bd d94a 373d 94ac b03c
00000120: 84b0 9dbd 2ceb 043c 6228 e9bb adf2 913d
00000130: 0523 2ebd 4051 fa3d 9aa9 173d 4148 323d
00000140: 87b8 30bd c4bd 24bd 3253 92bc 140a 12bd
00000150: 7957 943d 46e7 113e 8483 be3c 1e8d c1bd
00000160: 3a56 ef3d 569a 113e 6021 cfbd ccd2 d6bd
00000170: 41b1 d8bd 0808 713d 4874 a7bd 3fa4 c93d
00000180: b14a edb9 c238 f73d b847 05be 5f50 bfbd
00000190: 4a65 fabd 681f 09be d58c b6bd 45a4 483c
000001a0: b118 76bd 4a0a 0bbe e4fa 9cbd 5b42 b4bd
000001b0: d44a afbd 6a35 19be b710 7b3d f5ae 0dbe
000001c0: 7bda c83c e33e cebd 5974 1abd 72dc 03bd
000001d0: c80e ec3c 6799 a33d a969 e5bd 99cf ddbd
000001e0: a9b0 15be 12df fe3d 90b3 3239 5e6f a2bc
000001f0: 8c1b 31bd 67b0 613d 8525 0fbe 608f c13d
00000200: d870 95bd 54d0 b4bc fd51 cfbc 266f 9fbd
00000210: 15f5 a1bd f9bc 6d3d 40db 823b 76a7 693d
00000220: b597 903d f175 1dbd 3d05 d0bd c855 df3d
00000230: 6b66 00be 1dc7 91bd 4951 dabd 556a 91bd
00000240: de05 b13d 02e5 d4bd a862 453d fabb c63d
00000250: 887e 16bd da12 bcbd 20fe d53d 7a75 cc3d
00000260: 3eac 013e 0439 973c 392d afbd 6ad1 e73d
00000270: 5b56 d6bb 4427 b33d fa21 e93b c86d f6bb
00000280: b421 53bd 14a5 ed3d a6c7 b4bd a628 e23d
00000290: d0de d9bd 61b9 f2bd ae53 303d be11 1fbb
000002a0: 17d3 9abd 3877 c73d 9dec ad3d f8cb 83bd
000002b0: 5aa9 7dbc a0e7 3b3c ff05 d2bd dcc8 36bd
000002c0: 8cd2 8fbd ae4c b43d 5cac b13d 6931 a8bd
000002d0: 98f1 9b3d 0284 ce3d 4903 8abd 69e1 f5bb
000002e0: 5aba 92bd e10c 883d 998a df3d 7445 f7bd
000002f0: a923 b7bc 9ef5 efbc 5db2 73bd 2789 653d
00000300: d1da 113d ec08 fe3d e35c e5bb 8070 26be
00000310: 0176 71bd 0532 903c 0466 093c b223 35bd
00000320: 5d33 cc3c 8834 9d3c 50d1 1f3c d55d c2bd
00000330: f55e 2c3d 9932 633c faeb 613d fc6f 8bbd
00000340: ae45 143d 680e 8bbc e1bf dcbc 28b9 5f3d
00000350: 1da6 f5bc 3cd0 9dbd 2f1d f93c 569b ca3c
00000360: 4c7a 81bd 708d 563d 58a1 1e3e d040 17bc
00000370: 811c fe3c 13b3 073d 3e5b d63c d826 ec3d
00000380: 2417 e53d 8384 173d 868f 52bd b176 d9bb
00000390: b9c1 013c 54bf 6e3d f26a 0b3c c696 96bd
000003a0: 8588 83bb bd79 503d f5ab 0e3e 66fc 6c3d
000003b0: c819 8e3d 3487 1c3b bc8d 0c3e 5724 653d
000003c0: b70b 07bd 6bae 06bc c2a6 57bd c6df be3d
000003d0: 441d 5dbd 47c1 b23d 199c 81bc 4091 3d3d
000003e0: 2652 3bbd 30c6 91bc 5b8a fcbd 1cef 993c
000003f0: 9f1e 213c f051 683c e4bc bc3d af46 9c3b

encoder.linear.bias f4 [32]
-0.10518611 0.06655671 -0.10006366 0.07932054 0.023018181 -0.12537856 -0.11305331 -0.045320023
0.069803305 -0.05731752 -0.047344785 0.11790572 0.072293125 0.08988091 0.06715186 0.045109913
0.0008150938 -0.09097248 -0.08123845 -0.08552519 0.10729439 0.121781595 0.10063 -0.052335344
-0.010032905 -0.08281598 0.008704761 -0.05989654 0.118593015 -0.06656551 0.042936753 -0.004437463
00000000: d16b d7bd e24e 883d 2dee ccbd cf72 a23d
00000010: a090 bc3c 3d63 00be 7e88 e7bd 7da1 39bd
00000020: 09f5 8e3d c7c5 6abd 9bec 41bd 8e78 f13d
00000030: 6b0e 943d 7c13 b83d ea86 893d 2cc5 383d
00000040: 05ac 553a c84f babd 5860 a6bd d527 afbd
00000050: 29bd db3d a168 f93d 1a17 ce3d 965d 56bd
00000060: 0e61 24bc 6d9b a9bd 6a9e 0e3c 1356 75bd
00000070: e5e0 f23d 8053 88bd 73de 2f3d 2368 91bb

decoder.linear.weight f4 [64, 32]
0.122993134 -0.0142166875 -0.029945578 0.046392307 -0.19133928 0.031601194 -0.030908383 -0.053156693
-0.030586956 0.06911172 0.006049219 0.20178711 0.15112159 -0.010447623 0.06489992 0.16737701
0.019649453 0.15210368 -0.016713701 0.04299503 -0.051556993 -0.018758578 -0.15437424 0.057323996
-0.16132143 0.11212535 -0.11147425 0.033009984 -0.1025875 0.01884259 -0.13095458 0.17314634
-0.05636927 -0.13948826 0.04403471 0.17917383 -0.13392028 0.13915148 0.17009564 -0.098683655
0.10655612 -0.1555009 -0.056366812 0.02319079 -0.030659944 -0.039306767 0.12681691 0.12598039
-0.06639201 0.118002124 -0.09383332 0.15833342 0.09032304 0.10278591 0.031060072 -0.10262711
0.07447359 0.087035514 0.030160248 -0.09282548 -0.0184004 0.040669218 -0.017960044 -0.08135874
-0.085210636 0.031201659 -0.018400764 -0.08610145 0.066999644 -0.07608175 0.1000271 0.14243124
0.07235383 0.20027672 -0.088847525 -0.06673348 -0.06909155 0.05410296 0.1717365 0.098324575
0.068901725 -0.1348067 -0.099652424 0.07468625 -0.16445911 0.08995429 0.14961077 0.15954314
-0.03415372 -0.15829857 0.15707147 0.16587394 -0.17209464 -0.12724614 0.049155917 0.124405466
-0.011457949 0.13931572 0.14430557 -0.083161674 -0.11929005 -0.014401227 0.03555062 0.0342091
-0.08748611 0.050212104 0.07962435 -0.0924126 -0.0155783305 0.16636522 0.15985745 -0.15637378
-0.053896777 0.14741683 0.11189142 0.0869992 0.0010760662 0.032618087 -0.103006795 0.09814049
-0.09774382 0.05835392 -0.074160844 0.17256935 -0.11927364 0.105606996 -0.024066884 -0.094368786
-0.11191066 0.18224926 -0.044048734 0.04170821 -0.05339597 -0.09613759 0.020762619 0.14363962
0.16846088 0.10129651 0.10415103 -0.042396463 -0.1433161 0.13456206 -0.09071269 -0.10507675
0.019896738 0.039817616 -0.143182 -0.041459482 0.005511744 0.032009352 0.15568931 -0.106820345
-0.1466059 -0.18682735 -0.022906661 -0.07179964 0.16641742 0.0319286 0.0009097244 0.13793525
0.042005233 -0.113423824 0.02064587 0.035872865 0.07509035 0.17362057 -0.13732436 -0.00069391367
0.15553182 -0.094620876 0.020313838 -0.039443493 -0.13910799 -0.059122793 -0.036989633 0.0004676754
0.129551 0.10351239 -0.13411067 -0.1600787 -0.09956004 0.11394189 -0.11465012 -0.119579665
0.1468949 -0.049505066 0.11222363 0.11463258 0.060870644 0.14949095 0.036332007 -0.12290186
0.16238941 0.1376061 0.1298451 -0.07505449 -0.106187016 0.14993303 0.13256599 -0.13861838
0.08974825 -0.12826416 0.13994177 0.056846313 0.034233864 0.11089269 -0.0096980855 -0.070371345
-0.08645693 -0.020743657 0.17397113 -0.14372797 -0.17071472 0.14163682 0.134888 0.04876341
-0.071392775 0.09636439 -0.061042067 -0.008760406 -0.11817578 0.18892117 -0.114813775 -0.0470214
0.14692909 0.10413979 0.08341301 0.055314198 0.11562779 -0.043921486 -0.09338785 0.10850413
-0.11919874 0.051314857 -0.07252532 0.08205941 -0.19807771 0.038180944 -0.03211455 0.110610224
-0.067579545 -0.0059923837 0.11771093 0.036981046 0.09647429 -0.08947528 -0.13358293 0.008986319
-0.08549221 -0.093056686 -0.18993531 -0.07359988 0.13609724 -0.06461819 -0.0011226179 -0.051369924
00000000: d3e3 fb3d 1ced 68bc 6e50 f5bc dc05 3e3d
00000010: 72ee 43be 4170 013d 9433 fdbc d5ba 59bd
00000020: 7f91 fabc 728a 8d3d 8738 c63b 48a1 4e3e
00000030: 9ebf 1a3e 822c 2bbc 40ea 843d e164 2b3e
00000040: e4f7 a03c 11c1 1b3e 2ceb 88bc 8e1b 303d
00000050: 6d2d 53bd 97ab 99bc 4814 1ebe 91cc 6a3d
00000060: 7231 25be faa1 e53d 9d4c e4bd 7a35 073d
00000070: 6519 d2bd c65b 9a3c f518 06be 464d 313e
00000080: 77e3 66bd 03d6 0ebe bd5d 343d 5879 373e
00000090: 6622 09be ba7d 0e3e 8d2d 2e3e a81a cabd
000000a0: 183a da3d a13b 1fbe e3e0 66bd 9dfa bd3c
000000b0: 902a fbbc 2200 21bd 4bdc 013e 0101 013e
000000c0: 89f8 87bd 19ab f13d af2b c0bd 2822 223e
000000d0: 49fb b83d 6b81 d23d b171 fe3c 2a2e d2bd
000000e0: 9c85 983d ad3f b23d a012 f73c 491b bebd
000000f0: 70bc 96bc c494 263d f120 93bc 699f a6bd
00000100: ea82 aebd 9f9a ff3c 33bd 96bc f555 b0bd
00000110: 1c37 893d c0d0 9bbd 02db cc3d 7fd9 113e
00000120: 3f2e 943d 5715 4d3e b1f5 b5bd 90ab 88bd
00000130: df7f 8dbd 119b 5d3d b1db 2f3e 655e c93d
00000140: 591c 8d3d c40a 0abe 9216 ccbd 1bf5 983d
00000150: f867 28be f439 b83d 9133 193e 475f 233e
00000160: c5e4 0bbd 0519 22be 58d7 203e dcda 293e
00000170: 9439 30be d04c 02be b757 493d 4bc8 fe3d
00000180: 1fba 3bbc c8a8 0e3e d7c4 133e ab50 aabd
00000190: 574e f4bd 20f3 6bbc 879d 113d d71e 0c3d
000001a0: eb2b b3bd 35ab 4d3d 1712 a33d d142 bdbd
000001b0: 413c 7fbc a55b 2a3e acb1 233e 7320 20be
000001c0: dec2 5cbd 70f4 163e 5427 e53d a32c b23d
000001d0: ca0a 8d3a 8b9a 053d 3af5 d2bd e2fd c83d
000001e0: e92d c8bd 8504 6f3d a4e1 97bd 05b6 303e
000001f0: bd45 f4bd 7b48 d83d ea27 c5bc 6c44 c1bd
00000200: 6b31 e5bd 8d9f 3a3e 726c 34bd 3ad6 2a3d
00000210: bcb5 5abd c9e3 c4bd 5e16 aa3c 4416 133e
00000220: 0281 2c3e 8b74 cf3d 234d d53d eaa7 2dbd
00000230: 75c1 12be a3ca 093e 93c7 b9bd 7b32 d7bd
00000240: 7cfe a23c cc17 233d 4d9e 12be 6bd1 29bd
00000250: dc9b b43b 3d1c 033d 056d 1f3e a0c4 dabd
00000260: db1f 16be ab4f 3fbe c0a6 bbbc b10b 93bd
00000270: 5469 2a3e 90c7 023d 927a 6e3a e63e 0d3e
00000280: ae0d 2c3d c04a e8bd 8721 a93c 6def 123d
00000290: f8c8 993d 97c9 313e c29e 0cbe c2e7 35ba
000002a0: bc43 1f3e 97c8 c1bd 3569 a63c 808f 21bd
000002b0: 5372 0ebe be2a 72bd 7182 17bd 5432 f539
000002c0: 04a9 043e 4efe d33d 4f54 09be aceb 23be
000002d0: 22e6 cbbd 5e5a e93d afcd eabd 2fe6 f4bd
000002e0: 9e6b 163e d3c5 4abd 81d5 e53d 7cc4 ea3d
000002f0: 7f53 793d 2814 193e dfd0 143d f8b3 fbbd
00000300: 6949 263e 9de8 0c3e 1df6 043e 2bb6 99bd
00000310: 9478 d9bd 0b88 193e 61bf 073e faf1 0dbe
00000320: eecd b73d ae57 03be e54c 0f3e aed7 683d
00000330: cf38 0c3d b51b e33d b8e4 1ebc da1e 90bd
00000340: 5510 b1bd 9aee a9bc 7d25 323e 6d2d 13be
00000350: d7cf 2ebe 3e09 113e 1420 0a3e 24bc 473d
00000360: 6036 92bd b15a c53d 3f07 7abd ce87 0fbc
00000370: 2506 f2bd 8d74 413e 7c23 ebbd 8399 40bd
00000380: 9474 163e 3e47 d53d 71d4 aa3d 2491 623d
00000390: 43ce ec3d 04e7 33bd 2142 bfbd 6a37 de3d
000003a0: 781e f4bd 872f 523d 2888 94bd c40e a83d
000003b0: e2d4 4abe 9f63 1c3d 8c8a 03bd 9d87 e23d
000003c0: 2567 8abd c25b c4bb 6e12 f13d 7079 173d
000003d0: 5094 c53d d13e b7bd f7c9 08be 5b3b 133c
000003e0: 8a16 afbd 8194 bebd 677e 42be 89bb 96bd
000003f0: 135d 0b3e 8b56 84bd ce24 93ba 4569 52bd

decoder.linear.bias f4 [64]
-0.12449569 -0.036613982 -0.081862226 0.16778733 -0.06881573 0.10201566 0.14273505 -0.14876871
0.030581634 -0.14918302 0.05219878 0.034096394 -0.14089338 0.04548197 -0.0392808 -0.08951303
0.010258829 0.037634216 0.041659374 0.09164616 0.051328205 -0.115004905 0.16159171 -0.15330125
-0.111347675 -0.17097315 -0.056194033 0.019311817 0.055327743 0.06465006 -0.11448356 0.046267487
-0.09112257 0.07235997 -0.01655394 0.09329749 0.028302738 0.15514459 -0.103437684 0.119572066
-0.009777883 0.18200529 0.1179161 0.025765028 -0.094895534 0.06708065 -0.008531582 0.02346401
0.14417244 0.07067489 -0.16498317 0.07715909 0.14994925 0.07786487 -0.14329636 -0.15893854
-0.1364144 -0.046466548 0.012724925 0.13505489 0.015825031 -0.009098989 -0.03797919 0.03772136
00000000: 99f7 febd 8bf8 15bd 62a7 a7bd 71d0 2b3e
00000010: 43ef 8cbd 96ed d03d 2329 123e d356 18be
00000020: 5686 fa3c 6fc3 18be 63ce 553d a9a8 0b3d
00000030: 5b46 10be 4d4b 3a3d e7e4 20bd 9c52 b7bd
00000040: a614 283c 5626 1a3d 05a3 2a3d fbb0 bb3d
00000050: 863d 523d b187 ebbd 4c78 253e 01fb 1cbe
00000060: 400a e4bd 9613 2fbe b72b 66bd d133 9e3c
00000070: 589f 623d 4067 843d 5b76 eabd fa82 3d3d
00000080: 789e babd 7731 943d 219c 87bc c112 bf3d
00000090: 25db e73c 39de 1e3e 23d7 d3bd 33e2 f43d
000000a0: 6a33 20bc 985f 3a3e ff7d f13d 2e11 d33c
000000b0: 9758 c2bd 9461 893d 0cc8 0bbc 9837 c03c
000000c0: f1a1 133e ffbd 903d 59f1 28be 9605 9e3d
000000d0: 4c8c 193e 9e77 9f3d 48bc 12be c9c0 22be
000000e0: 37b0 0bbe b553 3ebd 347c 503c d44b 0a3e
000000f0: 7fa3 813c ed13 15bc 1190 1bbd b681 1a3d

decoder.lstm.weight_ih_l0 f4 [256, 64]
-0.021848487 -0.012283153 -0.026182523 0.08262271 -0.009380367 -0.029203406 -0.06135584 0.103051804
0.05969647 -0.0070889224 -0.103527814 -0.039998554 0.054831643 0.13819163 0.1060352 0.021304678
-0.047149237 -0.13727704 0.122790694 0.08395329 -0.07725961 0.013345099 0.0075774756 -0.1565719
-0.029764494 -0.04497699 0.031485256 0.07577291 -0.16003063 0.013671482 0.06179323 0.03560106
-0.012783554 0.026097078 0.009820986 0.08999641 -0.03649087 -0.121330835 -0.11509905 0.025895648
-0.15332814 0.08096173 0.082086466 0.066960394 0.064162984 0.02968855 0.08063773 0.004999166
0.06498082 0.06332857 -0.09389456 0.1381939 0.06345684 0.076742746 0.037552938 -0.018390706
0.014819193 0.041346107 0.07636773 -0.1184656 0.0072106887 -0.006525304 0.0570246 0.048541803
0.03705601 -0.10982772 0.12386522 -0.069611415 -0.06454497 -0.03184736 -0.029097857 -0.036111347
0.118663654 -0.05223469 -0.12415201 -0.0065202503 -0.085826986 0.068126306 -0.0008467866 0.010371623
0.055147033 -0.036772706 -0.09713184 -0.05605992 0.060467687 -0.05088936 0.13518855 0.05725786
0.03763412 -0.13052714 0.029661741 -0.06544107 0.03896584 0.099641025 -0.12937826 -0.018408302
-0.009566433 0.02646517 0.021116659 -0.10854466 0.11387481 -0.071022704 -0.048220716 0.060927432
-0.0655492 0.015906934 0.0104079405 0.09594949 0.024479378 -0.092070706 -0.05632222 -0.03393508
0.09611815 0.05085265 -0.046724502 -0.052167445 0.09635296 -0.020931425 0.020296792 -0.09604998
-0.0009790164 0.11495087 0.09020006 -0.039364304 -0.012408155 0.026617087 -0.017812092 -0.02429134
-0.09198192 0.114738114 -0.023374517 0.052107476 -0.053487748 -0.039939124 -0.030690873 0.041941095
0.046870306 0.010101733 -0.12199803 0.043806825 -0.07947024 0.045593712 0.040768035 -0.04165938
-0.003212196 0.043187797 -0.03380139 -0.0419557 -0.090307795 -0.03872095 0.07667643 -0.03722707
0.09733621 -0.093117915 0.0032914034 -0.040107567 -0.0068026027 0.07346532 0.039204918 0.028834267
-0.015338198 0.061568193 0.055782292 -0.08267301 -0.08612244 -0.045986462 -0.0821117 0.05902011
-0.11058868 -0.063368395 0.09071328 0.12265417 -0.028290806 0.027145931 -0.115537524 -0.05712429
-0.10454446 -0.027730266 -0.10819813 0.10359526 0.036883518 -0.03977886 0.033762045 0.0030545795
0.062348414 -0.10719121 -0.031390578 -0.10429466 -0.030681051 0.0009030633 -0.04270572 -0.033392813
0.03407079 0.05788046 0.021547351 0.018619677 0.06611346 -0.032971263 -0.10950127 0.08565476
0.05597384 -0.13217396 -0.109616496 -0.076573014 -0.07967611 -0.051507127 0.088662684 -0.08787079
0.04206059 -0.063499264 -0.065449856 -0.03993719 -0.053179733 -0.03162555 0.03240484 -0.041445825
-0.13186692 -0.12546137 -0.06920924 0.07145747 0.02077963 -0.042524323 -0.03318311 -0.07092276
0.05266202 -0.08760243 0.03392008 -0.015266231 -0.04454284 -0.109106 -0.111869074 0.018107003
0.038076013 -0.11584339 0.1249901 0.08449187 -0.15283658 -0.10237586 -0.1335387 -0.0073004006
-0.04498946 -0.01339451 -0.10993259 0.08414999 -0.061513565 0.04753574 0.08224873 -0.021760553
0.017429404 0.053561628 -0.0955282 -0.03233228 0.0357208 0.09483716 -0.03369013 0.09478354
00000000: 99fb b2bc 473f 49bc bb7c d6bc 1836 a93d
00000010: 1cb0 19bc fb3b efbc 4350 7bbd d30c d33d
00000020: 4984 743d 314a e8bb 6406 d4bd 86d5 23bd
00000030: 2597 603d 1b82 0d3e fc28 d93d 2687 ae3c
00000040: 8f1f 41bd 5a92 0cbe b079 fb3d b4ef ab3d
00000050: 493a 9ebd 67a5 5a3c 794c f83b 6254 20be
00000060: abd4 f3bc cb39 38bd aff6 003d d42e 9b3d
00000070: 12df 23be 5afe 5f3c e61a 7d3d 6bd2 113d
00000080: 1d72 51bc 8ac9 d53c 33e8 203c 0a50 b83d
00000090: 7377 15bd 4d7c f8bd 0db9 ebbd 1c23 d43c
000000a0: 0d02 1dbe 43cf a53d f31c a83d 8822 893d
000000b0: e267 833d 6735 f33c 6525 a53d 0bd0 a33b
000000c0: aa14 853d 69b2 813d cb4b c0bd b482 0d3e
000000d0: a9f5 813d 4d2b 9d3d 1cd1 193d 1ba8 96bc
000000e0: 33cc 723c 895a 293d af66 9c3d 189e f2bd
000000f0: a447 ec3b 38d2 d5bb a192 693d c5d3 463d
00000100: 0bc8 173d 5bed e0bd 0cad fd3d 6e90 8ebd
00000110: 2730 84bd 6172 02bd a15e eebc 7ee9 13bd
00000120: ee05 f33d 0bf4 55bd 6943 febd d3a7 d5bb
00000130: 0fc6 afbd ce85 8b3d e3fa 5dba bded 293c
00000140: dbe1 613d fa9e 16bd 0fed c6bd 169f 65bd
00000150: f7ac 773d 5d71 50bd de6e 0a3e 3887 6a3d
00000160: 3c26 1a3d e8a8 05be 2efd f23c f805 86bd
00000170: a59a 1f3d 9810 cc3d bc7b 04be 02cd 96bc
00000180: 87bc 1cbc 7ccd d83c d8fc ac3c aa4c debd
00000190: 3237 e93d 5a74 91bd 1683 45bd 0b8f 793d
000001a0: a93e 86bd 424f 823c 1186 2a3c 2b81 c43d
000001b0: fa88 c83c 918f bcbd 21b2 66bd 83ff 0abd
000001c0: 98d9 c43d de4a 503d 3162 3fbd 88ad 55bd
000001d0: b354 c53d 6178 abbc 7545 a63c dab5 c4bd
000001e0: 5752 80ba 5d6b eb3d cfba b83d 773c 21bd
000001f0: 934b 4bbc 140c da3c aaea 91bc a2fe c6bc
00000200: 0461 bcbd d1fb ea3d ea7b bfbc a66e 553d
00000210: f815 5bbd 3597 23bd 6d6b fbbc 6dca 2b3d
00000220: 14fb 3f3d bd81 253c 1ada f9bd c96e 333d
00000230: 4bc1 a2bd 79c0 3a3d 62fc 263d 07a3 2abd
00000240: b583 52bb b0e5 303d 5473 0abd bdd9 2bbd
00000250: 4bf3 b8bd dc99 1ebd 8808 9d3d 6a7b 18bd
00000260: 3558 c73d 9bb4 bebd 96b4 573b d547 24bd
00000270: 5ee8 debb fc74 963d 5695 203d d735 ec3c
00000280: 114d 7bbc ee2e 7c3d f97b 643d 7850 a9bd
00000290: f660 b0bd 4d5c 3cbd 2e2a a8bd 12bf 713d
000002a0: 517c e2bd 4ac7 81bd e2c7 b93d 1c32 fb3d
000002b0: 1fc2 e7bc 2561 de3c f09e ecbd 29fb 69bd
000002c0: 681b d6bd 952a e3bc fb96 ddbd c029 d43d
000002d0: 2c13 173d 28ef 22bd 124a 0a3d 572f 483b
000002e0: 0d61 7f3d 1187 dbbd 6893 00bd 7098 d5bd
000002f0: d456 fbbc 8dbb 6c3a 31ec 2ebd e7c6 08bd
00000300: d08d 0b3d 1014 6d3d 1284 b03c 4b88 983c
00000310: 7e66 873d e00c 07bd 3442 e0bd c36b af3d
00000320: d344 653d 9c58 07be 9d7e e0bd 50d2 9cbd
00000330: 3a2d a3bd 23f9 52bd c894 b53d 9af5 b3bd
00000340: ba47 2c3d e70b 82bd 930a 86bd 2e95 23bd
00000350: fed2 59bd cb89 01bd f0ba 043d 19c3 29bd
00000360: 1f08 07be f278 00be 93bd 8dbd 4b58 923d
00000370: 0b3a aa3c fc2d 2ebd 03eb 07bd f43f 91bd
00000380: 21b4 573d e768 b3bd c8ef 0a3d 371f 7abc
00000390: 8e72 36bd f772 dfbd 9d1b e5bd 2355 943c
000003a0: 98f5 1b3d 4d3f edbd cffa ff3d 130a ad3d
000003b0: 3181 1cbe 6faa d1bd 5ebe 08be 3338 efbb
000003c0: de46 38bd a674 5bbc 5624 e1bd d456 ac3d
000003d0: a6f5 7bbd d6b4 423d 0672 a83d 3043 b2bc
000003e0: 1cc8 8e3c 7063 5b3d 4aa4 c3bd da6e 04bd
000003f0: f94f 123d fc39 c23d a9fe 09bd df1d c23d
