models/autoencoders/nvda_lstm_autoencoder.pth (torch, 228008 bytes, 14 tensors)

encoder.lstm.weight_ih_l0 f4 [256, 5]
00000000: a0a6 92bd 956d bf3d 212f bbbc 0847 d1bd
00000010: 70ee e53d d93a af3d e744 013d 737a 753d
00000020: b78c 453a 5982 c2bd 5bca 513c 64a2 7b3c
00000030: 54aa a1bd d23a 03be b70b bc3d 4eff 97bd
00000040: df87 03bd f106 3f3d fd97 5dbd 609c c23d
00000050: 7045 3b3d 69fe 5a3d ce17 d53c 328d d43d
00000060: f69c b4bd 7f28 7dbd bc6c c1bd f5d7 b8bd
00000070: 287e 913b 2a32 1dbd da13 093d a1b6 0a3e
00000080: 3108 283d b055 583d 99d8 bbbd 4059 623c
00000090: 7b16 7dbc e3f1 a4bc 06e6 413d f721 f1bd
000000a0: 1fe3 c0bc 122a ce3d 255e bd3d 1560 e83c
000000b0: e777 f3bd 3ef2 91bd e297 b3bd 6c9f 1cbc
000000c0: 5e8e 723d 84aa a8bc 59f0 a93d 2eb7 c2bc
000000d0: ac1d 7fbd 433f 73bd 9c22 c5bd 607e adbd
000000e0: 7b43 023c eee7 d33d 3835 7d3d 6d61 b8bd
000000f0: 5ca3 0f3d 0843 9abd 5579 ea3d b7e0 c83d
00000100: 8e5a 8e3d efcc c6bd 4fd0 f93b f8a9 e53d
00000110: fe84 9d3d 0402 fe3c 4398 833d 2fb8 5c3d
00000120: c983 873d 8283 1ebd a7f0 f7bd 301e eeba
00000130: e397 85bd 0b11 73bd 94a5 af3d 76dd 503e
00000140: c636 5e3d 9b4b 37bd 91f7 efbc 6075 bebd
00000150: 01f4 d23c 6fb9 013c da4c d13d 209a 843d
00000160: 0ac9 55ba 3041 bfbd e34c bfbd 14de ae3c
00000170: 4062 bc3d 2aa9 b8bb 0317 d8bd f969 29bd
00000180: 6702 3cbd dbac a73d 1753 0c3d 6386 343e
00000190: e78d 4f3d c9d7 43bd 6092 453d 2434 e43d
000001a0: 353d 30bd f494 96bd 5f58 85ba ddbb 0d3e
000001b0: d7e4 6b3d 728a 863c 098d 8dbc 0625 ed3d
000001c0: bfd5 e4bc b022 d43d 0dca 79bc ec11 cfbc
000001d0: 282a 3e3d 5961 62bd 81ea 9a3c 1b31 88bd
000001e0: 9fe7 9fbd 0467 e6bc de49 9e3d 26cb e13c
000001f0: 197f a6bb 464d 913d 7cd1 603c ad4e 4b3d
00000200: 6e9c 97bd f176 eabd aeca f53d 8ee3 ed3d
00000210: c092 fd3d 83c4 013c ddad 3f3d 33e3 143e
00000220: 3928 063e 8767 5d3d 847a 063d 4831 033e
00000230: 6c82 a33c 823c 823d 4d44 e83d 00d4 7fbd
00000240: 2017 05be 2099 e73d 950d 94bd 9798 e2bb
00000250: 0252 d73d e04d c33c e4ba 8bbd de05 29bd
00000260: ff3b 4d3d b229 723c 285a bc3d 6c96 68bd
00000270: 2547 383d cd06 0a3c 6375 99bd 7651 063e
00000280: e0c2 053e 617d 62bd 273a 143d bca6 cabd
00000290: 69fb fcbc 2253 18be 5dc4 293c 502d dabd
000002a0: 08bc 46bd 0cc4 61bc 106c 803d 194a c33c
000002b0: de3b 8dbd bf0b 133d 5e82 89bd d7f2 0b3d
000002c0: 33b9 e23d eecd 8c3d 987a febc ea97 0abe
000002d0: 0906 2a3d eefe a53c 2502 71bd fbed 153c
000002e0: e729 cd3d dc50 483d 8bbb 01be 210a a9bd
000002f0: cb28 5fbc 3f47 55bd 99ea 52bd ea98 4f3d
00000300: 7d40 213e dd43 5a3c f4e1 4f3e 06d5 853d
00000310: 7ec5 893c d6b6 aabc 9c70 ca3d b521 873b
00000320: d723 1cbc c6e4 1e3d c335 39bd a7d4 383d
00000330: 08e4 a8bd a7c1 35bd b744 98bd 2350 873c
00000340: b058 6ebd d66f c2bc 9aca 06bc c35c 58bd
00000350: 5c12 febd 654f 60bc 2182 1cbd e1df 893c
00000360: b5ea 9cbd 2455 433d 1c06 ac3d 8bea 9dbd
00000370: 60cc 903c c286 8dbd 8f07 9b3d 9d5e b8bd
00000380: b756 febd 3fa7 8abc 79a2 9b3d 1680 113e
00000390: 38c8 403d 1ff6 1c3d 0d0f bd3d 381b 813d
000003a0: a69b c53d 7f71 acbd aa23 ebbd 16d8 f73d
000003b0: c893 91bd adbd 89bc da0d 01bd 5bb8 663c
000003c0: 6d7f f83d fe8a ed3c 65fa 143d f57c 2ebc
000003d0: 8087 97bd 7e43 d03d 0c8f 823d 805a cb3d
000003e0: 4083 4c3d 2284 7b3d 2ce3 713d 5eb8 c5bd
000003f0: b284 fa3d e719 adbd f863 853d 98d0 2cbe
-0.071606874 0.09347073 -0.022849621 -0.10218626 0.11227119 0.08556146 0.03155985 0.05993123
0.0007535922 -0.09497518 0.012804593 0.015358541 -0.07893816 -0.12815407 0.09181922 -0.074217424
-0.032112 0.04663748 -0.054100025 0.095024824 0.045720518 0.05346528 0.026012328 0.10378493
-0.088190004 -0.0618062 -0.094445676 -0.090255655 0.004440088 -0.03837792 0.033466198 0.1354623
0.041023437 0.052816093 -0.09172172 0.013815224 -0.015447254 -0.020134872 0.047338508 -0.117740564
-0.0235458 0.10066618 0.09246472 0.028366128 -0.11888104 -0.07126282 -0.08769204 -0.0095594935
0.059217803 -0.02058912 0.08297796 -0.023768988 -0.062284157 -0.059386503 -0.09625742 -0.0847137
0.007950659 0.103469715 0.06181833 -0.090029575 0.0350679 -0.075323164 0.114489235 0.09808486
0.06950866 -0.09707057 0.0076237093 0.112140596 0.07691382 0.03100682 0.06425526 0.05388659
0.06616933 -0.038699634 -0.12106448 -0.0018166956 -0.06523111 -0.059342425 0.085765034 0.2039698
0.054251455 -0.044749837 -0.029292854 -0.09299731 0.025751116 0.007917746 0.102197364 0.064747095
-0.00081552623 -0.093386054 -0.09340837 0.02134613 0.09198427 -0.0056354003 -0.10551264 -0.04136083
-0.04590073 0.081872664 0.03425893 0.1762939 0.050672438 -0.04781321 0.048235297 0.111427575
-0.04302712 -0.07352629 -0.0010173431 0.13841195 0.057591286 0.016423438 -0.017279165 0.11579327
-0.027933953 0.103581786 -0.015245927 -0.0252771 0.046426922 -0.05526862 0.018910648 -0.06649991
-0.0780785 -0.028125294 0.07728933 0.027562689 -0.005081069 0.07094817 0.01372182 0.049635578
-0.074028835 -0.114484675 0.12001549 0.11615668 0.12381506 0.007920387 0.04679667 0.14539795
0.13101281 0.05405381 0.032831684 0.12811768 0.019959651 0.06359197 0.11341152 -0.06245804
-0.12997103 0.11308503 -0.07229153 -0.006915163 0.105136886 0.023840845 -0.06822756 -0.04126536
0.050106045 0.014780449 0.091968834 -0.05678408 0.044989724 0.008424473 -0.07493093 0.13117012
0.1306262 -0.055295352 0.03618827 -0.09895083 -0.0308816 -0.14875463 0.010361758 -0.10653174
-0.048519164 -0.013779651 0.06270611 0.023839043 -0.068961844 0.035899874 -0.06714319 0.034167137
0.1107048 0.068752155 -0.031064317 -0.13534513 0.04150966 0.020263162 -0.058839936 0.009150977
0.10017758 0.04890524 -0.12669198 -0.08253885 -0.013620566 -0.0520699 -0.05149326 0.05068294
0.15747257 0.013321844 0.20301038 0.065347716 0.016817804 -0.020839136 0.0988476 0.0041238912
-0.009530029 0.038792394 -0.045217287 0.045124676 -0.082466185 -0.044374134 -0.07434981 0.016517704
-0.058190048 -0.023734968 -0.008227015 -0.05282284 -0.124058455 -0.013690804 -0.038210038 0.016830387
-0.07661954 0.04768862 0.08399603 -0.07710751 0.017675579 -0.06910469 0.07569801 -0.09002421
-0.12418883 -0.016925452 0.075993486 0.14209017 0.047065943 0.038320657 0.09231386 0.0630402
0.09648828 -0.08420085 -0.11481412 0.12101762 -0.07108265 -0.016814077 -0.03150735 0.01408204
0.121336795 0.02899694 0.036371607 -0.010649909 -0.073988914 0.10169123 0.0637494 0.09929371
0.049929857 0.06140531 0.05905454 -0.09654306 0.12232341 -0.08452206 0.06513208 -0.16876447

encoder.lstm.weight_hh_l0 f4 [256, 64]
00000000: 2239 2abd 8388 1a3a 0aa8 9fbc c130 163c
00000010: fbcb c2bd 05d0 56bd 57e6 ccbd 153d 883d
00000020: 3510 62bd 00a8 6fbd 21e5 e9bd 474b de3d
00000030: 6611 02bc f008 a63b 3e03 8c3d f9ee c7bd
00000040: d445 053d b1d7 ae3d 1709 df3d dd3a 82bd
00000050: 9860 90bd 7b32 4e3d 291d d9bc 3ecf 043e
00000060: 0177 3f3d c518 683d 7917 99bd 122d d0bc
00000070: 72ec 8abd f598 22bd 8e84 e03b 7a14 fcbc
00000080: 8286 5f3c 10b5 69be 9b9d d9bd d952 d23d
00000090: ff7e 083e c43d 5d3d 8acc 17be 02aa afbd
000000a0: 8d3d aebd ad56 273d 0367 31be c2a5 353e
000000b0: 8a96 01bd 15a7 cfbd bcb6 e3bd c693 cdbd
000000c0: 1ca0 a73a 0bca 2abd 46a9 88bc 003a 003e
000000d0: 8695 85bd 1b19 743b a4d4 b23d 4a6e a63d
000000e0: e884 a7bb b23a 0a3e d1d4 1ebc a6c9 613d
000000f0: dbe5 22bd eada 053e a8ef d83d a9b4 343c
00000100: 12bb fc3d b70f f8bd 8f98 4fbc 7970 80bd
00000110: e435 363d d653 d8bd dc64 ca3d 4c30 e6bd
00000120: 2de8 c2bd f3fd c7bd 2410 a93d d134 72bd
00000130: 692e c6bd 7e90 cf3c c566 da3d 502e 39bc
00000140: d6c4 07be a433 f23d fff0 76bd f64f 81bd
00000150: 2d7b e03d 8c9e 4b3d 2140 79bd d438 67bd
00000160: 50ef cc3d de20 b23d 77ae 643d b9f5 cf3d
00000170: 4f02 debd b835 06be 246b 00bd 1e5c 8d3b
00000180: e45c 85bd f991 c23d b49d 92bc cbb7 863d
00000190: c8dc 39bd cec8 c8bd bc80 edbd d5ed adbd
000001a0: 17a0 643d 4a79 aebd 7371 52bd 1ee8 f63d
000001b0: 3e6d 3f3d 2068 063d 1c91 51bd cc65 96bc
000001c0: e8ff 9bbd 6ea1 9fbd a5a1 b23c 0725 76bd
000001d0: 1b00 863d 7fb3 cfbd c7e1 bb3d a5b1 87bd
000001e0: 55b4 583d dbdc 683d 04b1 453c 70f2 c93d
000001f0: 51a5 fd3d b99c b73c 1777 cabc 5172 12bd
00000200: 4ff4 3a3d 7aac 2abd 78c5 84ba ccdc b93c
00000210: e0fd ef3d 4225 babc c92e 443c eb65 69bd
00000220: 8713 d43d 1063 673d 1939 02be 34e0 8f3d
00000230: ce84 913c 5421 64bc 959d e3bd be5e a1bd
00000240: 95af 233d 51c1 6abd e6cf 09be 856e b73d
00000250: 7ae8 4dbd 9ef9 bdbd 14ae febc 61f6 c8bd
00000260: 57a9 f8bd 4480 47bd 68ac 24b9 9206 623d
00000270: c0b9 04be bcdf ce3c 6a78 9abd 9f05 f4bd
00000280: d03b 093e 092c 343d 99df 0f3e 0001 f53d
00000290: 05e4 49bd 494f a53c 7fa4 f63c 2932 65bd
000002a0: 4413 9d3d 72d9 bf3d 8eaa 80bc 8c41 90bd
000002b0: f42e bfbd 1f35 f73d b624 993d b1ce a2bd
000002c0: 08c9 a13d 48e0 0bbe 1b5c f0bd 0586 843c
000002d0: 4246 843c 99f2 22bd 80bd 4d3d 74be 9a3d
000002e0: b688 893d 3dbc be3d 974b 9dbd 991c 57bd
000002f0: 9e90 3abd 9e9d ccbd 7301 9b3d bf35 bebd
00000300: a23b 363a ec7f 2dbd b253 c4bd 7d37 813c
00000310: 5b26 e2bb d904 04be 29b9 b93d 32db 4fbd
00000320: 0767 0abd f562 4d3d 69e6 773c c130 a2bd
00000330: cfee c6bd 2d68 9b3c 62c0 523d a68f 38be
00000340: 59e6 1dbd 82ea 3bbd 4ac1 babd 209d f33d
00000350: 0f33 06bd d6d2 a93d da24 8abd 9197 fcbd
00000360: 21b5 563d 8fcd 023c fd1a 84bd 766d 3e3c
00000370: 9dd9 6e3d 6ac5 0abe a7cf eabd 6439 08bc
00000380: 5051 febd 07d4 4bbd 914d f33c f398 9b3d
00000390: fc22 8f3d 277d fe3d 9be2 a13b ff19 dfbd
000003a0: 21d8 d7bb ba9a 1bbc 74a6 263d dba7 85bd
000003b0: 8631 0b3e b8ab b03d dfdd ac3d a37a 9b3d
000003c0: 0543 fabc 004e 9dbb 0d03 eebd 3640 bb3d
000003d0: f384 93bd 33f9 923d 9867 a2bd bf92 acbd
000003e0: e865 89bd 2321 603d 2297 f83b 6a49 15bd
000003f0: 309b e2bc 0173 c3bc bfd8 013e 298d 8e3d
-0.041558392 0.00058949756 -0.019489307 0.009166897 -0.095115624 -0.052444477 -0.10004871 0.066522755
-0.055191237 -0.058509827 -0.11420656 0.10854202 -0.007938718 0.0050669834 0.06836556 -0.09762377
0.032537296 0.085372336 0.108904056 -0.063588835 -0.07049674 0.05034111 -0.026503162 0.12969682
0.04674435 0.056664247 -0.0747518 -0.025412116 -0.067833796 -0.039696652 0.0068517393 -0.030771483
0.013642909 -0.22822976 -0.10625764 0.10269708 0.13329695 0.054013982 -0.14824119 -0.08577348
-0.08507834 0.040854145 -0.17324452 0.17739013 -0.031637706 -0.1013929 -0.11118838 -0.10037951
0.0012788805 -0.04169659 -0.016682278 0.12522125 -0.0652266 0.003724641 0.08731964 0.08126505
-0.005112279 0.13498953 -0.009694294 0.055123948 -0.03976999 0.1307179 0.10592586 0.011029401
0.12340368 -0.12112372 -0.01267065 -0.062714525 0.044484988 -0.105628654 0.09882519 -0.11239681
-0.0951694 -0.09765234 0.08255032 -0.0591324 -0.09676821 0.025337454 0.10664133 -0.011302546
-0.1325868 0.11826256 -0.060288426 -0.063140795 0.10960994 0.04971175 -0.060852174 -0.05645068
0.10006583 0.08697675 0.055830445 0.1015429 -0.10840284 -0.1310643 -0.031352177 0.0043139597
-0.06511858 0.09500498 -0.017897464 0.065780245 -0.04537657 -0.098039255 -0.1159682 -0.084926285
0.055816736 -0.08519228 -0.051377725 0.120559916 0.04673504 0.032814145 -0.051163778 -0.018359087
-0.076171696 -0.07794462 0.021805594 -0.060093906 0.06542989 -0.10141658 0.09173923 -0.0662568
0.052906353 0.05685125 0.01206613 0.098606944 0.12385047 0.022413598 -0.02471499 -0.035753552
0.045643147 -0.041668393 -0.0010129651 0.022688292 0.11718345 -0.022722844 0.011974045 -0.056981962
0.10355287 0.056490958 -0.12717094 0.07025185 0.017763522 -0.013923962 -0.11114041 -0.07879399
0.03996237 -0.057313267 -0.13458213 0.08956627 -0.050270535 -0.09276126 -0.031088866 -0.09812618
-0.12141674 -0.048706308 -0.00015704485 0.055182047 -0.12961483 0.02525317 -0.075424984 -0.11915135
0.13401723 0.043987308 0.1405014 0.11963081 -0.049289722 0.020179408 0.030107735 -0.05595604
0.0766969 0.09367646 -0.015706327 -0.07043752 -0.093351275 0.12070679 0.07477705 -0.079495795
0.07899672 -0.13659775 -0.11736318 0.016177187 0.016146783 -0.03978214 0.05022955 0.07555857
0.06715529 0.09313247 -0.07680433 -0.052517507 -0.045548074 -0.099910006 0.07568636 -0.09287595
0.0006951635 -0.042358324 -0.09586276 0.01577353 -0.006901545 -0.12892474 0.090685196 -0.05074615
-0.03378966 0.0501432 0.015130618 -0.07919455 -0.09713518 0.018970573 0.051453 -0.18023548
-0.038549755 -0.04587794 -0.09118898 0.118952036 -0.032763537 0.08292167 -0.0674531 -0.123335965
0.05241883 0.007983579 -0.0645046 0.011622777 0.058313 -0.1355187 -0.11465388 -0.008314464
-0.12417853 -0.049762752 0.029700072 0.07597532 0.069890946 0.12426215 0.0049403436 -0.1089363
-0.006587044 -0.009497339 0.040686086 -0.065261565 0.1359311 0.08626503 0.08440756 0.075917505
-0.030549536 -0.004800558 -0.11621676 0.09143107 -0.072030924 0.07176437 -0.07929915 -0.08426427
-0.0670889 0.0547191 0.007586376 -0.036446966 -0.02766189 -0.02385855 0.12680338 0.06960518

encoder.lstm.bias_ih_l0 f4 [256]
00000000: 52ce 2a3e 1cac 0b3c 91ed 0cbd 5508 46b9
00000010: 351b f33c a3d7 903d b02c 74bd 64b4 c8bd
00000020: 969c 113e b5ef 1c3e 82b4 073c 4649 233a
00000030: b5bd 2c3d 2dba d3bc 4c03 cabd d06f 1b3e
00000040: f9a5 c6bd 4e43 ae3d ec67 05be 7ed7 0dbd
00000050: 3a34 c5bd 4706 eb3d 889b 753d 7cdc db3c
00000060: a2c4 01bd 093a 973d 296b 90bd f464 cb3d
00000070: 923c 383d 82e7 b43d 4e7c 48bd aca7 b4bc
00000080: c419 26bd 7f40 64bc 1a03 0b3d e452 95bd
00000090: 66c2 483d 7de7 bbbd 1b38 1a3e de49 debd
000000a0: 4405 bfbd f464 933b 7175 82bd f8a7 4ebd
000000b0: 98f8 233d 6d5f f3bc 3e52 33bd a101 0c3e
000000c0: a26b 8c3d 59c5 8a3c 0df5 913d 5f66 abbd
000000d0: 6754 a03d ef39 51bd 038e 043e 5f8d f23c
000000e0: 98fd 853d 6701 d13d 1253 80bd e929 9dbd
000000f0: 00ab 063e 1095 563d dce5 b5bd ab64 043e
00000100: 9454 333d a65a 4ebd 9fee ba3c 1a8b e93d
00000110: 8bd6 c3bd 64bc 073d 5e8f 563d 102f 9abd
00000120: 861a 803a 1bca 093e 60bd b5bd 8bea eb3d
00000130: 56fb fd3d 4f23 d93c 2ac6 2e3d 0813 2c3e
00000140: b9c5 d3bd c559 2c3d c318 00bd 1be0 863d
00000150: 48b8 2e3c 5a25 bc3d 5420 cd3d 9b10 e93a
00000160: 5208 283d b631 963d d758 593d 4786 1a3e
00000170: 9a07 d0bd 289e 4bbd c094 0b3e 2537 f9bc
00000180: f07b 853d 2037 563d 4213 3cbd 0749 8c3d
00000190: 0e6b 0c3e d0d4 24bd 146a ef3b e83f a23d
000001a0: c8fd 563c 9bd4 ca3d fc47 9e3d b17b 26bd
000001b0: 40c3 66b9 3b0b cf3d 0425 8b3d b823 acbd
000001c0: 09fc 9cbd 8ae8 793d 79fc 6f3c e150 93bd
000001d0: ff19 e83c 4cf1 e43d ed70 fd3d 9603 86bd
000001e0: f7cf ef3d 85b8 203d 3d1f ecba f1eb 043e
000001f0: 166b fc3c ffbf aabd 2f30 92bd a873 23bd
00000200: 3ad8 313d b367 873d 239a 303d 9604 c1bc
00000210: 2f4a c1bd 05b8 d03d cec5 873d f72a cf3d
00000220: 88e7 0fbd 08bc 82bd 0115 b1bd 0791 37bb
00000230: ec4f bbbc c1ae b3bd 1311 edbc 2a85 b6bc
00000240: 1c53 a13c f9ba bf3d 1eca 8e3d 9655 383d
00000250: 344c 6b3d d87c a23c fca6 8dbd 17f7 983d
00000260: 72cd 7b39 a53d 1f3d d936 edbd 0d61 edbc
00000270: ec52 d4ba c567 63bd c729 963d 8598 923c
00000280: ee7c abbd 8909 ff3c 478b aa3d 34e4 cd3d
00000290: bbf4 66bd e45e a7bc 356d 2dbd bdba b43d
000002a0: bd9b 62bd d6bb f6bb e92b b2bd 1026 9d3d
000002b0: 7304 efbd 132c babd 2e85 c7bd c30c 9fbd
000002c0: fa3f 313d cc12 5c3d 5512 9a3d 4f89 bf3d
000002d0: 32bc d8bd 8bb9 923d 5712 8f3d 1c5e f23d
000002e0: 3996 1abb 38a1 7f3c 59d8 bbbc 34b3 033d
000002f0: 8645 7bbc fa61 c23c 32e1 693c 87b7 39bd
00000300: 0d04 303e edd5 f83c 7ee0 e3bc 4e9f e1bd
00000310: 971a 043d 6bbc 443c 21c4 b33d 91d7 863d
00000320: 324b 963b 9548 bb3d c215 9b3b cf0c 073e
00000330: 57e3 b8bd e7db 0b3d f6ae 573d e667 b23d
00000340: cc54 9bbb ecc7 903d afe1 66bd 48b4 c9ba
00000350: 8f08 eebd b30d 033e 8aa0 51bc bbf1 da3d
00000360: 9ee2 6fbd 017f a3bd 5d0f fe3d 3d38 86bd
00000370: 00f4 443d f398 9dbd b260 00ba cd78 18bd
00000380: f753 393d ad0b 953d b066 e93b 24bc f73c
00000390: 0bcc 803d ce8c 993d 04d5 ef3c 9218 bb3d
000003a0: 1820 cf3d d819 b5bc a8ee 91bd 4d45 bdbc
000003b0: 52c3 e93b 0a77 193d 933f 833d 4daa e13d
000003c0: c369 893d 7dea e73d 9010 df3d b250 a8bd
000003d0: cec5 9e3c 7dcc 393d c1a0 573d 2a2f e2bd
000003e0: 4e25 8c3d 072c 9bbd ff4c e6bd aaa7 4bbd
000003f0: 3558 023e 732a 0c3d 2f52 3c3d a2af d93c
0.16680267 0.008524921 -0.03440625 -0.00018885855 0.02967606 0.070723794 -0.05961293 -0.09800032
0.14219889 0.15325816 0.0082827825 0.0006228875 0.042173106 -0.025845611 -0.0986391 0.15179372
-0.096996255 0.08508931 -0.13027924 -0.034629337 -0.09629102 0.11475807 0.05996278 0.026838534
-0.031681664 0.07384116 -0.07051689 0.09931365 0.04497964 0.08833219 -0.04894667 -0.022052608
-0.040551916 -0.013931393 0.033938505 -0.07291201 0.049013518 -0.09175012 0.15060465 -0.10853933
-0.09327176 0.0044981185 -0.063700564 -0.050453156 0.040032 -0.029708588 -0.043779604 0.13672496
0.06856467 0.016939806 0.07126818 -0.08369135 0.078285985 -0.05108064 0.12944798 0.029608427
0.0654251 0.102053456 -0.062658444 -0.07674009 0.13151169 0.05238825 -0.08881733 0.12929027
0.04378183 -0.050379418 0.022818862 0.11403485 -0.09562405 0.033138648 0.05238282 -0.07528508
0.000977353 0.13456003 -0.08874011 0.11519345 0.12401454 0.026506094 0.042669453 0.16804135
-0.10340447 0.0420778 -0.031273615 0.065857135 0.010664053 0.09186812 0.10015932 0.0017781438
0.04102356 0.073337 0.05306324 0.15090285 -0.101577 -0.049711376 0.13630962 -0.030421803
0.0651778 0.052298665 -0.045916803 0.06849866 0.13712713 -0.040242016 0.0073063467 0.079223454
0.01312203 0.099038325 0.07728574 -0.040645305 -0.00022007246 0.10109564 0.067941695 -0.0840525
-0.076652594 0.061012782 0.0146475965 -0.07193161 0.028332708 0.11178836 0.123750545 -0.06543653
0.11709588 0.03923847 -0.0018014681 0.1298063 0.030812781 -0.083374016 -0.071380965 -0.03990522
0.0434191 0.06611576 0.043115746 -0.023561757 -0.094379775 0.10191349 0.06629525 0.10115617
-0.035132915 -0.0638352 -0.08646584 -0.0028010027 -0.022865258 -0.08773566 -0.028938806 -0.022280294
0.01969295 0.09361834 0.069721445 0.045003496 0.05744572 0.01983492 -0.06916615 0.07469004
0.0002401376 0.03887715 -0.11582727 -0.028976941 -0.0016199029 -0.055518884 0.07332187 0.017894993
-0.08373438 0.031132476 0.08327346 0.10053292 -0.056385737 -0.02043099 -0.042340476 0.0882468
-0.055324305 -0.007529716 -0.086997814 0.076732755 -0.116707705 -0.09090438 -0.09742199 -0.07766106
0.043273903 0.053728864 0.07523028 0.093523614 -0.105827704 0.07164296 0.0698592 0.11834356
-0.0023588075 0.015602402 -0.022930311 0.032153323 -0.0153364 0.02372836 0.014274882 -0.04534104
0.17189045 0.030375445 -0.027817007 -0.11016713 0.03225192 0.012007813 0.08777643 0.06584085
0.0045866007 0.09144703 0.0047328183 0.1318848 -0.09027737 0.034145262 0.05265709 0.08711223
-0.004740333 0.07069382 -0.056367572 -0.0015388811 -0.11622726 0.12798195 -0.012794623 0.10690638
-0.05856573 -0.079832084 0.12405274 -0.06553695 0.04808426 -0.076951884 -0.0004897221 -0.03722458
0.04524609 0.072776176 0.007122837 0.03024108 0.06288918 0.074975595 0.029276378 0.09135546
0.10113543 -0.02210705 -0.07125598 -0.023104334 0.0071338797 0.03746704 0.0640861 0.110188104
0.067096256 0.11324022 0.10891831 -0.082185164 0.01938143 0.04536103 0.05264354 -0.11044152
0.06843053 -0.07576757 -0.112451546 -0.049720444 0.12728961 0.03422017 0.045976814 0.026573006

encoder.lstm.bias_hh_l0 f4 [256]
00000000: 7081 bc3c 440d 6bbd 65c6 973d 4b28 02bd
00000010: daa6 a9bd 465b 313d d22b be3c 4c4b 3e3c
00000020: 180c 353c d405 4c3c 9f1a 57bd 7a94 3c3d
00000030: 75e0 d4bb d8fb 8bbd 6e2b 963d 6e21 283e
00000040: 35e4 873c 3843 a6bd 5990 ce3c 053c f53d
00000050: 5a91 cbbd ce4f 233c a9da d4bd 88da 513d
00000060: f144 953c 48f0 323d ea8d 003c bf74 e03d
00000070: 21a3 da3d c8be 25bd 5713 73ba 14f6 30bd
00000080: 1d07 cfbc a5bf 5738 f1de 1e3d 03f6 8c37
00000090: 884e eb3b ab19 debd f58c 98bd ef8a 083d
000000a0: fa54 b03d 7d13 6139 e46a 473d 02e2 d03d
000000b0: 5fa2 a93d faea 5ebd 730c 9bbd 25d0 e1bc
000000c0: c244 d83d ad9d f43c 92c5 fe3d 93a7 bc3d
000000d0: ad29 093e d318 93bd c98a 173e ac76 723d
000000e0: 5ee4 c0bd 9d32 dbbd 5466 f83d 6b42 fe3b
000000f0: f708 3cbc bc48 743c 40c0 e8bd 5404 29bd
00000100: a41c 7a3e 9079 4dbb a16b 833d 8c05 063d
00000110: 13b0 6a3d d3b4 e73d b791 023e e6d5 babd
00000120: 0acd 213d 4305 343d b5ec 7cbd 5d68 81bd
00000130: c5c3 46bd a3b9 843d 582a 85bc cbec e93d
00000140: 931a 0c3e 7cf3 06bd 6771 863d 876a 883d
00000150: d080 e1bd e0db e13c a607 03bd e705 843d
00000160: 143e 4abd b61b b73d aeb1 5d3d 12ac f53d
00000170: 72ae 99bd ba51 7f3d f348 1c3e a0a6 96bd
00000180: fc20 e3ba ad81 27bc d1e8 e73c f96e 5abd
00000190: b439 1d3c 2199 123d 5946 153d eaab 8ebd
000001a0: 31be c4bd 53a8 4bbd 0fa4 34ba c0a5 dd3d
000001b0: fab4 b4bd dcf9 6d3d 2b05 c83d 5734 51bc
000001c0: 4370 e23d ecd2 953d 7860 263b e863 15bc
000001d0: c575 a93d eee1 fe3d df52 803d 58c0 763d
000001e0: cf7d c03d 0f87 933c 3918 cabd 5ca2 bcbd
000001f0: fde8 2c3d bfef be3d f0fe 093d e494 41bd
00000200: 960b 91bd dbfd 33bd ba89 46bd 1dad 66bd
00000210: e445 1ebd 52f6 e33d a601 303d b738 3abd
00000220: dd82 a83c ab38 a43d abf7 cd3c 6e5d b53d
00000230: 586b c23d 29bf a63c 1f3e aa3d cc6f aabc
00000240: 57f8 97bd 4861 853d afb3 38bd 543f 7f3c
00000250: fb9b 353c 7caf c1ba fcc4 543d c1ea db3d
00000260: 64c1 b23d 8af5 9b3c 2d4b e1bd 02db 10bd
00000270: 9e38 ec3d 3c63 09bd 3b0d 65bd 6bee 5f3d
00000280: 8cf9 cd3d e6aa cabd 459c 87bd 29dd febd
00000290: 5eb7 b23c 0f24 d3bc 895f 13bd 9d7e 473d
000002a0: 44d1 84bb d106 2ebd 2dd8 94bd 4054 cb3d
000002b0: 9c4e 8cbd 7105 763d 32e4 453d 397a f93d
000002c0: 7169 adbd 2913 8c3d f93f b0bc 8578 953d
000002d0: 0eca 283d 25c4 213d 3dee 06bd 774c 393d
000002e0: c430 253b de11 083d 8a01 be3d a274 11bd
000002f0: 154e bb3d ec10 393d 3db7 393d 1f67 8d3c
00000300: b313 22bc 90dc 7c3c 8cf9 c23d dcf2 b33d
00000310: a11c d7bc a49e c43d 457b 1a3d 4681 033e
00000320: e329 103c 308c a43c 337c 993d f018 69bd
00000330: c442 0a3d 1668 2d3d ea52 3f3d 2513 f23d
00000340: 92cf e3bc 991a 00bd 1657 01be 2455 bbbd
00000350: bdc2 163d 13e7 e93d 7568 6d3d e860 ff3d
00000360: 098d d6bd 3843 c939 9380 903d 3746 93bc
00000370: 9c3a 55bd 0070 0d3d 0dc2 ce3d b5ae adbd
00000380: 6e08 d23d 2dd2 c33d dca3 153e 62da 863d
00000390: 5c9e 0f3e aaa2 e6bd abe7 1a3d f69b 823d
000003a0: 136b 9a3d 1d2c 26bd 79a9 aabc 89f8 fd3b
000003b0: 30cb 5ebd 73bd 1f3d 9605 083e 2969 da3d
000003c0: 6072 7a3d 1d7f c83d 3fbd e4bd 8e2b 3fbc
000003d0: 39cc a2bb b3ae 8e3c eed9 33bd d4f2 ab3d
000003e0: 3a3a 87bd 8550 21bd 232e 79bc 9ec7 4abd
000003f0: d31c 90bd 1f45 093d 1821 bcbb 9f07 a93d
0.02301094 -0.057385698 0.07410888 -0.031776708 -0.082837775 0.043299936 0.023214255 0.011614632
0.011050247 0.012452561 -0.052515622 0.046040036 -0.006496484 -0.06835145 0.07332502 0.16419002
0.01658831 -0.0811829 0.025215315 0.119743384 -0.09939833 0.009967757 -0.103932686 0.0512338
0.01822135 0.04368618 0.007846335 0.109597676 0.106756456 -0.040465146 -0.0009272596 -0.04320343
-0.025271947 5.1438477e-05 0.038786832 1.6803859e-05 0.0071809925 -0.108447395 -0.074487604 0.033335622
0.08609958 0.00021464932 0.048685923 0.101993576 0.08282923 -0.05442331 -0.07570734 -0.027565071
0.105599895 0.029860342 0.12440027 0.0921165 0.13394804 -0.07182469 0.14799036 0.059195206
-0.094185576 -0.10703013 0.121288925 0.0077593825 -0.011476747 0.014909919 -0.11364794 -0.041263893
0.24424988 -0.0031352974 0.06417013 0.032720134 0.057296824 0.11313786 0.12750898 -0.09122829
0.03950218 0.04395033 -0.06174918 -0.06318734 -0.048526544 0.0648072 -0.016255543 0.11422118
0.13682012 -0.03294705 0.065645985 0.066609435 -0.11010897 0.027570665 -0.031989716 0.06446438
-0.04937561 0.08940832 0.054124527 0.119957104 -0.07503976 0.0623338 0.15262203 -0.07356
-0.0017328556 -0.010223788 0.028309258 -0.053328488 0.009596277 0.035790566 0.036444042 -0.06966384
-0.09606589 -0.049721073 -0.0006890902 0.1082263 -0.08823581 0.058099613 0.09766611 -0.012768826
0.110565685 0.07315621 0.002538709 -0.009118058 0.08274416 0.124454364 0.062658064 0.060242027
0.09398996 0.018008737 -0.09867901 -0.09210655 0.042214382 0.09323072 0.033690393 -0.047261134
-0.07082288 -0.043943267 -0.04847119 -0.056317437 -0.03864087 0.11130966 0.042970322 -0.045464244
0.020570213 0.08018621 0.025142511 0.08855711 0.094931304 0.020354824 0.0831263 -0.020805262
-0.07420414 0.065126956 -0.045093235 0.015579063 0.011084552 -0.001477703 0.05194567 0.10738135
0.087282926 0.01903798 -0.11000667 -0.035365112 0.11534236 -0.033541903 -0.05592082 0.054670732
0.10057363 -0.098958775 -0.06621603 -0.12444527 0.021815952 -0.02577403 -0.03597978 0.048704732
-0.0040532667 -0.04248697 -0.07267795 0.09928179 -0.06850931 0.060063783 0.048313327 0.12181515
-0.08467377 0.06839592 -0.02151488 0.07298378 0.04120832 0.0394937 -0.032942045 0.04523894
0.0025206069 0.033220164 0.09277637 -0.03551162 0.09145752 0.045182154 0.045340765 0.017261086
-0.009892392 0.015433446 0.095202535 0.08786556 -0.026258769 0.09600571 0.037715215 0.12842283
0.008799049 0.020086378 0.07494392 -0.056908548 0.03375508 0.042335592 0.046709932 0.11820058
-0.027808938 -0.031275366 -0.12630877 -0.09147099 0.03680681 0.11421027 0.057960946 0.12469655
-0.10476119 0.0003838779 0.070557736 -0.017977817 -0.052057847 0.03453064 0.10095606 -0.08480588
0.10255514 0.09561572 0.14613289 0.06584622 0.14025253 -0.112614945 0.037818592 0.063774034
0.07539954 -0.040569413 -0.020832764 0.007750575 -0.054392993 0.038999032 0.13283381 0.10664589
0.061144233 0.0978987 -0.11168908 -0.011668099 -0.004968193 0.017417287 -0.043909006 0.08395925
-0.06602903 -0.03938343 -0.015208754 -0.049506776 -0.07036748 0.033513185 -0.00574125 0.08253407

encoder.linear.weight f4 [32, 64]
00000000: 0bf5 4b3c 61be 2fbd 42aa 73bd 0350 973d
00000010: 17de 3cbd 39c8 bebd a9d1 c43d 8262 d2bd
00000020: bf9a 9bbd eee2 bbbd 0f53 49bb f2d4 94bd
00000030: 4d2c 02bb 8246 d63c 62a2 513d 4df5 823d
00000040: 754e 83bd 9cc9 b0bd bc0a 75bc 640a afbc
00000050: 051a 293d 28b6 933d a2b7 4e3d e910 b8bd
00000060: 550e e43c fae1 743c 56e5 11bd d201 55bd
00000070: 34ff 3f3d b3fb b5bc 06d2 fcbd 11bc 90bd
00000080: 815e d9bd 2d5e 94bd 41c6 12be 2f95 e6bd
00000090: 9048 653c 19a6 15be 8236 b9bd 4534 a43d
000000a0: 7267 2a3e bb8f ae3d 9e46 e33d 1413 43bd
000000b0: edf3 23bd 74c8 5cbd 5729 d7bd e303 23be
000000c0: 5754 e4bc 784e 223d ea14 053e 330c 793c
000000d0: e62d e9bd 7d0c 1dbd 451c a7ba 04d8 95bd
000000e0: f985 e13a 3f6a 02bd 6673 2ebd b323 04be
000000f0: c081 06be 79de 883d 297d 81bd 6299 093e
00000100: ee8e 6f3c 512b a5bb ee56 97bd a469 e33b
00000110: 3fd3 553d 8c57 b5bd a3ca af3d f064 d1bd
00000120: a3e1 fa3a 5c6d dfbd 9c44 4cbd 41ad c7bd
00000130: 02e9 473d 9b8a d3bd 4aa2 5ebd 3c7a a53d
00000140: 76d9 9abd 11d6 acbc 9b73 f1bd d9a7 6fbd
00000150: f857 98bb 7d97 bbbd 74d1 b8bb 4df9 133d
00000160: e4c5 e8bd 0435 32bd 3844 0a3e cfc5 9e3d
00000170: ff8e e7bd d56c b83c 633e 0abe 0e96 2f3d
00000180: becb bc3d 8d7f d33d aa64 d63c ff1e b03c
00000190: 5cf6 c6bd df35 b13d fc2a 62bc f41b e93d
000001a0: 8c70 103d 6092 f63d 4b39 913a 26c3 0b3d
000001b0: f119 b1bd bdb6 34bd b0bd b43c 004f 84bd
000001c0: d7b9 c93c 9f2d 0b3d 8707 1abc 3eba 723d
000001d0: 57ef 4abd 947b 663d 0b53 e7bc e7d7 b5bc
000001e0: ede3 783d de2a 8f3d 5a0b 5bbd 5b20 9fbd
000001f0: 4110 8a3c a82b 323d e232 633d 780d 1c3d
00000200: a255 0cbd a3e5 c93d ebad a63d 0d63 6fbd
00000210: e99d 8abd 3576 0fbe 8879 b43d bd6f d23d
00000220: 3bef 3bb8 8da9 73bb 2ed0 5dbc e398 91bd
00000230: 8ba5 9cba 718e 06be 5ef0 b73c 059f 45bd
00000240: 247e 16bd d0c4 f8bc 9cbe 1f3d dfc5 cc3d
00000250: 8802 eebd bfaf 463d e5a4 1b3e e478 afbd
00000260: 7e9b 18be 2cd0 5c3d 6884 febc d1b0 c5bd
00000270: 096a cbbd 0d1a 5bbd 7eb5 aa3d 5422 943c
00000280: f6ab 9fbd 2656 653d 61e1 de3c ed86 c83d
00000290: 9713 013e 381b 48bd 2ce2 0f3e 3c85 eebd
000002a0: 96fa 09be 67ad c43d c46a 253d b37f e6bd
000002b0: dd3a 113e 2933 153e 4992 8fbc d1d5 73bc
000002c0: 526f d7bb 7c9a b53d b219 f9bd aa8e f5bd
000002d0: 4740 1a3e 2804 a93d 6063 7d3c cd22 3abd
000002e0: 5443 8a3d 7850 be3d cc80 8cbd fc81 4ebd
000002f0: 6308 e53d 984c fbbd e531 153d 07d8 4a3c
00000300: 718b 7a3e b41e d33d 257b 09be c74b 8ebd
00000310: 1590 c63c d950 9bbc 67fe d73d bea5 fb3b
00000320: 3e5c e5bd 3a2f 2c3e 03da 1abe 713f 1a3d
00000330: 4211 edbc 7c5a 933d c70f d2bd a51a 8bbd
00000340: ae9b d23c ad5f d0bd d37f f63d fe39 ac3d
00000350: c0c1 dabd 178d 563d 34cd db3d fc6d 92bc
00000360: 14a8 cebd 5144 ebbd 9ff1 9bbc 10d1 af3d
00000370: b06d ce3d 5001 fc3c 0f23 0f3e 7bdf e53d
00000380: 693d 2abd 4002 3b3d 6e32 ce3a 9d7a c7bc
00000390: b403 743d 2640 dd3d 516a a3bc 627f cebd
000003a0: 7101 563d 5691 023d 313b 38bd 3b7d babd
000003b0: c99c 3b3d 8f47 e1bd 8ddd b13d 97f4 c0bd
000003c0: 83b4 2c3d b0fa ac3d cbb8 5e3c f4e8 983d
000003d0: f904 82bd 90cf a2bd c987 25bc 7a72 2bbd
000003e0: 646f cfbd ba1c 2fbd 95fa 203e 2639 0f3d
000003f0: bbf6 91bc a59d e23c ef39 9bbd 15df 2f3d
0.0124485595 -0.04290617 -0.059488542 0.07388308 -0.04611024 -0.09315533 0.09610302 -0.10272695
-0.07597875 -0.09174143 -0.0030719673 -0.072671786 -0.001986283 0.026156668 0.05118025 0.06394444
-0.06411449 -0.08632204 -0.014956173 -0.02136726 0.04128458 0.07212478 0.050468095 -0.089876
0.027838865 0.014946455 -0.035619102 -0.05200369 0.04687424 -0.022214746 -0.12344746 -0.07067121
-0.10613728 -0.07244525 -0.1433344 -0.11258923 0.013994351 -0.14614142 -0.090436 0.08017782
0.16641024 0.08523508 0.110974535 -0.047625616 -0.040027548 -0.053902104 -0.10505932 -0.15919451
-0.027872248 0.039625615 0.1299626 0.015200662 -0.113857076 -0.038341988 -0.0012749514 -0.07316592
0.0017206065 -0.031839605 -0.04259052 -0.12904243 -0.13135433 0.06683058 -0.063227005 0.13437417
0.014621479 -0.005040564 -0.073896274 0.0069400836 0.052203413 -0.08854589 0.08583572 -0.102243304
0.0019140731 -0.109095305 -0.04987012 -0.097498424 0.048806198 -0.10329171 -0.05435399 0.08079955
-0.07561009 -0.021098169 -0.11789628 -0.05850968 -0.0046491586 -0.091597535 -0.005640203 0.036126424
-0.1136587 -0.04350759 0.13502586 0.07752573 -0.11306571 0.022512833 -0.13500361 0.042867713
0.09218548 0.10327063 0.026171047 0.021499155 -0.09714958 0.08652853 -0.013804194 0.11382285
0.035263583 0.120396376 0.0011079697 0.034121655 -0.08647526 -0.044119585 0.022063106 -0.064603806
0.024624748 0.033979055 -0.009401209 0.059259646 -0.04954466 0.056270197 -0.02823784 -0.022197677
0.060764242 0.06990598 -0.053477623 -0.07769843 0.016853454 0.043498665 0.055468448 0.038098782
-0.034261353 0.09858253 0.08138641 -0.05844407 -0.067684 -0.14009936 0.08812243 0.10275219
-4.4807075e-05 -0.0037179918 -0.013538403 -0.07109239 -0.0011951191 -0.13140275 0.022453483 -0.048247356
-0.03674139 -0.030367285 0.03900014 0.099986784 -0.116215765 0.04850745 0.15199621 -0.0856798
-0.14903066 0.053909466 -0.031068996 -0.09652866 -0.09932334 -0.05349164 0.08335398 0.018082775
-0.07796471 0.05599036 0.027207078 0.0979136 0.12605129 -0.048854083 0.14051121 -0.11646506
-0.13474497 0.09603386 0.040385023 -0.112548254 0.14182611 0.14570297 -0.017525809 -0.014882521
-0.0065745497 0.08867356 -0.12163104 -0.11990102 0.15063582 0.08252746 0.015465587 -0.045443345
0.06751123 0.09292692 -0.068605036 -0.05041693 0.1118324 -0.122704685 0.036424536 0.0123806065
0.24467255 0.103085905 -0.13425882 -0.06948047 0.024238626 -0.01895945 0.1054657 0.00767967
-0.111992344 0.1681489 -0.15122227 0.03765816 -0.028938893 0.07194993 -0.102569155 -0.067921914
0.025709 -0.10174499 0.12036099 0.08409499 -0.10681486 0.052380648 0.10732499 -0.01787471
-0.10090652 -0.1148764 -0.019036112 0.085847974 0.10079515 0.030762345 0.13978218 0.11224266
-0.04156247 0.045656443 0.0015731582 -0.024350459 0.059573844 0.10803251 -0.019948157 -0.1008289
0.05224747 0.031876884 -0.044978324 -0.09105917 0.04580382 -0.10999977 0.086848356 -0.09421652
0.042164337 0.08446252 0.013593863 0.07466307 -0.06348605 -0.07949746 -0.0101031745 -0.04185722
-0.10128668 -0.042752005 0.1572059 0.03496661 -0.017817846 0.027663061 -0.07579409 0.042937357

encoder.linear.bias f4 [32]
00000000: c218 a9bd 4237 573d 518a 5c3d c838 81bd
00000010: b0d7 323d 51da 08bb e43a 9fbd 60f6 f53c
00000020: 8b61 e9bc 4f09 92bd 8d6e bf3d 35c4 b53c
00000030: 9774 51bd b70a da3d 0bb5 113c 3b74 153d
00000040: 748e a23d 3037 883d f34b 31bd ce4a 613d
00000050: 97ff ebbb 820f 923d 488e 75bd 8067 f2bd
00000060: 0e16 fabd d04d 10bd 3959 fcbd 9f70 03be
00000070: 7fcc 94bd ba6c aebd 34b7 9e3c 7edf 993c
-0.08256675 0.052542932 0.053842846 -0.06309658 0.043662727 -0.002088208 -0.07774904 0.030024707
-0.028488895 -0.07130682 0.09347258 0.022188285 -0.05113658 0.10646575 0.008893262 0.0364878
0.07937327 0.06651151 -0.04328532 0.05500298 -0.0072020995 0.07131864 -0.059950143 -0.11836147
-0.12211238 -0.035230458 -0.12321705 -0.1283593 -0.07265567 -0.08516832 0.019374467 0.018783327

decoder.linear.weight f4 [64, 32]
00000000: 43e0 1f3e 02a4 36be 32eb 34be aa9a ea3d
00000010: a261 733d b051 053e a680 973c 837d 093e
00000020: 9612 0fbd f07e 3cbe 4309 44be 3eab 37bd
00000030: 5491 fbbd 2db3 b8bd 8faa fb3d 4450 27be
00000040: b7c9 81bb c448 09be 5271 103e 8558 093b
00000050: 8599 a13d bec1 e93d f21b bebd c18e 523d
00000060: 4a52 183e a164 41bd a03e 9f3d 1e9e e23d
00000070: a31a 343e 8787 bc3d 5e22 5e3d 4ac2 febd
00000080: f121 123e b8af 023e d1a1 99bd f6ea d1bc
00000090: 5016 8dbd 8f63 1cbe ed00 0b3e f865 063e
000000a0: 06d3 ac3d 8a71 73bd 860f e3bd 23fe 243d
000000b0: dca1 463c 80fd 123e 9d69 e0bd efa3 d93d
000000c0: 66a4 123e a4e8 533d 23cd 58bd c631 f23d
000000d0: 7aa3 9f3d 6ccb e43d 6483 27be 5c12 0ebe
000000e0: 510f 1b3d 1c5d 5e3a 7235 50bb 140a 113d
000000f0: 5b6a fe3c ed34 44bd 1a44 0abb 2f5c ec3d
00000100: a7b5 063d f0c4 e83d ad51 c73d b1cd 243e
00000110: b1e4 62bd 717b 2dbe 4883 eebd 4e27 9e3d
00000120: 3996 eebd f830 10be babb 763d b2d7 f1bd
00000130: 8738 9ebd e0f3 40be 3efb bfbd cd86 37bd
00000140: 5f52 12be 47c7 933d 3c37 233d a85f 553d
00000150: 83ca 15be e9ad f03d bba1 f93d 2a3f 293e
00000160: 56c3 0abe a453 bd3d f31c d6bd 8546 2b3d
00000170: eb53 cdbc edaf 40bc 02a5 3abc a722 43be
00000180: 2abd 13bd ce3e 6bbd 89a6 403e 7dd1 423e
00000190: 93b9 42be 5f04 21be 3324 173e 686a 39bd
000001a0: bd8e 1fbe ebad 483d 903f f93d 5152 d3bd
000001b0: 1087 44be e607 c8bd f388 593e 718f 1ebd
000001c0: 9dd0 153e 8afe f53d 351e a3bc 0dad c7bd
000001d0: 0a1f 043e 8066 a13d 2fcb 073e 533f 303e
000001e0: 3dd0 10be aaf9 4dbd cd01 88bd 61bc b83d
000001f0: b5d7 79bc 7842 84bd 842d 863c dfa8 9d3d
00000200: e386 0b3d 42a1 52bd 5d88 c73a aa3b 25be
00000210: e5c5 b3bd 0fe7 f73c 68ad 99bc 5439 1e3e
00000220: c2ff 24bd 613f 2f3e 33fc aabd 3099 f33c
00000230: d0d7 55bd 4930 31bd 0a44 0bbe 2571 9e3b
00000240: be5b 9a3d 49e7 13be 6827 013e df07 be3d
00000250: 1630 3f3e 7762 f13c 4239 95bd 553b 133e
00000260: 7bc8 cebd 7f17 b6bd 33f4 d3bd ad50 283c
00000270: 8f61 cd3c 85d0 acbc d383 933d f7fa 6cbc
00000280: e82e 15be 21c9 eb3d 2408 bb3d 9a98 403d
00000290: 3520 4d3e 2543 0c3e aea3 19be 8934 443d
000002a0: f48f 0f3e c61f abbd 4701 08be 0865 2b3e
000002b0: 50e2 e7bb bb74 c6bb f342 903d db87 88bc
000002c0: 0f45 46be 30a1 30bb 3e28 13be 5244 9bbd
000002d0: b790 063e 6118 fc3d a94c 7d3d 3caa ee3d
000002e0: faeb a53b e2a4 67ba 8f97 393e bdcb c8bd
000002f0: 7210 823d 12a3 41be d140 17bd 7e4a 293e
00000300: f8a5 9bbc e4f0 a93d 5996 643d 5c3d da3d
00000310: edef e2bd b342 52be 3b02 c73d 0e8b 2f3e
00000320: f9eb 00be 1bc6 66bc 44df 98bc 6f3c 903c
00000330: 5734 43be fa9d 58bc 6592 1d3e 2f63 1f3e
00000340: d52d 993d 2e65 153e a34e e03d 183b f1bd
00000350: c174 e4bd 5556 1fbe e6d3 20be fe87 cfbc
00000360: 7532 e23d 1ffc 9bbd 8225 42bc 4e73 093e
00000370: f7fe 9fbd b6ef 8bbc c74f 18be d689 ebbd
00000380: 146e 21be bba2 c43c e5db 103e bee5 a13c
00000390: dc0b 23be 88bb 5b3d ab54 123e 4769 acbd
000003a0: ba58 7cbd 9688 253e 8bb0 d8bd 9fb7 383e
000003b0: 17b1 e3bc 2206 a63c d501 8e3d c64b fe3d
000003c0: 8f4a c8bd 7118 debd 9f47 6b3d b8ad fa3d
000003d0: b58d fbbc 1fb7 46bd 6ee0 10be 0b59 1cbe
000003e0: d37d 053e bc7b 9d3d c6cf e83d da3d 043e
000003f0: 2592 1cbe a18d 21be a23e 933d 34a3 8d3d
0.15612893 -0.17836002 -0.17667845 0.11455281 0.05941928 0.13019443 0.018493962 0.13426785
-0.034929834 -0.18407798 -0.19144158 -0.044841044 -0.122835785 -0.0901855 0.12288391 -0.16339213
-0.003960814 -0.13406664 0.14105728 0.0020957303 0.0789061 0.114139065 -0.09282674 0.051405672
0.14875141 -0.047215108 0.07775617 0.11065315 0.17588286 0.09205537 0.054231994 -0.124394014
0.1427076 0.12762344 -0.07501567 -0.025624733 -0.068890214 -0.15272354 0.13574572 0.13124835
0.08438687 -0.05943445 -0.11086945 0.040281426 0.012123551 0.14354515 -0.10957644 0.10626971
0.14320526 0.051735535 -0.05293001 0.118259 0.077948526 0.11171612 -0.16358715 -0.13874191
0.037856404 0.00084825023 -0.0031770137 0.035410002 0.031056574 -0.047902036 -0.002109772 0.1154102
0.03288808 0.11365688 0.09732375 0.1609409 -0.05539388 -0.1694162 -0.11646134 0.077223405
-0.116497464 -0.1408118 0.060237624 -0.11808719 -0.077256255 -0.18843031 -0.093740925 -0.04480629
-0.14289235 0.072157435 0.039847597 0.052093178 -0.14628033 0.11751921 0.12189051 0.16528001
-0.13551077 0.09244469 -0.104547404 0.0418153 -0.02506443 -0.011760694 -0.01139188 -0.19056188
-0.036069073 -0.057432942 0.18813528 0.19025226 -0.19016103 -0.15724324 0.14759903 -0.045267493
-0.15581794 0.048993986 0.12170327 -0.10318435 -0.19192147 -0.097671315 0.21243648 -0.038711015
0.14630361 0.1201144 -0.019911865 -0.09749804 0.12902465 0.078808784 0.13261102 0.17211656
-0.14141937 -0.050286926 -0.066409685 0.090203054 -0.0152491825 -0.064579904 0.016379125 0.07698225
0.034064185 -0.05142332 0.0015223135 -0.16136041 -0.0877798 0.030261545 -0.018759444 0.15451556
-0.040282972 0.17114021 -0.083488844 0.029736131 -0.052207768 -0.04325894 -0.13600174 0.004835265
0.0753703 -0.14443697 0.12612689 0.09278845 0.18670687 0.029465897 -0.07286312 0.14378102
-0.10096832 -0.088912 -0.10349312 0.010273141 0.025070934 -0.021095524 0.07202878 -0.014464132
-0.14568675 0.11512972 0.09132412 0.047020532 0.20031817 0.13697489 -0.15003845 0.047901664
0.14019758 -0.0835567 -0.13281737 0.16737759 -0.007076539 -0.006056396 0.070440196 -0.016666343
-0.19362281 -0.0026951544 -0.1437082 -0.075813904 0.13141142 0.123093374 0.061840687 0.116535634
0.005063531 -0.000883652 0.18124221 -0.09804485 0.06350793 -0.18909863 -0.036927048 0.16532323
-0.019000039 0.08297899 0.055807445 0.106562346 -0.110809185 -0.20533256 0.09717222 0.17142889
-0.12590016 -0.014085318 -0.018661149 0.017606942 -0.19062935 -0.013221258 0.15387876 0.1556518
0.07479445 0.14589378 0.10952499 -0.11778849 -0.111550815 -0.15560277 -0.15705833 -0.0253334
0.1104478 -0.07616448 -0.011849763 0.13422891 -0.078123026 -0.017082077 -0.14874183 -0.115008995
-0.15764648 0.024003377 0.14146383 0.01976287 -0.15922493 0.05364564 0.14290111 -0.084185176
-0.061608054 0.16165385 -0.10580548 0.18038796 -0.027794404 0.020266596 0.06933943 0.124167964
-0.09779846 -0.108445056 0.05744135 0.122401655 -0.03070722 -0.04851448 -0.14148113 -0.15268342
0.1303628 0.07689616 0.11367755 0.1291422 -0.15290125 -0.15776683 0.07189681 0.06915894

decoder.linear.bias f4 [64]
00000000: 1108 a4bd 5f2e 86bd ae7e 213e 7336 ba3d
00000010: 4c96 b5bd 7ee6 2bbe 8e60 013e 4f8b 0e3e
00000020: f923 80bd 81dd 003d fd38 1c3d e31d 2fbd
00000030: 903d 153e e378 c63c 02e3 47bd 85ea a8bd
00000040: 4dba acbd b3ca 1d3d 495e 0dbe 09fd 1cbe
00000050: a5fe 3dbd 23fe 3a3e f568 383e 1754 0dbd
00000060: b079 933d f428 8f3d 49fc f73d 4653 ab3d
00000070: 4708 a73c 3e75 7c3d b994 cbbd f0b1 d03d
00000080: 6404 fcbd 5a8f f8bb 7128 933c 8eec 123e
00000090: b4aa b6bc 8432 52bd 6af0 a8bc 1751 83bd
000000a0: 356a 31be 6726 233e cc11 0c3e 6679 f1bd
000000b0: d5a3 e03d c9d1 3f3d a68f 52bd 826d 233e
000000c0: 6064 4d3c 6030 043e 8fa4 08be ca81 acbd
000000d0: 80d5 e5bd 9ca2 943d fd50 1ebe e6fd 65bd
000000e0: 913a 96bc 5af2 533c ffed dd3d dfbd 8b3b
000000f0: e760 a1bd 5e26 c53d a0e4 9c3d 9b05 9b3d
-0.08009351 -0.06551813 0.1577098 0.090924166 -0.088665575 -0.16787145 0.12634489 0.1392033
-0.06256861 0.031461243 0.038140286 -0.04275311 0.14574265 0.024227565 -0.048800476 -0.08247856
-0.084339716 0.038523387 -0.13805498 -0.153309 -0.046385426 0.18261008 0.18008788 -0.034504022
0.072009444 0.06990233 0.121086664 0.083654925 0.02038969 0.06163525 -0.09940476 0.10190189
-0.12305525 -0.007585448 0.01796362 0.14348051 -0.022298194 -0.051317707 -0.02062245 -0.06411951
-0.17325671 0.15932618 0.13678664 -0.11790733 0.109687485 0.046830926 -0.051406525 0.15959743
0.012536138 0.12909079 -0.13344024 -0.08423193 -0.112223625 0.07257578 -0.15460582 -0.05615034
-0.018338474 0.012936199 0.1083641 0.0042645778 -0.07879811 0.096264586 0.07660794 0.075694285

decoder.lstm.weight_ih_l0 f4 [256, 64]
00000000: e9c0 16be 9440 dc3b 75dc 293d a7ca b1bd
00000010: ad93 163b 3cc6 e5bd 3370 ae3b 0f6b 973d
00000020: d945 26bd d827 03bc 6100 973d 6e62 883d
00000030: 3fb7 cebc 216c b43d cb68 80bc cb83 693d
00000040: 08ee ddbb 3e4c 0fbe d112 62bc eaf5 67bc
00000050: 1641 b8bd e65d 4fbd 423b 0a3e 30a2 a63d
00000060: 06e7 aabd 96e2 dbbc 2ee1 013d 3ae0 993d
00000070: 77c0 163e 857c 9d3d e545 09be 881a 0f3e
00000080: 4b77 f0bd b5c8 abbd 0da2 083e 2e62 903d
00000090: 7a73 a43b d9f2 38bc d11f 3abc 870c 773d
000000a0: 832f df3b 77c6 86bd df3c 6b3c 2cab 59bb
000000b0: 4c62 b63d 2dee c33d af30 a73d 555b 043e
000000c0: c980 61bc c25d 863d aedb e33d 72e1 f03d
000000d0: 0cb0 03be 46ad 253e 8a41 9cbd f154 14bd
000000e0: 75fa 903d aa1a 7abd 06ad f23c 5aa7 d5ba
000000f0: e220 93bd 10fa 8cbd 5c5d 08bb 7ef2 c33c
00000100: 1abe 08bd 9d3f 5d3d 9c18 8fbd 58a5 993c
00000110: 41c8 1c3c db60 59bd 2680 c33d a81a 31bd
00000120: b0f4 1dbe bbb1 c63d bac1 2bbd 54df a53d
00000130: 48a4 f33a 425c f23d 74a0 563b 1d46 b0bd
00000140: 092a a6bc 5b95 0fbe 4ce3 9cbd b2e5 e3bd
00000150: 7a74 01be d12b db3d d546 2ebd 5135 eebd
00000160: d72e 0d3b 79a6 15be 9977 503d 35d5 54bd
00000170: 1f81 92bd 23c2 043d 4320 8abb 2d65 15bd
00000180: ae08 a93d 8084 afbc 4fb5 d3b9 1bef 9f3d
00000190: 778d 183e 9e6c 0c3e e473 913d d5a8 16bb
000001a0: 4827 7dbd 2950 23bb abce 87bd 41ca 83bc
000001b0: d658 cdbc 7c46 e13c 13fe f13d b1c5 223e
000001c0: 190a d2bd e929 b7bc 5923 093e 9559 003b
000001d0: cf2b 2cbd ef39 f93d 7dc3 15bd 15c6 ee3d
000001e0: d2fb b43c acaa 4d3d 83fa 093e a6f8 283e
000001f0: 2c44 d4bc f98d 223e 1f6a 00be b121 95bd
00000200: 5dad 1dbd 6137 5e3d 62ea 18bd c478 7c3d
00000210: ed71 bcbd ac52 ad3d bf07 353d b4ad 883d
00000220: 5933 f83d 9149 4abd d04a d43d 5f46 173e
00000230: ae1d e83d a798 03bd 0d02 63bb 0d16 95bd
00000240: 810e 053d 42c8 fdbd fad6 663d c816 b7bb
00000250: c4ac 6b3c 499e bc3c 369e 4bbd d56e 393e
00000260: 1611 bdbd 8443 853c 813e a23d 2825 babd
00000270: c391 2c3e 6490 233e 3774 05bd 79b0 37bd
00000280: f9dd 08bb 35e2 90bd 7fe9 6abd 94f5 133e
00000290: cd5c 28be 6de3 abbd 0054 35be e107 173e
000002a0: 5638 363d 2553 d9bd 90f3 34bd 2896 503d
000002b0: 80f3 11bd 7107 973d f515 b43d 4631 50bd
000002c0: 06f3 89bd 4ccf b43d 752d 0bbc 88af d13d
000002d0: 489a 7c3d 5e1c e73d 0a3d 80bd 1c64 57be
000002e0: dce5 443b 01f7 af3d ecbc 13be ac14 663c
000002f0: 8cfa aa3c 1386 dbbd 7669 b23d 722d 063d
00000300: 6104 f4bd d0ac 94bc 1ff5 3abd 65a8 8d3d
00000310: 02ac 29bb dcd7 8fbd c848 8c3d e3a3 553d
00000320: b051 4ebd bcea ecbd 0eb0 7f3d ebe5 fdbd
00000330: d780 c03c 8035 113e 3788 85bd a8b0 e4bc
00000340: db96 d23c 4a0c 833d 135c e7bd e5d5 1d3b
00000350: 19af d1bb 3494 5cbd 84d0 cf3c cb20 013d
00000360: 5477 a8bd 830b 0d3d 223a d93d 01aa 07bc
00000370: 3883 d2bd c42b b43c 8548 e6bd 4d91 bf3c
00000380: 3355 afbc 51c7 c13d 485e eb3d eede 6d3c
00000390: bb62 a2bd 25d4 163d 4734 9d3d 49b2 aabd
000003a0: de45 9e3d dd32 983c 44f8 b3bd c1ed e03c
000003b0: 83f8 293c cd0e d1bd 7809 af3a a960 bd3d
000003c0: 96c0 65bd a12d aebd 8c96 a43d 3eab 0abe
000003d0: 02c8 5b3d 728b 6a3d a6d6 bf3d 39c9 65bb
000003e0: 9413 b73d cb95 f9bc 2bd2 813d 2af4 033c
000003f0: 1b01 cfbd 25c5 37bd 7f77 0cbd d5aa 103d
-0.14722027 0.0067215655 0.04147001 -0.08681231 0.0022976205 -0.11219451 0.005323434 0.07393467
-0.040593956 -0.008005105 0.07373119 0.06659399 -0.025233863 0.088096865 -0.01567497 0.057010453
-0.0067727603 -0.13993928 -0.0137984315 -0.014157752 -0.08996789 -0.050626658 0.13499168 0.081364036
-0.083448455 -0.026841443 0.03170889 0.07513471 0.14721857 0.07689766 -0.13405569 0.13974965
-0.11741503 -0.08387891 0.13343067 0.07049976 0.0050186487 -0.011288368 -0.011360125 0.06031468
0.0068110838 -0.06580823 0.0143577745 -0.0033213599 0.089054674 0.09566913 0.081635825 0.12925465
-0.013763615 0.06560852 0.11125885 0.1176175 -0.12860125 0.1617938 -0.07629688 -0.03621382
0.07079021 -0.061060585 0.02962352 -0.0016300485 -0.07184006 -0.06883633 -0.00208076 0.02391934
-0.03338442 0.054015744 -0.06987116 0.0187556 0.009569229 -0.053070884 0.09545927 -0.043238312
-0.15425372 0.09701868 -0.0419328 0.08099237 0.0018588388 0.11834003 0.0032749446 -0.08607123
-0.020283716 -0.14021818 -0.07660541 -0.11127795 -0.12642089 0.10701717 -0.04254802 -0.11631263
0.0021542811 -0.14614286 0.050895307 -0.051961143 -0.07153534 0.032411706 -0.0042152717 -0.036473442
0.08253609 -0.021425486 -0.00040380142 0.078092776 0.14897715 0.13713309 0.071021825 -0.0022988815
-0.06180504 -0.0024919605 -0.06631216 -0.016087653 -0.025066774 0.02749943 0.11816039 0.15895726
-0.10255832 -0.022358852 0.1339239 0.0019584645 -0.042033967 0.12169253 -0.036563385 0.11658875
0.022092734 0.050211594 0.13474469 0.16501102 -0.025911413 0.15874471 -0.12540482 -0.07281817
-0.03849541 0.054252032 -0.0373329 0.06163861 -0.09201417 0.08463034 0.04419684 0.06673756
0.12119169 -0.049386565 0.10365832 0.14772938 0.11333786 -0.032128002 -0.0034638674 -0.072795965
0.032484535 -0.12391712 0.05635736 -0.0055874325 0.014384452 0.023024695 -0.04971143 0.18108685
-0.092317745 0.016267546 0.07922078 -0.09089118 0.16852479 0.1597305 -0.032581534 -0.04484603
-0.002088426 -0.070743956 -0.057351585 0.1444915 -0.1644165 -0.083929874 -0.17707825 0.147491
0.04448732 -0.10611562 -0.04417759 0.05092445 -0.03563261 0.07374466 0.087932505 -0.05082824
-0.06735806 0.08828601 -0.0084947245 0.10238558 0.06167057 0.112847075 -0.06261642 -0.21034282
0.0030044233 0.08592034 -0.14427537 0.0140430145 0.020871423 -0.10718932 0.08711521 0.032758184
-0.11914898 -0.01814881 -0.045643922 0.06916884 -0.0025889878 -0.07023594 0.068498194 0.052158248
-0.050370872 -0.115682095 0.06242376 -0.12397369 0.023498936 0.14180565 -0.065201215 -0.027916268
0.0257067 0.06398828 -0.11296859 0.002408379 -0.006399047 -0.053852275 0.025367983 0.031525414
-0.08225885 0.034434807 0.10606791 -0.008280278 -0.10278934 0.021993525 -0.11244301 0.023384714
-0.02140293 0.09461845 0.11492592 0.014518483 -0.079289876 0.03682341 0.07675987 -0.083347864
0.0772817 0.018578941 -0.08787587 0.02745712 0.010374191 -0.10207901 0.0013354262 0.09246952
-0.056091867 -0.08504797 0.08036527 -0.13541886 0.05365754 0.05726189 0.09367113 -0.0035062565
0.08939281 -0.030466935 0.063389145 0.008053819 -0.10107633 -0.044865746 -0.034293648 0.035319168
