models/autoencoders/nvda_lstm_autoencoder.pth (torch, 228008 bytes, 14 tensors)

encoder.lstm.weight_ih_l0 f4 [256, 5]
0	0x3d1c691f	0.03818619
1	0xbd7a0d40	-0.061047792
2	0xbd8f89a9	-0.070086785
3	0xbd07fd23	-0.033200394
4	0x3db2ba4a	0.08726938
5	0x3d99bd4f	0.07506811
6	0x3e0d5373	0.13801365
7	0xbd1de1ad	-0.0385453
8	0xbdd9136a	-0.10599406
9	0x3d77d755	0.06050809
10	0xbc2fae66	-0.010722732
11	0xbdce95de	-0.10087179
12	0xbe15cb52	-0.14628342
13	0x3daf758c	0.08567342
14	0x3bd004f6	0.0063482476
15	0xbdccc444	-0.09998372
16	0xbcc93f23	-0.024566239
17	0x3cbc811e	0.023010787
18	0xbd873e57	-0.06603687
19	0xbdc24b30	-0.09486997
20	0xbb82050c	-0.003967887
21	0xbdc629af	-0.09675919
22	0xbae407d8	-0.0017397357
23	0x3dbb2e46	0.09139685
24	0x3db880e9	0.09008963
25	0x3d7b1128	0.06129566
26	0x3da2a3fc	0.07941434
27	0xbd8bf2e1	-0.06833435
28	0xbd6f9407	-0.05849078
29	0x3d64992d	0.055810142
30	0xbe12e860	-0.14346457
31	0xbc8f6204	-0.017502792
32	0xbe6b6148	-0.22986329
33	0xbe7b8079	-0.24560727
34	0xbda1a0de	-0.07892011
35	0x3de89e66	0.11358337
36	0x3db790eb	0.08963188
37	0x3db86442	0.09003498
38	0xbdb3a7ce	-0.087722406
39	0x3de850ec	0.113435596
40	0xb99fff92	-0.00030517258
41	0x3de87dd1	0.113521226
42	0x3d805931	0.06267012
43	0x3dea67f8	0.11445612
44	0xbcaeab11	-0.021321805
45	0xbd47cabf	-0.048777338
46	0x3dcf1861	0.10112072
47	0xbd0c7d44	-0.03429915
48	0xbc0efa11	-0.008726613
49	0x3d441119	0.047867868
50	0x3dda5bbc	0.10662028
51	0xbdba9b9b	-0.09111711
52	0x3dd89378	0.105750024
53	0xbd97bb02	-0.07408716
54	0xbe02ff56	-0.12792715
55	0xbcdbee8c	-0.026847146
56	0xbcb2cff7	-0.021827681
57	0xbdc87f98	-0.097899616
58	0x3cee20f3	0.029068446
59	0xbe156e9b	-0.14592974
60	0xbbcdbc7f	-0.006278574
61	0x3c21d16b	0.009876589
62	0xbc959704	-0.018260486
63	0x3ce4a1fe	0.027909275
64	0xbdfbf1fa	-0.12302013
65	0xbdcb7847	-0.099350505
66	0xbddec93d	-0.10878227
67	0x3de3b59d	0.11118624
68	0x3dc99132	0.09842147
69	0x3cf5a53d	0.029986018
70	0xbd7a7592	-0.06114728
71	0xbce02ef2	-0.027366135
72	0x3dae2489	0.08503062
73	0x3d0a74e8	0.033802897
74	0x3dc3ade2	0.0955465
75	0xba22bf3b	-0.0006208305
76	0x3de727de	0.11286901
77	0xbd10f7c0	-0.035392523
78	0xbd6a209d	-0.05716001
79	0xbd066f95	-0.032821257
80	0x3c850467	0.01623745
81	0xbd720faf	-0.05909699
82	0xbd054801	-0.03253937
83	0x3d3fe34b	0.046847623
84	0xbdf39e81	-0.118954666
85	0x3d83e02f	0.06439244
86	0x3dfdf260	0.12399745
87	0x3dd39a2f	0.103321426
88	0x3e0cf8bf	0.13766764
89	0xbdcce093	-0.10003772
90	0x3bd8b889	0.006613795
91	0xbcb56357	-0.022142095
92	0xbdcf1e94	-0.10113254
93	0xbd89100d	-0.066925146
94	0xbdf18b46	-0.117941424
95	0x3cd5ae19	0.026083993
96	0xbe2d70c2	-0.16937545
97	0xbda4f3db	-0.08054324
98	0xbc48c29c	-0.01225343
99	0x3d5e70f1	0.054306928
100	0xbc92ea6e	-0.01793405
101	0xbdf6fe97	-0.12060278
102	0x3d89bfb4	0.067260176
103	0x3d18b0ae	0.03727787
104	0xbe14c588	-0.14528477
105	0x3d76f9d6	0.060296856
106	0x3d9aefbd	0.07565258
107	0x3d80fafd	0.06297872
108	0xbd051d24	-0.032498494
109	0x3db77d7f	0.08959483
110	0xbc6cdabb	-0.014456446
111	0xbbccfd34	-0.00625577
112	0xbd57f1ac	-0.05272071
113	0xbdb519da	-0.088428214
114	0x3d9ff186	0.07809739
115	0x3d3554b3	0.04427023
116	0x3dccf937	0.100084715
117	0x3d70d78d	0.058799315
118	0xbdb18ace	-0.08669053
119	0x3dd37b2d	0.10326228
120	0x3d9f02d7	0.077642135
121	0x3dcd74a0	0.1003201
122	0xbc830839	-0.015995132
123	0x3dfa0f89	0.12209994
124	0xbdeed4bd	-0.1166167
125	0x3dac3b87	0.084097914
126	0xbc00299d	-0.007822421
127	0xbcc4f423	-0.024042195
128	0xbdaaf1c4	-0.083468944
129	0xbcc4eed7	-0.024039669
130	0x3d44aed5	0.048018295
131	0xbc8abb4a	-0.01693501
132	0x3b072e83	0.0020627088
133	0xbd544219	-0.051820848
134	0xbddae0c1	-0.106874
135	0x3e084092	0.13305882
136	0x3c44de2e	0.012015862
137	0xbd4f58cf	-0.050621804
138	0x390a3fa1	0.00013184409
139	0x3d7c04a5	0.061527867
140	0xbdfdaa61	-0.12386013
141	0xbdc97872	-0.09837426
142	0xbd24be10	-0.04022032
143	0xbdf1b5f4	-0.11802283
144	0xbbf45ac8	-0.007457111
145	0x3cc5be74	0.024138667
146	0x3d632bbb	0.055461626
147	0xbc9572ea	-0.018243272
148	0xbcdf70ef	-0.02727553
149	0x3e074028	0.13208067
150	0x3d793736	0.06084367
151	0xbceead32	-0.02913532
152	0x3e0b31d7	0.13593231
153	0x3d82f874	0.06395045
154	0xbd9ff212	-0.07809843
155	0xbde68ce5	-0.11257342
156	0xbdc5a7c0	-0.096511364
157	0xbe46b2bc	-0.19404119
158	0xbe566987	-0.20938693
159	0xbdce8845	-0.10084585
160	0xbe0e80f0	-0.13916373
161	0x3d7a1070	0.061050832
162	0x3dba80a1	0.09106565
163	0xbccae2b9	-0.024766313
164	0xbd6cbbc4	-0.057796255
165	0x3cfb7b8e	0.030698564
166	0x3dc5e74f	0.09663259
167	0xbc265a26	-0.010153329
168	0x3e06cd2e	0.13164207
169	0xbd8480d8	-0.064698875
170	0xbe0e08ea	-0.13870588
171	0xbdea26d4	-0.11433187
172	0xbe18fd77	-0.14940439
173	0xbc9a73a7	-0.018853975
174	0x3d4652da	0.048418857
175	0xbdb66c21	-0.08907343
176	0xbdeb5ae1	-0.11491943
177	0xbc9d5a9b	-0.019208243
178	0xbdf1eac8	-0.11812359
179	0xbd08b7e4	-0.033378497
180	0x3dfc16e0	0.123090506
181	0x3ccaf50a	0.024775047
182	0xbd4a6e38	-0.04942152
183	0xbd4ff78e	-0.050773196
184	0xbe2051c0	-0.15656185
185	0xbd05fe4f	-0.03271323
186	0xbd885e78	-0.066586435
187	0xbd382537	-0.044957366
188	0x3d31a04b	0.043365758
189	0xbd9b8f56	-0.075956985
190	0x3d7c369d	0.06157552
191	0xbd26feb1	-0.040770236
192	0xbd200f57	-0.03907713
193	0x3de602c0	0.11230993
194	0xbcf8140f	-0.030283002
195	0xbd8cf144	-0.06881955
196	0xbc9861aa	-0.018601257
197	0x3dc3341e	0.09531425
198	0xbd84cbba	-0.0648417
199	0xbe17364e	-0.1476681
200	0x3c93598e	0.017987039
201	0xbd40f07c	-0.047104344
202	0x3da27a13	0.0793344
203	0x3d887362	0.066626325
204	0xbdd7a149	-0.105288096
205	0xbda92b8c	-0.08260259
206	0xbd7be611	-0.061498705
207	0xbd8a556a	-0.06754573
208	0x3e0969c1	0.13419248
209	0x3cca3741	0.02468455
210	0x3d4b0cc4	0.04957272
211	0xbd08e752	-0.03342373
212	0xbd2011ff	-0.039079662
213	0x3ddb0ea1	0.106961496
214	0xbde33a07	-0.11095052
215	0x3d623e22	0.055235036
216	0x3e2388ce	0.15970156
217	0x3d3d3228	0.04619041
218	0xbb83325e	-0.004003807
219	0x3e468a8b	0.19388787
220	0xbda5e6bb	-0.08100649
221	0x3cfe37e1	0.031032505
222	0x3df60981	0.120135315
223	0x3dab9d4d	0.08379612
224	0xbd50ce72	-0.05097813
225	0xbbe57da4	-0.007003503
226	0xbd8adacc	-0.067800134
227	0xbdde7c06	-0.10863499
228	0x3de40e9d	0.111356
229	0xbdaba9a6	-0.08381967
230	0xbe3d77b4	-0.18502694
231	0xbe5a85d9	-0.21340121
232	0xbcacc7be	-0.021091338
233	0xbd3d6b9d	-0.046245206
234	0x3d3d17b6	0.04616519
235	0xbddf4c50	-0.10903227
236	0x3afe301c	0.0019393
237	0x3dbcf823	0.09227016
238	0xbdfd71ba	-0.12375207
239	0x3d59b81b	0.053154092
240	0x3d8e290c	0.06941423
241	0x3dad829a	0.08472176
242	0xbcb3dbd2	-0.021955404
243	0xbd4791b5	-0.04872294
244	0xbd35c75f	-0.04437959
245	0x3dddb229	0.10824997
246	0xbdad2f58	-0.08456296
247	0xbbacdb7c	-0.005275188
248	0xbd6f0771	-0.058356706
249	0xbda2b8c7	-0.079454
250	0x3d88fd6c	0.066889614
251	0xbcd3ba3c	-0.02584564
252	0xbd7e255b	-0.062047344
253	0xbc40df5a	-0.011772001
254	0xbe06c773	-0.13162021
255	0x3d60850f	0.054814395

encoder.lstm.weight_hh_l0 f4 [256, 64]
0	0x3bc127ae	0.0058946228
1	0x3c16784b	0.0091839535
2	0xbb8b9ad7	-0.0042604017
3	0xbe02635f	-0.1273322
4	0x3a590b48	0.0008279574
5	0xbd9d3c3d	-0.07677505
6	0xbdf65534	-0.1202797
7	0xbd04f9e4	-0.032464877
8	0x3ddd606b	0.10809406
9	0x3d95580b	0.072921835
10	0xbc1ffaae	-0.009764357
11	0x3db7d919	0.08976955
12	0x3d366e56	0.04453882
13	0xbd81b0ae	-0.06332527
14	0xbd758d39	-0.059949134
15	0x3cbba5ff	0.022906302
16	0xbe00a697	-0.12563549
17	0xbd6c8359	-0.05774245
18	0x3d386ec7	0.04502752
19	0x3df94250	0.12170851
20	0x3d882624	0.066479
21	0xbd5ec5cb	-0.05438785
22	0xbdcaca3a	-0.09901853
23	0xbdbc2ab5	-0.09187833
24	0x3d57842c	0.052616283
25	0x3dab14df	0.0835359
26	0x3bdaa843	0.0066728904
27	0xbd89dbf9	-0.067314096
28	0xbdf170cb	-0.11789092
29	0x3e06fe64	0.1318298
30	0xbd9b341b	-0.07578298
31	0xbd61d6fb	-0.055136662
32	0xbc1b83a8	-0.0094918385
33	0x3dd486ee	0.10377298
34	0x3b8208ab	0.0039683185
35	0xbcec461e	-0.028842028
36	0x3d42d92c	0.047570392
37	0xbde20ba5	-0.11037377
38	0xbdb88c58	-0.090111434
39	0xbd83a480	-0.0642786
40	0xbdddbdc1	-0.10827208
41	0xbdecd5fc	-0.11564252
42	0x3d4154b9	0.04719994
43	0x3cf2d646	0.02964319
44	0x3dbe236c	0.092841
45	0x3d19a09a	0.037506677
46	0x3c6938c1	0.014234723
47	0xbcce3b37	-0.02517472
48	0xbd4a4edf	-0.049391624
49	0xbddf71a7	-0.10910349
50	0xbdd5e604	-0.104442626
51	0x3de51939	0.111864515
52	0xbe04aa60	-0.12955618
53	0xbdbe7523	-0.09299686
54	0x3c801fed	0.015640223
55	0x3c628fe2	0.01382825
56	0xbdc8a56b	-0.09797176
57	0xbdd0be5d	-0.10192559
58	0xbe0a5a2e	-0.13510963
59	0xbcfa3ac6	-0.030545603
60	0xbcbb8ce1	-0.022894325
61	0xbd8d20c3	-0.068910144
62	0x3dbc86c3	0.09205391
63	0x3dc0cd88	0.09414202
64	0x3d13f36b	0.036120813
65	0x3de29952	0.110644
66	0xbd06d95c	-0.032922134
67	0xbdad8e62	-0.08474423
68	0xbd6eddb4	-0.0583169
69	0xbd92638d	-0.07147894
70	0x3da2fbbc	0.07958171
71	0xbcfc6eeb	-0.030814609
72	0x3d86aaf9	0.06575579
73	0x3deb3dd1	0.114864
74	0x3d2ea055	0.042633373
75	0xbdaeb641	-0.08530856
76	0xbd71de39	-0.05904982
77	0xbdc62445	-0.096748866
78	0x3dd227d6	0.10261504
79	0xbc076f39	-0.008266264
80	0x3d28bc0b	0.041194957
81	0xbc90a206	-0.017655384
82	0x3b8466e3	0.0040405854
83	0x3cc1ddb7	0.023665292
84	0x3dfdce69	0.12392885
85	0xbd846423	-0.06464412
86	0x3e0e191d	0.13876767
87	0xbe03965e	-0.1285033
88	0x3d2dd388	0.04243806
89	0x3dacf8c5	0.084458865
90	0xbd6ae7ce	-0.057349972
91	0xbda60e17	-0.08108156
92	0xbdb40051	-0.08789123
93	0xbc8e1461	-0.017343702
94	0xbd898154	-0.067141205
95	0xbda1ee4d	-0.079067804
96	0xbd7c2d8d	-0.061566878
97	0x3da13a34	0.078724295
98	0xbd9100ad	-0.07080207
99	0x3dc7896e	0.097430095
100	0xbd4e6637	-0.05039045
101	0xbd6e2b36	-0.058146678
102	0xbcc3fa3a	-0.023923028
103	0xbde23dc2	-0.110469356
104	0x3cc93491	0.024561198
105	0x3de178be	0.11009358
106	0xbbea5739	-0.007151511
107	0x3c584fbe	0.013202606
108	0xbd341bc3	-0.04397179
109	0x3e0b42fa	0.13599768
110	0x3d27f00c	0.04100041
111	0x3da12b48	0.07869583
112	0xbddcee03	-0.10787585
113	0xbd94aaf3	-0.072591685
114	0xbdeb06df	-0.1147592
115	0xbcd1bc8f	-0.025602607
116	0x3cf2f26b	0.02965661
117	0x3cdd883d	0.027042503
118	0xbd86c14b	-0.065798365
119	0xbdf00e2d	-0.11721454
120	0x3d77c680	0.06049204
121	0xbd4bb641	-0.049734358
122	0xbc88db04	-0.016705997
123	0x3c8f8d4e	0.017523434
124	0x3c934b97	0.01798038
125	0x3d84d126	0.064852044
126	0x3bde13e5	0.006777274
127	0xbdb70310	-0.08936131
128	0xbd89e808	-0.067337096
129	0x3d7d1aa6	0.061792992
130	0x3d09a8be	0.03360819
131	0x3d5d830c	0.054080054
132	0x3da38c6a	0.07985766
133	0x3ce8e76f	0.028430669
134	0xbd6fcdfe	-0.05854606
135	0x3d926c7e	0.071495995
136	0x3dc78983	0.09743025
137	0xbd1f7354	-0.038928345
138	0x3dcd8cb6	0.10036604
139	0x3ce6517b	0.028115025
140	0x3d0c4d12	0.034253187
141	0x3db0ce5d	0.08633111
142	0x3c2ddbe3	0.010611507
143	0x3d616e7a	0.055037
144	0x3d4d7bf3	0.050167035
145	0xbdf23fdf	-0.11828589
146	0xbb999204	-0.004686596
147	0x3dd04560	0.10169482
148	0x3d9af281	0.07565785
149	0xbd36598f	-0.044519003
150	0xbdb0973c	-0.08622596
151	0x3d851d59	0.06499738
152	0xbc7b9ef2	-0.01535772
153	0x3d9f6b3e	0.07784127
154	0x3e0c76de	0.13717219
155	0x3dcf6663	0.101269506
156	0xbd49c567	-0.049260523
157	0xbcfff3d0	-0.031244189
158	0xbe05c243	-0.13062386
159	0xbd9c4dbf	-0.076320164
160	0xbd5cc455	-0.053898174
161	0x3c8c85c0	0.01715362
162	0xbd1d17a1	-0.038352612
163	0x3bbd44f1	0.0057760407
164	0xbc502c5e	-0.01270589
165	0x3d84cd1e	0.064844355
166	0xbd94d796	-0.07267682
167	0xbd6da1af	-0.05801552
168	0x3cf3bbf6	0.029752713
169	0x3cbbfc14	0.022947349
170	0xbd542311	-0.051791254
171	0x3b921a77	0.0044587213
172	0xbdbb1d10	-0.091364026
173	0x3c05a373	0.008156645
174	0x3d8d3b59	0.06896085
175	0xbcf544d9	-0.029940056
176	0x3db78d02	0.08962442
177	0xbd94a5cf	-0.07258188
178	0x3db2030b	0.08691987
179	0x3e099594	0.13435966
180	0x3dbd7ae0	0.09251952
181	0x3d36c132	0.04461784
182	0xbbbc28b0	-0.005742155
183	0x3b9979e6	0.004683721
184	0x3df24712	0.11829962
185	0xbda58872	-0.080826655
186	0xbdf5aaa0	-0.11995435
187	0x3d950761	0.07276798
188	0x3dcb4f94	0.09927288
189	0xbda75bce	-0.08171807
190	0xbdb6b628	-0.08921462
191	0xbcf7f43d	-0.03026783
192	0xbddac75b	-0.10682555
193	0xbd1922c7	-0.037386682
194	0xbda3e214	-0.08002105
195	0xbbad5b1b	-0.0052904016
196	0x3dee746b	0.11643299
197	0x3c81012f	0.015747635
198	0xbc1a55fb	-0.009419913
199	0xbdf9b593	-0.12192836
200	0xbde55d99	-0.11199493
201	0xbc652ce6	-0.013987755
202	0x3d38045d	0.044926036
203	0x3c9bcbb9	0.019018041
204	0x3e003c18	0.12522924
205	0xbce95f83	-0.028487926
206	0x3d33e237	0.043916907
207	0x3d82993d	0.06376884
208	0x3c609903	0.013708356
209	0x3cd56693	0.026049888
210	0xbdff9640	-0.1247983
211	0x3d70de2a	0.058805622
212	0x3de0e30b	0.10980805
213	0xbe04e7cd	-0.1297905
214	0xbd3b438d	-0.04571872
215	0xbdd09a58	-0.10185689
216	0x3c91ad97	0.01778297
217	0x3d48c114	0.04901226
218	0xbe01bb48	-0.12669098
219	0x3d11fc63	0.035641085
220	0xbde0c5ec	-0.109752506
221	0xbda90888	-0.0825358
222	0x3c96d270	0.018410891
223	0x3cc2bcf5	0.023771742
224	0x3c838ec5	0.016059289
225	0xbd8cda62	-0.06877591
226	0xbd63662d	-0.055517364
227	0x3d983c4e	0.07433377
228	0xbd206097	-0.039154615
229	0x3dcd7580	0.10032177
230	0xbd7fbb58	-0.062434524
231	0x3dc1d7a9	0.09464962
232	0x3cb90317	0.022584481
233	0xbd8210d8	-0.06350869
234	0xbd103980	-0.035211086
235	0xbce4a714	-0.0279117
236	0x3d874b7b	0.06606194
237	0x3d818608	0.063243926
238	0xbdff6ddf	-0.12472128
239	0x3d94b981	0.072619446
240	0x3e0750a1	0.13214351
241	0x3d197ac0	0.03747058
242	0xbe0ce8d6	-0.13760695
243	0xbdc79edd	-0.09747098
244	0x3dff9215	0.12479035
245	0xbdd54967	-0.10414391
246	0x3dc32640	0.0952878
247	0xbd5c817a	-0.053834416
248	0xbd5fa0a2	-0.05459655
249	0x3c43a805	0.011941914
250	0xbd0ac50d	-0.03387933
251	0xbe1aa07d	-0.15100284
252	0x3df71d3f	0.12066125
253	0xbcb4451f	-0.022005616
254	0x3cf01781	0.029308083
255	0xbdea7cec	-0.11449608

encoder.lstm.bias_ih_l0 f4 [256]
0	0xbc81661d	-0.015795762
1	0xbd87cf2b	-0.06631311
2	0xbdd0d232	-0.101963416
3	0xbd1f6cd4	-0.038922146
4	0x3db3d8fe	0.08781622
5	0x3c9f0322	0.019410674
6	0xbb6db1ce	-0.003626931
7	0xbd73ad34	-0.05949135
8	0xbd01307f	-0.03154039
9	0x3d3184ad	0.04333942
10	0xbdca32f0	-0.09872997
11	0x3b6c4f90	0.0036058165
12	0x3d7bdd41	0.0614903
13	0xbdb0e9ba	-0.0863833
14	0x3de949b0	0.11391008
15	0x3d67df99	0.056609724
16	0xbd62590b	-0.0552607
17	0xbdd90521	-0.105966814
18	0x3cf7b028	0.030235365
19	0xbcc82cf8	-0.024435505
20	0xbcb39f8d	-0.021926666
21	0x3cf4b9aa	0.029873688
22	0xbd9a2692	-0.07526888
23	0x3d98c421	0.074592836
24	0xbcfffdc7	-0.03124894
25	0xbdf24c1e	-0.118309245
26	0xbdd03bee	-0.10167681
27	0x3d47eab7	0.048807826
28	0xbcbac6eb	-0.02279993
29	0x3da03417	0.07822435
30	0x3cdbb472	0.026819441
31	0x3da47d39	0.08031697
32	0x3e055018	0.13018835
33	0x3c8d8ab2	0.01727805
34	0xbdde2d85	-0.10848526
35	0x3ad3f342	0.0016170519
36	0x3d511b22	0.051051266
37	0x3d054a3b	0.032541495
38	0xbd952591	-0.07282556
39	0xbde9ca27	-0.114155106
40	0xbd5f9582	-0.05458594
41	0x3dba1dad	0.090876915
42	0x3d8ec47f	0.069710724
43	0x3e30dc7e	0.17271611
44	0xbcab461e	-0.020907458
45	0xbd9423b0	-0.07233369
46	0x3cdda7e9	0.027057605
47	0x3cec1bb6	0.028821807
48	0xb9f2701f	-0.00046241374
49	0x3e03fb66	0.1288887
50	0x3db4b7ee	0.08824144
51	0x3c0b1810	0.008489624
52	0xbd622fd7	-0.055221405
53	0x3dcc0304	0.09961513
54	0x3c8e246c	0.017351352
55	0xbd98e3de	-0.07465337
56	0xbdae3006	-0.085052535
57	0xbce19de9	-0.027541118
58	0x3cd8d493	0.02646855
59	0x3d32785a	0.043571807
60	0x3dfdac0b	0.1238633
61	0x3e02e21f	0.12781571
62	0xbc9fc7b2	-0.019504402
63	0xbd4101ea	-0.047120966
64	0x3da3e114	0.080019146
65	0xbbdb87b2	-0.0066995258
66	0x3e11e266	0.1424652
67	0xbcd4de77	-0.025984986
68	0x3e15a685	0.14614303
69	0x3c67be77	0.014144531
70	0x3c3e392e	0.011610312
71	0x3cc006b0	0.023440689
72	0xbd8bf959	-0.06834669
73	0x3a87d57b	0.0010363305
74	0xbdb5bd0e	-0.0887395
75	0x3da8ca31	0.0824169
76	0x3d9ae200	0.07562637
77	0xbc124d67	-0.008929587
78	0x3ddc6289	0.107609816
79	0xbda62b33	-0.08113708
80	0xbd9447f0	-0.072402835
81	0xbd5d6cc9	-0.054058824
82	0x3d7c9aac	0.061670944
83	0x3c033e54	0.008010466
84	0xbd53a3ad	-0.051669765
85	0x3e0633b2	0.13105658
86	0xbd821fa9	-0.06353695
87	0x3e192f8b	0.14959542
88	0x3dfbcbde	0.12294744
89	0x3d0c7019	0.034286592
90	0x3c389398	0.011265658
91	0xbc9def0c	-0.019279025
92	0x3d4947db	0.049140792
93	0xbd06e957	-0.032937374
94	0xbd5edebb	-0.05441163
95	0xbd478a04	-0.048715606
96	0xbcba4ac0	-0.022740722
97	0xbb1c65aa	-0.0023864307
98	0x3c2951d2	0.010334449
99	0xbd8c9c71	-0.06865776
100	0xbda16dd8	-0.07882279
101	0x3dcd4ff5	0.10025016
102	0x3d7c5a8d	0.061609793
103	0x3d48425a	0.048891403
104	0xbba29688	-0.0049617924
105	0x3d1eb81f	0.03874981
106	0xbd56b906	-0.052422546
107	0x3e9171be	0.2840709
108	0x3d84c67f	0.064831726
109	0xbd1db148	-0.038499147
110	0xbd96f02d	-0.07370029
111	0x3dcfd760	0.101485014
112	0x3e001abf	0.12510203
113	0xbdb49fe2	-0.08819558
114	0xbc2967b2	-0.010339664
115	0x3dbb34b8	0.09140915
116	0xbdcd7408	-0.10031897
117	0xbdd2c913	-0.10292258
118	0xbd81da73	-0.06340494
119	0x3d81d878	0.06340116
120	0xbd6d20cf	-0.057892617
121	0xbd01e3d4	-0.031711414
122	0x3b2a16ed	0.0025953606
123	0xbc5fcc3a	-0.013659531
124	0x3d4f54f2	0.05061812
125	0x3dd310c7	0.103059344
126	0xbd4a58f0	-0.049401224
127	0x3db33f29	0.08752281
128	0xbdb6fecb	-0.08935317
129	0xbd7871fd	-0.060655583
130	0x3d87091c	0.06593534
131	0x3df05adb	0.11736079
132	0x3c8d63b0	0.017259449
133	0x3dcd7a3a	0.100330785
134	0xbde462e6	-0.11151676
135	0x3ce9ecd0	0.028555304
136	0x3d777f9d	0.060424436
137	0xbdb97ce1	-0.09057022
138	0x3d9eec9c	0.077599734
139	0x3d53b032	0.051681705
140	0x3de321da	0.11090441
141	0x3d539a1c	0.051660642
142	0x3d44c5ca	0.04804019
143	0xbb88967f	-0.004168331
144	0xbce95a9f	-0.028485594
145	0xbd9fa7b6	-0.0779566
146	0x3c9d99bb	0.019238343
147	0x3dcd826e	0.10034643
148	0xbdae37b6	-0.0850672
149	0x3ddc5369	0.10758097
150	0x3dc83b7e	0.09776972
151	0x3df45eed	0.11932168
152	0x3d1bab9d	0.03800546
153	0xbcc3b8aa	-0.023891766
154	0x3d8e4324	0.069464
155	0x3d77105d	0.06031834
156	0xbd6bedf9	-0.057599995
157	0x3cb7f794	0.022456922
158	0xbd828166	-0.06372337
159	0x3d01a41c	0.031650648
160	0xbcb7c40e	-0.022432353
161	0x3db866ed	0.090040065
162	0xbdb2f862	-0.087387815
163	0x3b2f1c6e	0.0026719826
164	0x3d1d0c95	0.038342077
165	0xbb9b0bba	-0.0047316225
166	0x3c8126d0	0.015765578
167	0x3d81d2fc	0.0633907
168	0x3db83ed2	0.08996357
169	0xbd901f1a	-0.07037182
170	0x3ce6917e	0.028145548
171	0x3da765d3	0.08173718
172	0xbd058d3a	-0.032605387
173	0xbd42b576	-0.047536336
174	0xbde6258d	-0.11237631
175	0x3dda30ee	0.10653864
176	0xbd3912be	-0.04518389
177	0x3c0823ec	0.008309346
178	0x3d85ff94	0.06542888
179	0x3d0c25af	0.034215625
180	0x3cec8a27	0.02887447
181	0x3d6eb513	0.058278155
182	0x3ddb5830	0.1071018
183	0xbdf2aa6e	-0.11848913
184	0x3dc0767b	0.09397598
185	0xbdc179eb	-0.09447082
186	0x3db5f902	0.08885385
187	0x3d96dd3b	0.07366415
188	0x3b9ed8a4	0.004847603
189	0xbc2ffee1	-0.01074192
190	0x3d89f9a0	0.06737065
191	0xbc822dfd	-0.01589107
192	0x3d48e5be	0.049047224
193	0x3d98b74d	0.07456837
194	0xbd93211d	-0.0718405
195	0xbb05645d	-0.002035401
196	0x3df91f18	0.12164134
197	0x3dc01b60	0.09380221
198	0x3d30479d	0.043037046
199	0x3d1b4274	0.03790517
200	0xbdd228d5	-0.10261694
201	0xba70ccb0	-0.0009185774
202	0x3d9ddec0	0.07708502
203	0xbc8a69a3	-0.016896075
204	0xbdcc35f6	-0.0997123
205	0x3d8f3f95	0.06994549
206	0xbd5ad900	-0.053429604
207	0x3ca55a1b	0.020184567
208	0xbbc70fca	-0.0060748802
209	0x3d49d804	0.049278274
210	0x3d12ad92	0.03581006
211	0x3dcb5602	0.09928514
212	0xbdbb5d0b	-0.09148606
213	0x3e08df36	0.13366398
214	0xbd6a6ac5	-0.05723073
215	0x3c92b920	0.01791054
216	0x3e062130	0.13098598
217	0x3db38839	0.08766217
218	0xbc08163f	-0.008306085
219	0xbd777357	-0.06041273
220	0xbd8459ff	-0.06462478
221	0xbd815a60	-0.06316066
222	0x3def5f4f	0.116881005
223	0xbdb34b3d	-0.08754585
224	0xbcf22cb7	-0.029562337
225	0x3d8081ca	0.06274755
226	0xbd3c0483	-0.04590274
227	0x3d8ba440	0.068184376
228	0x3ddaae68	0.106777966
229	0x3c978809	0.018497484
230	0xbe0795a5	-0.13240679
231	0xbd157892	-0.036491938
232	0x3d0b1730	0.03395766
233	0xbd07d377	-0.033160653
234	0x3d5a6c66	0.053326033
235	0x3e50dd06	0.20396814
236	0xbdbfa68a	-0.09357937
237	0x3ded37bd	0.11582897
238	0x3d9bdfb1	0.07611025
239	0x3de47fda	0.11157198
240	0x3c13f284	0.009029988
241	0xbc9205fb	-0.017825117
242	0x3dfc1650	0.12308943
243	0xbdb9cf23	-0.09072711
244	0x3d6e003c	0.058105692
245	0x3cabc79d	0.020969206
246	0x3db3cd9a	0.0877945
247	0xbdb5c93b	-0.08876272
248	0xbca858a8	-0.020550087
249	0xbdcc80f7	-0.099855356
250	0xbdabb919	-0.08384914
251	0x3d8e0c49	0.06935937
252	0xbd698c92	-0.057018824
253	0x3de82d64	0.113367826
254	0x3cf7b5de	0.030238088
255	0xbca5d5e2	-0.020243589

encoder.lstm.bias_hh_l0 f4 [256]
0	0xbd12e92b	-0.035866898
1	0xbdaecb5b	-0.08534881
2	0x3dce3cfc	0.100702256
3	0x3cf07195	0.029351035
4	0x3e034d2a	0.12822405
5	0x3df4d781	0.119551666
6	0xbd349f14	-0.04409702
7	0x3dde2fdb	0.108489715
8	0xbb65d755	-0.0035070975
9	0x3dd0b050	0.10189879
10	0xbc4fcbbf	-0.012682854
11	0xbb0bc923	-0.0021329604
12	0x3d8af9c5	0.06785921
13	0x3da18f0e	0.07888614
14	0xbdaf190e	-0.08549701
15	0xbde68935	-0.11256639
16	0x3dbef65c	0.09324333
17	0x3da7c487	0.081917815
18	0x3dea01e2	0.1142614
19	0xbd38667b	-0.045019608
20	0x3dfb04e7	0.122567944
21	0x3ded7158	0.11593884
22	0x3d9d714c	0.07687625
23	0x3d09a74b	0.03360681
24	0xbcbfc104	-0.023407467
25	0xbac9f736	-0.0015408758
26	0x3dd10410	0.10205853
27	0x3df2273d	0.1182389
28	0x3de30961	0.11085773
29	0x3d1b6837	0.037941184
30	0xbc491fec	-0.012275677
31	0x3ce95860	0.028484523
32	0x3da10482	0.07862188
33	0xba632477	-0.00086647965
34	0x3d889e37	0.06670802
35	0x3dd7489b	0.10511895
36	0x3e0c93c8	0.13728249
37	0xbd755ee0	-0.059904933
38	0x3b902524	0.0043989588
39	0x3d863679	0.065533586
40	0x3d1cb44e	0.03825789
41	0xbd6fce8b	-0.058546584
42	0x3d9e37d5	0.07725493
43	0x3d783ee3	0.06060685
44	0x3d94eb7d	0.07271478
45	0xbd9e1dde	-0.077205405
46	0xbc85303e	-0.016258355
47	0x3cf2ecc4	0.029653914
48	0x3d9d55ff	0.07682418
49	0x3dee910f	0.116487615
50	0xbc8d04ee	-0.017214265
51	0x3db423be	0.0879588
52	0xbd742df5	-0.05961414
53	0xbda93e34	-0.082638174
54	0x3c92291c	0.017841868
55	0x3d574b79	0.05256221
56	0xbd93dd80	-0.07219982
57	0xbd593e89	-0.053038154
58	0xbbadcadf	-0.005303725
59	0x3c98e999	0.018666076
60	0xbd92c4af	-0.07166421
61	0x3d945559	0.07242841
62	0x3dd1fd5a	0.10253401
63	0x3e062f82	0.1310406
64	0xbcdfe261	-0.027329626
65	0xbcb1ee50	-0.021720082
66	0xbdb1bcbd	-0.08678577
67	0x3d137466	0.035999678
68	0x3bb9d12c	0.005670687
69	0x3e08835f	0.13331364
70	0xbd3be696	-0.0458742
71	0xbd91a5c9	-0.07111699
72	0x3d9aef03	0.07565119
73	0x3d8ffd46	0.0703073
74	0x3d2cc5b2	0.042180724
75	0x3dbe6847	0.09297233
76	0xbdce3f34	-0.10070649
77	0x3d551ce7	0.052029517
78	0x3bf025e3	0.007328735
79	0x3d710ca1	0.058849934
80	0xbd90a8fc	-0.07063481
81	0xbc1d832c	-0.009613793
82	0x3dceefa6	0.10104303
83	0x3c674f40	0.014118016
84	0x3dc7b26e	0.0975083
85	0x3dc5bc13	0.09655013
86	0xbb8967fe	-0.004193305
87	0xbd9f0d19	-0.0776617
88	0xbcac8df6	-0.021063786
89	0x3df748e3	0.12074449
90	0xbd97229a	-0.073796466
91	0xbda387c4	-0.079848796
92	0xbdad56d0	-0.08463824
93	0xbd955546	-0.07291655
94	0x3cca3e51	0.024687918
95	0xbde5d8e5	-0.1122301
96	0xbd03a629	-0.032140885
97	0x3dde7a58	0.10863179
98	0x3decf8dd	0.115709044
99	0xbd51c235	-0.0512106
100	0xbd357cc4	-0.04430844
101	0xbbc4589c	-0.0059920084
102	0xbb808818	-0.0039224736
103	0xbc96ca75	-0.018407086
104	0x3def199f	0.11674809
105	0xbd2ec400	-0.04266739
106	0x3dc6468e	0.09681426
107	0x3e71125e	0.23542163
108	0x3d451106	0.048111938
109	0x3a19e6dc	0.00058708875
110	0x3d9d1697	0.07670324
111	0x3dd41124	0.10354832
112	0x3dcb59cc	0.09929237
113	0xbda1ba48	-0.078968585
114	0x3d9a61c9	0.07538182
115	0xbd40dcff	-0.04708576
116	0x3e007815	0.12545808
117	0xbdf1409d	-0.11779902
118	0x3d3b59fe	0.04574012
119	0x3e0b2d4e	0.13591501
120	0x3de2b018	0.110687435
121	0x3d442e91	0.04789597
122	0x3ca5aefc	0.02022504
123	0xbbbea86d	-0.0058184178
124	0x3d6b13f6	0.057392083
125	0x3cf2a018	0.029617354
126	0x3dbc36bf	0.091901295
127	0x3de030e1	0.10946823
128	0xbd7a04b1	-0.06103963
129	0x3dffc7d5	0.12489287
130	0x3c610cda	0.013735974
131	0x3d66c450	0.056339562
132	0xbcb3a117	-0.0219274
133	0x3c56a506	0.013100868
134	0xbdd5571c	-0.104170054
135	0x3d329a5d	0.043604244
136	0x3b3451f7	0.0027514675
137	0x3d5ec0c8	0.05438307
138	0xbdfa14f1	-0.122110255
139	0x3dccaeab	0.09994253
140	0xbd2a7352	-0.041613884
141	0xbd00ca99	-0.031443212
142	0xbdd4e3cd	-0.10395012
143	0xbd0aed1e	-0.03391754
144	0xbdbb3c65	-0.09142379
145	0xbda14760	-0.07874942
146	0x3d71166c	0.058859274
147	0x3db0a6fe	0.08625601
148	0x3bd99dab	0.00664111
149	0xbcce9295	-0.02521638
150	0xbdf25f7a	-0.11834617
151	0xbcfab063	-0.030601686
152	0xbda22686	-0.07917504
153	0x3d19969a	0.03749714
154	0x3d8f977c	0.07011315
155	0xbd1661a6	-0.03671422
156	0xbd33e0f5	-0.043915708
157	0x3db1dcaf	0.0868467
158	0x3da29010	0.07937634
159	0x3e007e0b	0.12548082
160	0x3da9f9ec	0.08299622
161	0x3de0ec57	0.10982578
162	0xbc9c9bb0	-0.019117206
163	0xbdcd7b1f	-0.10033249
164	0x3d847d1f	0.064691775
165	0xbbb9cf7a	-0.005670485
166	0xbded7336	-0.1159424
167	0x3d622c92	0.055218287
168	0xbd950ca8	-0.072778046
169	0x3d7a3b84	0.061091915
170	0xbc03cf4a	-0.008045027
171	0xbccc00a9	-0.024902659
172	0xbb7ed84e	-0.0038886252
173	0xbdcbe132	-0.09955062
174	0xbcd29d70	-0.025709838
175	0xbc64ba9f	-0.01396051
176	0x3d6d851a	0.057988264
177	0xbcfdb6f0	-0.03097102
178	0xbca1ea5d	-0.019765073
179	0x3db651d0	0.08902323
180	0x3ccdd1c9	0.025124447
181	0xbdcd113a	-0.10013051
182	0x3dcf13da	0.10111208
183	0xbe006a09	-0.12540449
184	0x3d8f9a97	0.070119075
185	0x3c110847	0.008852071
186	0xbe0d3a8c	-0.13791865
187	0xbccf27ef	-0.025287597
188	0xbdc8e726	-0.09809713
189	0xbd75578b	-0.05989794
190	0x3c3b4a69	0.011431315
191	0x3dce25d2	0.100658074
192	0x3db2c35f	0.0872867
193	0x3d316ca1	0.043316487
194	0x3e01368e	0.12618467
195	0xbdf2dfaa	-0.11859067
196	0xbcc689fb	-0.024235716
197	0xbcc72605	-0.024310121
198	0xbdde6b78	-0.10860342
199	0xbda836ec	-0.082136005
200	0xbda10169	-0.07861597
201	0x3dd9e365	0.10639075
202	0x3dbcbd68	0.09215814
203	0x3ccb2f4d	0.024802828
204	0xbc8eeb47	-0.017446173
205	0xbdfd0ee6	-0.12356357
206	0x3bb2d08c	0.0054569896
207	0x3d427b0c	0.047480628
208	0x3c800038	0.015625104
209	0x3de54190	0.11194146
210	0x3db22f43	0.08700421
211	0x3dc3d612	0.09562315
212	0xbc16edc2	-0.009211959
213	0xbd35fd7b	-0.04443119
214	0x3deb645e	0.11493753
215	0x3e148f68	0.1450783
216	0xbcf7c9fe	-0.030247685
217	0x3d057a72	0.032587476
218	0x3dcd43f7	0.10022729
219	0x3d9ca153	0.07647958
220	0x3c36e9c7	0.011164135
221	0x3d392f2e	0.04521101
222	0xbdc0cfd6	-0.094146416
223	0xbdc024cd	-0.09382019
224	0x3cbfc357	0.023408575
225	0xbd751ca6	-0.059841774
226	0xbd02503b	-0.031814795
227	0x3db2937d	0.087195374
228	0x3df84b4e	0.12123738
229	0xbcc9e77f	-0.024646519
230	0x3cbc7256	0.023003738
231	0xbd83f76c	-0.06443676
232	0xbd88ab20	-0.066732645
233	0x3e0a767f	0.13521765
234	0xbb7f805f	-0.0038986427
235	0x3dd24f90	0.102690816
236	0xbda8f7a4	-0.08250359
237	0xbdac1ac1	-0.084035404
238	0x3d6ff561	0.05858362
239	0x3e0e1c3f	0.13877963
240	0x3b8193af	0.003954373
241	0x3d9216bf	0.07133245
242	0x3ac3735e	0.0014911701
243	0xbdc49465	-0.095986165
244	0xbdc7f202	-0.09762956
245	0xbce1fc02	-0.027585987
246	0x3d889e9a	0.06670876
247	0x3dc2ed57	0.09517925
248	0xbcf148ac	-0.029453598
249	0x3a34d500	0.00068981946
250	0xbbeb8fff	-0.0071887965
251	0x3d3dbbc7	0.046321657
252	0x3dfc8955	0.123308815
253	0x3c9b9eac	0.01899656
254	0x3d4df0ab	0.050278347
255	0x3d6c2991	0.05765683

encoder.linear.weight f4 [32, 64]
0	0x3dce501e	0.10073875
1	0x3d96b449	0.073586054
2	0x3db4e6e6	0.08833103
3	0xbdb82c02	-0.08992769
4	0x3d9644c3	0.07337334
5	0xbda509d5	-0.08058516
6	0xbddc56da	-0.10758753
7	0x3dcefaad	0.10106406
8	0x3c6b1e40	0.014350474
9	0xbcb09644	-0.021556027
10	0x3cdb772d	0.026790226
11	0x3db6221f	0.08893227
12	0xbcf87a32	-0.030331705
13	0x3d8965a5	0.0670884
14	0xbc849a40	-0.016186833
15	0x3c6c3608	0.014417179
16	0xbdeaa818	-0.114578426
17	0x3dd017c9	0.10160787
18	0x3d8742ff	0.06604575
19	0x3c8874b3	0.016657209
20	0xbdece13e	-0.11566399
21	0xbdaf0ff2	-0.08547963
22	0xbd370f89	-0.04469255
23	0xbb270ac6	-0.00254886
24	0xbd98ae70	-0.07455146
25	0x3d00d939	0.03145716
26	0x3d87c1e2	0.06628777
27	0xbd3cb593	-0.0460716
28	0xbe115fa6	-0.14196643
29	0x3c87f991	0.016598495
30	0x3d6dbb6f	0.05804008
31	0xbc29302b	-0.010326426
32	0x3d5c8db9	0.053846095
33	0xbdcca14e	-0.09991704
34	0xbca80061	-0.020507993
35	0xbdb7a011	-0.08966077
36	0x3dadfbd7	0.084953
37	0xbd4fecf7	-0.050763097
38	0x3dbfa0a6	0.09356813
39	0x3d8aeb12	0.06783117
40	0xbdc51d5a	-0.09624739
41	0x3ce017d2	0.027355108
42	0x3cb53826	0.0221215
43	0x3da9c3c4	0.082892925
44	0xbe06213c	-0.13098615
45	0x3d34cb60	0.044139266
46	0xbd215b87	-0.039393928
47	0x3d985ee1	0.07439972
48	0x3c9c5c34	0.019086935
49	0x3c87349c	0.016504578
50	0x3e082213	0.13294248
51	0xbe06a3b9	-0.13148393
52	0xbdf19ca9	-0.11797459
53	0x3d42b605	0.04753687
54	0xbdb99b3d	-0.090628125
55	0xbd4881d1	-0.048951928
56	0x3d5f823e	0.054567568
57	0x3d15cf41	0.036574606
58	0xbdba330d	-0.090917684
59	0x3b9c87ce	0.0047769314
60	0xbd4bc005	-0.04974367
61	0x3c4114fe	0.01178479
62	0x3db876ca	0.09007032
63	0x3e01d178	0.12677562
64	0x3d36dadc	0.044642314
65	0x3d39f7db	0.04540239
66	0x3c5a0c23	0.013308558
67	0xbe0014c9	-0.12507929
68	0xbc27f310	-0.010250822
69	0x3d8d09f7	0.06886666
70	0xbd03026b	-0.031984728
71	0x3c471d29	0.012152948
72	0xbd803b84	-0.06261352
73	0xbd7dc4fb	-0.061955433
74	0x3d848dc8	0.06472355
75	0x3d100a6d	0.035166193
76	0x3dbbd06c	0.09170613
77	0x3e200e80	0.15630531
78	0xbe1c31b2	-0.15253332
79	0xbe1d75c9	-0.15376963
80	0x3c503566	0.012708044
81	0xbd4cb217	-0.049974527
82	0x3c1920b8	0.00934618
83	0x3daa12ba	0.08304353
84	0x3d835a9b	0.06413766
85	0x3ce43e60	0.027861774
86	0xbb38c3f9	-0.002819298
87	0xbe14b1b9	-0.14520921
88	0x3e04919a	0.12946168
89	0x3ca5664c	0.02019038
90	0xbd3a7385	-0.045520324
91	0x3dad54ea	0.08463462
92	0xba554231	-0.00081351685
93	0x3d2a315c	0.04155098
94	0x3ac3e876	0.0014946598
95	0xbcecd2da	-0.028909136
96	0xbdc3c677	-0.095593385
97	0x3dc0f2d7	0.09421318
98	0x3db8366c	0.08994755
99	0x3dc8a8df	0.097978346
100	0x3e0fa1d0	0.1402657
101	0x3e1b17ca	0.15145794
102	0xbdafcc63	-0.085839055
103	0x3c84d0b7	0.016212804
104	0xbd36c1ec	-0.044618532
105	0x3e1e36e1	0.15450622
106	0x3d4014a4	0.046894684
107	0x3c8ecaec	0.017430745
108	0x3db45dc6	0.08806948
109	0xbc7b2ca0	-0.015330464
110	0x3d2326d1	0.03983194
111	0xbcb8290a	-0.022480506
112	0x3dded92b	0.10881265
113	0xbe145819	-0.14486732
114	0xbd113abb	-0.0354564
115	0x3d6c3eea	0.057677187
116	0xbd4b3d9a	-0.049619295
117	0x3d06ad4a	0.032880105
118	0xbd903988	-0.07042223
119	0xbe1c3b4a	-0.15256992
120	0x3dcedacc	0.10100326
121	0xbdf9738b	-0.12180241
122	0xbce9ba3d	-0.028531188
123	0xbdbcdb73	-0.09221544
124	0xbd8cd4aa	-0.068765
125	0x3e1a70ad	0.15082045
126	0xbdde8716	-0.10865609
127	0xbdcb3e91	-0.09924043
128	0xbdb27671	-0.08713997
129	0xbda4073c	-0.08009192
130	0xbd3a50d8	-0.045487255
131	0xbdeda816	-0.116043255
132	0x3cc5747e	0.0241034
133	0x3da6f0b6	0.08151381
134	0x3dbdf14e	0.09274541
135	0xbdcb352e	-0.099222526
136	0x3dddd90c	0.10832414
137	0x3e0b283d	0.13589568
138	0xbcabf9cb	-0.020993134
139	0x3c412ba4	0.01179019
140	0x3cf41dbe	0.029799338
141	0xbd55eca3	-0.052227627
142	0xbd3ef9a6	-0.046624802
143	0x3d9809c1	0.074237354
144	0x3c314dc2	0.010821762
145	0xbd986d9a	-0.0744278
146	0xbdcd98ba	-0.10038896
147	0x3d009f9b	0.03140221
148	0x3c32f1f2	0.010921942
149	0x3ce69075	0.028145054
150	0xbd7cc6dc	-0.061713085
151	0x3d880e8d	0.066434
152	0xbd308fbb	-0.043105822
153	0x3def0d91	0.116725095
154	0xbde404f0	-0.11133754
155	0x3dc97358	0.09836453
156	0xbdaf4abe	-0.08559178
157	0xbdc61d78	-0.096735895
158	0xbd9fe8a7	-0.07808047
159	0xbcd25d04	-0.025679119
160	0x3ca40eae	0.020026531
161	0x3ddb0250	0.106938004
162	0xbd60fb0e	-0.054926924
163	0xbd28aeab	-0.0411822
164	0x3c536927	0.012903488
165	0xbcb66be3	-0.022268241
166	0xbd9491a9	-0.07254345
167	0x3d6d6bb8	0.057964057
168	0xbe078540	-0.13234425
169	0x3bad0f6c	0.0052813794
170	0x3df496dd	0.119428374
171	0x3d485586	0.048909687
172	0x3e189e2b	0.14904086
173	0xbd1f11a9	-0.0388352
174	0x3da63bb5	0.08116857
175	0xbe0290d5	-0.12750562
176	0x3e00ca64	0.12577206
177	0xbca4236b	-0.02003642
178	0xbc6bd0f6	-0.014393082
179	0xbc029db0	-0.007972166
180	0x3d060236	0.032716952
181	0x3dc84ae2	0.09779908
182	0x3b4a4da8	0.003086904
183	0xbd01f32f	-0.03172606
184	0xbda0bd22	-0.07848574
185	0xbe11d62f	-0.14241861
186	0x3d2cccee	0.042187624
187	0xbe11446b	-0.14186256
188	0x3d39a6a9	0.045324955
189	0x3cc5c1fa	0.024140347
190	0xbe1817c3	-0.14852814
191	0xbdc1daba	-0.09465547
192	0x3cd34940	0.025791764
193	0x3dfd4239	0.123661466
194	0x3dd91ecd	0.10601578
195	0xbdaf9aca	-0.085744455
196	0x3db91e17	0.09038942
197	0xbd4a04b3	-0.049320888
198	0xbdbec1df	-0.09314322
199	0x3d622bc4	0.05521752
200	0x3ca1d5cc	0.019755267
201	0x3ddc557f	0.107584946
202	0xbd07cfa0	-0.03315699
203	0x3dded514	0.10880485
204	0x3d07b254	0.03312905
205	0xbc843842	-0.016140107
206	0xbd42d2e3	-0.0475644
207	0xbcc89152	-0.024483357
208	0x3cc1617b	0.023606053
209	0xbccf68d7	-0.025318546
210	0xbdfb8d6a	-0.12282832
211	0x3de44422	0.11145808
212	0xbd4e7298	-0.050402254
213	0xbddc67ed	-0.1076201
214	0x3d9dcb38	0.077047765
215	0x3d56c6ba	0.052435614
216	0xbda4b54f	-0.08042394
217	0x3e2995f5	0.1656111
218	0xbdc3872d	-0.09547267
219	0xbdcd64eb	-0.10029014
220	0x3d7ec42d	0.062198807
221	0x3be80059	0.0070801196
222	0x3d52f948	0.051507264
223	0xbcdf402d	-0.027252281
224	0x3d236b42	0.03989721
225	0x3e0c142f	0.13679574
226	0x3e07ffcc	0.13281173
227	0xbd7cc190	-0.061708033
228	0x3dfd9fe0	0.12384009
229	0xbd8f4a42	-0.069965854
230	0xbc355ba5	-0.011069213
231	0x3db12654	0.08649889
232	0x3d316ca6	0.043316506
233	0x3d1d8aaf	0.038462337
234	0x3d801d10	0.06255543
235	0x3e8c2b78	0.27376914
236	0x3d76f79b	0.06029473
237	0x3cc6845a	0.024233032
238	0xbdadc13a	-0.08484121
239	0xbd439fd1	-0.047759835
240	0x3a8cdd71	0.0010747147
241	0xbe016819	-0.12637366
242	0x3c836584	0.016039617
243	0x3d850167	0.06494408
244	0xbd29ad3c	-0.041424975
245	0x3a035833	0.0005010396
246	0xbbd02691	-0.0063522537
247	0xbd9089b2	-0.07057513
248	0x3c941fd4	0.018081583
249	0xbc82d50a	-0.015970726
250	0xbd5aecfd	-0.053448666
251	0x3da7178d	0.08158789
252	0xbe25927a	-0.16169158
253	0x3dcbe20a	0.09955223
254	0x3d83a995	0.064288296
255	0xbd523fc5	-0.051330347

encoder.linear.bias f4 [32]
0	0x3dc341af	0.095340125
1	0xbd84bc16	-0.06481187
2	0x3db957d0	0.09049952
3	0xbcc72f6b	-0.024314603
4	0x3dc44d97	0.095851116
5	0x3e068491	0.13136508
6	0x3a37fc80	0.00070185214
7	0xbc85ac81	-0.016317608
8	0xbc98319d	-0.018578345
9	0xbd66fbd4	-0.056392506
10	0x3dcb56ac	0.09928641
11	0x3ded45db	0.115855895
12	0xbe01fd2e	-0.12694237
13	0xbdc560f4	-0.09637633
14	0x3d3bdbc9	0.0458639
15	0x3bca072e	0.0061654067
16	0x3d931b13	0.07182898
17	0x3e056c54	0.13029605
18	0x3dacc1d5	0.08435408
19	0xbd3c0e72	-0.045912214
20	0x3d82849e	0.06372951
21	0xbc1bf7a3	-0.00951949
22	0x3d90dc9c	0.07073328
23	0x3bcfbebd	0.0063398764
24	0xbda67438	-0.08127636
25	0xbda64e26	-0.081203744
26	0x3d9e95d4	0.07743421
27	0xbdb81e47	-0.0899015
28	0xbdd83d17	-0.10558527
29	0xbde29d08	-0.110651076
30	0xbdf81ffc	-0.121154755
31	0xbdefe482	-0.11713506

decoder.linear.weight f4 [64, 32]
0	0xbd28cede	-0.04121291
1	0xbe2c3851	-0.16818358
2	0x3d1dc8db	0.03852163
3	0xbdec18bc	-0.11528155
4	0xbe436e41	-0.19085027
5	0x3e003fee	0.12524387
6	0x3e03d565	0.12874372
7	0x3d8b1753	0.06791558
8	0x3d6db956	0.05803808
9	0x3e1258ed	0.14291735
10	0x3def25aa	0.11677106
11	0xbdb35264	-0.08755949
12	0xbe2d7d7a	-0.16942397
13	0x3dac567b	0.08414932
14	0x3d8ea81a	0.069656566
15	0x3e0319ee	0.1280286
16	0x3e0f15ed	0.13973208
17	0xbd8d594f	-0.069018
18	0x3e1f5cd9	0.15562762
19	0xbe1a7088	-0.1508199
20	0xbe0f23c3	-0.13978486
21	0x3e3f2ab5	0.18668635
22	0x3d70cdf2	0.058790155
23	0x3dfe1df4	0.12408057
24	0x3c62f4f8	0.01385235
25	0x3ddc457d	0.10755441
26	0x3d009b2b	0.03139798
27	0xbd84f542	-0.06492092
28	0x3dc1aa80	0.094563484
29	0xbe2b8ec9	-0.16753687
30	0x3d2fc73d	0.042914618
31	0x3e474f1a	0.19463769
32	0x3ccfffe1	0.025390567
33	0x3e3a7903	0.18210225
34	0x3d082e0e	0.033247046
35	0x3df2416b	0.11828884
36	0x3cdfdf81	0.027328255
37	0x3d1d0a00	0.038339615
38	0xbe550d58	-0.20805871
39	0xbd806cff	-0.06270789
40	0x3db65073	0.08902063
41	0xbd3eda0d	-0.04659467
42	0x3dce5d21	0.10076357
43	0x3e367460	0.17817831
44	0x3def9c0b	0.11699685
45	0xbe29d6a6	-0.16585788
46	0x3e2398b0	0.15976214
47	0xbe3beff5	-0.18353255
48	0x3d1e1281	0.038591865
49	0x3dc207a9	0.09474117
50	0xbd09bd45	-0.033627767
51	0x3dc5245f	0.09626078
52	0x3d924bf7	0.071433954
53	0xbdcd3cfe	-0.10021399
54	0xbe49e693	-0.19716863
55	0x3e38ee38	0.18059623
56	0xbd37251c	-0.044713125
57	0x3dc1c0f4	0.09460631
58	0xbd0e0bd2	-0.03467924
59	0xbe4929c5	-0.1964484
60	0xbe1079d9	-0.14108981
61	0xbe1c6488	-0.15272725
62	0xbd7de7ec	-0.061988756
63	0xbe05e646	-0.13076124
64	0xbe1004e9	-0.14064373
65	0xbdbd0797	-0.09229963
66	0xbdb90135	-0.09033433
67	0x3e4205b8	0.18947494
68	0xbd13d9be	-0.036096327
69	0xbde14877	-0.1100015
70	0xbd9a66dd	-0.07539151
71	0x3c61c964	0.013780925
72	0xbe4a1e4e	-0.19738123
73	0xbe433f64	-0.1906715
74	0xbc2df9f9	-0.01061868
75	0xbd06626a	-0.0328087
76	0x3da5de3c	0.080990285
77	0xbe1712fb	-0.14753334
78	0x3e17c67a	0.14821807
79	0xbd932f4c	-0.071867555
80	0x3e0a9b6b	0.1353585
81	0x3df50ee0	0.11965728
82	0xbdadf8c5	-0.08494715
83	0xbdd7573b	-0.10514685
84	0xbe1b05d0	-0.15138936
85	0x3de97dcc	0.11400947
86	0x3a933bcd	0.0011233032
87	0xbdaabcf2	-0.0833682
88	0x3c89405a	0.016754318
89	0xbe043dd0	-0.12914205
90	0xbe1f6779	-0.15566815
91	0xb95c2ecc	-0.00020998268
92	0x3d998d92	0.074977055
93	0xbe4836d7	-0.1955217
94	0x3c40fdf2	0.011779295
95	0x3d42a5f9	0.047521565
96	0x3cb932ba	0.022607196
97	0xbe54eb4d	-0.20792885
98	0x3da8de47	0.08245521
99	0x3cb1ec2e	0.021719065
100	0x3e2a7910	0.16647744
101	0xbe2a7b3f	-0.16648577
102	0xbd9d7027	-0.07687407
103	0x3c13de02	0.009025099
104	0xbe0c7603	-0.13716893
105	0x3e17f4b1	0.14839436
106	0x3d319cb6	0.04336234
107	0xbd7774f1	-0.06041426
108	0x3d7fa3a7	0.06241193
109	0x3de0a62d	0.109691955
110	0x3d6ec236	0.058290683
111	0x3dcf3bbd	0.10118816
112	0xbcd744d2	-0.026277933
113	0x3dfb13c6	0.12259631
114	0xbd0e12bc	-0.034685835
115	0xbddf2159	-0.108950324
116	0x3e2004cc	0.1562683
117	0x3e1094a2	0.14119199
118	0x3c6d3708	0.0144784525
119	0x3dd72d76	0.10506718
120	0x3dfe6508	0.12421614
121	0xbdcee0ef	-0.101014964
122	0xbdfb9f00	-0.12286186
123	0x3d3d4bdb	0.04621492
124	0xbb7520bd	-0.0037403547
125	0x3e4cf121	0.20013858
126	0xbe22b6ce	-0.15890047
127	0xbda6238f	-0.08112251
128	0xbd70eb0c	-0.05881791
129	0xbd7db7c4	-0.06194283
130	0x3e183371	0.14863373
131	0xbd5b58c5	-0.053551454
132	0x3e2c30f7	0.16815554
133	0xbe1a2d24	-0.15056282
134	0xbde22ea9	-0.11044056
135	0x3cba3790	0.022731572
136	0x3dcdc00d	0.100463964
137	0xbdd0e1f1	-0.10199345
138	0x3e368d02	0.17827228
139	0x3d302c58	0.04301104
140	0x3ddc6df3	0.10763159
141	0x3d9dc78f	0.077040784
142	0xbe08e63c	-0.13369077
143	0x3cca5cd8	0.024702474
144	0x3d3b9c7c	0.045803532
145	0xbe1c8735	-0.15285952
146	0x3e0348e5	0.12820776
147	0x3dde6758	0.10859555
148	0x3daaba77	0.083363466
149	0xbd6a207c	-0.057159886
150	0xbcd02f8f	-0.025413303
151	0x3c4c28d1	0.012460903
152	0xbd7bae27	-0.06144538
153	0x3d9e4142	0.07727291
154	0xbd064fb0	-0.03279084
155	0xbe08303d	-0.13299651
156	0xbd58c172	-0.05291886
157	0xbd8e2037	-0.06939738
158	0x3d9b31fb	0.075778924
159	0x3def94e3	0.1169832
160	0x3db6baf1	0.08922375
161	0xbdffa7fb	-0.124832116
162	0x3e3e05e5	0.18556936
163	0xbcfbc76a	-0.030734736
164	0x3e05ff1a	0.13085595
165	0xbd9d7968	-0.07689172
166	0x3dabcc48	0.08388573
167	0xbe029fc3	-0.12756257
168	0xbe1435b3	-0.1447361
169	0x3dba6927	0.091020875
170	0xbd94fcc2	-0.07274772
171	0x3e1d7bdc	0.1537928
172	0x3d66b826	0.05632796
173	0x3e2234af	0.1584041
174	0x3e21cf2b	0.15801685
175	0x397e9a85	0.0002428089
176	0xbd8d189e	-0.06889461
177	0x3c6ed7ea	0.014577845
178	0x3c90763a	0.0176345
179	0x3e218d67	0.15776597
180	0x3d15466a	0.036444105
181	0x3da9f339	0.08298344
182	0x3c199bde	0.009375541
183	0xbd8c9d52	-0.06865944
184	0xbe0d2ba3	-0.13786177
185	0x3e175635	0.14778979
186	0x3abde71e	0.0014488434
187	0x3dcbf8d0	0.099595666
188	0xbe25e602	-0.16201022
189	0x3e45ffba	0.19335833
190	0xbe1027f3	-0.1407774
191	0xbd81a144	-0.06329587
192	0xbd523554	-0.05132039
193	0xbe4be2de	-0.19910762
194	0xbe089c70	-0.13340926
195	0xbd3acfc3	-0.045608293
196	0xbe2f596c	-0.17123955
197	0xbe088637	-0.13332449
198	0x3de4debf	0.11175298
199	0x3e2135f8	0.15743244
200	0xbd91dddb	-0.07122394
201	0x3ca31999	0.019909667
202	0xbe1df471	-0.15425278
203	0xbe18fd5c	-0.14940399
204	0x3d0c160f	0.034200724
205	0x3d7da77f	0.061927315
206	0xbcf2b564	-0.02962751
207	0xbc352b9f	-0.011057763
208	0x3d17be35	0.03704663
209	0xbdee1409	-0.11624915
210	0xbcffbe6b	-0.031218728
211	0x3dfc7e65	0.12328795
212	0x3d8432a6	0.06454973
213	0x3e4b46ba	0.19851199
214	0xbdc5310b	-0.09628495
215	0xbc597a80	-0.013273835
216	0x3e120110	0.14258218
217	0xbe1136a1	-0.14180996
218	0xbd55a74c	-0.0521615
219	0xbe09e8fc	-0.13467783
220	0xbe008329	-0.12550034
221	0x3e1f4346	0.15553007
222	0xbda6f70a	-0.08152588
223	0xbd96b796	-0.07359235
224	0xbd883036	-0.066498205
225	0x3c2ddfc6	0.010612434
226	0xbca0164c	-0.019541882
227	0xbdf548ea	-0.11976798
228	0x3e10ef79	0.14153852
229	0x3e17c61e	0.1482167
230	0x3d0289c1	0.031869654
231	0xbbf9d8b3	-0.0076247095
232	0x3e07c198	0.13257444
233	0xbd88708e	-0.06662093
234	0x3c2781e8	0.010223843
235	0xbd73dde3	-0.05953778
236	0x3dfaf9a0	0.122546434
237	0x3e3ce8e8	0.18448222
238	0x3d4110c9	0.04713515
239	0x3d4ba93e	0.04972195
240	0xbe1696b5	-0.14705928
241	0x3e1018fa	0.14072028
242	0x3be533cb	0.0069946996
243	0x3dc48007	0.09594732
244	0xbe0d9f0f	-0.13830207
245	0x3e1e533c	0.15461439
246	0x3d77b763	0.060477626
247	0x3e0f4fcc	0.13995284
248	0xbd26d153	-0.04072697
249	0xbdf13396	-0.11777417
250	0x3d4abb31	0.049494926
251	0xbc1fa9e9	-0.0097451
252	0xbd1a6ebb	-0.037703257
253	0x3e51e4cd	0.20497437
254	0xbd38287c	-0.044960484
255	0x3d95a7ce	0.07307397

decoder.linear.bias f4 [64]
0	0xbcba1f63	-0.022720044
1	0x3e0be764	0.13662487
2	0x3daa737a	0.08322807
3	0xbe11c0ea	-0.14233747
4	0x3e2da1dd	0.16956277
5	0x3dbb0f4c	0.09133777
6	0xbe37c897	-0.17947613
7	0x3dd528dc	0.10408184
8	0xbdbb90ba	-0.09158464
9	0x3da42f60	0.080168486
10	0xbd133f62	-0.03594912
11	0x3de5201d	0.11187766
12	0xbd8369f3	-0.064166926
13	0x3d33463b	0.04376815
14	0x3b9e76ff	0.004835963
15	0xbdfc9209	-0.123325415
16	0x3df90dcb	0.12160834
17	0x3d709822	0.058738835
18	0xbd8b9aac	-0.06816611
19	0xbded51ba	-0.11587854
20	0x3d65ae59	0.056074474
21	0x3e23c5a5	0.15993364
22	0xbe14a406	-0.14515695
23	0x3d652e95	0.055952627
24	0x3e24b2c3	0.16083817
25	0xbd42afb6	-0.047530852
26	0xbe1f191c	-0.15536922
27	0xbe3713d7	-0.17878662
28	0x3e0d4528	0.13795912
29	0x3e2a44f0	0.1662786
30	0x3dfa9855	0.12236086
31	0x3d80cf02	0.062894836
32	0xbd0fd132	-0.035111614
33	0x3d9da82a	0.076980904
34	0xbe307389	-0.17231573
35	0x3e0a5968	0.13510668
36	0x3d566e3d	0.052351225
37	0xbdf313e0	-0.11869025
38	0xbdeaea74	-0.114705
39	0xbe1c3025	-0.1525274
40	0x3e1b0809	0.15139784
41	0xbd1df58f	-0.03856426
42	0x3d09d59c	0.03365098
43	0xbe1c422b	-0.15259616
44	0x3e19c137	0.15015112
45	0xbdf0370d	-0.1172925
46	0xbd80cd05	-0.06289104
47	0xbe41bd12	-0.18919781
48	0xbdc264c7	-0.09491878
49	0x3db61634	0.08890954
50	0x3cf61d48	0.03004326
51	0xbe139317	-0.14411579
52	0x3e0cf480	0.13765144
53	0xbcf419da	-0.029797483
54	0x3c54a398	0.012978457
55	0x3d86c396	0.06580274
56	0x3d931d3f	0.071833126
57	0xba2287d8	-0.0006200052
58	0xbc495087	-0.012287266
59	0x3d343abd	0.04400133
60	0x3dfc46dc	0.12318203
61	0xbd99fa53	-0.07518449
62	0xbbde0270	-0.006775193
63	0xbdaba17d	-0.08380411

decoder.lstm.weight_ih_l0 f4 [256, 64]
0	0x3e097804	0.13424689
1	0x3dc6bb0a	0.097036436
2	0x3d021efb	0.031767827
3	0xbbb92b4d	-0.005650914
4	0x3d7487d4	0.05969985
5	0x3d581e19	0.05276308
6	0xbc5c19a6	-0.013433849
7	0x3d4b1022	0.049575932
8	0xbda51995	-0.0806152
9	0xbd33f42f	-0.043934043
10	0xbdcf8b4a	-0.10133989
11	0xbde1df0e	-0.110288724
12	0xbdedb38d	-0.11606512
13	0x3d38d4d9	0.045124862
14	0x3d85ccb4	0.06533185
15	0x3d42aaef	0.047526296
16	0x3d695dba	0.05697415
17	0xbcc829ec	-0.024434052
18	0xbcefc3c5	-0.029268155
19	0xbd573213	-0.05253799
20	0xbd63f84c	-0.055656716
21	0x3d3f95dd	0.04677378
22	0xbc18a2ed	-0.009316188
23	0x3daa9a29	0.08330185
24	0xbd83b41b	-0.06430837
25	0xbd452621	-0.048132066
26	0x3db9235f	0.090399496
27	0xbdc3bfc9	-0.095580645
28	0xbc2290fa	-0.00992226
29	0x3d222639	0.039587233
30	0xbc215a88	-0.0098482445
31	0x3d130ee7	0.035902884
32	0xbc2ae8bb	-0.010431464
33	0xbd95d52c	-0.0731605
34	0xbdc8f7aa	-0.09812863
35	0x3c9ba4b7	0.01899944
36	0x3ddbbffa	0.10729976
37	0xbcb7470a	-0.022372741
38	0x3d5d6df7	0.05405995
39	0x3d738ff1	0.059463445
40	0x3d8b3d21	0.06798769
41	0xbd16d8e7	-0.036827948
42	0xbd01ff1d	-0.031737436
43	0xbc75795a	-0.014982546
44	0x3db48fbb	0.08816477
45	0x3d2afd35	0.041745383
46	0x3d09380c	0.033500716
47	0xbd692fa1	-0.056930188
48	0x3da733d3	0.081641816
49	0x3ca8935c	0.020578079
50	0x3d285232	0.041094013
51	0xbdd61e40	-0.104549885
52	0x3ddcdfdf	0.107848875
53	0x3e00d526	0.1258131
54	0x3c8734bc	0.016504638
55	0x3db87761	0.09007145
56	0x3d4bf0a4	0.04979004
57	0xbccc18f3	-0.02491424
58	0x3da1aeda	0.078946784
59	0x3dfc088b	0.12306317
60	0xbdc6cf87	-0.097075514
61	0xbcbd209c	-0.023086838
62	0xbdd8ca29	-0.10585434
63	0x3d95b184	0.07309249
64	0x3b2f52cf	0.0026752239
65	0xbab342e5	-0.0013676552
66	0x3e1fc364	0.1560188
67	0xbe434481	-0.19069101
68	0xbd2367a7	-0.039893772
69	0x3d1c9806	0.03823092
70	0xbddbdea9	-0.107358284
71	0x3e456466	0.1927658
72	0xbcb87a09	-0.022519128
73	0x3bc66c21	0.0060553704
74	0xbdb36b6a	-0.08760722
75	0xbe296302	-0.16541675
76	0x3e0ee39a	0.1395401
77	0xbdd0abf0	-0.101890445
78	0xbe4521ff	-0.1925125
79	0xbd81eddc	-0.06344196
80	0x3de887e0	0.11354041
81	0x3e118fdb	0.14215033
82	0xbabc0cad	-0.0014347039
83	0xbe386eac	-0.18010968
84	0x3e32ac50	0.17448545
85	0x3e19702a	0.14984193
86	0xbc9309c5	-0.017948994
87	0xbe06c54f	-0.13161205
88	0x3d5fd58f	0.054647025
89	0xbe4a73eb	-0.19770782
90	0x3dd2365f	0.10264277
91	0xbb97b474	-0.004629666
92	0x3dafab2a	0.08577569
93	0x3e582b5d	0.21110292
94	0x3dc5e6fa	0.09663196
95	0x3e224a46	0.15848646
96	0xbce5239b	-0.02797108
97	0x3dfe405b	0.124146186
98	0xbdc87c69	-0.09789354
99	0xbdb43151	-0.08798469
100	0x3e2b340e	0.16719076
101	0xbe01301d	-0.1261601
102	0xbdb09dfb	-0.086238824
103	0x3bf7c51a	0.007561338
104	0x3d36d187	0.044633415
105	0x3d07de03	0.03317071
106	0x3c2d5c8a	0.010581145
107	0xbe656453	-0.22401552
108	0x3c240959	0.010011994
109	0xbe1e4dbd	-0.15459342
110	0x3ccd3fc1	0.025054814
111	0x3d5576b8	0.052115172
112	0xbd8d692e	-0.06904827
113	0xbcc1b93c	-0.023647897
114	0xbd0b03c2	-0.03393913
115	0xbd0d4dc6	-0.034498
116	0x3d26384b	0.04058103
117	0xbe0c26b2	-0.13686636
118	0xbd18a2ec	-0.03726475
119	0x3dc5a6a3	0.09650924
120	0x3e2f41e1	0.17114975
121	0x3e299143	0.16559319
122	0xbe1bdc1b	-0.15220682
123	0x3e09ff30	0.13476253
124	0x3ddd089c	0.10792658
125	0xbdd2eb5a	-0.10298796
126	0x3dc643ae	0.096808776
127	0x3c1f38bc	0.009718116
128	0xbdeec096	-0.116578266
129	0x3df50ead	0.1196569
130	0xbde4fd77	-0.11181157
131	0x3cad2eb4	0.021140434
132	0x3c17789f	0.009245067
133	0xbdbf658e	-0.09345542
134	0x3d893b53	0.06700768
135	0x3cb9e079	0.022690045
136	0xbd2bd395	-0.041949827
137	0x3c22a6cf	0.009927466
138	0xbe0bce09	-0.13652815
139	0xbddf25ee	-0.108959064
140	0x3cd34812	0.025791202
141	0x3c21d331	0.009877012
142	0xbd8f7d25	-0.07006291
143	0xbda14fb1	-0.07876528
144	0x3e0268cd	0.12735291
145	0xbca88c7b	-0.020574799
146	0x3c981565	0.01856489
147	0x3da8d213	0.082431935
148	0xbd8d37c9	-0.06895406
149	0xbca5dac4	-0.020245917
150	0xbce568f6	-0.02800415
151	0xbd0aaf05	-0.033858318
152	0x3de6da79	0.11272139
153	0xbd397375	-0.045276124
154	0xbdc2d069	-0.09512407
155	0xbb8911f7	-0.00418305
156	0xbc2cd65f	-0.010549157
157	0x3dab7566	0.08372001
158	0x3d8c033d	0.06836555
159	0x3d235714	0.039877966
160	0xbda03729	-0.07823021
161	0x3e22428b	0.15845697
162	0x3ddd6c55	0.10811678
163	0xbda84990	-0.08217156
164	0x3e197e72	0.14989641
165	0xbc00f5ab	-0.007871072
166	0xbd55be4d	-0.052183438
167	0x3d8dec26	0.06929807
168	0xbd175f08	-0.036955863
169	0xbca168d5	-0.019703308
170	0xbc8fcc11	-0.017553361
171	0xbd8ec311	-0.069708
172	0x3d1ebe7d	0.038755883
173	0xbde7dc2a	-0.1132129
174	0x3ddb52e9	0.10709173
175	0xbcec22da	-0.028825212
176	0xbde5fb8d	-0.1122962
177	0x3dbb9e45	0.09161047
178	0xbd915a4e	-0.070973024
179	0xbddaf93f	-0.10692071
180	0x3d904ba3	0.070456766
181	0xbb6e17ad	-0.003633003
182	0x3bc60fa4	0.006044345
183	0xbd8e7140	-0.069551945
184	0x3de89bbd	0.1135783
185	0xbdbd13d1	-0.09232295
186	0x3d33a6fd	0.043860424
187	0x3e115e9f	0.14196251
188	0x3deffd35	0.11718217
189	0x3c9cb74e	0.019130375
190	0x3dcb3662	0.09922482
191	0x3d9e4f59	0.07729978
192	0xbdb692ba	-0.089147046
193	0xbdaa7004	-0.083221465
194	0x3da01da4	0.078181535
195	0xbd192baf	-0.037395176
196	0x3ced7de4	0.028990693
197	0xbd53dff4	-0.05172725
198	0x3d8b1a4e	0.067921266
199	0x3d5e2b70	0.054240644
200	0x3bbc37ad	0.0057439418
201	0xbdc9a174	-0.09845248
202	0x3cfb0b84	0.03064514
203	0xbdb3cff1	-0.08779896
204	0x3bd4b1a1	0.0064909016
205	0x3d5633fc	0.05229567
206	0xbd96bfd0	-0.07360804
207	0xbd1c65bf	-0.03818297
208	0x3d99f710	0.075178266
209	0xbd67d84e	-0.05660277
210	0x3db321ca	0.08746679
211	0xbda12d0f	-0.07869922
212	0x3d7b411e	0.061341397
213	0x3dabde19	0.08391971
214	0x3cbbcbee	0.02292439
215	0xbdaf8adc	-0.08571407
216	0x3d5305d1	0.05151922
217	0x3dbb8fb3	0.09158268
218	0x3de9912b	0.11404642
219	0xbd67177e	-0.05641889
220	0x3b2ac89f	0.002605952
221	0x3ad18ed0	0.0015987996
222	0xbdb8e766	-0.09028511
223	0x3dbcf24c	0.09225902
224	0xbd8a923d	-0.06766174
225	0x3dc3b195	0.095553555
226	0xbdc5bbef	-0.09654986
227	0xbbef7552	-0.007307687
228	0xbcd8e07b	-0.026474228
229	0x3d52e9bd	0.05149244
230	0xbd58a2f1	-0.052889768
231	0x3c4b243e	0.0123987775
232	0xbdb8f56e	-0.09031187
233	0xbdeadced	-0.114679195
234	0x3d0f23b4	0.03494616
235	0xbd1f9c61	-0.038967494
236	0xbdb31278	-0.08743757
237	0xbdfd5d62	-0.12371327
238	0x3e105878	0.14096248
239	0xbdcb2563	-0.0991924
240	0xbcda2524	-0.026629038
241	0x3d3048d3	0.0430382
242	0x3da7afcf	0.0818783
243	0xbd7cbd19	-0.061703775
244	0xbd0f353e	-0.034962885
245	0x3d82d8f4	0.06389037
246	0x3cdac343	0.026704436
247	0x3d05269d	0.032507528
248	0x3dc03d19	0.093866535
249	0xbd6dd91b	-0.058068376
250	0x3dcb71f4	0.09933844
251	0xbd8af694	-0.06785312
252	0x3d850e42	0.0649686
253	0x3db85247	0.09000068
254	0x3ca30168	0.019898131
255	0xbdd5fdb8	-0.10448784
