models/autoencoders/tsla_lstm_autoencoder.pth (torch, 228008 bytes, 14 tensors)

encoder.lstm.weight_ih_l0 f4 [256, 5]
00000000: 1c91 943d de5a 8dbd c9bd 1d3d b9a5 b9bd
00000010: 1e2e 25be 73df a0bd 27ea 86bd 2f1b e33d
00000020: dee1 043e d131 5c3c e384 b2bc e7d1 663d
00000030: 994c 713d eb41 52bc bbcf 57bd b0d0 93bd
00000040: 776e 98bd d372 0dbe d619 9a3d e4e4 30be
00000050: 9f7c a53d a4d7 6b3d 067b e6bd de33 383b
00000060: b8f8 49be a0b3 bebd 4a2f b1bd 4e89 cc3d
00000070: 8904 263d 517a 3ebb 9770 783d a797 f43d
00000080: 7011 fe3c da6b c6bd 7b0d 5ebd e99b 2dbc
00000090: 5d77 3dbd a483 e23c 4a7a a6bc 766b 7ebb
000000a0: 3d6b cfbd 1e4c cc3d 59d6 b63d eee1 f13d
000000b0: c1a4 683d 0fdb 653d 7184 83bd 52a7 a3bd
000000c0: 0f81 913d 3134 b0bd 07df 81bc ac0d 7ebd
000000d0: 473e 87bd b713 06be 0000 17be 221c 6ebd
000000e0: e245 133d 21f1 fb3c 22ff 1eba 570e a3bd
000000f0: 449c 0bbc fe14 fabd 5dd3 d9bd b238 9f3d
00000100: d40f e93d 6864 02bb 51ac 85bb a403 653d
00000110: e6b2 bf3d 2b87 e4bd 3994 8bbb 2e23 8a3d
00000120: 036d 27bd 0fd6 ff3d e1b0 013d 986e 013e
00000130: 27fb c03d f512 d2bc 278c 8fbd 5320 5f3d
00000140: 45e2 553d 7725 b13d 4738 1d3c a976 f6bc
00000150: 4386 69bd 0fc1 14be 6de8 d4bd de0e b0bd
00000160: efb1 bebd 2430 883c 11c8 85bd 4e89 b73c
00000170: 4549 453c e573 14bd 5d44 6a3d 0a52 92bd
00000180: 88ce aabd a747 83bd 6f13 29bd cc31 283c
00000190: 45bf a33d b4fe 58bc e0d4 c9bd 9573 cebd
000001a0: 557d ddbd 0e50 d4bd 8fdd 0c3d 4a9c b43d
000001b0: 5b1c 44bd c0f1 99bd b2fa 07bd c4ad 173c
000001c0: c444 3c3d 5973 cbbd a44b 26bd a993 e3bd
000001d0: 89f7 b53d 388e ffbd 2100 c73d 36e9 1d3c
000001e0: e4de 90bd 7f22 3dbd 22e3 4d3d 06da 02be
000001f0: 07ff 02bd 0bee 7cbd 35ae 46bd ccea bebd
00000200: 181f 97bd 2c85 d93d 0afc 993d c966 d73d
00000210: 6488 de3d 368b d73d f66f 20be 0c19 2abc
00000220: 9c1f 4f3d 1ee8 ba3d d93d b33c f93b 17bd
00000230: 4c8f 74bd e717 113d 9a41 323d 3074 e63d
00000240: 9db8 c7bc a2bc bebc cb7f 873d f5e0 bb3d
00000250: 6ed3 d1bc c991 9f3d 4d94 d7b7 1376 e5bd
00000260: 22d5 be3d ea5f 9cbd 8afb 1bbe 28a7 073d
00000270: 180a d2bd 9ceb ccbd 9eee e03d 9258 d1bc
00000280: 8f6d 4dbd cb71 863d 5936 c13d 8362 bf3d
00000290: e115 053d f50d e13d 1ae7 73bd cd65 afbd
000002a0: 1a7e eb3c 1790 a7bd 3d78 863d 4df7 1dbd
000002b0: a2cd 083c 9dcc b7bd b550 7cbd 3366 623c
000002c0: 398e fe3d bd20 a03d 5434 abbd ea42 353c
000002d0: 99b8 2cbd 01ea 65bd 229c 04be 9b2e 96bc
000002e0: 95a8 c03c 39ac 3c3d 6c08 513d 73c3 a03c
000002f0: 2f5e ce3d 5f65 08be 9b2e e23d d0b0 d63d
00000300: d127 953b 5f54 babc 33fd 313c 73d9 70bc
00000310: 600b 1fbd 1b03 b2bd 0d1c dcbd 6793 c0bd
00000320: 1cce f7ba c722 f83d 01e3 f33d d6b5 9abd
00000330: 7855 253d 5ccb 0b3e 38ed 863d 91a6 80bd
00000340: 0981 a7bc d17d 50bd acfb eebc 9d71 113d
00000350: 1b73 6abd bcfe 96bd 8716 64bd 5242 a8ba
00000360: 339a ae3d 45ae 873d c80e 06bd ffc5 1dbd
00000370: d7da f1bd 9a8a 92bd 779b 9bba 7dbc 9b3d
00000380: 606d be3d e3a1 af3d fe63 84bd c062 3dbd
00000390: 3a5a 0abc 8d65 56bc 1e77 fb3d d0d3 b63d
000003a0: 877b f33d a02d fbbc 1dd0 c63d 122f 8fbd
000003b0: fc37 44bd 5da6 96bc 0a09 f73d 168c c5bd
000003c0: 8327 fdbd 4dba 73bd e147 013d 8bf8 843b
000003d0: 7025 fcbd 1f40 f3bc 5acb 39bd 14d7 97bc
000003e0: c310 df3c 0eb8 e4bd f146 983d 3d37 d6bd
000003f0: 5579 003e c578 1c3d 2090 e5bd 8b48 8a3d
0.0725424 -0.06902097 0.03851107 -0.09064812 -0.16130874 -0.078551196 -0.0658763 0.11089169
0.12976786 0.0134396115 -0.021791881 0.056352522 0.05891094 -0.012833099 -0.05268834 -0.07217538
-0.074429445 -0.13813333 0.07524459 -0.17274815 0.0808041 0.057578698 -0.112539336 0.0028107087
-0.19723785 -0.093116045 -0.08651598 0.09987126 0.04053167 -0.0029064605 0.06065425 0.11942988
0.031014174 -0.0968854 -0.054212075 -0.010596254 -0.04625641 0.027650662 -0.020321984 -0.0038821376
-0.10127876 0.09975456 0.08927602 0.11810671 0.056797747 0.056117114 -0.064217456 -0.07990898
0.07104694 -0.08603705 -0.015853418 -0.062024757 -0.06603675 -0.13093458 -0.14746094 -0.0581323
0.035955317 0.030754628 -0.00060652394 -0.079617195 -0.008521143 -0.12211035 -0.106360175 0.07774486
0.11379972 -0.0019896273 -0.0040793796 0.055911675 0.09360294 -0.11158594 -0.004259613 0.06744991
-0.040875446 0.12492 0.031662825 0.12639844 0.094229035 -0.025643805 -0.07009154 0.054474186
0.05221774 0.08649724 0.009595937 -0.030085878 -0.057012808 -0.14526771 -0.10395894 -0.08596586
-0.09311282 0.016624518 -0.065323 0.02240434 0.012041395 -0.03624334 0.057194103 -0.07144554
-0.08340174 -0.06410151 -0.0412783 0.010265779 0.07995466 -0.01324432 -0.09855056 -0.10080639
-0.10814921 -0.10366832 0.034390982 0.08818872 -0.047878604 -0.07516813 -0.033198066 0.009257738
0.045964018 -0.0993411 -0.04059948 -0.11112148 0.08885104 -0.12478298 0.097168215 0.009638121
-0.07073763 -0.046175476 0.05026544 -0.12778482 -0.031981494 -0.061750453 -0.04850598 -0.09322128
-0.073789775 0.10621104 0.07518776 0.105176516 0.10865858 0.10524599 -0.1566771 -0.010381948
0.050567254 0.09126304 0.021880077 -0.03692243 -0.05970697 0.035423186 0.043519594 0.1125263
-0.024380023 -0.023283307 0.066161714 0.091737665 -0.025613513 0.07791478 -2.5699055e-05 -0.112041615
0.093179956 -0.07635482 -0.15232673 0.033118397 -0.102558315 -0.100058764 0.109830126 -0.025554929
-0.05015331 0.06564673 0.09434194 0.093449615 0.03249157 0.1098899 -0.059546567 -0.08564339
0.028746653 -0.0818178 0.065659024 -0.038565923 0.008349808 -0.08974574 -0.061600406 0.0138183115
0.124294706 0.07818744 -0.0835959 0.011063317 -0.042168234 -0.056131367 -0.12950185 -0.01833277
0.023517886 0.04606268 0.051033422 0.019624447 0.10076558 -0.1331992 0.110440455 0.10482943
0.0045518656 -0.02274531 0.01086359 -0.014700281 -0.038829207 -0.086919986 -0.10747538 -0.09403115
-0.001890603 0.12116008 0.11908532 -0.07554214 0.040364712 0.13651794 0.06588215 -0.0628177
-0.020447271 -0.050901238 -0.02917274 0.03550874 -0.05723868 -0.073728055 -0.055685546 -0.0012837148
0.08525505 0.06625036 -0.03272894 -0.038518902 -0.118093185 -0.071553424 -0.0011871894 0.07604311
0.092982054 0.08575799 -0.064643845 -0.046236753 -0.008444363 -0.013085735 0.12278579 0.08927119
0.11888795 -0.030661404 0.09707663 -0.069914 -0.047904953 -0.018389875 0.12062271 -0.0964586
-0.12361052 -0.059503842 0.03156269 0.004057949 -0.12311828 -0.029693661 -0.045359947 -0.018535174
0.027229672 -0.11167918 0.07435406 -0.104597546 0.12546284 0.038201112 -0.1120913 0.06752118

encoder.lstm.weight_hh_l0 f4 [256, 64]
00000000: 7d18 d8bd 88b8 eebb 39c7 a3bd 5c07 85bd
00000010: 151e cdbd c76e 58bd 72dd abbd e9b2 c93d
00000020: ce7c 22bc ce7b b4bd 3ad6 d5bd fe42 533d
00000030: 3bf6 383c 447d b1bd b7d9 e7bc fdfd c23d
00000040: 35b0 cfbd 295e f2bd 53d5 d0bd b652 6abd
00000050: 0f6b 06be 6370 8e3d 978b 28bc 81c5 5f3b
00000060: cd92 80bd 5f1e d13d 0ebf 15be 5725 32bd
00000070: 8386 e03d b7b3 b63d 140e 8a3d 97b9 343d
00000080: 269d 843c 2971 a03a 0337 debd 1505 30bc
00000090: 1199 eabd adae acbd 4ae7 db3b d62c 35bd
000000a0: b58e fe3d 285d 9e3d 4930 1a3d d500 893c
000000b0: 33f7 823d 64f3 3f3d 8ffe 98bb a9c5 e13a
000000c0: 53ed 8ebc b7f2 b63d ad9d b8bd 5381 c93d
000000d0: bceb fcbd 31f2 ffbc a7c1 533d dc93 7d3d
000000e0: 938d a43d 8f3b aebd 1e42 2d3d 2e34 dbbd
000000f0: a9b8 f6bb cba9 733d 4421 0ebd 99c6 fe3d
00000100: 5105 873d 1ef8 bc3d 098e b3ba bd8d e13c
00000110: ac82 67bd 1169 83bd ce31 483d 0077 ae3c
00000120: 5fab ebbc dc07 b23d fc08 d1bd d51c 8cbc
00000130: eeab c93c c4dc 3fbb 01b0 ebbd 7bfb 053e
00000140: 4c04 c2bb ee4d 233d 49f8 763d 1ab9 f63d
00000150: b824 7ebd 78ae 17bd 3270 8bbc f94e 07be
00000160: 9cba 7b3d 2c9c 84bd c999 bd3d dd2b 74bd
00000170: 21ad 0e3e 8bc2 b43a 8a00 ff3d 2988 9b3d
00000180: 6ba3 7d3d f132 aa3d da40 ea3d 6350 c3bb
00000190: 555d d23d 9011 0fbd 8023 9b3d 49e6 8fbd
000001a0: befb 9b3d 45dd a63d dfab 883c 4e59 4a3d
000001b0: 6039 b93d e0d3 9abd ace8 ba3c 94eb f13d
000001c0: eb65 f2bd eaeb 68bc 3f06 af3d af74 fbbd
000001d0: 980b c6bd 7a28 f5bd b92c 13bd b935 ffbc
000001e0: e42f 2dbd 2fe8 c13d 0ee1 cdbc 59eb 96bc
000001f0: 9038 9c3d 34bc 0a3d bb94 55bb 18f5 68bd
00000200: 6922 f0bc 0e34 d33d 968c 13be 6287 d23d
00000210: 3ad7 cc3c b083 333c f620 08bd 81f8 4dbc
00000220: bcf1 bf3c ad80 8c3d c46a 133c 6740 5d3d
00000230: 1dad ffbb 0d43 38bd d15f 02be 95de c7bd
00000240: 93bc da3d b122 273d ae48 6c3d aeb2 1e3c
00000250: 17fb 0bbd bdd6 33bd 7082 6f3b 5cd8 12be
00000260: 1424 a6bd 7f50 963d d1e6 e8bd a764 a7bd
00000270: c88f 9c3d 0190 163d 56b8 8b3d 67a6 05bd
00000280: 05b5 a83d 91a1 02be 6e27 85bd 8cb0 803d
00000290: 4e6d 82bd 8886 133d f6da 913b caf0 e33d
000002a0: ce9e 903d 52d4 4dbd f45d 5ebd d661 073e
000002b0: 387e e43d a151 c5bd 3ba4 f2bd 41bb 343c
000002c0: a6b0 febd c887 b43c 8056 85bd f7b2 e8bd
000002d0: 07aa 263d 356d 5fbd d194 693d 271e b2bd
000002e0: d3f3 0c3e 6bcb 563d 0c7e 773b a619 d83b
000002f0: 95bf 12bd ff7d 173d 1e36 59bd 54a6 c13c
00000300: aab6 41bc 4d7b 9cbd 409f f73d d50a 7d3d
00000310: 19cc bb3d 5ca9 843c d2d6 863d 71f3 9ebd
00000320: 5ff3 5dbc dc3f 0fbe bb8f 143e a899 bcbc
00000330: f1ed 963d 8a37 653d 87b5 e03d 872d 86bd
00000340: 311a 6d3c 3743 e03d f648 d63d 2dff 273d
00000350: ce6e b3bd 1961 9abd cb11 6d3d 0ffb 3b3d
00000360: b6a4 6dbd 8835 18bd 2ef5 87bd 3fee 45bd
00000370: 2585 babd 1fee 54bd 64db 12bd ffb7 a23d
00000380: 050c 393d c5b5 acbb 97aa d6bd 62ab 153d
00000390: c70b ac3d 5ce2 2cbd 68c9 143d cfa4 b13c
000003a0: 5154 cfbd 98b5 2c3d 7fd2 f1bd a47f 27bd
000003b0: 4b57 ae3c c2e2 97bd 1c98 07be 91f5 f1bd
000003c0: b9c2 a7bd d680 06be 0e68 4a3d 7a50 81bd
000003d0: dec6 e23c 7420 1e3e e295 e8bd 75c9 68bd
000003e0: aca0 1c3c e017 ecbd 39f0 bb3c 90bd 88bd
000003f0: dc9e efbd 6481 f13c b2bf 1b3a dc73 fd3d
-0.10551546 -0.0072851814 -0.07996983 -0.06495544 -0.10015503 -0.05284002 -0.08391847 0.098485775
-0.009917451 -0.08812676 -0.10441251 0.05157756 0.011289175 -0.08666471 -0.028302057 0.09521101
-0.10141031 -0.11834366 -0.10196938 -0.057207786 -0.13126777 0.0695503 -0.010287187 0.003414482
-0.06278 0.10210871 -0.14623663 -0.04349264 0.10963156 0.08920997 0.067409664 0.044122305
0.016188215 0.0012240756 -0.108503364 -0.010743399 -0.11454976 -0.08431754 0.0067109214 -0.044232212
0.12429563 0.07732612 0.037643705 0.01672403 0.06394806 0.046862975 -0.0046690176 0.0017225045
-0.01744715 0.08933013 -0.09014449 0.0983912 -0.1234965 -0.031243416 0.051698353 0.061908588
0.08034816 -0.08507454 0.042299382 -0.10703312 -0.0075293374 0.0594881 -0.034699693 0.12440223
0.06592811 0.09227012 -0.0013698946 0.027533406 -0.056521103 -0.06416524 0.048875622 0.021296978
-0.02876824 0.08692905 -0.10206792 -0.017103592 0.024618115 -0.0029275874 -0.115081795 0.13084213
-0.0059209224 0.03986924 0.060295377 0.12047024 -0.062046736 -0.03703162 -0.017021272 -0.1321372
0.06145726 -0.064751 0.09257848 -0.059612144 0.13933231 0.0013790888 0.12451275 0.0759433
0.061923426 0.083104976 0.11438151 -0.0059605106 0.10271708 -0.03492886 0.075751305 -0.07026345
0.076163754 0.081476726 0.016683517 0.049401574 0.090441465 -0.07559943 0.022816025 0.11812511
-0.118358456 -0.014216403 0.08546113 -0.12278115 -0.0967018 -0.11970611 -0.035931323 -0.031153547
-0.042282 0.09468114 -0.025131729 -0.01842277 0.07627976 0.03387089 -0.003258987 -0.056874365
-0.029313283 0.10312663 -0.14409098 0.102797285 0.025004972 0.01095669 -0.03323456 -0.012571455
0.023430698 0.068604805 0.008997623 0.054016497 -0.007802619 -0.04498582 -0.12731864 -0.09759251
0.10680499 0.04080457 0.0576865 0.009686155 -0.034175005 -0.043905962 0.0036546253 -0.14340347
-0.0811235 0.07339572 -0.1137215 -0.08173495 0.076446116 0.036758427 0.06822269 -0.032629397
0.08237652 -0.12756945 -0.06501661 0.06283674 -0.063685045 0.03601697 0.004451151 0.11129911
0.070615396 -0.050251313 -0.05428882 0.13220915 0.11156887 -0.0963471 -0.11847731 0.011030973
-0.12436037 0.022037402 -0.06510639 -0.1136226 0.040689494 -0.054547507 0.057026688 -0.08697157
0.13764887 0.05244009 0.0037764339 0.0065948544 -0.035827238 0.036985394 -0.053030126 0.023638882
-0.011823336 -0.07640705 0.120909214 0.06177791 0.09169788 0.016194038 0.065839425 -0.077612765
-0.013546794 -0.13989204 0.14507954 -0.023022488 0.073696025 0.05596117 0.109721236 -0.065516524
0.014471577 0.1095032 0.10463135 0.04101484 -0.08761369 -0.07538051 0.057878297 0.045893725
-0.05801841 -0.037160426 -0.06638561 -0.048322912 -0.091074266 -0.051984902 -0.03585376 0.07945251
0.04517748 -0.005270692 -0.10481756 0.036540397 0.08400684 -0.04220806 0.03632489 0.021685032
-0.10123504 0.04216537 -0.11807727 -0.040893212 0.021281859 -0.074162975 -0.13241619 -0.11814416
-0.08191437 -0.13135085 0.04941564 -0.06314178 0.027682718 0.15442067 -0.11356713 -0.05683275
0.009559792 -0.11527991 0.022941696 -0.06676781 -0.11700222 0.029480644 0.00059413456 0.12375614

encoder.lstm.bias_ih_l0 f4 [256]
00000000: ce06 edbd 3982 c53d 0bd4 c1bd 20ee db3b
00000010: 9128 003e 758f 3dbb bd3c 633c b01f 153d
00000020: b413 b33d eb67 02be 2ceb 673c 4856 0c3e
00000030: a89d c2bd f99f b53d a657 143c 4620 a73c
00000040: bad1 92bd a348 f5bd b719 c83d a9c1 ae3d
00000050: 9603 ad3b ee68 013e 86ff 38bc 8d4c 9ebd
00000060: 54ed 9abc 377e 083e 8661 c23d e96a 8b3d
00000070: 138a 8f3d c1fd bebc 366f d13c 601b 7fbd
00000080: 4968 753d 2993 b53d 2064 e33d bf78 b0bd
00000090: 827f c03c 10ee 863d 0ed0 c1bc 75f9 43b9
000000a0: 845d 42bc 0f5e b83d 9204 0ebe 61fb 473d
000000b0: ce7c 51bd 597b 043d e862 7f3d 0b2f b1bd
000000c0: 4849 eabc 8a4d 973c 8c6d 7d3d b99a 5ebd
000000d0: 387c 1bbd 5f82 a33d a494 b23c 5ff3 333d
000000e0: a278 ffbc c7aa abbc c026 4dbd 54ea a1bd
000000f0: 0b39 56bd 9e43 b13b 1965 803c be56 3fbd
00000100: 0182 97bd ee9d 933c 8d84 0d3d 64c6 f6bc
00000110: d6b2 a3bd d9c2 e4bc c2f4 973c 1618 b2bd
00000120: 56f5 d8bd f14b 39bd 6f34 243d a4b2 cd3c
00000130: 61b7 413d 1ec4 39bc bd3c a03c fec6 043e
00000140: 2302 c73b 7130 883d 0a0c 78bd c0cf c43d
00000150: af1b 8d3d 1f91 b6bd fd26 6b3c 5137 043e
00000160: daad 6f3d d76c a3bd 6634 013d f934 8b3d
00000170: 3b54 9fbc b7ba b73b 8046 b23d c970 5d3d
00000180: c72d ccbc 3578 35bd 25a3 033e effd 2d3d
00000190: 24de cb3d 0575 fcbc 4db5 0f3d e9a6 0c3b
000001a0: 633a 253d 2b09 24bd 323f ed3d 086f acbd
000001b0: 38cd acbb 5ef4 da3d 0857 d33d d5d9 dc3c
000001c0: 8645 99bd fd79 673d bc88 d83d 1132 b8bd
000001d0: 8fa7 e53d 58cf 2aba e7bf b1bd 3d99 bfbd
000001e0: b5dc 183e 53c7 913d 6d9b e9bc a1ac fa3d
000001f0: f4b0 c83d 37ae a73d 4e74 a63d 1fe3 8d3d
00000200: 636f a83d 40b5 8cbd 12da bd3c 5bbe 873b
00000210: 5dfd 86bd 1bdb a83d 6556 033d beef c63d
00000220: 1771 cc3c 4b5c 79bc 24fe f93c f951 febc
00000230: 38f1 7cbd 24f8 0c3d c98b b33d 5b8a 583d
00000240: 2f60 ef3d e94e 873d d7f3 88bd 9824 903d
00000250: 7832 77bc 1bf5 cd3c 8dec d4bd ab11 ec3d
00000260: 2ed6 c33c 2b2a d93d d105 32bd 44f6 8bbd
00000270: db35 d33d 5ae5 0dbc 3442 9f3d 07cd 62bb
00000280: db81 04be 9d9b a5bd 5ccd 86bd ef90 dabd
00000290: 2359 c63d 7ef7 2b3d 2f98 3e3c d145 4ebd
000002a0: 19ed a1bc a3e6 10bd 99cb ab3d 33cd c2bd
000002b0: 57a3 8fbd 7956 7dbd c966 b4bd 0a72 adbd
000002c0: ab42 95bc 54fb c73d cc2e c43d 4c96 6a3d
000002d0: f46b 883d da53 0bbd f095 43bd eeb5 223d
000002e0: 4570 35bd 0539 b73b 1a6d 88bd d3a2 973d
000002f0: ba73 96bb 74de e9bc 81bb 8dbd 7794 c03b
00000300: bd97 e1bd 30e8 023c 67d2 8abd 2dce a43d
00000310: fad6 adbd 4931 e93c 4cba dd3d 047d b8bd
00000320: d199 093d ce4a b7bd fe07 463d ef19 98bc
00000330: 835a 15be bfb6 903d 2485 83bd 8c2c f6bc
00000340: 9fd9 8d3d 08ef 793d e278 073e df84 c0bd
00000350: 79f8 9abd 9eef 95bd ee95 2e3d 9a06 80bd
00000360: ed1e b23b d181 633d 768e 70bb 8013 103e
00000370: 4bc0 30bd 676e 073e 56e2 0b3e f3df f0bd
00000380: 7e7c 63bd f5db bb3d 28d4 813d e488 2fbd
00000390: 8a2e a4bd 375b 70bd 403c bfbd c76f bcbd
000003a0: 0f11 adbb a325 83bd 73ab d3bd e3ef 053e
000003b0: 2720 0dbd ead0 7f3d 8fef 3f3e e2fa 5dbc
000003c0: 81d1 0bbd aa33 3e3d 7eb2 7d3d 3c99 c43d
000003d0: 6a2c 823d 9f1e f23d defc 9ebc e29f afbd
000003e0: 8d74 cbbd fce8 74bb 5429 353d fea7 b2bd
000003f0: aec1 a63c d09a 78bd 3ed3 dfbd b972 af3d
-0.115735635 0.096439786 -0.09464272 0.0067117363 0.12515475 -0.0028924618 0.013869462 0.036407173
0.087439924 -0.12734954 0.01415519 0.13704789 -0.09502727 0.08868403 0.0090541 0.020401131
-0.071689084 -0.11976745 0.0977053 0.085330315 0.0052799685 0.12637684 -0.01129139 -0.07729445
-0.018911995 0.13329397 0.09491257 0.06807501 0.070087574 -0.023314359 0.025565725 -0.062281966
0.059913907 0.08865959 0.11103082 -0.086167805 0.0234983 0.065883756 -0.023658779 -0.00018689579
-0.011863116 0.09002315 -0.13868931 0.048823718 -0.051144414 0.032344196 0.062350184 -0.08651551
-0.028599396 0.01846959 0.06187205 -0.054346774 -0.03796026 0.07983851 0.021799393 0.04393327
-0.031185452 -0.020955456 -0.050085783 -0.07906023 -0.052300494 0.005409672 0.015673207 -0.046713583
-0.07397843 0.018019643 0.03455024 -0.030123897 -0.079930946 -0.027924942 0.018549327 -0.08696
-0.10593669 -0.04523844 0.040089067 0.025109597 0.047294024 -0.011338262 0.019560212 0.12966534
0.0060732528 0.066498645 -0.060558356 0.09609938 0.06890046 -0.089143984 0.014352557 0.12911727
0.058515407 -0.07979744 0.03154411 0.06797213 -0.019449344 0.005606975 0.08704853 0.05406264
-0.024924172 -0.04430409 0.12855203 0.042478498 0.09954479 -0.030817518 0.03508501 0.002146179
0.040338885 -0.040047806 0.11584319 -0.08419615 -0.0052734874 0.106911406 0.10319334 0.02695934
-0.07483964 0.05651282 0.10572955 -0.089939244 0.112136 -0.0006515882 -0.086791806 -0.093554
0.14927943 0.07118096 -0.028516496 0.122399576 0.09799376 0.08187526 0.08127652 0.069280855
0.0822437 -0.06870508 0.023175273 0.004142565 -0.06591294 0.08244916 0.032064814 0.09713696
0.02495627 -0.015219758 0.030516692 -0.031044947 -0.06175348 0.034416333 0.08766896 0.05286632
0.116882674 0.06606848 -0.06687134 0.0703823 -0.015087716 0.02514129 -0.10396681 0.115268074
0.02390584 0.10603746 -0.04346258 -0.06834081 0.103130065 -0.008660639 0.07776299 -0.003460707
-0.12940161 -0.080863215 -0.06582138 -0.10672175 0.0968497 0.041984074 0.011632963 -0.05035955
-0.019766377 -0.035376202 0.083884425 -0.09511795 -0.070135765 -0.061850045 -0.08808667 -0.08469017
-0.018220266 0.09764734 0.09579238 0.05727224 0.066612154 -0.034015514 -0.047750413 0.039724283
-0.04429652 0.005591514 -0.066614345 0.07404103 -0.0045914324 -0.028548457 -0.06920529 0.0058770734
-0.1101527 0.007989928 -0.06778412 0.080471374 -0.08488269 0.028465884 0.10826549 -0.0900822
0.033593956 -0.08949815 0.048347466 -0.018567054 -0.14585309 0.07066106 -0.06421879 -0.030050538
0.069262736 0.061018974 0.13229707 -0.09400343 -0.07566924 -0.07321094 0.042623453 -0.06251259
0.0054358155 0.055543724 -0.0036706007 0.14069939 -0.043152135 0.13225709 0.13660559 -0.11761465
-0.055538647 0.09172813 0.06339294 -0.04285516 -0.08016689 -0.05868074 -0.09337664 -0.09201007
-0.0052815746 -0.06403663 -0.10335436 0.13079791 -0.03445449 0.062455095 0.18743728 -0.013548585
-0.034135345 0.04643599 0.0619378 0.0959954 0.063561276 0.11822247 -0.019407686 -0.08575417
-0.0993434 -0.0037370315 0.044228867 -0.08723448 0.020356026 -0.060694516 -0.10928963 0.085668035

encoder.lstm.bias_hh_l0 f4 [256]
00000000: 8f1b 5d3c b80d 7f3d 320b eb3d d617 37bd
00000010: 51e9 eb3d 3e3f b9bd 0724 733d 27a3 f43d
00000020: fa57 ecbc af10 5e3d 28ce 9f3d d3b3 683d
00000030: ad56 153c 33f3 883c ee96 ccbb de02 16bc
00000040: 864b 0d3e 854d 28bc 3a70 0b3e 6410 2f3d
00000050: 2310 acbd c736 0a3e 7762 48bd 6a32 ed3c
00000060: 40ba c4bd 8d5e 4abd 8a73 acbd 33d5 e0bd
00000070: 8c4b 513d 494c ae3c 23d1 8ebd 475e ebbc
00000080: 33c7 a33d 3056 053d 9826 c03d 67f9 793d
00000090: 2a01 853d d044 29bd bf62 d53d 2263 903d
000000a0: 5688 5dbd 0068 033e 6e05 da3d 7e39 c33d
000000b0: 190f b33c 2595 a53d 392d b23d 27f3 86bb
000000c0: c4bc d4bd 0898 09bd 8e93 963d 3ef9 9b3d
000000d0: f2cd ed3c a5dd 12bd d094 953d 1a81 11bc
000000e0: 8d72 87bd 19e0 7d3d e799 f43d 620e a23d
000000f0: 2f1e 0cbd d5ed 85bd 7f83 7dbd da9d 0d3e
00000100: 6b46 aa3a 418c dc3d 2207 613d a15d cd3d
00000110: f4b9 36bd 7810 18bd b5a7 f43d 92d9 72bd
00000120: 4871 53bd d145 79bd 885b bdbc bf84 9c3d
00000130: eb1b e5bd 30ea 86bb 1549 c23d 3b3f 7e3d
00000140: 7254 cd3d f012 e9bd 031f b8bc 926a 46bb
00000150: 078f a4bb eeaf 0e3e c07e b63d ef1a b13d
00000160: 9dd0 ae3d 3094 93bc f214 a43d 4e3b d73d
00000170: d3c9 9ebc 712d 873d 12fa 2fbc 1940 c6bd
00000180: 1623 1d3d 374d ab3c ee99 c43a cdb6 f03d
00000190: e9c3 b3bc c570 183d 694e fa3d 5e9e b8bd
000001a0: 995e 6f3d e258 a63d 598c 5bbd c056 7ebd
000001b0: 7a5e 993c 3030 863d 991c 703b b2d9 de3d
000001c0: 5cc2 003e 2afa c83c 6b4f 993d e17d 76bb
000001d0: 526c 273c e920 d73d 9d4f 8cbd fbd8 df3c
000001e0: 6969 bebd a0c4 623d e4f1 c53d 83cf 803d
000001f0: 15d0 26bd d40e 083d 7ee1 d83d 9f1c 063e
00000200: 5c31 f239 0d1d 873b 0d1b 9dbc bee3 8e3d
00000210: 9bb6 c5bd ff82 793d ed37 6a3d e51f 803d
00000220: 605f fb3d cfa6 693d 9005 a43d 0554 c53d
00000230: 696c d0bd 1f92 653c c4cf 6abd e871 8a3c
00000240: 7109 a7bd ac16 00be 8a74 8c3c 9474 393d
00000250: 1acb fd3d 5210 933d fb4a a23d 45b9 173d
00000260: c07d bf3d a028 bf3c cb26 593d ef56 ee3c
00000270: 94eb 953c 1749 b4bd 7810 a73d 2a78 803d
00000280: 0fd1 b63d a316 d53d a608 ce3d 0828 fa3d
00000290: fe7f 753d 2eb9 4e3d 9323 7cbd 965a 523d
000002a0: 235d 473d b6e6 863d 72a7 273d 72a8 413c
000002b0: 0ff1 e9bd dd92 3ebd 5b70 693d 7feb da3d
000002c0: 60cf da3d 2459 04be 7e1b 943d 1e39 c93d
000002d0: fcf5 bdbd 7366 e33c d0aa 85bd 4429 64bd
000002e0: 4e95 e1bd 5121 77bd 072d 1cbb 553d c73d
000002f0: 14cc 13be ffef 543d 0bee dfbc 5333 b63c
00000300: ef17 ddbd 5a67 f13d b57d ec3d 7996 d1bd
00000310: a0e7 1ebd 484b a73d 9479 b2bd 16c2 2b3d
00000320: c35f 28bd c71a 0dbe da7c ac3b c3f5 8bbd
00000330: c0a5 233d cf2c b4bd ca18 babd b76b 58bd
00000340: ebb9 16bd 8aea d0bd 1e45 193e 431d f4bd
00000350: 714a b83d 4677 903d 3cc0 04bd d064 733d
00000360: f182 c23d e7d7 a63d 0168 893d 4b8a 98bd
00000370: 61a1 48bd 8dc4 54bd f131 aebd 9e17 70bd
00000380: b3ea 9fbd c497 063e 461f 993c bbc7 813d
00000390: babd 1abd 2b81 5fbd 8846 e13c 309d 71bc
000003a0: f199 abbd 01fc 203d 2188 50bc 2457 2dbd
000003b0: ec87 8b3d 5dac 453d d121 033e 89b4 d73a
000003c0: 4a3f 92bd 9c69 3dbd 0575 48bd 9aba 223c
000003d0: 7a53 8cbd a98c c0bd e335 a1bd 4968 af3d
000003e0: 9ec1 913c 8030 503d 27c0 99bd 66cb 85bd
000003f0: 99af 863c 96b9 b83d 684b 9abd 5cb5 ed3d
0.01349534 0.062268943 0.11476745 -0.044700466 0.11519111 -0.090452656 0.05936053 0.11945181
-0.028850544 0.05421513 0.07802993 0.05681212 0.009114903 0.016717529 -0.006243578 -0.009155957
0.13798341 -0.010272388 0.1361703 0.04274024 -0.08401515 0.13497458 -0.04892203 0.028954703
-0.09605837 -0.049406577 -0.08420475 -0.109781645 0.051097438 0.02127661 -0.069734834 -0.028731478
0.079969786 0.032552898 0.09382361 0.061028864 0.06494363 -0.04132539 0.10419225 0.07050158
-0.0540851 0.12832642 0.10645567 0.0953245 0.021857785 0.08085088 0.08700032 -0.0041183415
-0.10387567 -0.033592254 0.073523626 0.076158985 0.029028866 -0.035855908 0.07303774 -0.008880878
-0.06613646 0.061981294 0.11943417 0.079128996 -0.034208473 -0.065395035 -0.061892983 0.13829747
0.0012990957 0.10768939 0.054938443 0.10027624 -0.044610932 -0.03712508 0.1194605 -0.059289522
-0.051621705 -0.060857598 -0.023114935 0.07642507 -0.111869656 -0.004117273 0.094865955 0.06207202
0.10025872 -0.11380565 -0.022475725 -0.0030275923 -0.005021933 0.139343 0.089108944 0.08647715
0.085358836 -0.018014997 0.080118075 0.10509358 -0.019383347 0.06600464 -0.010740774 -0.096801944
0.03836354 0.020910842 0.0014999488 0.117536165 -0.021944003 0.03721692 0.12221987 -0.09014581
0.058439825 0.08122422 -0.053600643 -0.06209445 0.018721808 0.0655216 0.003663814 0.10881366
0.12574142 0.02453335 0.07485851 -0.003761165 0.010218697 0.10504324 -0.068511225 0.027325144
-0.09297449 0.055363297 0.096652776 0.0628958 -0.040725786 0.033217266 0.10589884 0.13096856
0.00046194613 0.004123336 -0.019177938 0.06977032 -0.0965397 0.060915943 0.05718224 0.062560834
0.12274051 0.057043847 0.080088735 0.09635166 -0.101769276 0.014011889 -0.057327047 0.016900018
-0.08156098 -0.12508649 0.017145414 0.045277193 0.12392254 0.07180847 0.07924458 0.03704192
0.09350157 0.023334801 0.05301551 0.029094188 0.018300809 -0.08803003 0.08157438 0.062729195
0.089265935 0.10404708 0.10060243 0.122146666 0.059936516 0.05046957 -0.061557364 0.05135592
0.048672806 0.06586973 0.040931173 0.011819946 -0.114229314 -0.04652678 0.056991916 0.106894486
0.10684085 -0.1292463 0.07231806 0.09825347 -0.092754334 0.027758813 -0.065267205 -0.055703416
-0.11014806 -0.060334507 -0.002383055 0.09728495 -0.14433318 0.05198669 -0.027335187 0.02224127
-0.107955806 0.11787291 0.11547414 -0.102337785 -0.038795114 0.08168656 -0.087145954 0.04193314
-0.04110695 -0.13779746 0.005263907 -0.06833985 0.039952993 -0.08797609 -0.090867594 -0.0528371
-0.0367984 -0.10200985 0.14967772 -0.11919644 0.089985736 0.070539996 -0.03240989 0.059422314
0.09497631 0.08146649 0.0670929 -0.07448252 -0.048982028 -0.051945258 -0.08505619 -0.058616273
-0.07808437 0.13143831 0.01869167 0.06336924 -0.037778594 -0.054566544 0.027499452 -0.014746949
-0.08378971 0.03930283 -0.012727768 -0.042319432 0.068130344 0.04826008 0.12805869 0.0016457002
-0.07140978 -0.046243295 -0.048939724 0.009932185 -0.068518594 -0.09401829 -0.07871606 0.08564813
0.01779252 0.050827503 -0.07507353 -0.06532936 0.016441153 0.09019773 -0.07533914 0.11606857

encoder.linear.weight f4 [32, 64]
00000000: 4719 3a3d 0489 e3bd a066 1f3c eec6 c3bd
00000010: 7c31 86bc 8578 563d e243 d73c 2741 213e
00000020: 453f 143e 7be1 d93d 6a2c 95bd 5ec5 a23d
00000030: 40d2 f8bc c696 44be a8db e3bc 306f eb3d
00000040: 5534 bf3d f230 0ebd 48b4 08be adad 64bd
00000050: 8bb0 713d 0b7c a03d 6586 ed3c f4d9 bdbb
00000060: 395b fa3d 9cad 3d3d eb07 d93c f917 0abd
00000070: 4b79 a3bd 8425 00be 0f34 94bd 05fd 8cbd
00000080: 48e9 08bd 5d59 a7bc 0a0c 813d 1e46 07bd
00000090: a53f fabd 8356 ff3d 152c d5bd f2c3 db3c
000000a0: 7a57 663d 4cae 11bd 9a63 d0bc 2f2f 87bd
000000b0: b088 3e3b f3df a43d a922 4ebc e7d6 d83d
000000c0: 1e0f 05be d7be b03d e1d8 01bd 5d10 853d
000000d0: ea11 5cbd 95de 373d 8f57 dbbc 6188 57bc
000000e0: d8af 45bd ab04 d3bc 6660 093e 7cea 1fbd
000000f0: c970 cfbd d80d d73d 5688 4b3d 120a 42bd
00000100: cd07 c33d 4a9d a2bd eee9 97bd 6a0f d33d
00000110: 493e 52bd a8fa 0ebe def0 3e3d b1a3 623d
00000120: 616a ba3d bca6 763d 1a86 ee3c f310 2ebd
00000130: de12 483d 492b 023e df33 d33d c074 8ebb
00000140: 9077 d2bd a3ad db3d 214d b93d d70b a5bd
00000150: 600c 45bb 729c 043e cd17 b43c 7da9 013e
00000160: be5e bd3c 445c b73d 49bf f23d 6df0 ba3d
00000170: b109 1fbd 651d b7bd 5c90 cd3d c23f ab3b
00000180: 2a8e 133e 9fc9 063e 1ed7 17be b036 e03d
00000190: 03d9 163e 399c 683c 9c05 dfbc 1c58 023d
000001a0: 58f8 533b fb3b 1f3e d7cc d43c 5baa cd3d
000001b0: 7bef 6abd 9140 d1bd d1ca 0c3e 1704 733a
000001c0: 7638 543c e1eb 2c3d b169 d7bd 7a7e c1bd
000001d0: 3815 d33c a88c 13bc 734c 17be e351 313d
000001e0: 4b12 87bd ad98 643d 0421 c1bd 5908 f0ba
000001f0: d331 403c a5d8 b43d 1cec 4c3d f2af bdbc
00000200: 8152 4fbc 0b47 ba3d 85d7 c5ba af26 8c3d
00000210: 0ec8 b1bc e8cc b1bd 3f6c b3bd 9238 26bd
00000220: f3ad f4bd e609 ae3b 4d9d 9b3d 9732 f83c
00000230: 9798 883d 5811 9ebd 0670 7e3d 6982 a8bd
00000240: 010f d2bd 6496 c2bd f44b c43d f512 72bc
00000250: 6c6e b3bd de8d 7cbd a5ff 3f3d 2b75 90bc
00000260: 505d bc3d 06fd 993d 7446 3d3d ef34 6cbd
00000270: 1087 02be 6dfd 0a3d 3e14 bd3d 1177 55bd
00000280: b336 013e d9de 033d 2546 93bd 0191 083e
00000290: 3d6a 56bd 0c90 c4bb dc75 da3d 332b a53d
000002a0: f209 8a3d 3779 62bc 97db 873d ac28 adbc
000002b0: 2b3e 163d 35db e3bb 6b9a 49bd 606f 23bd
000002c0: 0d9b bfbd df52 19be 7be4 df3c fa69 a4bb
000002d0: f56e 15bd cf43 a63c 2bf6 93bd 9aca b7bd
000002e0: 4e33 b63d f7e3 403d 7d5c f7bc e6ad b53d
000002f0: 9ec1 a4bd ee46 ca3b 5d79 573d 1b4c dc3c
00000300: 8bd3 fdba de73 693d 6dea c6bc 8d9d f53d
00000310: 8cbe 8f3c ff60 63bc 2895 3e3d 0990 81bd
00000320: 8355 fdbd ac1d 19bd d037 263d 7a24 a8bd
00000330: 7eaf 913d 1b14 353e bff5 0abd 9264 0a3d
00000340: 781e a5bd 8179 f9bc 3bfc ba3d a273 c83d
00000350: 5dc5 11bd a5bc b3bd ebcb 84bd ab03 94bd
00000360: ed74 1ebb 4632 eebc 18dd 8e3d 1b8e eb3c
00000370: d593 9bbd c3be 103e 5b00 d13d 1e4c c1bd
00000380: 0f72 c93b 5749 8f3d e6e8 4ebd f07f 11bd
00000390: 9b73 e73d b671 df3a 1bf0 47bc 8979 a73c
000003a0: fce8 95bb 9a22 2e3e f640 fc3c 4f24 e2bd
000003b0: 29ab 05bb a463 17bb 5333 62be 31d7 9d3a
000003c0: 3f49 e6bc 707e 563d 2747 073e d48a 58bd
000003d0: 948b cd3a ef68 bfbc abec 6f3d c550 9d3d
000003e0: c547 d4bd 0acd b7bd f314 27be 47d6 4bbd
000003f0: b438 863d f839 38bd 65ab 25bc 15c4 2e3e
0.045434263 -0.11110118 0.009729058 -0.09559427 -0.016381018 0.05236103 0.026277486 0.1574751
0.1447726 0.1063871 -0.07283862 0.07947801 -0.030373693 -0.1919814 -0.027814701 0.11495817
0.093361534 -0.034714647 -0.13350022 -0.055829693 0.059006255 0.07836159 0.028994748 -0.0057938043
0.122244306 0.046308145 0.026493033 -0.03371427 -0.07982119 -0.12514311 -0.07236492 -0.06884197
-0.0334256 -0.020428354 0.063011244 -0.033025853 -0.122191705 0.12467673 -0.104087986 0.026826832
0.056235768 -0.035566613 -0.025438119 -0.066007964 0.0029073171 0.080505274 -0.012581506 0.10587864
-0.12994048 0.0863015 -0.031700972 0.06497262 -0.05372802 0.044890005 -0.02677515 -0.013155074
-0.0482634 -0.025759062 0.1341568 -0.03904198 -0.10128934 0.10500687 0.049690567 -0.047372885
0.09522972 -0.07940157 -0.074176654 0.103056744 -0.05132893 -0.13962805 0.046616428 0.05533189
0.091023214 0.060217604 0.029116679 -0.042496633 0.04884612 0.12711824 0.10312628 -0.004347414
-0.10276711 0.10726478 0.09047914 -0.08058899 -0.003006719 0.12950304 0.021984005 0.12662311
0.023116466 0.08953145 0.11852891 0.09127889 -0.0388276 -0.089411534 0.100373 0.0052261064
0.144097 0.1316285 -0.14828154 0.10947931 0.14731221 0.014197403 -0.027224354 0.03182231
0.003234407 0.15550224 0.025976581 0.10042258 -0.057357293 -0.10217393 0.13749243 0.0009270324
0.012952914 0.04221714 -0.10518206 -0.094479516 0.025766954 -0.009005703 -0.14775257 0.043290984
-0.06595286 0.055809665 -0.09430125 -0.0018313035 0.011730629 0.08830384 0.05002986 -0.023155186
-0.012653948 0.090955816 -0.0015094137 0.06843316 -0.021701839 -0.08681661 -0.08760881 -0.040581293
-0.11947241 0.0053112386 0.07598362 0.03029756 0.06669729 -0.07718152 0.062118553 -0.08227999
-0.10256768 -0.09501341 0.095847994 -0.0147750275 -0.08761296 -0.061658733 0.04687466 -0.017633995
0.091974854 0.075189635 0.046209767 -0.05766767 -0.12746835 0.033933092 0.092323765 -0.052115504
0.12618522 0.032194946 -0.071911134 0.13336565 -0.05234741 -0.005998617 0.10667011 0.0806488
0.06740178 -0.013822845 0.0663368 -0.021137558 0.03668038 -0.0069536217 -0.04921953 -0.039901137
-0.093557455 -0.14973019 0.027330628 -0.005017516 -0.03648277 0.020296006 -0.07224687 -0.0897419
0.08896504 0.047092404 -0.030195469 0.08871059 -0.08044742 0.0061730063 0.052605975 0.026891759
-0.0019365413 0.056995265 -0.024281705 0.11992941 0.017546915 -0.013878106 0.046528965 -0.06326301
-0.12369826 -0.037381813 0.04058057 -0.08210082 0.071135506 0.17683451 -0.033925768 0.033787318
-0.08062452 -0.030453445 0.091301404 0.0978768 -0.03558861 -0.087762155 -0.06484207 -0.07227262
-0.002417858 -0.029076707 0.06975764 0.028754285 -0.07596556 0.1413527 0.10205146 -0.09438346
0.00614763 0.0699641 -0.050515078 -0.0355224 0.11301347 0.0017047438 -0.012203242 0.020443695
-0.004574893 0.17005387 0.030792695 -0.110420816 -0.002039621 -0.0023100162 -0.22089891 0.0012042281
-0.028111098 0.052366674 0.13210736 -0.05286677 0.0015681856 -0.023365466 0.058575314 0.07681421
-0.103652515 -0.08974655 -0.16316585 -0.049764898 0.06553784 -0.04497716 -0.010111664 0.17066987

encoder.linear.bias f4 [32]
00000000: 6afc b73b 354b 83bd d788 bbbd 20fe 28bd
00000010: f498 d63d 9eeb e7bd 3849 9bbd ddd5 4abd
00000020: 519d f13d 0fa6 ab3d 29d4 593d 3a24 133c
00000030: 5e30 c43d 7a0b eabd da12 cabc 5628 d8bc
00000040: 8d94 32bc 360d aabd 7dcc bc3d 3c90 fa3b
00000050: 1f0d 3b3d 0d1e c0bd 4453 363d 551c 733c
00000060: 837b fabd d618 d33d 8160 f9bc 9557 b43d
00000070: fb60 94bd 99a8 993d d3ef f1bb bad6 4b3c
0.005614807 -0.06410829 -0.091569595 -0.041257977 0.10478392 -0.11324237 -0.07582325 -0.049520362
0.11797584 0.083812825 0.053180847 0.008980805 0.09579538 -0.1142797 -0.024667192 -0.026386421
-0.010899675 -0.08303301 0.092186905 0.0076465886 0.04566681 -0.09380732 0.044513002 0.014838298
-0.12230589 0.103074715 -0.030441524 0.088057674 -0.0724506 0.075028606 -0.0073833256 0.0124413315

decoder.linear.weight f4 [64, 32]
00000000: 4342 15be db84 0e3d e7d4 34bd cced 913b
00000010: 7560 253e 0b66 1ebe cbd5 0c3d 5279 7f3d
00000020: 777c 1f3e bbcd 7b3d 1861 ba3d 666d 44bc
00000030: a0b7 3abd 2546 2ebe 226b a13d 9d93 14bd
00000040: e92f 9cbc e17d e93d ea9d 23bc 6a45 033e
00000050: 8e26 803d bc84 f9bd 3c62 43be c545 b3bd
00000060: bd81 f73b 8824 10be eb36 9fbd 8132 1f3e
00000070: bc65 1fbe 5f38 c9bd ad42 2f3d 05b1 093d
00000080: 640b b4bd ecf7 24be b9d4 85bd 28f2 4ebd
00000090: 9e1b 0ebe cfbe 2cbe 233e e23d 97d4 fdbd
000000a0: f0bf 33bd ce1a 5f3d 9590 db3b 5176 e0bd
000000b0: b547 d0bd 1547 663d 3b6b 84bd 4341 0a3e
000000c0: 5376 7bbc 7889 5d3d 6fe6 c9bd 967f 1abe
000000d0: 2c7c 263e ea7d 17be d6d6 fdbd 6834 4c3e
000000e0: c7ad 573d 99a0 a4bc bd3e a7bd 08e1 2abe
000000f0: 0eba e93d f968 043d 1c31 8dbd a5cf 3c3e
00000100: 8ff3 403c 8e92 a2bd 56b8 d2bd 03f8 f73d
00000110: e7ec 3e3d 0fd2 f1bb dc6c abbd 97e0 3f3e
00000120: 2e03 ee3d d4a2 0a3d 043f 0d3e 33b7 babd
00000130: e614 fe3d 5dd5 bcbd eb76 903d ce83 cd3d
00000140: 5256 94bd d16f d5bd 5900 2a3d 6458 df3d
00000150: 5fd9 313e 8105 a4b9 2d4f 54bd 5fed 9e3d
00000160: 9669 673d 6b2e c8bc 88cd 50bd a535 a63c
00000170: 67cd 0d3e 9f48 243d 5a07 6d3d deae a4bd
00000180: 4fba debc a5f4 85bc aec3 15bc 654f 3e3d
00000190: 05ae 093e d4e3 053e b779 213c faa6 353e
000001a0: aa1a 963d 51a8 013e 984b 643d 6902 fcbd
000001b0: 31c8 c7bc 12d8 21be 9fd6 cfbd d91f 4dbe
000001c0: 54bc 443d 4247 54bd 65ac 143e c76a 04be
000001d0: 49a8 0cbe 7bbe 4bbd 83a5 8a3d a7f3 e43c
000001e0: c7e7 1ebe 916b 12be 78d9 9fbc 8cf5 2dbe
000001f0: 37a9 c33c f5ad fd3c c9e1 af3d 76ab 54bb
00000200: 0747 2f3e 4e98 123e 42c0 2e3d bb26 bfbd
00000210: 76c5 b33d 9919 09bc ee85 f9bd 391b d63c
00000220: 5fe4 9abd fc06 1dbe 1bcc 0fbc 8e01 523d
00000230: ecb6 96bd c684 ad3d 180c 18be 3836 b53c
00000240: aa95 4a3d 3b1b 373e 29aa 36be 3f4d 063e
00000250: c0c1 303e 3878 9d3d e4de e13d a22e 29be
00000260: 5399 18be 95c9 fdbc 092e c13d 1bcd 743c
00000270: eb56 abbd f95a 22be 87a9 003e c531 87bd
00000280: ff46 07be b781 983c 5695 303e 5834 e23d
00000290: 1225 a83c bbad 2cbc 533c 12bd 5a0e 33be
000002a0: cde0 c23d d2f0 b93d f2a4 22be 1162 56bd
000002b0: c2a6 e1bd 2d87 44bd 8085 2f3e 3089 16be
000002c0: eb66 20be 50d5 4bbe f0dd ec3b ea45 1dbd
000002d0: 288f c03d 9445 47be bd12 0e3e acb5 92bd
000002e0: ea0b 75bd 6291 f43d 8205 033e 4719 08be
000002f0: a9a1 b9bb ea7a 8f3d f75b bdbd eaa1 9c3a
00000300: 2f3a 30bd 7542 453d 4290 d83d 4eb5 ba3c
00000310: 82eb c3bd 1570 943d 3961 f6bd 2cca c7bc
00000320: f4cb 33be 3cf9 b7bd b554 19bd a0ce 223e
00000330: 3d7b b83c b816 313e 0c11 393d cf36 d23d
00000340: b897 55be e386 bd3d 828f 783d 3483 05bd
00000350: fab5 dfbd 0e5c 30be 8f17 79bd 9af7 9cbd
00000360: 7cef 433e 7093 243e 2c2e 0c3e 1ddb e93d
00000370: 75d7 af3d eb56 99bd 3dc8 fdbd 1094 30be
00000380: 8be8 b33d d914 a3bc 8828 0f3d e290 ad3d
00000390: 283f ebbd 1a50 fdbd aa61 ed3d d195 973c
000003a0: cb9e 1dbe 65d5 ab3c 2461 a1bc 8c1b ae3d
000003b0: 7fa7 113e c362 77bc a926 a9bb b762 d7bd
000003c0: 6ba6 1cbe d217 8d3d 28c7 203d 341d 1b3e
000003d0: ccf0 e23c 7f67 2bbd b9cd 2b3e 41a8 44be
000003e0: 2744 103d d790 09be 82e3 a9bb 5c7e 94bd
000003f0: 7158 163e a8ca d6bd b5eb 3dbd 609a 19be
-0.14576058 0.03479467 -0.044148352 0.0044533964 0.16150077 -0.15468614 0.034383576 0.06237156
0.15574823 0.061475497 0.091005504 -0.011988973 -0.045585275 -0.17018946 0.07881762 -0.036273587
-0.019065814 0.114009626 -0.00998638 0.12819448 0.06257354 -0.1218352 -0.19080442 -0.08753542
0.007553308 -0.14076436 -0.07774147 0.1554661 -0.15566152 -0.09825205 0.042788196 0.033616085
-0.08791235 -0.161102 -0.06534714 -0.050523907 -0.13877723 -0.16869663 0.11047008 -0.12394064
-0.043884218 0.054468922 0.006700585 -0.10960067 -0.10169927 0.056220133 -0.06465765 0.13501458
-0.015348035 0.05408618 -0.09858405 -0.15087733 0.16258305 -0.14794126 -0.12394492 0.19941866
0.05265596 -0.02009611 -0.08166263 -0.16687405 0.1141244 0.032326672 -0.068941325 0.18438585
0.011776819 -0.07938109 -0.102890655 0.12107851 0.046612646 -0.0073797773 -0.08370373 0.18738018
0.116217 0.03384669 0.1379357 -0.09116974 0.1240633 -0.09220383 0.07053932 0.100349054
-0.07243027 -0.10421718 0.041504238 0.10905531 0.17368077 -0.00031284618 -0.05183332 0.07760119
0.05649718 -0.024436196 -0.05097726 0.020289252 0.13847886 0.04010832 0.05786834 -0.08041166
-0.027188448 -0.016352007 -0.009140892 0.046462435 0.1344529 0.13075191 0.009855679 0.17739478
0.073293045 0.12661864 0.055736154 -0.12305147 -0.02438745 -0.1580508 -0.101483576 -0.2003168
0.048031166 -0.05182577 0.14518888 -0.12931357 -0.1373607 -0.049742203 0.0676985 0.027948214
-0.15518104 -0.14298846 -0.019512877 -0.169882 0.023884399 0.030966738 0.08587987 -0.0032450831
0.17116939 0.14315912 0.04266382 -0.09333559 0.08777897 -0.008367919 -0.12183748 0.026136028
-0.075630896 -0.15334696 -0.00877669 0.051271014 -0.07359108 0.0847259 -0.14848363 0.02212058
0.049459137 0.17881481 -0.17838348 0.13115405 0.1726141 0.076889455 0.11028841 -0.16521695
-0.14902239 -0.03097991 0.09432609 0.014941479 -0.08366188 -0.15855016 0.1256467 -0.0660129
-0.13210677 0.01861654 0.17244467 0.1104514 0.020525489 -0.010539467 -0.03570206 -0.17485943
0.095155336 0.09079136 -0.15883234 -0.052339617 -0.11018135 -0.047980476 0.1714077 -0.1470077
-0.1566426 -0.19905591 0.0072286054 -0.038396753 0.09402305 -0.19460136 0.13874336 -0.071635574
-0.059825815 0.11941792 0.1279507 -0.13290893 -0.0056650233 0.07005866 -0.092460565 0.001195011
-0.04302424 0.04815908 0.1057439 0.022791531 -0.09566404 0.072479405 -0.120302625 -0.024388395
-0.1755827 -0.089830846 -0.0374343 0.15899134 0.022519702 0.17293823 0.045182273 0.1026436
-0.20858657 0.09254243 0.060683735 -0.03259583 -0.10923381 -0.17222616 -0.060813483 -0.07664414
0.19134325 0.16071868 0.13689488 0.11418746 0.08586017 -0.074872814 -0.12391708 -0.17243981
0.087845884 -0.019907402 0.034950763 0.084749 -0.114866555 -0.12368794 0.115908936 0.018504055
-0.15392606 0.020975778 -0.01969964 0.08501348 0.14224051 -0.01509923 -0.0051620794 -0.10516875
-0.15297858 0.06889309 0.03925243 0.15147859 0.027702712 -0.04184675 0.16777696 -0.19204809
0.035221245 -0.13434158 -0.0051845917 -0.07250664 0.14682175 -0.10487872 -0.046367366 -0.15000296

decoder.linear.bias f4 [64]
00000000: 90dc bb3d 2dca 2a3e 5210 8c3b dcd5 023e
00000010: 7acf 04be 0805 47bd 2fc2 b93d f1bf 3abe
00000020: 3bbc 0abd c9de 60ba ae62 a53d 190d 33bd
00000030: 58f1 503d 1af4 c63d 1ff6 06be d7a7 113e
00000040: 8bbf 70bd e393 c0bd e54d c23c f470 103e
00000050: f144 f2bd 08b8 2cbe 9385 1b3e 99ad 6ebc
00000060: ddae 26be c7da 0a3e ab3c f33b 5067 06be
00000070: b829 03bc a82f 66bd ec39 613d e289 163e
00000080: f708 abbd afaf 1a3e 0401 21bc d261 1dbe
00000090: 9bed ce3d ffb1 b33c 234a d93d d267 a93d
000000a0: 9d89 c3bd db9f 043e b0a9 f23d 27fa 2dbe
000000b0: 1526 77bd e195 18be cd37 003d 33df 333e
000000c0: 4619 ccbd 1a55 a5bd 48e1 093e e8f6 ffbd
000000d0: 8583 3bbe 28e5 2c3e 9244 83bd 45ed 1dbe
000000e0: 9b9a 04be ba50 0c3e 391b 193e 1372 e13d
000000f0: 8c04 9fbb da60 323d f1ed 96bd b11d 843d
0.09172928 0.16678686 0.0042744065 0.12776893 -0.12969771 -0.048588783 0.09070241 -0.18237282
-0.033870917 -0.00085781195 0.08075462 -0.043713663 0.051011413 0.097145274 -0.13179825 0.14224182
-0.05877642 -0.09403207 0.023718784 0.14105588 -0.11829556 -0.16867077 0.15187673 -0.014567756
-0.16277643 0.1356002 0.0074230037 -0.13125348 -0.008005552 -0.056197792 0.05498688 0.14701036
-0.08351319 0.1510608 -0.009826902 -0.15369347 0.101039134 0.021935461 0.106098436 0.08271755
-0.09547732 0.12951605 0.118487716 -0.16989957 -0.060339052 -0.14900924 0.031303216 0.17565612
-0.09965758 -0.080728725 0.13464844 -0.124982655 -0.1831189 0.16884291 -0.06409563 -0.15422542
-0.12949602 0.1370267 0.14951791 0.11008086 -0.004852837 0.043549396 -0.073696025 0.06450976

decoder.lstm.weight_ih_l0 f4 [256, 64]
00000000: 6d68 e8bd 74fe 1c3c 2f20 dbbd d298 afbd
00000010: 07b3 5dbd 7ecb 77bd 5ac7 f83d 096e e53c
00000020: 5a90 563d d7e5 1cbd c17d b3bc 06f1 db3d
00000030: 57c7 69bc b390 90bd 2eb1 99bd b7dd 8fbc
00000040: 24cd 503d f2ea 00be 0501 e43d b9d1 e3bc
00000050: 64f9 753d f4ca a13d b89a 83bc abef a43d
00000060: a0dc e6bd fb35 0ebd 5762 af3d 3827 7a3d
00000070: f5ed a6bc b086 153e 270b ca3d c7a4 aabc
00000080: 781b c73d 729a 1fbd fe22 bbbd 8458 d4bd
00000090: a945 bfbc 530a dc3d ee8c 22bd ecc7 4cbd
000000a0: b64d c83d 8003 9abd 45f5 833d d4be a5bd
000000b0: 987a 0cbd 4800 d53d d9fe 2cbd abdc 983c
000000c0: bbfa c9bd 623f 0f3e e939 05bd 14f6 84bc
000000d0: c0d9 32bb 1722 d23c 6ff1 b1bd 4b8b 5ebd
000000e0: 8584 eeba cabc cebc a912 c03d fc58 e73d
000000f0: 87f0 c3bc a49a 1abc 1e1f d83d 089c bf3c
00000100: 60d9 0e3e 8bf6 4c3d 8b8c 153e 7d1b 54bd
00000110: cf49 e03d a24b fabd d4ee f1bd cafb f8bc
00000120: 151b 7fbd 0423 8fbd 4b86 073c 2ab8 85bc
00000130: 2dc2 f5bd 6aca 45bd 6b8a c13b 2b4e a03d
00000140: 9f71 29bb b7fa ab3c 6bf5 11be 4e9f 043b
00000150: 5f59 bf3d fdce 05be c046 abbd f360 0e3e
00000160: 7daa 8e3d ffb6 e03d fa6e f73c 2867 2b3d
00000170: a1fb fe3d 3654 953d 7a38 afbd 8716 f83d
00000180: 67b0 93bc 588f 9e3c 5ad0 033e 28bc 3abb
00000190: 71c7 1c3d 0332 22bd d2d0 ec3d fcd4 b73c
000001a0: 1ac7 973d ce71 37bd d189 c83d 846e cebd
000001b0: 8f86 dcbd be34 31bd 39ab 97bd ef0d 903d
000001c0: 5905 2d3c 8c22 65bc b976 353d 8eb0 473c
000001d0: d202 a13b 24db f13c 4daf f53c 4dad cabd
000001e0: 174d 8dbd 4195 aabc 59eb 3b3d d6c8 9dbd
000001f0: 8374 7abd 9b5e 26be dc72 a63d 76f3 8dbd
00000200: 2d07 963d 3e54 423c 0141 163c 7e8f f5bd
00000210: 5a8a 22be 8216 ea3d 0131 f73d 7462 16bd
00000220: 7b9d 973d 69d9 6bbd ec51 bbbc 3177 f83c
00000230: f8be b0bb 028f 09bd 071b 343d b8bb 93bc
00000240: 1c71 32bd 5ac5 28be fd7a 08bd b7dc 39bd
00000250: 28b9 c1bd a6e1 973d 593a 35bd d86a a43c
00000260: 06a1 36be 0e6c fdbc 268c 0abd 86fa 063d
00000270: 5eb4 1fbc efcb 8dbd 62ca db3d c360 bf3d
00000280: adcc 26bd a22c 793a 9e11 cfbc 1e0e 60bd
00000290: fce7 6e3d 0bac 8abd 9199 1ebe 574c 8dbd
000002a0: e9e5 0c3d b731 723d 2e55 683c d147 84bd
000002b0: 4ffa 5cbd a56b 77bd 8d4b 133d 945c e1bd
000002c0: 4238 6ebe cf99 6ebd 23c5 c63c a935 d13c
000002d0: b169 c2bd 38fa c03c f579 bdbc 005e a8bd
000002e0: a43a ddbc 78aa e7bd 536c 0c3e 563e 6bbd
000002f0: 63fb ab3d 7bdd bb3d 1c08 f7bc 96c1 ea3d
00000300: d79f b83d bb60 353e c4c1 8d3a b0aa 95bc
00000310: 340d 683d 0a4c 4ebb 479b 83bd 89c0 d3bc
00000320: 2429 45be 0ec5 debd 8dbe b33d 5c38 cc3c
00000330: fd69 e43c bc35 263e c206 8fbc 84c8 933d
00000340: e2cc adbd 8e1d 113d 2b20 2fbe 64ca f83d
00000350: 94de 1cbe 5774 9abd b568 3d3e 3c52 2d3e
00000360: c132 eabc 3a36 16bd 5110 aebd a514 f6bd
00000370: 56a1 e03d 2851 fe3b 8de7 7ebd da0d 023d
00000380: ce25 9ebd c599 53bd 617e 223e 7f9a c73c
00000390: 0aae e73b 40cb 08bd 5f57 1abc c35a 333e
000003a0: b640 413d 1a7b c83d 3805 bb3d 8eeb 84bd
000003b0: ce89 53bd 3cb7 cdbd b675 9cbd e2c5 753d
000003c0: e187 503e efb8 b5bc 5a79 f53d 6feb a1bc
000003d0: 9ba3 38be 2b0f dabc f46f 3abe 41c5 b6bd
000003e0: 04d8 f53a 1aa7 023e 2e18 2e3e d76a 01be
000003f0: 1d58 9e3c 01b9 46be 7e59 89bd 49f1 f2bd
-0.11348043 0.009582151 -0.10699498 -0.0857407 -0.054125812 -0.0604968 0.12147398 0.02800657
0.052383758 -0.03830513 -0.02191055 0.10739331 -0.014268718 -0.07058849 -0.075044975 -0.017561777
0.050976887 -0.12589625 0.11133007 -0.027809964 0.06005229 0.07900038 -0.016064987 0.080535255
-0.1127255 -0.03471945 0.08563679 0.06107256 -0.020377139 0.1460216 0.098654084 -0.020830525
0.09722036 -0.03896565 -0.091375336 -0.103684455 -0.023348646 0.10744157 -0.039685182 -0.049995348
0.09780447 -0.07520199 0.06443266 -0.08093038 -0.034296602 0.10400444 -0.04223523 0.01865991
-0.09862276 0.13989022 -0.03252593 -0.01623062 -0.0027290434 0.02565102 -0.08688628 -0.05433206
-0.0018197453 -0.025236506 0.09378559 0.11296269 -0.023918403 -0.009436283 0.1055281 0.023389831
0.1395011 0.05003981 0.14604394 -0.051784027 0.10951578 -0.12221457 -0.11813131 -0.0303935
-0.062281687 -0.069891006 0.008271764 -0.016323168 -0.11999927 -0.04828874 0.0059063933 0.07827409
-0.0025855077 0.020993574 -0.14253776 0.0020236555 0.09343218 -0.13067241 -0.08363104 0.1390417
0.06966112 0.10972404 0.030204285 0.041846424 0.12450338 0.072914526 -0.08555694 0.12113672
-0.018028451 0.019355461 0.12872449 -0.0028493498 0.03827614 -0.039598476 0.11563267 0.022440426
0.074110225 -0.044786267 0.097919114 -0.10079673 -0.107678525 -0.04326319 -0.07405705 0.070339076
0.010560357 -0.013985287 0.044302676 0.01218809 0.0049136663 0.02952344 0.029990816 -0.09896336
-0.06899469 -0.020823123 0.045878742 -0.07704322 -0.06114627 -0.16247027 0.081273764 -0.06931202
0.073255874 0.011860905 0.009170772 -0.119902596 -0.1587309 0.11430074 0.12069894 -0.036714986
0.07403084 -0.057580385 -0.022866212 0.030330272 -0.005393859 -0.03358365 0.043971088 -0.018033847
-0.0435649 -0.16481534 -0.033320416 -0.045376506 -0.09459144 0.07416086 -0.044245098 0.020070478
-0.17834863 -0.030935314 -0.033825062 0.03295376 -0.009747593 -0.06923663 0.10731961 0.09344628
-0.040722538 0.0009505247 -0.025276955 -0.054700963 0.058326706 -0.06771096 -0.15488268 -0.06899326
0.034398947 0.059129443 0.014180465 -0.064590104 -0.05394965 -0.060405392 0.035960723 -0.11003986
-0.23263648 -0.058252152 0.024263924 0.025538282 -0.09492815 0.023556814 -0.023129443 -0.08221054
-0.027005501 -0.11311811 0.13713197 -0.057432495 0.083975576 0.091731034 -0.030155234 0.11462705
0.09014862 0.17712681 0.0010815193 -0.018269867 0.056653216 -0.0031478428 -0.06426101 -0.025848644
-0.19253975 -0.10877429 0.08776579 0.024929218 0.02788257 0.16231436 -0.017459277 0.0721598
-0.08486344 0.035428576 -0.17102115 0.12147978 -0.15319282 -0.07541721 0.18496974 0.16925901
-0.028588654 -0.03667281 -0.08499206 -0.120156564 0.109682724 0.0077611394 -0.062232543 0.03175149
-0.077220544 -0.051660318 0.15868522 0.024365662 0.0070703076 -0.03339696 -0.009420245 0.17515092
0.047180854 0.09789105 0.09131855 -0.06490241 -0.051645093 -0.10044715 -0.07639639 0.06000317
0.20364334 -0.02218291 0.119860366 -0.019765584 -0.1803116 -0.02661856 -0.18206769 -0.08924342
0.0018756394 0.12759057 0.17001411 -0.12638412 0.019329125 -0.19406511 -0.067065224 -0.11862428
