models/autoencoders/tsla_lstm_autoencoder.pth (torch, 228008 bytes, 14 tensors)

encoder.lstm.weight_ih_l0 f4 [256, 5]
00000000: 6b2a 023e 110d 323c bac7 1abb dec8 87bd
00000010: 7f66 f2bc eca0 c5bd c767 c9bd ecae c7bd
00000020: 2764 893d 5405 84bd d083 18be 683c 98bc
00000030: 958c 793d b4fe 19be ab66 47be b468 c9bd
00000040: 12f6 37bd 23b7 473d 0a9a 33bb cc72 2bbe
00000050: 4c04 8bbc ec9c 4ebd 0a66 0d3d b2e7 48bc
00000060: 3169 63bd 6b40 023e 1c8d d23d dbea a1bd
00000070: ce0d edbd 0bf7 8dbd ec7e 8abd efff 893d
00000080: 8fb0 9ebd 38e0 03be f62a 7abd 3c85 eabc
00000090: 91aa de3d 180a ce3a 67b9 d93b e78a ac3d
000000a0: f26b 143d 1116 f8bc f175 abbd 2e10 0c3e
000000b0: f8f0 963d 5343 04bd b3b9 253c b444 7d3c
000000c0: 29f8 b6bd f732 5a3b 1d5a 7b3d 001b 433c
000000d0: 559e e03d 7196 ba3d 38ef 07bd cab4 0f3e
000000e0: c952 203d e3f8 933d bdb2 a3ba 98aa 893d
000000f0: cf9d 90bd fceb 193c ead7 063e 78db cb3d
00000100: f4fc 14bd 247a f23d fe8f bebb c9ee 28bd
00000110: 2030 3ebd 6b1b 433b ba8c 83bd fd0f 79bd
00000120: 026b 6a3d 7ce5 05bd 09ff 9c3d 24cc 763d
00000130: b0e6 24be c2b7 1dbe 41c6 923d d5ca 58bd
00000140: 954b fabc cdd3 cc3d 9d73 353d 96e8 88bd
00000150: ebfc b63d 3ac7 3d3d 528b 8b3c b0c1 9abd
00000160: db93 883d c743 b43d 285a bebd 1a57 79bd
00000170: 9733 68bd a5d4 343d 3d5e e2bd 2150 043b
00000180: c9bd 323d 65a3 fa3d 4290 18bd d9b3 7ebd
00000190: d132 94bd 1473 213d 4465 86bd 5f14 e1bd
000001a0: c33e 3bbe bd22 b8bd fab8 f63d 6318 fdbc
000001b0: 880c 993c 6d16 16be 77dd b5bd 94e2 bfbd
000001c0: 24e5 e63d 8420 c2bd 960d f7bd 879a 073e
000001d0: d240 c03d 7bd8 90bc 6acd 533c bd09 d6bd
000001e0: 62e4 be3d 5925 4f3d 0d42 bf3c f62e 9abc
000001f0: ca4e dcbd beae d83d 9e7d 093e a937 c73c
00000200: 53c5 9cba cd8e b7bc a87c 843c b381 9d3d
00000210: 649d 9b3d 39b8 e9bd 5974 bbbb 9d6f debc
00000220: 9be4 a23d 3498 753d 87e3 7d3d 5433 02be
00000230: b5eb bc3d 005c bfbc b820 c43d a29d bf3c
00000240: ffb4 c8bd 5b18 513d 5828 7f3c eaac f03b
00000250: fb06 d5bd c7ca 46bd b03d 493d dab9 a6bc
00000260: e29c a5bd 0a39 df3d 854b 0dbe fc19 b4bc
00000270: 15d5 a9bd 1e07 d6bc 85e9 3e3c b46f 10be
00000280: c184 b9bd 5364 80bd d5cb 87bd a754 a23c
00000290: 7e93 1abe 6859 01bd 43d4 08be 8bf2 ab3b
000002a0: 71c9 cebc 81f3 5abe ae06 653d 6b44 c43c
000002b0: 48ee 1f3b f8b3 8d3b 595d 79bd 9ae0 8ebc
000002c0: f064 8d3d d794 10bb 5426 94bc 3a52 76bd
000002d0: f209 88bd b21e efbd 1878 463d ed04 f6bd
000002e0: 0471 4bbd 2ee7 2f3d bc59 0d3e c0b1 ffbb
000002f0: 3f3c dabd 6667 e13c d58d 2dbd 17ac aebd
00000300: 4a6e 91bd f878 e1bb 925a 98bd 458f c73d
00000310: 391a f23b 0a23 edbd 4566 f13c bf7e eb3d
00000320: 139f abbc 403f 5b3d 8bfe 523d d00f fc3d
00000330: 1ed5 0c3e 6590 143c caef 9abd e63d 53bd
00000340: 3433 a53c cc0f 24bc 3604 a53d 5c62 5b3d
00000350: c166 6bbc f290 c53d 57ae 8dbd 1e7a b63d
00000360: 628b ccbd fa1c 813d f1ba 41bd f796 5d3d
00000370: 5a53 003e f428 713d d31b ed3d 84a8 a0bd
00000380: 8430 8a3d 2272 123e c6d0 003e 658a ba3d
00000390: 7315 8ebd 8c06 4c3e e167 4f3d 4f35 b13d
000003a0: 0dde bbbd 7dde 903c b25b 143d b522 043e
000003b0: b949 3cbd 8f68 743c 9eec ee3d b74e 523c
000003c0: 5aa1 9fbd 281e ac3d 1a6b 2f3d 8474 60bb
000003d0: e5c0 51bc 583a eebc 71b8 ec3d 7f87 263c
000003e0: 790f 013e 4158 e0bd b281 02bd ed65 42bd
000003f0: 0875 32bd a429 823d af9e 20be f9b5 e53d
0.12711494 0.010867373 -0.0023617581 -0.06630109 -0.02958989 -0.09649834 -0.09834247 -0.097501606
0.06708556 -0.06446329 -0.14894032 -0.018583491 0.060925085 -0.15038568 -0.19472758 -0.09834424
-0.044912405 0.048758637 -0.0027405047 -0.1674301 -0.016969822 -0.05044262 0.03452114 -0.012262272
-0.05552024 0.12719886 0.10280821 -0.07906123 -0.11574899 -0.06931885 -0.0676249 0.067382686
-0.0774852 -0.12878501 -0.061076127 -0.028627984 0.10872377 0.0015719561 0.006644416 0.08424931
0.036235757 -0.03028396 -0.08372105 0.13678047 0.0737018 -0.032290768 0.010115075 0.015458275
-0.089340515 0.0033294538 0.061365236 0.011908293 0.109676994 0.09110726 -0.03318712 0.1403381
0.03914145 0.07225206 -0.0012489181 0.06721991 -0.070613496 0.009394642 0.13168302 0.0995397
-0.036374047 0.11839703 -0.005815505 -0.04124335 -0.046432614 0.002977098 -0.06423326 -0.060806263
0.057230957 -0.032689556 0.076658316 0.060253277 -0.16103625 -0.1540213 0.0716672 -0.05292781
-0.030553618 0.10001335 0.04429971 -0.06684987 0.08934959 0.046332575 0.017034207 -0.07556474
0.06668826 0.0880199 -0.0929454 -0.060874082 -0.056689825 0.044148106 -0.11053131 0.0020189362
0.043638024 0.12238196 -0.03724695 -0.062183235 -0.07236255 0.039416388 -0.06562284 -0.109902136
-0.1828566 -0.08991001 0.12047 -0.030895418 0.018682733 -0.14656992 -0.08880132 -0.09369388
0.11274174 -0.09478858 -0.12063138 0.13242541 0.093873635 -0.017681351 0.0129273925 -0.10451076
0.09320904 0.050572727 0.023346925 -0.01882122 -0.10757215 0.105802044 0.13426825 0.024318533
-0.0011960663 -0.02240696 0.016172722 0.07690754 0.07598379 -0.11412091 -0.005720657 -0.02715283
0.07953759 0.059959605 0.061984565 -0.12714893 0.09224645 -0.023359299 0.09576553 0.023390595
-0.09800147 0.051048618 0.015573584 0.0073448317 -0.10401722 -0.048533227 0.049131095 -0.020352293
-0.08086564 0.10899551 -0.1379834 -0.021985047 -0.08292595 -0.02612644 0.011652355 -0.14105111
-0.09058524 -0.06269135 -0.06630675 0.019815756 -0.15095326 -0.031579405 -0.13362221 0.0052474192
-0.02524254 -0.21381952 0.055914573 0.023958405 0.0024403501 0.0043244325 -0.06088004 -0.017441083
0.06904018 -0.0022061372 -0.018084683 -0.06013701 -0.06642522 -0.116757765 0.048454374 -0.12012658
-0.049668327 0.04294508 0.13803762 -0.007803172 -0.10656022 0.027515125 -0.04237159 -0.08528917
-0.07101114 -0.0068808757 -0.0743915 0.09744123 0.00738838 -0.11578949 0.029467711 0.11498784
-0.020949876 0.053527117 0.051512282 0.123077035 0.13753173 0.009067629 -0.075652674 -0.051572703
0.020166017 -0.010013532 0.08057444 0.0535606 -0.01436776 0.09646787 -0.06918018 0.08910011
-0.09987523 0.06304355 -0.04729742 0.05409905 0.12531796 0.058876947 0.11577573 -0.07844642
0.06747535 0.1430135 0.12579641 0.09108428 -0.06937685 0.19924372 0.050636176 0.08652746
-0.09173212 0.017684216 0.03622026 0.12903865 -0.045968745 0.014917507 0.11666225 0.01283615
-0.07794447 0.08404189 0.04282675 -0.0034249136 -0.012802337 -0.029080555 0.11558617 0.010164141
0.12603559 -0.10954333 -0.03186197 -0.047460485 -0.04356864 0.063555986 -0.15685533 0.11216349

encoder.lstm.weight_hh_l0 f4 [256, 64]
00000000: ce59 c53d 64b7 af3d 526d 9bbc bcb8 af3d
00000010: 4849 91bd 60e4 abba aedc 543c e625 d0bc
00000020: 6bca 403d ede8 b33d f127 a53d 93c5 163d
00000030: 7748 93bd 8a2a c4bd 4bd9 d2bd f9df b93d
00000040: c985 09be 4231 9bbd a06c c6bd 7e34 a9bd
00000050: 663a cd3c 8d8f 51bd fb0a 8d3d c21b ce3d
00000060: c065 0dbd fdbe c93d fa02 fc3d 22bd b7bd
00000070: a424 e1bc 8b04 abbd 3089 883d 6473 a03d
00000080: a2f4 f9bd f1dd 9dbd 4186 173e b7e5 80bb
00000090: 7370 843d aac0 323d aa44 f43d 5516 cabd
000000a0: 7d2f d23d 73b6 45bd 706e 8d3d 88ff afbb
000000b0: 0bb8 17bd c0bb 7b3d ad28 9f3d 931c c33d
000000c0: 3e47 b5bc fdd6 9abd 09c5 04be 91a7 2d3d
000000d0: 01ce f0bd 237c b03d b31b b43d 8ceb 413d
000000e0: 49f3 8dbb 805f dc3d 77e7 d7bd 8a19 8fbd
000000f0: c632 043e cf1c 943d 0d79 a2bd a4c5 773b
00000100: a547 ec3d bad0 9cbb 648a fb3d 57f3 8e3d
00000110: dbbb 40bd 83da 60bd 9912 b23d 7430 273d
00000120: 9c00 b93d 39c0 de3d e9d0 a73c a90f 513d
00000130: 677e eb3c 75bc 75bc 5182 fa3c 4da3 613c
00000140: 58d4 583b 74ab a0bd ceb6 82bd 7c90 0e3d
00000150: b199 bc3d 1edd 913d b3e4 ac3d 2ab3 1f3e
00000160: 243a 0f3e 03ef 163b 6862 bc3d ca69 8ebd
00000170: 14da 0cbe a849 1dbd cb20 a6bd 86c9 cb3d
00000180: 2405 bcbd 48ad e0bb aa7b 7abd e162 8dbc
00000190: 2db6 97bd cb9d 843d d443 4f3d 8202 95bd
000001a0: c0ea 10bd 7a77 6b3b 31ef 5dbd ed3d b23d
000001b0: b8b4 81bd 8423 b4bd 5eaf e1bc 0bb6 c03d
000001c0: ab5b 0fbd c073 d9bc 09a0 b23d b27d d73c
000001d0: 9afb b1bd d903 b93d e5d6 b23b 6ecb a13c
000001e0: f3ad 563d 167a 07bd 0c6f 463d 5bfb 7abd
000001f0: 395a dabb 3a78 713d 04b7 8bbd f748 19bd
00000200: 4895 78bc 12c1 983c b462 80bd e7de 6f3d
00000210: 39da 1bbd 1740 fbba d884 5d3c 8ef3 afbd
00000220: e6b2 95bd 2717 2bbd e428 8abd 4917 933d
00000230: 1dfd 49bd df6f 443d 283d 11bc bc99 a63d
00000240: bdec f23c 921b b13d ae75 b53d 3948 063e
00000250: e543 953c abbb 15bd 0ef8 ee3d ca51 23bd
00000260: 42e2 e03d 54df 203c 2173 c7bc 9691 debd
00000270: f83a dabb f41e 7e3c 46cc a5bd 2e77 a23d
00000280: b5c1 943d 2e2c 47bd 954c e0bd 23bb 01bd
00000290: b72b f9bd 26b6 85bd 757d cebc e422 91bc
000002a0: d26f aa3c 496e 26bd 74b2 e6bd 389f 5b3d
000002b0: 23a5 adbd 4f71 4abd 50db b93c 8730 bebd
000002c0: ca50 acbd 4a87 a4bc 1a0a 8b3d 8999 71bd
000002d0: 5eef 00be 8123 94bb f77b 8ebd bc4f 7bbc
000002e0: c180 84bd 66c1 81b9 2431 d53d b1ab 103e
000002f0: 10b0 55bd 7d79 b13d 7097 02be 6782 f8bd
00000300: bd86 3f3d b137 d93d d8ab b03d 4b59 913c
00000310: 7a6b bf3c d684 44bd 321c 0b3e c6d0 8abd
00000320: 81da 763c e03d d33d 8aae 033e 3e61 efbb
00000330: 9186 89bc b269 923d e2a4 863c 45a1 9d3d
00000340: 4034 17be ca34 df3d 116c d8bd 11d6 803d
00000350: 0c29 3cbd 45b2 d5bd e379 ecbd dd0b 083e
00000360: ebb6 703d 66a8 0b3d e1d9 83bc 79c1 1e3d
00000370: 2766 8f3d 3c2f 963b 592b 853c 0971 913d
00000380: f945 c5bd 54ce 163e 6f86 42bc ef1b f03c
00000390: a7c3 063e a5c4 97bc 1ab8 a1bd 59b3 eabc
000003a0: 5b66 883d 3ee5 dcbd 67e1 4bbd ca44 84bc
000003b0: 628f ecbc cba1 bebb a981 dbbd aae8 0ebe
000003c0: af76 b23d 5ae6 a33d 2098 15be 2b7c 0ebe
000003d0: 0033 ed3d 5fc0 e1bd faa1 3fbe 7570 3fbd
000003e0: 92c6 2d3d 4a67 d33c 3d0e f7bd ffb2 8f3d
000003f0: 0bec 0fbc 0674 773d 1527 c5bd 1049 493d
0.096362695 0.08579901 -0.018973026 0.08580157 -0.070940554 -0.0013114326 0.012992067 -0.025408696
0.04706804 0.087846614 0.08064259 0.036809515 -0.07191556 -0.09578426 -0.102953516 0.090759225
-0.13429941 -0.075777546 -0.09688687 -0.08261965 0.02505226 -0.05116229 0.0688686 0.10063888
-0.034520864 0.09850881 0.12305255 -0.08971621 -0.027483292 -0.08350476 0.066667914 0.07834509
-0.12204863 -0.077083476 0.14797308 -0.003933634 0.064667605 0.04364077 0.11927159 -0.09867541
0.10262964 -0.0482697 0.0690583 -0.005371038 -0.03704075 0.06145835 0.0777143 0.095269345
-0.022128697 -0.07560537 -0.12965788 0.042396132 -0.11758042 0.08617427 0.08794346 0.047343776
-0.0043319804 0.10760403 -0.10542195 -0.06987293 0.12909994 0.07232057 -0.07933245 0.0037807012
0.115371026 -0.0047856243 0.12282255 0.06980007 -0.047054153 -0.05489589 0.086949535 0.040817693
0.09033319 0.10876507 0.020485358 0.051040325 0.028746797 -0.014998545 0.030579718 0.013771844
0.003308555 -0.07845202 -0.063825235 0.03480576 0.09209002 0.07122253 0.084420584 0.1559569
0.13987023 0.0023030646 0.09198457 -0.069537714 -0.13755065 -0.038400322 -0.081117235 0.09950547
-0.09180668 -0.0068565942 -0.06115309 -0.017259063 -0.07407794 0.06475409 0.050601795 -0.07275869
-0.035380125 0.0035929368 -0.05418319 0.08703218 -0.063332975 -0.087958366 -0.027549442 0.09409722
-0.03499953 -0.026544452 0.087219305 0.026305053 -0.08690567 0.09033937 0.0054577463 0.019750323
0.052411985 -0.033075415 0.048445746 -0.061274868 -0.0066635874 0.058952548 -0.06822017 -0.0374231
-0.01517231 0.01864675 -0.06268826 0.058562186 -0.03804991 -0.001916888 0.013520442 -0.08591376
-0.07309513 -0.041770127 -0.067460805 0.07182176 -0.049313653 0.04795825 -0.008864678 0.08134791
0.029653901 0.08647837 0.08860336 0.13113488 0.018220851 -0.036555927 0.116684064 -0.039872922
0.10980655 0.009818871 -0.02434689 -0.10867612 -0.0066598617 0.0155103095 -0.08095603 0.07932888
0.07263509 -0.048626117 -0.10952107 -0.031672608 -0.12166541 -0.06528883 -0.025206307 -0.017716832
0.020805273 -0.04063252 -0.11264506 0.05361864 -0.08478763 -0.049424466 0.022687584 -0.092865996
-0.08413847 -0.020084042 0.06789036 -0.058984313 -0.12591311 -0.004520834 -0.06957238 -0.015338834
-0.0646987 -0.0002474889 0.104097635 0.14127995 -0.05216986 0.0866575 -0.12753081 -0.12134247
0.046759356 0.106063254 0.086265266 0.017742774 0.023366679 -0.047978245 0.13584974 -0.067781016
0.015066744 0.10314536 0.1285955 -0.0073052933 -0.0167878 0.07149066 0.016436044 0.07696775
-0.14766026 0.108987406 -0.10567487 0.0629083 -0.045937583 -0.10434393 -0.115466855 0.13285775
0.058768194 0.034096144 -0.016095104 0.03875873 0.07001906 0.0045832675 0.016256021 0.07101638
-0.09632487 0.14727145 -0.011872872 0.029310195 0.13160573 -0.018526385 -0.07896443 -0.028649973
0.06660148 -0.10785912 -0.049775507 -0.016146082 -0.028876964 -0.005817627 -0.1071809 -0.13955942
0.08714043 0.080029204 -0.14608812 -0.13914554 0.11581993 -0.1102302 -0.18714133 -0.046738107
0.0424257 0.025806088 -0.120632626 0.07016563 -0.008784304 0.060413383 -0.09626595 0.049141943

encoder.lstm.bias_ih_l0 f4 [256]
00000000: 2d70 b13d 69e4 9f3d da4f 8e3d 89a0 15bd
00000010: 6670 e9bc 4d8d 083e 86ec eabd 30a2 0d3d
00000020: 377f aa3b 74a3 abbd cdcb 9d3d eb20 773d
00000030: 39db febb 0d2d e53d 8cb6 083e db9c b83c
00000040: 6cfc 083e 2070 263d bf48 8d3c 1676 5d3b
00000050: d4fb 863d ed14 2bbd 2aff bdbd 56dd b53c
00000060: e26c 233d c61b c33d d975 be3d 4ad8 64bd
00000070: 336c e9bc 64a6 c83c c278 8fbd 02e0 18bd
00000080: 8807 153d ebbc a9bd f5b7 eb3d accb 313d
00000090: 4d28 1bbd b4e4 a53d 983c a1bd 65c5 083e
000000a0: 47a2 16be 1b61 a33d 24c8 cb3d 6e0e 773c
000000b0: 244b 52bd 57e2 9abd 85cf 52bd 215b 063e
000000c0: f5e4 c23d 7169 013c 5596 48bd ef51 c73d
000000d0: 2ed9 8cbd 5d57 d93d ebef c03d 979f 49bd
000000e0: 68e8 b3bd 2386 64bd 55c4 63bd 6b41 933d
000000f0: b603 c03d c616 523d 3502 c2bb d318 ef3d
00000100: 049a 053e 982a 113d 7b9c 4ebd 4f13 2b3d
00000110: 823a 87bd 87bc d5bc 00a0 32bd 15e3 543d
00000120: 65e8 89bd cea0 b4bb 8100 1dbc 5d35 f23d
00000130: 4c76 b43a 8aff 81bd 03e0 ae3c 8b51 143e
00000140: 5e30 26bd 16c6 7d3d 0491 403d 3847 dd3d
00000150: 847a 9d3d ae8a 843d 8b54 0c3e 34cc 0f3e
00000160: 442f e13d 2c72 e53d 03d3 16bd 59d3 80bd
00000170: 503f 49bc 5bea 90bb e3bb b93d 7d12 13bd
00000180: d280 71bd 5c70 a53d bfa9 143e bda7 08bd
00000190: d908 f53d 628d 553d 6c4f b93d 0ac0 283e
000001a0: 0f73 83bd e3d3 f7bd ebdf 0f3c f489 003d
000001b0: 8382 103e ab11 0cbd a39e 5bbc 6344 acbc
000001c0: de2f 8b3d c82f 73bb d5e8 3a3c 9697 ab3c
000001d0: d425 cdbd db7b 573d e279 d5bc 8c21 4ebd
000001e0: b2ff 0d3d 009d b93d 75ce 813d 0680 483d
000001f0: 4073 533d 5ca2 043e 19d7 033e 28c2 7e3d
00000200: 0b3e ad3d c061 df3c 5999 b03d 75fd 3cbd
00000210: a176 4f3d 444b f7bd dc83 febc 0893 f43b
00000220: 927d 87bd a4c0 3ebd c71e d03d ed5f 72bd
00000230: 3c63 b5bd 2844 b9bd 73e4 053d 9d68 c4bd
00000240: 0ccf db3c 562e 65bd 33c4 973d f0fb 763d
00000250: 92ef c9bd 09e7 b83d 0ea4 893c 904f d3bd
00000260: 8d8f c43d 1ab1 eebc f0c5 493d 619d 333c
00000270: 3f12 c93c ddd0 f93d cc5f c73d 125e eb3d
00000280: bc0d b1bd 6152 dfbd 7640 aa3c 09bc 37bb
00000290: 5775 c2bd b7e3 cbbd 5a3a 993d aa3c d83d
000002a0: 53cd 2abd 2835 e1bd 3ba7 ee3d 5626 973d
000002b0: 86a2 cf3b 8396 bb3c 8c7d a2bd aa00 72bb
000002c0: 8ecf 97bd 1bf7 86bc ae7a 893d 32b0 b6bd
000002d0: b082 7abb 1fcc df3c 5d38 243d eb80 e03d
000002e0: 6180 2bbc 64df 263c 64e2 4ebd 2ebe aabc
000002f0: 43d5 503d 98e7 df3d bdfe e0bd 750e 84bd
00000300: 787e 93bd 1578 273c b05e bbbc 1a39 ee3d
00000310: 4f18 9a3c c1cc 4cbd f4a0 62bd f917 e2bd
00000320: c80f e23d 33eb 183e 991f d6bc 1070 f6bc
00000330: bfba deb7 a69f a7bd 4777 50bd 70e4 443d
00000340: 64c5 b43d 9bb8 053d e0ea d0bd 52c1 8a3c
00000350: ad6e 353c 30b7 25bd 8551 80bc 4984 863d
00000360: b46c fcbc 7ff9 f93c 02ae 91bd e7de 49bd
00000370: 6670 023e 4df6 143d 68af d83d b263 e73d
00000380: 57fb a73d 233d 3cbc 22a5 63bc 493a 9d3d
00000390: 2504 fd3d 4e2a b4bd b828 663d 5dfb 5c3d
000003a0: 5e75 8e3c 1788 f23b bae2 f73c 2bb9 f33c
000003b0: 0ef2 143e bbd1 f73d 6674 df3d ca95 a7bd
000003c0: 929a 77bd 8eb6 c13d 4713 b43d 4856 9a3d
000003d0: 2653 05bc 1d56 383d d560 333d b43a 19bd
000003e0: 4d98 edbd 5f29 c43d 5095 0f3e a5a5 43bc
000003f0: fc35 c5bd cad8 76bc 1959 d13a 3614 debd
0.08663974 0.07807238 0.06948824 -0.03653005 -0.028495979 0.13335152 -0.114708945 0.034578502
0.0052031535 -0.083807856 0.077048875 0.060334127 -0.007777598 0.111902334 0.13350886 0.022535732
0.13377541 0.040634274 0.017246602 0.0033792309 0.06591001 -0.041768003 -0.09277184 0.022200268
0.03989876 0.09526782 0.092998214 -0.05587033 -0.028493976 0.024493404 -0.070054546 -0.037323005
0.036384135 -0.08287986 0.115096964 0.043407127 -0.03788023 0.08100262 -0.078728855 0.1335655
-0.14710341 0.07977506 0.09950283 0.015079124 -0.05134119 -0.07562702 -0.051467437 0.131207
0.09516326 0.007898674 -0.048971493 0.097324245 -0.06877361 0.10612366 0.09420761 -0.049224462
-0.08784562 -0.055791985 -0.05560716 0.07190212 0.09375708 0.05129125 -0.0059206733 0.11674657
0.13047034 0.03544101 -0.0504422 0.04176646 -0.06602956 -0.026090873 -0.04360962 0.051974375
-0.06733779 -0.0055123335 -0.00958264 0.118265845 0.0013768165 -0.06347568 0.021347051 0.14484231
-0.04057347 0.061956488 0.047013298 0.108045995 0.076893836 0.064717636 0.13704126 0.14042741
0.10995343 0.11203417 -0.03682233 -0.06290311 -0.012283161 -0.0044224686 0.0906904 -0.035906304
-0.058960743 0.080780715 0.14517878 -0.033363093 0.11964578 0.052136786 0.09048352 0.16479507
-0.0641843 -0.12100961 0.008781414 0.031381562 0.14112286 -0.034196537 -0.013404521 -0.021028703
0.06796239 -0.0037107337 0.011408051 0.020946305 -0.10016981 0.052608352 -0.026059095 -0.05032496
0.03466768 0.090631485 0.06338207 0.048950218 0.051623583 0.1295256 0.12875022 0.06219688
0.084590994 0.02726829 0.08622999 -0.046140153 0.050650243 -0.12074903 -0.031068735 0.0074638166
-0.066157475 -0.046570435 0.1016212 -0.059173513 -0.08856818 -0.09046203 0.03268857 -0.09590266
0.026832126 -0.055952393 0.07410469 0.06029886 -0.098601475 0.090284415 0.01680186 -0.1031791
0.09597693 -0.029137183 0.049261034 0.010962815 0.024544833 0.12198041 0.09735069 0.11492552
-0.08645198 -0.109043844 0.02078269 -0.0028035662 -0.09495037 -0.099555425 0.07481833 0.10558446
-0.04169972 -0.10996467 0.116529904 0.07380359 0.006336513 0.022898918 -0.079341024 -0.0036926665
-0.07412635 -0.016475251 0.067128524 -0.08920325 -0.0038224868 0.027319012 0.040092815 0.10962089
-0.01046762 0.010185096 -0.05050887 -0.020842638 0.050984632 0.10932845 -0.109860875 -0.0644807
-0.072018564 0.010221501 -0.022872299 0.11631985 0.01881042 -0.049999956 -0.055329278 -0.11039729
0.11038166 0.14933471 -0.026138114 -0.030082732 -2.6551423e-05 -0.081847474 -0.050895 0.048069417
0.08826712 0.032646757 -0.10201049 0.016937885 0.01107375 -0.040457904 -0.015663872 0.065682
-0.030813552 0.030514477 -0.071132675 -0.049284842 0.12738189 0.036367703 0.10580331 0.11298312
0.08202236 -0.0114891855 -0.013894351 0.07677133 0.12354306 -0.087971315 0.056191176 0.053950656
0.01738995 0.007401477 0.030259479 0.02975138 0.14545462 0.1210055 0.10910873 -0.08182867
-0.060450144 0.09458648 0.08792739 0.07535988 -0.0081375 0.045004 0.043793518 -0.0374095
-0.11601315 0.095782034 0.14021802 -0.011941348 -0.09629437 -0.015066335 0.0015971988 -0.10843699

encoder.lstm.bias_hh_l0 f4 [256]
00000000: 21a7 91bc 6c86 f93d 0bec ffbd 6a70 5ebd
00000010: 81d7 2ebd 64ae 53bd 0e97 f4bd 698c c73c
00000020: c9dc ce3d e912 0fbc bdab e2bd 94aa 803d
00000030: bfda f63d 4da2 c2bd 83c7 5abd 79d5 a23c
00000040: 68fa b5bb 248c a23d 9626 a7bc c7ff b73d
00000050: 3f08 3b3d f90f c2bd 1682 8f3d 70e9 053e
00000060: 294f 97bd f48c fb3d f70e e33d 8d7b da3c
00000070: 0933 cfbd b438 893d d14a 79bd 1558 0aba
00000080: 5230 d93d 9586 b8bd 0c2a 20bd 6179 5bbc
00000090: 9549 ddbd 54b4 b83d 1283 ba3d 9258 e83c
000000a0: 4634 3ebd 95b3 8fbd f25e ef3d 1888 fe3c
000000b0: 2451 08bd bf5f a03d 988d 053e 1dc0 013e
000000c0: 1225 a43d 8a91 e73d 4dc6 25bc 8a5b 4ebd
000000d0: cb94 043e ea4d 653d d529 c1bd e94a f6bd
000000e0: ebf6 84bd 54f5 c73d fcff b43d 1909 9abd
000000f0: 6cc0 a73c 2714 ab3d 080a 183e 514c a13d
00000100: 688c e8bb e462 6d3d 8c94 f33d 7d7c 3dbd
00000110: e530 66bd 01d1 da3c 616a d03d 6226 91bd
00000120: 7d6c 99bd f7b0 58bc 7769 de3d 8b79 9f3c
00000130: b43a 9e3d 8697 423c f673 f63b 4c69 e6bc
00000140: 95e9 a8bd f65a 1cbc 931b d8bd 82c7 c83d
00000150: cae8 39bd 6ff1 b9bd 0ebf c1bd 3022 e2bc
00000160: 917d aa3d b59c 123e 8134 823b 62f8 313d
00000170: 6524 a53d 2e4c c13b 979f e23d a146 dd3d
00000180: 0889 073d c5d7 b73d b821 e23d eeaf 393c
00000190: d802 a33d 845d 913d 5aec f2bd 165e c63d
000001a0: c680 e5bd 69fd cfbd 0ac3 4abc d5db bb3d
000001b0: d323 5bbc 76e9 e53d 744c 0bbc d4c2 67bd
000001c0: 29d5 bebd 6d42 bebd 7acb dfbc 979d e53d
000001d0: 62db a8bd f9fd f43d 7948 95bd 75c1 e03d
000001e0: 402f bdbd 9f00 f3bd c134 5f3d 3f29 183d
000001f0: 4e91 d03d 2455 c4bd b1e4 5b3d 283d a2bc
00000200: 2111 843d ab5f 543d a208 613c 8928 a9bd
00000210: 67b2 50bd 0317 14bd e141 e13c 7325 9abd
00000220: 40e2 94bc a658 763d ad10 bc3d 34e3 fbbd
00000230: fec5 a33d 8cd6 fbbd 5f76 a2bc 7867 703d
00000240: cf7b 703d 0489 843d 419a b63d 2e7b aa3d
00000250: b74a 80bb a90c cc3d b5fe 0b3c 3eee cf3d
00000260: 4c76 8fbd 4404 3e3d 9100 fabd 0c3c 0fbd
00000270: 1210 1a3d 2fb5 763d d235 d13d 6c33 06be
00000280: a8a6 003e 0dd0 13bd 8833 76bd bceb 853c
00000290: 9d8c c4bd 6f3d 703c 9c77 8f3d 54dd 88bd
000002a0: 8aef c0bc d147 57bd ee92 163c 89c2 39bd
000002b0: ceb5 7cbd 0cd7 8ebd d8f7 d7bd ef57 2f3d
000002c0: 1403 1e3d abb4 c139 d436 98bd 9d7f 9d3d
000002d0: 3ee7 77bc 1bd0 e9bd d989 213d a5f3 87bc
000002e0: 713d c8bd ca24 f2bd 7010 20bd c49b 0f3a
000002f0: 2ac4 f2bd f47c 943d 4947 8b3d 0da2 abbd
00000300: a652 953d c8b0 35bd dbdf 10bd bcb2 d23c
00000310: 9d43 013d 1107 50bd af77 79bd f45a bbbc
00000320: f90b 0c3e 9c3d b3bd 329e debd a2e8 8f3d
00000330: 75a2 9e3d 0a1c b43d c810 003e eb37 edbc
00000340: 650d 0d3e 9ad9 ddbb 324e 5f3d b4fc bc3d
00000350: c9ad 08be 68ab 28bd dac3 98bb b7c3 9c3c
00000360: 2d11 abbd 4ca7 ccbd 14ab e23d 8e36 8a3b
00000370: b035 85bd dc17 943d 11e2 52bd d941 633d
00000380: 191c b4bd a930 593d df74 093e 4f68 b7bd
00000390: a209 85bd e503 7c3d 42fd 473d dea8 123e
000003a0: bc7a 3ebd b077 cbbd 504f 9e3d 5b05 ea3c
000003b0: c73e 60bb 9ef1 0ebc 9acc b83d ede3 113e
000003c0: e8ec 053e fbbe 373d e45e 963c 8878 d73d
000003d0: a0a4 573d c414 bdbd fcc1 2dbb 9fa8 b0bd
000003e0: 5fbc 0dbe 90ac 91bd c1e2 193d a66b 4a3d
000003f0: 0915 543c affb bdbd 7a31 1a3d f1f1 1d3b
-0.017779889 0.12183842 -0.124961935 -0.054306425 -0.04268599 -0.051679984 -0.11942874 0.024358945
0.10100705 -0.008732536 -0.11067913 0.06282535 0.12053441 -0.09503613 -0.053412925 0.019877182
-0.0055535324 0.07936886 -0.020404141 0.089843325 0.04566216 -0.09475703 0.07007234 0.1307733
-0.073881455 0.12282744 0.11086839 0.026670242 -0.10117156 0.067002684 -0.060862366 -0.00052774075
0.106049195 -0.090100445 -0.0391026 -0.013395638 -0.1080505 0.0901877 0.09107031 0.028362546
-0.04643657 -0.070166744 0.11688031 0.031070754 -0.033280507 0.07830762 0.13042295 0.12670942
0.08014883 0.11307056 -0.010118079 -0.050380267 0.12947385 0.055982508 -0.09431807 -0.12026007
-0.06492408 0.097635895 0.08837888 -0.075212665 0.020477496 0.08353453 0.14847577 0.07875884
-0.007096816 0.057955638 0.118935674 -0.0462613 -0.056198973 0.026710989 0.1017654 -0.07087399
-0.074913956 -0.013225785 0.108599596 0.019467136 0.077260405 0.011876946 0.007521148 -0.028126381
-0.08247677 -0.009543171 -0.10552134 0.09803678 -0.04538802 -0.09079253 -0.09460269 -0.027604192
0.08324731 0.14317591 0.003973544 0.043449767 0.08063582 0.005898974 0.110655956 0.10804487
0.033089668 0.08976702 0.110415876 0.011333449 0.07959527 0.07097915 -0.11861487 0.09685914
-0.11206202 -0.10155756 -0.0123756025 0.09172789 -0.01337524 0.1122617 -0.008502115 -0.056582287
-0.09318001 -0.092900135 -0.027318705 0.112116985 -0.08244969 0.11962504 -0.07289214 0.10974399
-0.09237528 -0.11865353 0.05449367 0.03714871 0.10183965 -0.09586552 0.053684894 -0.019804552
0.064485796 0.05184905 0.013734968 -0.082596846 -0.050951388 -0.03615476 0.027497234 -0.07526674
-0.01817429 0.060143135 0.09182868 -0.12299195 0.079967484 -0.12296781 -0.019831834 0.058692425
0.058711823 0.06471446 0.0891614 0.08324276 -0.0039151567 0.09963352 0.008544614 0.10152863
-0.07004985 0.046390787 -0.12207139 -0.034969375 0.037612982 0.060231384 0.102153435 -0.13105553
0.12563574 -0.036087085 -0.060107738 0.016347758 -0.09597132 0.014663084 0.070052356 -0.0668284
-0.023551721 -0.052558724 0.009190304 -0.04535154 -0.06169682 -0.06974611 -0.10545319 0.04280847
0.038577154 0.00036946437 -0.07432333 0.07690356 -0.015130816 -0.11416646 0.039438102 -0.016595671
-0.09777344 -0.11823423 -0.039078176 0.0005478228 -0.118538216 0.072503954 0.06800706 -0.08380518
0.072911546 -0.044358045 -0.035369735 0.025719993 0.03155862 -0.05078799 -0.060905155 -0.022870518
0.13676442 -0.087519854 -0.10870017 0.07026793 0.0774583 0.087944105 0.12506402 -0.028957328
0.13774641 -0.006770325 0.054517932 0.09227887 -0.13347544 -0.04117909 -0.004662019 0.019136293
-0.083528854 -0.09992847 0.11067787 0.004217929 -0.06504381 0.07231113 -0.051485125 0.05548272
-0.08794422 0.05302492 0.13423489 -0.08955442 -0.06495978 0.06152715 0.04882551 0.1432223
-0.046503767 -0.09934938 0.077299714 0.028567007 -0.0034217106 -0.008724598 0.090234 0.14247103
0.13078654 0.044859868 0.018355794 0.105210364 0.052647233 -0.09232476 -0.0026513329 -0.08625912
-0.13841389 -0.07112992 0.037569765 0.049419068 0.012944468 -0.092765205 0.03764484 0.0024100507

encoder.linear.weight f4 [32, 64]
00000000: 89a1 f33d 5ee9 753d 38b7 cd3d a444 f03d
00000010: 3d15 133e eabe f73c b20b f83a 3f6a 013e
00000020: 569b 7b3d e740 34bd 7976 c2bd 40f2 08bd
00000030: cfdc a13d ccce 973d e7d7 0dbe d220 98bd
00000040: cf9d 9e3d adb5 8a3c d96b ab3c a87a 8bbd
00000050: ff70 6dbd cda1 8abc 0773 743b 2b8c c83d
00000060: 9196 3cbd ecae b0bc b8ea 1d3e 45e3 cbbd
00000070: af4f 903d 2f81 9cbc 4b4a bf3d 416d adbd
00000080: 034a e7bd fd44 d03c 9b4d 433c d52f fdbd
00000090: 29a8 453c c673 69bd f4ad bd3b 165b 18bc
000000a0: 2a62 ec3d db33 3dbc 8cfd d4bc a996 dfbc
000000b0: 50cd 863c 1de6 fa3d 1fe8 11be 8f14 3f3d
000000c0: 0f0b ec3d 5f8f 583a 40d5 b7bd 1004 06be
000000d0: d591 c0bd c6b4 15be 955f 0c3d 2fc5 073d
000000e0: 0624 003e c963 203c 722c bebd 4c8e 583c
000000f0: 7dcf c33d 673a 883d b192 4bbd 6bbe dc3d
00000100: 0f6f b33d 7fd9 03be f5b6 e9bb 49fa 303c
00000110: cb41 d23d 2d2c 23be a218 b1bd 8fc0 6fbd
00000120: ee44 05bd f69a 63bc 7e9f af3d cfbd 073d
00000130: f0cb 053e 418b 02be e244 e43d 12c9 6f3d
00000140: ce8a e43c b686 96bb fcdb dd3b 1a02 93bd
00000150: bbb8 99bd 4d57 97bd 25d0 fe3d cf56 ac3d
00000160: c8a0 cfbd 2cf8 a6bd ddd9 58bd 1386 0d3e
00000170: a884 183e d6c0 d03d fb93 b43c 32d5 083d
00000180: d68f 0a3d 28ff a33d 73f2 e1bd 1c0e 61bd
00000190: dfab 8dbd de2e f63d ce9f ed3d 492b d23c
000001a0: 07d0 88bb d97b a0bb 8121 cabd 8d3f 9bbb
000001b0: a67e 003e 0d4e 08be 33c6 933c 0790 903d
000001c0: ceb2 533d ae75 013e 180c 7b39 0126 563c
000001d0: f3c6 cd3c e643 b4bd 2971 d9bb 8397 163d
000001e0: b72e 983d ab63 c5bb 6761 e6bc 9ddf 8cbd
000001f0: f9e9 14be aacf 073e b7d2 11be 1c5c b83d
00000200: 2579 76bd 6eaf 05be b073 d03c 35e2 fa3d
00000210: d147 69bc a929 583d 97db 84bd a334 b7bd
00000220: 4a83 f0bd b30f 94bd d2d2 8ebd 9a97 e53d
00000230: 195e c73d 9e59 b23d c985 1fbd 0623 3d3d
00000240: c2e1 713d d93e 11be 3c8b a1bc ab5c 3e3d
00000250: d950 983d 23a7 ab3d 4b3b bcbd 6f9b 76bd
00000260: c88f 963d c9a7 d1bc 52ca abbd 76f5 e6bc
00000270: 2933 933d 1ae4 1b3e 4376 933d a8ed cdbd
00000280: 6a30 c33d 53fc 313d 5d2b ea3b f4a5 7abd
00000290: b1fa b5bc 6a3b 393d 2071 f5bd 6bb9 b0bc
000002a0: ce38 78bb c6c5 963c 9fd6 d0bd 57a1 e6bd
000002b0: d954 173e 59f7 fe3d 5bcc 143e 28b3 6d3d
000002c0: 5439 8d3d 1aef a9bd 6094 1abc 94e2 b03b
000002d0: b96e fcbc 3238 103d cdb8 f13d 6a22 d33d
000002e0: e044 66bd 7a73 593d b34a 643d a3ed 7b3d
000002f0: 68db a6bd 8bff b03d b0d0 563c 7885 11be
00000300: 6d47 61bd 42ab 1c3d e9b7 a8bd 4010 4a3d
00000310: fbf1 79bc ea64 b03d 55f6 6bbb 409e 21bd
00000320: 479b 9bbd e95b d13b 1cca 82bd fbea 90bd
00000330: e2cb e2bd 0f14 ef3d 1e8b 85bd 71cc cabd
00000340: bf13 99bd 13f3 b4bd ba89 183d e712 cbbd
00000350: c3c6 b1bd 35ac e33d e329 e23c b3b1 02bd
00000360: f171 2c3d 2d86 4ebd 3268 2a3d 1176 8c3d
00000370: 2be0 603d 8656 8ebd 9dd1 ebbd 6345 0abd
00000380: f894 b93d c496 373d 19bc 513d 154c 0dbe
00000390: 61c6 6a3d 754d 59bd e106 b5bd 67c0 ccbc
000003a0: a23d 8bbd af27 2dbd 6f5a 41bd 1584 f93a
000003b0: b603 a53d 14a4 003e 68e0 0dbe 6641 bc3c
000003c0: 4b06 14bd 5e4e d73c 915a 08be 5633 f7bd
000003d0: 9667 eabd 0875 bcbd acfd 98bd 82cf f7bb
000003e0: 9724 083e be4e 8bbd 0dd9 8c3c 3ae7 d53d
000003f0: 7dd8 a03b 028c f7bd 24b0 143e f9bd a33b
0.11896045 0.06003701 0.10044712 0.11731842 0.1436357 0.030242402 0.0018924384 0.12638186
0.061427437 -0.04400721 -0.09495253 -0.033434153 0.07903444 0.0741249 -0.13851891 -0.07428135
0.07744943 0.016932333 0.02092545 -0.06810504 -0.05796909 -0.016922856 0.0037300007 0.0979236
-0.04604203 -0.021567784 0.1542157 -0.099554576 0.070464484 -0.019104568 0.09340342 -0.08468104
-0.112934135 0.025423521 0.011920358 -0.12362639 0.012064018 -0.056995176 0.005788559 -0.00929906
0.11542161 -0.011548008 -0.025999807 -0.02729352 0.016455323 0.12250922 -0.14248703 0.046650466
0.11525547 0.000826111 -0.08976221 -0.13087487 -0.09402815 -0.14619741 0.03427084 0.033147033
0.12513742 0.009789416 -0.09285821 0.01321752 0.095610596 0.06651764 -0.049700443 0.10778507
0.08761417 -0.12875937 -0.007132406 0.01080186 0.10266455 -0.1593482 -0.086472765 -0.058533248
-0.03253644 -0.013891926 0.085753426 0.03314 0.13066077 -0.12748434 0.11145951 0.058541365
0.027898218 -0.0045936955 0.006770609 -0.07178135 -0.07505938 -0.07389698 0.12442044 0.08414995
-0.101380885 -0.08152804 -0.052942146 0.13820677 0.14894354 0.101930305 0.022043219 0.033406444
0.03382858 0.080076516 -0.11032572 -0.054945096 -0.069175474 0.12020658 0.11602746 0.025655406
-0.0041751894 -0.0048975763 -0.098696716 -0.0047378005 0.12548313 -0.13311024 0.018038845 0.07058721
0.051684193 0.12642547 0.0002394173 0.013070584 0.02511928 -0.08802013 -0.006635804 0.036765587
0.07430785 -0.0060238442 -0.028122617 -0.06878588 -0.14542378 0.13262811 -0.14240538 0.090019435
-0.060174126 -0.13055202 0.02544579 0.12250177 -0.014238314 0.052774105 -0.06487196 -0.089455865
-0.117437914 -0.07229557 -0.069738045 0.11210556 0.097347446 0.08708499 -0.038945947 0.04617598
0.05905319 -0.1418413 -0.019719712 0.046475094 0.074372955 0.08381488 -0.09190997 -0.060206827
0.07351643 -0.025592702 -0.08388199 -0.028193217 0.071874924 0.15223733 0.07200291 -0.10055095
0.095307186 0.043453526 0.0071462826 -0.06119342 -0.022214266 0.045222677 -0.119844675 -0.02157279
-0.0037875655 0.018404853 -0.10197186 -0.11261242 0.1477846 0.124495216 0.1453108 0.058032185
0.068957 -0.08297558 -0.009434789 0.005398104 -0.030814515 0.035209842 0.11802826 0.10309298
-0.056218028 0.053088643 0.0557353 0.061505925 -0.08147317 0.08642491 0.013111278 -0.1421107
-0.054999758 0.03824926 -0.08238203 0.049331903 -0.015255447 0.08612998 -0.003600498 -0.03945756
-0.07597976 0.0063891304 -0.063862056 -0.07076069 -0.11074044 0.11673748 -0.06520675 -0.09902275
-0.074744694 -0.08835425 0.03724072 -0.09915715 -0.08680489 0.1111683 0.027607864 -0.03190775
0.04210085 -0.05042093 0.041603275 0.06858457 0.054901283 -0.06950097 -0.1151459 -0.03375758
0.09061617 0.044821516 0.051204775 -0.13798554 0.057318095 -0.053052384 -0.08839203 -0.024994088
-0.06798865 -0.042274173 -0.047205385 0.0019036556 0.080573484 0.12562591 -0.13855135 0.022980403
-0.036138814 0.026282486 -0.13315798 -0.120703384 -0.11445539 -0.092020094 -0.07470259 -0.0075625787
0.13295208 -0.06802128 0.017193342 0.104444936 0.00490862 -0.12087251 0.14520317 0.0049970117

encoder.linear.bias f4 [32]
00000000: 4038 adbd 067d a7bd f73b 92bd 0bef b93d
00000010: 384e bc3d 4ced 473d 4bcd 77bd 29f8 bebd
00000020: a58d 8a3a 73ac b13d 3a24 b5bd 56c5 11bd
00000030: a2ae 08bd 8cac b93d 4cf5 cebb c086 523d
00000040: 1c17 95bb 8f2b 11bd d4e7 9a3d 1bdd ef3d
00000050: fd58 2d3d 1774 1b3b 60b5 21bd c503 8b3c
00000060: 529c 893d 1b6a ef3d 4cbc 73bc 303d dc3d
00000070: 5674 10bd 53e2 393d 8db0 06bc 4f24 6b3d
-0.084579945 -0.08178143 -0.07140344 0.09078797 0.091946065 0.04881029 -0.060498517 -0.093246765
0.0010570778 0.0867547 -0.088448 -0.035588585 -0.033369668 0.09066114 -0.0063158628 0.05139804
-0.004549874 -0.03544193 0.07563749 0.117120944 0.042321194 0.0023720318 -0.039479613 0.01696957
0.06719269 0.1169016 -0.014876436 0.10753858 -0.035267197 0.045381855 -0.008220804 0.057407673

decoder.linear.weight f4 [64, 32]
00000000: d1e6 903d 8bc4 6f3d 9db0 69bd 95da 19be
00000010: 318f 34be d55d ca3d dd93 f83d b83b d3bd
00000020: 766f 89bd e1d4 06be 16f9 b83d 98af 6cbb
00000030: 0bbe a53c bc45 043e b5fc febd 546d 69bd
00000040: 58b5 cf3d e574 f93d fc04 e03d c22f 3dbd
00000050: a640 923c 3f5d 1ebe efec 7fbd eb03 5abd
00000060: 63e5 c53d 7246 13be 2e29 eebd da2a af3c
00000070: 1cab c23d 9fa7 173e bd7b 24be bd43 9dbd
00000080: 22d4 823d 73ef 1fbd 03ce d6bd 5b7a 25be
00000090: 8f1e 57bc ac98 a6bd 5ba2 d3bd e4a9 143e
000000a0: fcb7 38be 5aca c0bd 7054 443e 2285 243e
000000b0: 5cdf 3c3e 8e98 1abe 3be9 153e 398a 063e
000000c0: c17d 343e e4ac 35be d7f9 3dbe c4c1 ecbd
000000d0: 8b4a 53be a5ee ac3d 334f aa3d aa33 60bd
000000e0: 4b21 16be 9512 d2bd a449 7ebc 8985 363e
000000f0: b3a2 853d 76d7 33be 911b f9bd 03c0 0a3e
00000100: 66e9 313e c4b2 a13d 678b ecbd 37d6 fb3c
00000110: 1af8 513d 91dd 8d3c fb02 723d 266e fd3d
00000120: 9915 80bd 08d2 1abe 7fb0 81bd 7727 423d
00000130: 9ccf 76bd d595 c2bd bfc4 f93d dfd6 853d
00000140: 8267 0dbe 371e 98bd 611b 00be 28f7 ec3d
00000150: c8a9 8abb 3f53 2b3e 0b11 0e3d 8ad2 cebd
00000160: 3abe 143e ab6d 3ebd f34b 093e f477 15be
00000170: afae 57bd 312f f33d 5b92 763c 3367 813d
00000180: a577 f63c 7a73 b8bc a242 2fbe f260 4a3d
00000190: 3ae0 e6bb b8a8 21be 4749 3abe d0a5 d53d
000001a0: ace0 0dbe e98f 9d3d 7859 6ebd 5f2f f53d
000001b0: 2b59 bdbd 1918 1bbd 8474 d33d bc6d c33c
000001c0: 6ddd 57bd 81e0 f4bc 9e31 ac3d d6e2 1b3d
000001d0: dca4 4cbe a704 c6bd 7acf 26bd f8d4 b0bd
000001e0: 03bd 243e 3983 be3c 0092 2bbe ecd2 443d
000001f0: 8dbe 073d 728f 8a3d b917 a63d aff7 37bd
00000200: b571 ab3c 6c66 883c 0c91 19be 27e2 2a3e
00000210: 5596 0b3e 18ff 8c3d fa13 a63b aeec be3c
00000220: 848c 003b 28ac a4bd dda0 afbc 9286 963d
00000230: 2026 96bc 2347 b73d 3597 ab3d 2eed fc3d
00000240: 4af8 4b3e f533 07bd c41f f5bd 0acb 7f3c
00000250: e1b5 29be 436d e13d af63 e63d 6134 67bd
00000260: 4c69 ddbd d28b fa3c aa47 dfbc e7bc 9a3d
00000270: 12e3 1b3e eb7d 12be 0f13 c6bd 813f 36be
00000280: 00ae 113e 8dad f0bd ee5e 2fbe 0a25 fb3d
00000290: 2794 0a3d bc37 123e b653 26bc 4980 1b3e
000002a0: 56fc 44be 0a79 423e ff92 be3d 2bf2 c73d
000002b0: 8fdd 953b 7429 fe3c 3e3b dfbd d369 00be
000002c0: 8a3e 6c3d a665 953d fcd7 33be 7d15 eabd
000002d0: 4e64 2dbe 9867 343e 4717 fe3a ecca f4bc
000002e0: 6d64 4f3d 413b d93d fa25 86bd 20d8 093d
000002f0: b847 13be ed67 043e c2eb d83d 8936 2abe
00000300: ecfd 4abd ad39 f53b 31a1 123e 0e6d 3b3e
00000310: b33c 683c 163a 653b 05eb e1bd ce80 353d
00000320: 7b3f 243e b140 e63d aa15 8a3c 0a3d 61be
00000330: 9daf b1bd 6261 bfbd 2045 333e 6257 a13d
00000340: c55d 13be 6444 8cbd 7f13 123c 4f08 47bd
00000350: 4962 153e 8da8 65bd 531f 363e eccb 103e
00000360: 1d9b bc3d 4ce2 ec3d dbbb ee3d 8f14 aabb
00000370: 561a 063e 1195 afbd 3138 3cbe 1925 21bd
00000380: 0e94 fbbd 3f77 10be 5108 fbbd b36c dabc
00000390: 2171 22be d75e 16be f837 b9bc 7465 0a3e
000003a0: 622f b5bd 541e 57bd 5101 08be 6a00 a3bd
000003b0: 98b8 fc3d 922f fabd 8778 1bbe d496 803d
000003c0: 6973 ccbc cf08 e6bb 03cc 043e 74c4 aa3c
000003d0: d7c8 03be ea6b 153d 8bab 263e 695e 783d
000003e0: ba53 c1bd a2e2 f73d 9130 97bd bf02 093e
000003f0: c960 89bd 56a7 463d 2b2c f1bd cb19 46be
0.07075275 0.058537047 -0.057053197 -0.15024789 -0.17632748 0.09881178 0.12137578 -0.10314125
-0.067107126 -0.13167144 0.09031884 -0.0036115404 0.020232221 0.12917227 -0.12450544 -0.05698903
0.101420105 0.12180499 0.10938451 -0.046188124 0.017853092 -0.15465258 -0.062481817 -0.053226393
0.09662893 -0.14382342 -0.11628948 0.021382738 0.09505293 0.14810036 -0.16062827 -0.07678936
0.063881174 -0.039046716 -0.10488512 -0.16159956 -0.013129844 -0.081345886 -0.10333701 0.14517933
-0.18038934 -0.094135955 0.19172835 0.16066411 0.1844458 -0.15097257 0.14639752 0.13138665
0.17626096 -0.17741734 -0.18552338 -0.11560395 -0.20633905 0.08443955 0.08315887 -0.05473677
-0.14661138 -0.102574505 -0.015520487 0.17824377 0.06525173 -0.1756266 -0.12163461 0.13549809
0.1737419 0.07895425 -0.115500264 0.030741794 0.051262 0.017317565 0.059084874 0.12374525
-0.062541194 -0.15119183 -0.06332492 0.047400918 -0.060256585 -0.095012344 0.121957295 0.06535124
-0.13809016 -0.07427638 -0.12510444 0.11570579 -0.0042316653 0.16730975 0.034684222 -0.10098751
0.1452569 -0.046491306 0.13407879 -0.1459654 -0.052656826 0.118742354 0.015049542 0.06318512
0.030086348 -0.022516001 -0.17115262 0.04940886 -0.007045773 -0.15787017 -0.18192016 0.10432017
-0.13855237 0.07693464 -0.058190793 0.11971926 -0.09245523 -0.03786478 0.10324958 0.023856036
-0.052701402 -0.029892208 0.08407901 0.038058124 -0.19984764 -0.09668856 -0.04072521 -0.086343706
0.16087727 0.023255931 -0.16754913 0.048052713 0.033140708 0.06765641 0.081099935 -0.044913944
0.020928243 0.016650401 -0.14996737 0.16687833 0.13631566 0.06884593 0.0050682994 0.023306217
0.0019615004 -0.08040649 -0.02143901 0.07349886 -0.018328726 0.08949115 0.0837845 0.12349926
0.19918934 -0.033008534 -0.119689494 0.015612373 -0.16573288 0.11007168 0.11249482 -0.056446437
-0.108110994 0.03058425 -0.027255852 0.075555615 0.15223339 -0.14305846 -0.09671604 -0.17797662
0.14226532 -0.11751852 -0.17126057 0.12262924 0.033832695 0.14279073 -0.010151794 0.15185656
-0.19236884 0.18991485 0.09305381 0.09762987 0.004573531 0.031025626 -0.108999714 -0.12540369
0.05767683 0.072947785 -0.1756286 -0.1142988 -0.16932794 0.17617643 0.0019385599 -0.029881917
0.050632883 0.10607005 -0.06550212 0.03365338 -0.14382827 0.1293027 0.10591842 -0.16622366
-0.049558565 0.007483682 0.14319302 0.1830332 0.014174628 0.003497725 -0.110311545 0.04431229
0.16039841 0.11242808 0.016856033 -0.21995941 -0.08676074 -0.09344746 0.17506838 0.07877995
-0.14391239 -0.06848982 0.008915781 -0.048591908 0.14588274 -0.056068946 0.17785387 0.1414029
0.09209273 0.115666 0.11656924 -0.005190439 0.13095984 -0.08573354 -0.1838081 -0.03934202
-0.122840986 -0.14107989 -0.122574456 -0.02666316 -0.15863468 -0.14684616 -0.022609696 0.13515264
-0.08846928 -0.052519158 -0.13281752 -0.07959063 0.12339896 -0.122161046 -0.15182696 0.06278768
-0.024957376 -0.007020093 0.1296845 0.02084563 -0.12869583 0.036479868 0.16276376 0.06063691
-0.09439798 0.12103774 -0.0738231 0.13379954 -0.067079134 0.048499428 -0.117760025 -0.19345777

decoder.linear.bias f4 [64]
00000000: b3ec 123e 995e 213e a664 6bbd 9ad4 8e3c
00000010: 4916 263c 1a30 503d cb13 5cbd 1ea8 de3d
00000020: d1ce 3e3d 136f bb3d 5e13 e43d 7dff 10be
00000030: bc2c 8dbd 1ca9 04be 0b1c ac3b eedd a9bd
00000040: d436 823d a9df c5bd 1f3b 5abc 28f7 163e
00000050: a5b6 273e 93d8 223e 300b 1cbd d45d 0ebe
00000060: c05e 7dbb 82f2 e53d f8b0 68bd 045d 7abd
00000070: 5c1d 1cbd 41a1 8abc 5e99 e4bd 0154 3dbc
00000080: 2b3d d2bd dd91 173e 2459 a93d a86b 9c3d
00000090: 869f 1b3e de79 c0bc bcf9 203e 3fa8 f43d
000000a0: 3ffc 223e a839 d4bd bfe9 19be e139 873d
000000b0: e40a aabd 02a4 9ebd 76a2 1ebe ea56 d2b9
000000c0: ba3c f23d 55e5 c73d d9aa 2ebe 1957 b03d
000000d0: 20d6 033d 99f9 303d 419b 24bd a4a2 19be
000000e0: 4a45 fb3d 9b5d 943d 087b febd cd5b e53d
000000f0: d259 cbbd 3520 b9bc 586a bebc 8465 4fbd
0.14348106 0.15758742 -0.057469033 0.01743536 0.010137149 0.050827123 -0.053729814 0.108719096
0.046583954 0.09152045 0.111365065 -0.14159961 -0.06893298 -0.12955135 0.0052523664 -0.08294283
0.06358114 -0.096618004 -0.01331976 0.1474272 0.16378267 0.15902929 -0.038096607 -0.1390298
-0.0038661212 0.11227895 -0.056809396 -0.061123863 -0.038113937 -0.016922595 -0.11162065 -0.011555673
-0.10265573 0.14801736 0.08268955 0.07637721 0.15197572 -0.02349561 0.15720266 0.11946153
0.15916537 -0.103625596 -0.15030573 0.066028364 -0.083028585 -0.07746126 -0.15491661 -0.00040119077
0.11827989 0.097605385 -0.1705736 0.086103626 0.032186627 0.043206785 -0.040187124 -0.15003449
0.12269075 0.07244416 -0.1242581 0.1119915 -0.09929241 -0.022598365 -0.023244068 -0.050633922

decoder.lstm.weight_ih_l0 f4 [256, 64]
00000000: 115a 913d b450 bf3d 2cb3 ce3d 133f 7dbd
00000010: 7200 07bd fea9 ecbd 58d8 e5bd 5e56 62bc
00000020: 0182 48bd ade7 a73d 9699 cdbd 688c c4bd
00000030: 7408 203a 5f84 ccbd 99d0 c33d 9a2c 89bd
00000040: a678 663d f4bd 383d 0fe6 593d e795 183d
00000050: 6de8 8d3c bb4e e43d 615a f33d badf cabd
00000060: af23 b6bd 0d5b c03d 544c 943d a36e 8b3c
00000070: 2d40 fd3d fb33 30bd a98d a0bb e374 223d
00000080: e047 c43d 68e2 a03d 8656 30bd 88a5 823c
00000090: ef34 22bd 8da4 bfbd 1362 c9bd 9760 973d
000000a0: 8ab7 02ba 7465 b4bd 53fa 61bc 51d3 033d
000000b0: e0c0 02be 76e3 afbd 3ff7 973d 5d2e ee3d
000000c0: b583 d5bd 4c97 f53d d815 dfbd fe63 80bd
000000d0: a484 e83d 9220 b73d afc9 1fbd d83d de3d
000000e0: fe56 c53d b855 0b3d 9fd7 be3d 6e23 c2bc
000000f0: f9e9 bb3d f8d0 bebd b887 a5bc ece2 4bbd
00000100: 5c83 063d 340e 823b f08a 07be c005 0abd
00000110: 1059 cabd e48e 1dbe 8576 be3d 213f 5ebd
00000120: e1e1 9fbd 6019 233d 7526 13be 9f75 dfbd
00000130: d291 8b3d b6b5 d63c 3f6b 35be 769a e03d
00000140: 1ae0 823d f1b2 013e eba7 6cbd 5b0d 46bc
00000150: 3139 01bd 0834 4f3d e9af 1a3e 91d1 03bd
00000160: 56b8 81bd 8f29 a6bd 25c8 ad3d 2d27 52bd
00000170: 851d 893a aae7 f0bc 4699 8cbd c917 0ebe
00000180: 8ef1 21bd 3d5f ccbd 58fd c7bd cee4 93bd
00000190: f758 3b3d 6b8c e4bc af40 4abd fbdb a33c
000001a0: 2b6f f43d ac13 90bd 1aac 6fbe 0905 ac3c
000001b0: e374 99bc 7bc5 193c 20ac 42bd 0071 933d
000001c0: b301 373d 9f64 2c3d cb4e 08be 8080 0f3c
000001d0: dd84 6b3d 2988 10bd 4412 933b 50e4 a6bc
000001e0: 0ddf a1bc 6dd2 953d e490 ae3c f306 44bb
000001f0: 017d 9d3b 484e 013c 076f 5dbd 0c52 84bd
00000200: 2b08 2d3c ee7f 89bd 0490 043e 776a df3d
00000210: 4b6d f7bc 58c3 253e ebf4 14bd 34d5 1a3e
00000220: 709f f1bb 02b8 ab3d 8944 9c3d e0dd f33d
00000230: e97d d5bc ac2a da3d aa3c a03d fafe 91bd
00000240: 7b72 8ebd 9bbc b6bd 4a4c 44bd cbef a13d
00000250: d382 bb3c de60 5bbc fca1 10be 3752 b1bd
00000260: 41ac 5e3c b983 933d 2e6b ad3d 1366 ef3d
00000270: c0c9 66bd bfdd 0ebe a5ca 1ebd de56 4e3d
00000280: 2d22 aabc 0524 013e 496f 5ebd b7bc dc3c
00000290: f9bd 1e3e d32f db3d 3094 913c fe37 f73d
000002a0: 27b1 f53d ce02 9f3d 8c72 bebd b405 753d
000002b0: 2246 05be c829 033e abad a9bd 8724 9c3d
000002c0: c38f e6bd 8335 ae3d 82f4 113d 25db 803b
000002d0: edff 243d 8915 cd3d 689d 9a3d 1910 b73c
000002e0: 5f7b a9bd 23f3 a33d 650e 973d 84ba c33d
000002f0: 3583 08be 2b63 12bd 0269 d53c 015c 05bb
00000300: f601 c53a 2761 133e e6c6 d0bd a181 143e
00000310: 150e f53d cd49 793d 2327 be3d e3d0 47bd
00000320: 953b 40bd 7e27 adbd fdb8 9cbd caba 44bd
00000330: 59de 19bd 7896 a3bd b031 8fbd 2153 06be
00000340: 123e b7bd f089 3bbd c74d 6bbd 8979 b2bd
00000350: 9196 d3bd 3f24 d43d e255 90bd 3d2d eabd
00000360: 5275 023d 3504 d23d 5ab5 d43d 136a fd3d
00000370: 9431 d7bc cab7 14bc 869e 263d 45ef 1cbc
00000380: ce9a 873d 3895 fe3d 0eef 103d b6de 623d
00000390: 6b68 023d 7f53 2d3c 6967 03be c5ff 9a3d
000003a0: 5223 eb3d 566a 393d 5534 fe3d eba5 0cbc
000003b0: 8f66 463d 8f4e 813d 003d bebc a7e7 dcba
000003c0: 15f1 12bd 7c2f 723d cd6e ed3c 906d 1dbc
000003d0: 11f2 d1bc cc97 123e ef2f 18be 6db5 833d
000003e0: e3d7 ac3c 4436 083e dcc5 b83d b532 fc3d
000003f0: 45f5 463c d79d ffbd 39d3 d43c b528 f6bb
0.07097257 0.09341565 0.10092768 -0.06182773 -0.03295941 -0.11555861 -0.11222905 -0.013814537
-0.048952106 0.081984855 -0.1003906 -0.09597093 0.0006104775 -0.09986185 0.09561271 -0.0669796
0.056267403 0.04510303 0.053197917 0.037252333 0.017322743 0.11147829 0.11882473 -0.09905954
-0.08893525 0.093923666 0.07241121 0.01702053 0.12365756 -0.043018322 -0.0048996997 0.039662253
0.095840216 0.078556836 -0.043051265 0.015948072 -0.039601263 -0.093575574 -0.09833159 0.0739147
-0.0004986456 -0.08808413 -0.013792592 0.03218395 -0.12768888 -0.085883066 0.07420205 0.11629937
-0.10425512 0.11991748 -0.10892838 -0.06269072 0.11353424 0.08941759 -0.0390107 0.108516395
0.09635733 0.034017295 0.0931847 -0.023698535 0.09175486 -0.093172014 -0.020206317 -0.049776956
0.032840118 0.0039689783 -0.13236594 -0.03369689 -0.098802686 -0.1538654 0.092999496 -0.054259423
-0.07806755 0.03981912 -0.14370139 -0.10911106 0.068149224 0.026209693 -0.17716692 0.10966961
0.063904 0.12665917 -0.057777327 -0.012088145 -0.031548683 0.05058673 0.15106167 -0.03218228
-0.063339874 -0.081133954 0.0848544 -0.051306892 0.0010461068 -0.029407341 -0.06865172 -0.13876261
-0.039537005 -0.09979103 -0.09765118 -0.072213754 0.04573914 -0.027898988 -0.049378093 0.020002356
0.11935266 -0.07035002 -0.23405495 0.020998495 -0.018732494 0.009385462 -0.047527432 0.071992874
0.044679355 0.042088147 -0.13311307 0.008758664 0.057499755 -0.035286102 0.0044882614 -0.02037254
-0.01975968 0.07315526 0.021309324 -0.0029911369 0.0048061614 0.007892199 -0.054060962 -0.06460962
0.010561029 -0.06713854 0.12945563 0.109089784 -0.030203482 0.16187799 -0.036366384 0.15120393
-0.0073737428 0.08384706 0.076302595 0.11907554 -0.026061015 0.1065267 0.07824071 -0.07128711
-0.06955429 -0.089226924 -0.047924317 0.07907065 0.02288953 -0.013389794 -0.14124292 -0.08658259
0.013590873 0.072028585 0.084677085 0.11689391 -0.056344748 -0.13951777 -0.038767476 0.05037581
-0.02076825 0.12611397 -0.05430535 0.026945455 0.15502156 0.10702481 0.017770857 0.120712265
0.1199668 0.07764207 -0.09299192 0.059819892 -0.13015035 0.12808907 -0.08285078 0.076241545
-0.11257889 0.085063 0.03563357 0.003932374 0.040283132 0.10013873 0.07549554 0.022346543
-0.08275484 0.08005359 0.073757924 0.095570594 -0.13331302 -0.035739105 0.026051048 -0.0020349028
0.0015030492 0.1439253 -0.10194187 0.14502575 0.119655766 0.060861398 0.092848085 -0.048783194
-0.04693182 -0.08454798 -0.07652471 -0.0480297 -0.037565563 -0.07987684 -0.06991899 -0.13117649
-0.08947386 -0.045785844 -0.05744722 -0.08714587 -0.10331453 0.10358476 -0.07047631 -0.1143441
0.031850167 0.10254709 0.103861526 0.12373748 -0.026268758 -0.009077022 0.040678523 -0.009578531
0.066213235 0.12430805 0.03538423 0.055388175 0.031837862 0.010578989 -0.12832417 0.075683154
0.11481346 0.045267425 0.12412325 -0.00858448 0.04843765 0.06313812 -0.023222446 -0.0016853706
-0.035874445 0.059127316 0.028983498 -0.009608641 -0.025628122 0.14315718 -0.14862035 0.064310886
0.021099037 0.1330195 0.09022114 0.12314359 0.012143438 -0.124812774 0.025979625 -0.007512177
