models/gru/GRU_autoencoder.pth (torch, 358864 bytes, 18 tensors)

encoder.gru.weight_ih_l0 f4 [192, 5]
0.01585101 0.06369442 -0.019860042 0.05105107 0.2078308 0.119454354 -0.020982733 0.07729591
0.05792452 0.27324787 0.011489271 -0.050135177 -0.013121105 0.037180535 0.12583746 -0.032835994
0.08253723 -0.017168367 0.07555851 0.19751012 0.18583639 0.1402142 0.13748738 0.14289662
0.28280813 0.06508392 0.14827901 0.07937373 0.058349516 0.24638191 -0.051009327 0.102965936
0.025592923 0.046757154 0.14668702 0.1526081 0.052416272 0.11418406 0.043201715 0.23224528
0.018795801 0.09829177 0.036857143 0.0919369 0.108349904 0.020475809 0.14031343 0.042523153
0.032582983 0.1161623 -0.053966116 0.02626454 -0.015483718 -0.09644528 -0.0409772 0.09286659
0.085090175 -0.030919861 0.14069204 0.07212677 0.22140412 0.21183011 0.26966205 0.13413459
0.25771856 -0.041522793 0.020496977 0.113261715 0.11959369 0.08583659 -0.038532127 -0.094813146
-0.004670633 0.023183804 0.11794599 -0.056495637 -0.013832589 -0.072942674 0.034673564 -0.049223725
0.021440908 0.07350167 0.010633785 -0.01766655 0.07402842 0.08541145 0.0705868 -0.0120609235
0.03953739 0.13965334 -0.07118546 0.048807226 0.026668025 -0.05655321 0.15682054 0.008732076
-0.0011587291 -0.06987102 -0.028820291 0.2238328 0.14748585 0.147846 -0.07294196 0.10884164
0.3033648 0.0012536619 0.16648777 0.08911493 -0.017522788 0.054155737 0.01753641 -0.07128922
-0.07126447 0.04946445 0.15435983 -0.058122728 0.15646543 -0.08154466 0.098798364 0.0816808
0.065438285 0.07545525 -0.07984445 -0.047476575 0.06313825 -0.00768765 0.02470628 0.15178119
0.07591884 0.25984237 0.1680767 -0.000882394 0.09200422 -0.041861992 0.06778706 0.0127939535
0.002536884 -0.062402375 -0.009395124 0.2291513 0.07728217 -0.044336613 -0.032946054 -0.06237449
0.12724945 0.10720722 -0.056674004 0.1186711 0.13755117 0.05409106 -0.03849126 -0.06337898
0.13569763 -0.017430432 0.13106701 0.13675474 -0.07870527 -0.01865637 -0.038499337 0.14222059
-0.027047299 -0.003694691 0.020277005 0.1373372 0.04084477 -0.035522696 -0.013559899 -0.021078985
0.106883325 0.37298846 0.10134086 0.12359969 0.053653978 0.046883766 0.16348115 0.008007733
-0.07025518 -0.022300394 0.082163006 0.15475218 0.07373626 -0.04625217 0.052311353 -0.03090695
0.018718027 0.14760287 0.15034927 0.1336062 0.028016226 0.12593137 0.0316385 0.035087034
0.016767528 0.015646528 -0.01814832 0.031198062 0.1382015 -0.043089543 0.10539227 -0.020464664
0.053406414 0.18225114 -0.017098406 0.05707991 -0.1596011 0.13916044 -0.072606005 0.08106403
0.12373899 0.051583603 0.039423455 0.1113026 -0.09344031 -0.015437135 0.057570085 0.121084146
-0.027407732 -0.042672366 0.11129708 0.0889679 0.08894067 -0.0048994296 0.011486568 -0.027424403
0.34303564 0.01010965 0.012119643 -0.036920205 0.036217898 0.21232225 -0.08610352 0.0187451
-0.05776383 0.094768316 -0.007143691 0.18141259 0.1586751 0.059555717 0.044391293 0.22012538
0.044711236 0.21090946 -0.005196808 0.0048528267 0.19819766 0.018992286 0.08903009 0.040731464
0.094261676 0.22857714 -0.0043439283 0.12322018 0.015764138 -0.03180166 -0.10006292 -0.046416976
00000000: fad9 813c 3872 823d 87b1 a2bc ed1a 513d
00000010: 99d1 543e 7ca4 f43d fbe3 abbc 514d 9e3d
00000020: 4342 6d3d 25e7 8b3e 7f3d 3c3c 8b5a 4dbd
00000030: e7f9 56bc 9e4a 183d 89db 003e 097f 06bd
00000040: 4709 a93d ada4 8cbc 6cbe 9a3d 1840 4a3e
00000050: e54b 3e3e 5094 0f3e 7ec9 0c3e 7e53 123e
00000060: 3acc 903e b84a 853d 74d6 173e b28e a23d
00000070: e7ff 6e3d 8a4b 7c3e 28ef 50bd cedf d23d
00000080: 40a8 d13c 6e84 3f3d 1f35 163e 4c45 1c3e
00000090: 72b2 563d 55d9 e93d 48f4 303d b5d1 6d3e
000000a0: a7f9 993c 324d c93d 84f7 163d 6a49 bc3d
000000b0: 8ee6 dd3d e2bc a73c 53ae 0f3e c22c 2e3d
000000c0: bc75 053d 80e6 ed3d 930b 5dbd bc28 d73c
000000d0: 6caf 7dbc 1a85 c5bd b5d7 27bd d730 be3d
000000e0: c243 ae3d a64b fdbc 9311 103e 33b7 933d
000000f0: c3b7 623e fee9 583e 2511 8a3e 945a 093e
00000100: b0f3 833e ce13 2abd 47e9 a73c c2f5 e73d
00000110: 89ed f43d 18cb af3d ddd3 1dbd 652d c2bd
00000120: 1c0c 99bb f6eb bd3c ab8d f13d f867 67bd
00000130: 15a2 62bc f862 95bd de05 0e3d d19e 49bd
00000140: d8a4 af3c 0b88 963d 5439 2e3c 71b9 90bc
00000150: 369c 973d 33ec ae3d d08f 903d 2e9b 45bc
00000160: f5f1 213d 4901 0f3e afc9 91bd 16ea 473d
00000170: e776 da3c 57a4 67bd 9095 203e fb10 0f3c
00000180: 7fe0 97ba 8a18 8fbd 8818 ecbc 6d34 653e
00000190: 8806 173e f164 173e 9862 95bd 5ee8 de3d
000001a0: a252 9b3e ea51 a43a c57b 2a3e e381 b63d
000001b0: f38b 8fbc 68d2 5d3d 84a8 8f3c 1500 92bd
000001c0: 1bf3 91bd 3c9b 4a3d 8110 1e3e 1912 6ebd
000001d0: 7938 203e e300 a7bd cc56 ca3d 4348 a73d
000001e0: 8204 863d 4888 9a3d 7d85 a3bd cc76 42bd
000001f0: a04e 813d afe8 fbbb d364 ca3c 876c 1b3e
00000200: 567b 9b3d 0f0a 853e 4c1c 2c3e 7550 67ba
00000210: b56c bc3d 7b77 2bbd f1d3 8a3d bb9d 513c
00000220: da41 263b a299 7fbd 02ee 19bc a3a6 6a3e
00000230: 1d46 9e3d 4f9a 35bd 71f2 06bd 657c 7fbd
00000240: ae4d 023e 758f db3d 0023 68bd d509 f33d
00000250: 37da 0c3e 968e 5d3d 03a9 1dbd d7cc 81bd
00000260: 52f4 0a3e 44ca 8ebc 6e36 063e 6f09 0c3e
00000270: 3b30 a1bd 3ed5 98bc 7bb1 1dbd 46a2 113e
00000280: 4c92 ddbc a122 72bb f61b a63c 1fa2 0c3e
00000290: d84c 273d 3f80 11bd 572a 5ebc d6ad acbc
000002a0: a5e5 da3d 58f8 be3e cc8b cf3d d621 fd3d
000002b0: 46c4 5b3d 3109 403d 9a67 273e de32 033c
000002c0: f3e1 8fbd 51af b6bc 1445 a83d 5b77 1e3e
000002d0: 0903 973d ea72 3dbd 6e44 563d 9230 fdbc
000002e0: 8c56 993c 3525 173e 29f5 193e 10d0 083e
000002f0: 4982 e53c 27f4 003e 5f97 013d 6cb7 0f3d
00000300: 0e5c 893c 262d 803c c9ab 94bc 1493 ff3c
00000310: b284 0d3e a97e 30bd e7d7 d73d 83a5 a7bc
00000320: afc0 5a3d 0ba0 3a3e f511 8cbc a0cc 693d
00000330: 796e 23be 1380 0e3e 75b2 94bd e604 a63d
00000340: de6a fd3d 5449 533d 7d7a 213d 9ef2 e33d
00000350: a25d bfbd 09ec 7cbc 9cce 6b3d f7fa f73d
00000360: 2e86 e0bc 38c9 2ebd b9ef e33d cd34 b63d
00000370: 8726 b63d 658b a0bb 2832 3c3c 24a9 e0bc
00000380: 5ea2 af3e f2a2 253c 7891 463c a439 17bd
00000390: 3859 143d 016b 593e 0b57 b0bd 538f 993c
000003a0: c499 6cbd e415 c23d a015 eabb 39c4 393e
000003b0: ba7b 223e b2f0 733d a5d3 353d 8c68 613e
000003c0: 2123 373d a6f8 573e fc49 aabb 7604 9f3b
000003d0: 54f4 4a3e b695 9b3c 6855 b63d 09d6 263d
000003e0: 440c c13d 2010 6a3e 8357 8ebb dd5a fc3d
000003f0: cb23 813c 7542 02bd caed ccbd ba1f 3ebd

encoder.gru.weight_hh_l0 f4 [192, 64]
-0.011372182 0.096113995 -0.044940833 -0.0920279 -0.0019269178 0.17638929 -0.03376333 -0.13049735
-0.08075392 0.009361335 0.06244338 -0.08116505 0.09107811 0.06934862 -0.073262885 -0.060230628
0.016151689 0.043792527 -0.14836624 0.08029158 0.021062871 0.025880134 0.03422048 0.15132481
0.041812424 0.0075063873 0.07468126 -0.050979905 -0.042573012 -0.07963621 -0.036658302 0.025539044
-0.100038566 -0.059591345 -0.079079464 -0.039971896 -0.07311885 -0.05242682 0.025043022 0.026501289
0.012184828 -0.12352726 0.1444435 0.0729847 -0.18144538 0.03866247 0.10893999 -0.03394541
-0.0601465 0.051575895 -0.09684647 -0.13210645 0.011115272 0.058642164 -0.018312132 0.08991529
0.14090525 0.030861355 0.043242294 -0.060161125 0.11543222 -0.12551714 -0.05553395 -0.073954485
-0.0131552275 -0.11898585 -0.03881128 0.11369766 -0.09718471 -0.01829921 0.10172907 0.1570784
-0.050517287 0.03025373 0.11869595 -0.0896031 -0.106523104 0.005186021 0.06230273 0.12948996
-0.058323953 -0.07445633 -0.09299721 -0.019052071 0.0763854 -0.005125592 -0.12505473 0.008997578
0.04328841 -0.06360014 -0.09000967 0.058835823 -0.021362578 0.19252296 -0.1112159 0.11079478
0.032481432 -0.06349326 -0.14596333 0.022183938 0.13441975 0.15383095 0.13257776 -0.090933055
0.061446127 -0.016281875 0.1854413 -0.14158577 0.006129761 0.059403017 -0.011275123 0.030698968
0.09959372 -0.0454956 -0.004322049 0.087947346 -0.015878854 0.10055236 0.11115407 -0.0500975
-0.02545912 -0.033176653 0.0018282628 -0.06016565 0.12997647 -0.07902141 -0.061145354 -0.06784148
0.037950758 -0.08871932 0.092144735 -0.07982629 0.15175316 0.04444568 -0.0576912 0.060282733
-0.06085298 0.067208484 -0.10798319 0.008515091 0.07195958 -0.028107082 0.09689293 0.14133118
-0.07066703 -0.050421983 -0.08488952 0.07157493 -0.114347056 0.05631574 -0.106682524 0.15162367
0.007373567 -0.09057631 -0.03588922 -0.020116216 0.004442189 0.055469465 0.15994884 0.105675526
-0.040027257 -0.10549151 -0.009490737 -0.00044528572 0.12488543 0.169725 0.06911003 0.03401024
0.010981952 -0.036950666 -0.08316751 -0.08466684 -0.097561255 -0.06674333 -0.026527748 0.17327212
-0.029446576 0.020262249 -0.04110462 -0.12415202 -0.043938193 0.017176421 -0.03221336 0.069644816
-0.06744234 -0.09696274 -0.01273026 0.03513427 -0.093435116 -0.0658846 -0.05731812 0.0028515619
0.14450288 -0.018314004 0.10959382 -0.015033843 0.029027056 -0.07834347 0.028431498 -0.08511474
-0.024559805 0.070574276 0.023991272 0.046917748 0.20647076 0.13385314 0.08138212 -0.008386263
0.043721244 0.026473392 -0.029539203 0.087606184 -0.13529903 0.010330005 -0.1447585 -0.022596233
0.10426396 -0.06136186 -0.017561642 0.1160343 0.13146545 0.036841236 0.058830835 0.03754447
0.012958128 -0.11832112 -0.040625624 -0.07314858 0.057310473 -0.026164103 -0.054875314 0.10003054
-0.044887938 -0.10483543 -0.03359392 -0.073179856 -0.12581311 -0.0456575 0.10470934 -0.049859375
0.005338744 0.0449586 0.106694184 -0.11886931 0.0020260655 0.08184499 -0.062753975 0.03478389
-0.028242927 0.13822214 -0.020208998 -0.030427774 0.02613789 -0.13788056 -0.030804614 -0.06171507
00000000: 6352 3abc 6ad7 c43d e113 38bd 2079 bcbd
00000010: a290 fcba 659f 343e 6b4b 0abd 19a1 05be
00000020: 5062 a5bd 4960 193c a1c4 7f3d dd39 a6bd
00000030: 2987 ba3d a606 8e3d da0a 96bd 64b4 76bd
00000040: 8c50 843c cb5f 333d 52ed 17be e96f a43d
00000050: 0b8c ac3c 9302 d43c c62a 0c3d e4f4 1a3e
00000060: 8143 2b3d 24f8 f53b 7df2 983d 4ed0 50bd
00000070: 0a61 2ebd 4f18 a3bd 0427 16bd 4237 d13c
00000080: 05e1 ccbd 0e16 74bd 6af4 a1bd 92b9 23bd
00000090: 56bf 95bd 81bd 56bd 0627 cd3c 3b19 d93c
000000a0: dfa2 473c dcfb fcbd ffe8 133e 0179 953d
000000b0: d1cc 39be 8a5c 1e3d ee1b df3d 580a 0bbd
000000c0: 2d5c 76bd 3f41 533d 7157 c6bd ea46 07be
000000d0: d41c 363c c432 703d 5303 96bc 8225 b83d
000000e0: 7749 103e f4d0 fc3c d51e 313d 836b 76bd
000000f0: ba67 ec3d 9187 00be 9177 63bd 7375 97bd
00000100: 0689 57bc daae f3bd 94f8 1ebd 52da e83d
00000110: c708 c7bd 3ae8 95bc 5557 d03d 29d9 203e
00000120: 37eb 4ebd acd6 f73c dd16 f33d d581 b7bd
00000130: c928 dabd 7fef a93b 2631 7f3d 0499 043e
00000140: 19e5 6ebd 8f7c 98bd 5275 bebd 1713 9cbc
00000150: f36f 9c3d 95f4 a7bb 590e 00be 946a 133c
00000160: 304f 313d ca40 82bd fd56 b8bd d5fd 703d
00000170: 9300 afbc bd24 453e 29c5 e3bd 60e8 e23d
00000180: 400b 053d c108 82bd 6977 15be 17bb b53c
00000190: 55a5 093e dc85 1d3e 77c2 073e 1c3b babd
000001a0: efae 7b3d 9161 85bc 53e4 3d3e dcfb 10be
000001b0: 2adc c83b 9450 733d 4bbb 38bc 677c fb3c
000001c0: cbf7 cb3d 9859 3abd fa9f 8dbb bd1d b43d
000001d0: 5f14 82bc 65ee cd3d bfa4 e33d 0933 4dbd
000001e0: a58f d0bc 3ee4 07bd 52a2 ef3a 4270 76bd
000001f0: 8d18 053e fad5 a1bd 8d73 7abd 79f0 8abd
00000200: 4172 1b3d 7ab2 b5bd 61b6 bc3d f77b a3bd
00000210: 2e65 1b3e ac0c 363d 9c4d 6cbd 07eb 763d
00000220: f940 79bd 9aa4 893d 4a26 ddbd e182 0b3c
00000230: 8b5f 933d d340 e6bc cd6f c63d 1fb9 103e
00000240: e0b9 90bd 4887 4ebd 8fda adbd e095 923d
00000250: ca2e eabd 55ab 663d 5e7c dabd 3c43 1b3e
00000260: f79d f13b 1380 b9bd 9300 13bd c3ca a4bc
00000270: c88f 913b f333 633d a1c9 233e 696c d83d
00000280: 9ff3 23bd ef0b d8bd 097f 1bbc 3d75 e9b9
00000290: efc3 ff3d 64cc 2d3e 8f89 8d3d 524e 0b3d
000002a0: a5ed 333c 9559 17bd ba53 aabd cf65 adbd
000002b0: 32ce c7bd bab0 88bd b850 d9bc 3f6e 313e
000002c0: f239 f1bc 04fd a53c 515d 28bd 6a43 febd
000002d0: 89f8 33bd 91b5 8c3c 28f2 03bd f1a1 8e3d
000002e0: 361f 8abd 6794 c6bd 9592 50bc f4e8 0f3d
000002f0: e95a bfbd 81ee 86bd 68c6 6abd 45e1 3a3b
00000300: 90f8 133e 4007 96bc ba72 e03d 8250 76bc
00000310: 26ca ed3c 8b72 a0bd 2ce9 e83c a350 aebd
00000320: a531 c9bc 3f89 903d 5889 c43c d32c 403d
00000330: 126d 533e cc10 093e abab a63d 8966 09bc
00000340: 0c15 333d bade d83c 33fc f1bc df6a b33d
00000350: d48b 0abe 2e3f 293c 923b 14be bc1b b9bc
00000360: 5888 d53d 9356 7bbd 6fdd 8fbc 64a3 ed3d
00000370: e19e 063e d6e6 163d 9af8 703d 3bc8 193d
00000380: 544e 543c 5852 f2bd 0e67 26bd ecce 95bd
00000390: 63be 6a3d 1a56 d6bc f0c4 60bd d0dc cc3d
000003a0: 6adc 37bd f5b3 d6bd c799 09bd 52df 95bd
000003b0: 27d5 00be 5c03 3bbd da71 d63d 5839 4cbd
000003c0: a1f0 ae3b 8226 383d 7b82 da3d c171 f3bd
000003d0: bdc7 043b 599e a73d 2885 80bd 8d79 0e3d
000003e0: b65d e7bc 1b8a 0d3e 578d a5bc ab43 f9bc
000003f0: 211f d63c 9030 0dbe f559 fcbc f1c8 7cbd

encoder.gru.bias_ih_l0 f4 [192]
0.06934416 -0.035756443 -0.07715306 0.005077032 -0.026540918 -0.055607572 0.02391524 0.09203317
-0.069200784 -0.033163738 -0.05689762 -0.07214918 -0.1402311 0.0017749126 0.03792166 -0.09012064
-0.06285535 0.052149158 0.08865252 0.06372073 -0.11458367 0.18304029 -0.08254994 0.06530782
0.13297063 -0.001604759 0.106823176 0.09541059 -0.014653859 -0.05393137 -0.11043441 -0.06913938
-0.05359867 -0.056102525 -0.045534924 -0.12276665 0.007246047 -0.0122713335 0.0006701917 0.0024501784
0.021871313 0.08990982 -0.12075516 0.07084631 -0.05525589 0.035605963 -0.02643325 0.01589916
0.004436462 0.0899302 0.024547296 0.08905462 0.05095533 -0.041808665 0.03994033 0.111150675
-0.012063116 0.13291195 0.031515352 0.11353645 -0.04303873 0.08759977 0.12363568 -0.052466817
0.20504048 0.15281904 0.016694997 0.047510967 0.12741351 0.09642351 0.004196074 0.136725
0.09155643 -0.007010006 0.21683843 -0.059236087 -0.056311186 0.20899473 0.2231112 0.12451502
0.20493677 0.17866759 0.025249965 0.1476384 -0.0036387928 -0.11670622 0.111881 0.06448644
-0.07278237 0.15975617 0.18566436 0.13414104 0.23076418 0.0304399 0.048332456 0.15613478
0.019815076 0.2068718 0.23913777 0.042577457 0.14390133 0.06733792 0.067140095 0.20633215
-0.021684363 -0.011778458 -0.025785945 0.17900473 -0.034261476 -0.011055899 0.4090595 0.20768695
0.09141149 0.16822664 0.0011508656 0.20226124 0.17602101 0.23710391 0.107418135 0.05667236
0.12885933 0.2576189 0.073803894 0.22456422 0.1299058 0.07607159 0.17838252 0.026756523
-0.085734695 0.10860135 0.021047028 -0.08560231 -0.010678838 0.025224887 -0.0068339864 -0.04933465
-0.015435635 0.025706131 0.096272714 -0.038272556 0.10222999 0.09239786 -0.104623675 0.05116148
0.10752873 -0.077595346 -0.058788076 0.07859217 -0.036440402 -0.063829005 0.019592842 -0.013689647
-0.1001902 -0.07485146 -0.012049597 -0.044413347 0.10474627 -0.06905299 -0.06649929 -0.09349394
0.11360573 0.13755544 -0.0946741 0.019100059 -0.02114723 -0.021513643 0.087800905 -0.027295632
-0.08199393 -0.032100033 -0.007561029 -0.033902925 0.07300115 -0.0140834125 -0.1122475 0.015596477
0.12000892 0.062642395 -0.049569394 0.015855383 0.06661171 -0.057494454 -0.021253346 -0.096633755
-0.02050934 0.100901075 -0.068422325 0.088087134 -0.067442074 -0.10715295 -0.08694145 -0.091509044
00000000: 5004 8e3d 5975 12bd 6c02 9ebd 3b5d a63b
00000010: 576c d9bc c4c4 63bd e5e9 c33c e37b bc3d
00000020: 24b9 8dbd b3d6 07bd 7b0d 69bd f3c2 93bd
00000030: be98 0fbe 2fa4 e83a be53 1b3d 2c91 b8bd
00000040: 4eba 80bd 5b9a 553d 748f b53d 0480 823d
00000050: d8aa eabd ea6e 3b3e f10f a9bd 1bc0 853d
00000060: 7429 083e c756 d2ba 1cc6 da3d a166 c33d
00000070: bd16 70bc 24e7 5cbd 702b e2bd f298 8dbd
00000080: 478a 5bbd c3cb 65bd d482 3abd 156d fbbd
00000090: 3f70 ed3b b40d 49bc ceaf 2f3a 2c93 203b
000000a0: 782b b33c a422 b83d 7b4e f7bd df17 913d
000000b0: 0054 62bd 8fd7 113d 8b8a d8bc f53e 823c
000000c0: be5f 913b 532d b83d 6917 c93c 4562 b63d
000000d0: 89b6 503d 903f 2bbd 7998 233d f7a2 e33d
000000e0: 60a4 45bc 121a 083e 3e16 013d cc85 e83d
000000f0: 6149 30bd 8267 b33d b434 fd3d 72e7 56bd
00000100: 22f6 513e 987c 1c3e f2c3 883c dc9a 423d
00000110: b078 023e b079 c53d 387f 893b a301 0c3e
00000120: f081 bb3d 31b4 e5bb e50a 5e3e 8aa1 72bd
00000130: 8fa6 66bd b702 563e 4377 643e bb01 ff3d
00000140: f2da 513e a3f4 363e 04d9 ce3c 852e 173e
00000150: d078 6ebb ac03 efbd de21 e53d 7711 843d
00000160: ec0e 95bd 1f97 233e cc1e 3e3e 455c 093e
00000170: 724d 6c3e 195d f93c 41f8 453d cce1 1f3e
00000180: 3a53 a23c 33d6 533e 88e0 743e b365 2e3d
00000190: df5a 133e 77e8 893d bf80 893d bc48 533e
000001a0: 68a3 b1bc 6ffa 40bc 0c3d d3bc 044d 373e
000001b0: c355 0cbd cd23 35bc 3f70 d13e e3ab 543e
000001c0: f335 bb3d 9b43 2c3e a4d8 963a 921d 4f3e
000001d0: da3e 343e 5ecb 723e 0afe db3d 4721 683d
000001e0: b3f3 033e a0e6 833e 7f26 973d 2af4 653e
000001f0: 0706 053e 6ccb 9b3d e8a9 363e 7f30 db3c
00000200: ac95 afbd 626a de3d d16a ac3c 4450 afbd
00000210: 4bf6 2ebc 6ca4 ce3c a2ef dfbb 2113 4abd
00000220: bfe5 7cbc aa95 d23c a12a c53d afc3 1cbd
00000230: f55d d13d 173b bd3d f044 d6bd b38e 513d
00000240: 0638 dc3d 4fea 9ebd c4cb 70bd eef4 a03d
00000250: 8842 15bd c8b8 82bd 2b81 a03c 8b4a 60bc
00000260: 8530 cdbd b94b 99bd ac6b 45bc c5ea 35bd
00000270: 3685 d63d a76b 8dbd c830 88bd c079 bfbd
00000280: 1faa e83d 55db 0c3e 7fe4 c1bd ba77 9c3c
00000290: f53c adbc 613d b0bc f6d0 b33d 179b dfbc
000002a0: 6fec a7bd 537b 03bd 82c2 f7bb cbdd 0abd
000002b0: a081 953d 1dbe 66bc 04e2 e5bd 5e88 7f3c
000002c0: 3dc7 f53d a84a 803d 4709 4bbd 26e3 813c
000002d0: b86b 883d 4e7f 6bbd 7f1b aebc ebe7 c5bd
000002e0: 3403 a8bc 39a5 ce3d 0121 8cbd 0767 b43d
000002f0: 121f 8abd 0173 dbbd 5c0e b2bd 1869 bbbd

encoder.gru.bias_hh_l0 f4 [192]
0.047408547 0.11022881 0.03585564 0.0098705 -0.024298558 0.04664094 -0.12503257 -0.055722218
0.11494652 -0.10942484 -0.1437931 -0.023293592 -0.084787905 0.07267477 0.155546 0.013678138
0.08788439 0.056630563 0.13299587 -0.06671981 0.112157315 0.02123613 -0.050330367 0.0152702965
0.00065121346 0.06040102 0.08199228 -0.039739396 0.12295367 -0.012119184 0.06240006 0.043143157
-0.060642645 0.122558445 0.090847485 -0.03572116 -0.11348289 -0.029666904 -0.05808805 -0.054042704
-0.06296604 -0.037793227 -0.06291872 -0.0796029 -0.083674945 -0.06206871 0.13330643 -0.0502452
-0.064318985 -0.028663404 0.15908167 -0.066514984 -0.051772106 -0.11057091 0.039204083 -0.062708244
0.0131669855 -0.0644446 0.007264126 0.007959613 0.041364755 0.041091654 -0.052165654 0.124605075
0.25167748 0.24881472 0.18243484 0.011774144 -0.022319654 0.005386423 0.059503563 0.10380185
0.14259194 -0.037514005 0.12892242 -0.031399835 -0.012868322 0.11690345 0.042280275 -0.009191658
0.17963332 0.1295083 0.12711012 0.17386341 -0.03848642 -0.1711362 -0.06293937 0.18017733
0.14698863 0.19030623 0.13899739 0.18110673 0.22429566 0.16597433 -0.026563993 0.058294818
0.048003387 -0.017477939 0.117124856 0.07865312 0.30617127 0.06094594 0.11653744 0.25135982
0.080282085 -0.048235465 0.09859986 0.019613687 0.09642145 0.20000514 0.36215758 0.117484786
0.1944126 0.09588056 -0.027382504 0.10610768 0.061101045 0.16593605 0.14341938 0.11768254
0.05306045 0.32525715 0.2715068 0.21237771 0.08666314 -0.057724003 0.32505462 0.1488467
-0.10926743 -0.1066112 -0.012029408 0.06186732 -0.07493057 0.08388896 0.1119557 0.024849014
0.12589802 -0.08753997 -0.076979496 0.118939824 -0.094019696 -0.10377037 0.04391074 -0.057413265
-0.112398855 0.017360445 0.08833066 0.042734973 -0.040034793 0.014312198 0.10643081 0.103238136
-0.028414384 0.08947813 0.022848679 -0.05733083 0.04110109 0.056276508 -0.10329193 0.09041494
-0.01818711 -0.05567772 -0.021574782 0.01335138 0.077632226 0.055286262 0.08935609 -0.028509583
-0.008390576 0.12545514 0.05303934 0.036903113 -0.08103013 -0.030648537 -0.124621026 -0.1185808
-0.00032490134 -0.093819305 -0.10110978 0.13151804 0.12058811 0.11908996 0.07843896 0.10422089
0.059926625 0.08987979 -0.070357874 -0.07364514 0.059917096 -0.0998608 -0.058387116 -0.00572671
00000000: 772f 423d a4bf e13d 5ddd 123d e1b7 213c
00000010: c50d c7bc 920a 3f3d 8a08 00be fb3c 64bd
00000020: 1569 eb3d 211a e0bd 803e 13be 34d2 bebc
00000030: 48a5 adbd 83d6 943d 7347 1f3e 451a 603c
00000040: bbfc b33d 73f5 673d 1230 083e 65a4 88bd
00000050: bcb2 e53d 64f7 ad3c 3727 4ebd 4430 7a3c
00000060: 32b6 2a3a 0f67 773d 92eb a73d c7c5 22bd
00000070: 22cf fb3d 8b8f 46bc 3597 7f3d e1b6 303d
00000080: 6c64 78bd ecff fa3d 3f0e ba3d 5a50 12bd
00000090: b869 e8bd 0208 f3bc bced 6dbd e25b 5dbd
000000a0: 57f4 80bd 12cd 1abd 88db 80bd d806 a3bd
000000b0: c55d abbd c23b 7ebd 7b81 083e e9cd 4dbd
000000c0: acb9 83bd 84cf eabc 4ee6 223e 0239 88bd
000000d0: fd0e 54bd 0073 e2bd 7694 203d 2e6d 80bd
000000e0: 57ba 573c 88fb 83bd e807 ee3b 0969 023c
000000f0: 176e 293d b94f 283d a7ab 55bd f230 ff3d
00000100: dfdb 803e 49c9 7e3e 33d0 3a3e 57e8 403c
00000110: b5d7 b6bc 9780 b03b 02ba 733d 1096 d43d
00000120: 9f03 123e 49a8 19bd 3d04 043e 1d9d 00bd
00000130: a8d5 52bc 136b ef3d 152e 2d3d 9c98 16bc
00000140: ccf1 373e d39d 043e 2829 023e 4009 323e
00000150: f0a3 1dbd 543e 2fbe 5be6 80bd 6880 383e
00000160: 3084 163e a3df 423e 5555 0e3e 0b74 393e
00000170: c3ad 653e 2df5 293e bb9c d9bc 8cc6 6e3d
00000180: 339f 443d e52d 8fbc 28df ef3d e314 a13d
00000190: 7bc2 9c3e 73a2 793d 2eab ee3d 3cb2 803e
000001a0: ef6a a43d 8d92 45bd b9ee c93d e2ac a03c
000001b0: 9c78 c53d 26ce 4c3e b86c b93e dd9b f03d
000001c0: 1914 473e 075d c43d 4651 e0bc fc4e d93d
000001d0: 1745 7a3d 24eb 293e 88dc 123e 8b03 f13d
000001e0: ea55 593d 1b88 a63e f002 8b3e 8b79 593e
000001f0: 727c b13d 0170 6cbd 8f6d a63e 456b 183e
00000200: 9ac7 dfbd f956 dabd fe16 45bc 9668 7d3d
00000210: 3375 99bd facd ab3d 0849 e53d 2990 cb3c
00000220: 69eb 003e 2848 b3bd 6da7 9dbd b996 f33d
00000230: 668d c0bd 8f85 d4bd c0db 333d 2c2a 6bbd
00000240: 5f31 e6bd 7e37 8e3c b4e6 b43d de0a 2f3d
00000250: 86fb 23bd b67d 6a3c 66f8 d93d 846e d33d
00000260: 48c5 e8bc 4f40 b73d 272d bb3c bbd3 6abd
00000270: 9e59 283d 3282 663d b88a d3bd 782b b93d
00000280: 22fd 94bc 520e 64bd 99bd b0bc bfbf 5a3c
00000290: a5fd 9e3d d973 623d 5300 b73d ee8c e9bc
000002a0: a078 09bc 5077 003e c73f 593d b827 173d
000002b0: 20f3 a5bd a412 fbbc 4f39 ffbd 7eda f2bd
000002c0: 8557 aab9 5624 c0bd a512 cfbd aaac 063e
000002d0: e6f6 f63d 70e5 f33d 9ba4 a03d c371 d53d
000002e0: 9f75 753d e512 b83d ca17 90bd 43d3 96bd
000002f0: a16b 753d d283 ccbd 5427 6fbd 20a7 bbbb

encoder.gru.weight_ih_l1 f4 [192, 64]
-0.015187318 0.0025265445 0.09809258 -0.12066607 0.020332856 0.10721728 0.07268621 0.016518721
0.036919065 0.20323627 -0.0863442 -0.08547854 0.06663492 0.04754173 0.0945912 0.114003554
-0.16836946 -0.02913931 -0.032709755 0.13635914 0.03240778 0.034578126 0.089700215 0.17234455
0.009245228 0.06309846 -0.14418548 0.083764166 -0.05646316 0.05144031 0.16874436 0.16804852
0.0452749 -0.12810309 -0.08881727 -0.076385744 -0.02517094 0.0513437 0.14819688 -0.016959788
0.009101347 -0.0030099442 -0.027602753 0.013303553 0.085826874 -0.060849164 -0.13209477 0.1617087
-0.10088339 -0.012893116 -0.06496102 -0.021271765 -0.049704697 0.039178967 0.020468915 0.18700314
0.09237994 0.09430004 0.063105315 0.1068895 0.059248805 -0.02083301 -0.11021736 -0.03788381
0.11333401 0.12070606 0.08339968 -0.041995864 0.13607843 0.09803844 0.024847003 0.09022622
-0.0052751782 0.08451802 -0.122299224 0.034136556 0.06750219 0.09466896 0.14779986 0.05892064
-0.07837276 0.067309305 -0.020267269 -0.08414326 -0.10901285 0.011641745 -0.07785733 0.030266542
-0.06820046 0.0652834 -0.08929043 -0.108351804 -0.05545042 -0.032515593 0.100252494 0.074609816
0.04719501 -0.13450265 -0.091902055 0.0061973687 -0.0011322568 0.097398214 -0.09538406 -0.067158595
0.122257665 -0.05001201 -0.059102718 0.0572891 0.020813415 0.10268032 0.09392968 -0.0036229272
-0.12961245 -0.08545789 -0.1300467 -0.09784698 -0.09997762 0.061895292 -0.033101734 0.109467335
-0.0041709477 -0.050212957 -0.108095855 -0.013663182 -0.005093187 -0.037616942 0.100293 0.096170336
0.07632256 -0.010898755 0.07955018 0.030663613 -0.103890285 0.097065635 0.051107295 0.041587
0.07278599 -0.04965025 0.037855115 0.07022988 -0.039023746 0.1608951 0.1061948 -0.046450492
-0.008736601 -0.12035605 0.026844863 0.023706846 0.029222475 0.0933964 0.026894437 0.008838281
-0.025698325 0.030784149 -0.087391876 0.074778706 0.038748033 -0.01258509 0.018768888 0.13297546
-0.13270575 0.05916823 0.059646428 0.0066278763 -0.017597482 0.08604803 0.051007632 0.0017943063
-0.06165376 0.026615638 0.11833453 0.1272241 -0.07932798 -0.016037054 -0.0126512945 -0.12059014
0.04555795 0.13520636 -0.12624988 -0.09175216 -0.02507052 -0.036116064 0.021247957 -0.044301394
0.0002244858 0.007976991 -0.024951527 0.065188214 -0.09332542 -0.107285 0.015071086 -0.06258612
0.08384435 -0.029218549 -0.083850205 -0.07494574 -0.035011016 0.11280604 0.084796056 -0.0034427382
0.0033718003 0.06104474 -0.08110114 -0.08689371 -0.11914284 0.118338756 0.004504884 -0.13148966
-0.07529165 -0.09563661 0.05188957 -0.014260382 -0.07782214 -0.07791405 0.15047248 -0.06715579
0.08419118 -0.12560004 0.16060376 0.03562084 0.07821539 -0.046245664 -0.13174906 -0.041951165
0.1051554 0.09557138 -0.04427642 0.09345461 0.03927911 0.089010485 -0.0048401654 0.04713134
0.008553146 -0.0031334297 -0.056455147 0.095338725 0.036176715 0.10422084 -0.030557027 -0.050885435
-0.04691372 -0.032121025 -0.07102625 0.021973882 -0.009618465 -0.041144323 -0.14486858 -0.060519993
0.01903677 0.031918123 -0.081203364 0.14003253 -0.108793356 0.042550586 0.039965887 0.016857866
00000000: 3bd4 78bc 6294 253b c3e4 c83d c61f f7bd
00000010: 1791 a63c bc94 db3d 82dc 943d 4552 873c
00000020: 7238 173d 2b1d 503e 3ad5 b0bd 5f0f afbd
00000030: e477 883d 1ebb 423d 08b9 c13d b27a e93d
00000040: 0b69 2cbe 90b5 eebc aafa 05bd bba1 0b3e
00000050: 05be 043d cba1 0d3d bfb4 b73d 177b 303e
00000060: 4c79 173c c439 813d 5ca5 13be 8c8c ab3d
00000070: ea45 67bd 13b3 523d 52cb 2c3e e914 2c3e
00000080: 2c72 393d 752d 03be d4e5 b5bd 2170 9cbd
00000090: 4a33 cebc c64d 523d ecc0 173e 41ef 8abc
000000a0: d11d 153c 7c42 45bb 2b1f e2bc 25f7 593c
000000b0: 00c6 af3d f93c 79bd da43 07be f796 253e
000000c0: f39b cebd a63d 53bc 490a 85bd 2042 aebc
000000d0: 2797 4bbd 207a 203d 6dae a73c c07d 3f3e
000000e0: b231 bd3d 6120 c13d 5c3d 813d e2e8 da3d
000000f0: e0ae 723d fda9 aabc a4b9 e1bd 0e2c 1bbd
00000100: a91b e83d bd34 f73d 74cd aa3d db03 2cbd
00000110: 2558 0b3e 61c8 c83d f18b cb3c 86c8 b83d
00000120: 67db acbb c917 ad3d 0478 fabd c6d2 0b3d
00000130: 973e 8a3d cde1 c13d d958 173e c556 713d
00000140: e681 a0bd 76d9 893d 8b07 a6bc 4d53 acbd
00000150: 2142 dfbd 05bd 3e3c aa73 9fbd 8af1 f73c
00000160: afac 8bbd 4eb3 853d e7dd b6bd 8de7 ddbd
00000170: fb1f 63bd 122f 05bd 2e51 cd3d 08cd 983d
00000180: 8e4f 413d 10bb 09be 2537 bcbd 4c13 cb3b
00000190: 3c68 94ba b778 c73d b858 c3bd 728a 89bd
000001a0: 3a62 fa3d 65d9 4cbd b115 72bd faa7 6a3d
000001b0: e580 aa3c 0f4a d23d 345e c03d a26e 6dbb
000001c0: 20b9 04be 8c04 afbd f62a 05be ff63 c8bd
000001d0: 11c1 ccbd eb85 7d3d af95 07bd 6930 e03d
000001e0: 72ac 88bb 1aac 4dbd 5c61 ddbd 8adb 5fbc
000001f0: c0e4 a6bb 3914 1abd 6b66 cd3d f4f4 c43d
00000200: 014f 9c3d b190 32bc 34eb a23d 4232 fb3c
00000210: 6ec4 d4bd 59ca c63d e255 513d 2157 2a3d
00000220: d210 953d 0f5e 4bbd f70d 1b3d afd4 8f3d
00000230: 5dd7 1fbd afc1 243e a97c d93d df42 3ebd
00000240: f623 0fbc 3c7d f6bd c2e9 db3c dc34 c23c
00000250: f963 ef3c 9d46 bf3d b951 dc3c 70ce 103c
00000260: 4b85 d2bc 0a2f fc3c 83fa b2bd 9425 993d
00000270: 42b6 1e3d b131 4ebc 36c1 993c b82a 083e
00000280: 04e4 07be 635a 723d d04f 743d a82e d93b
00000290: 9828 90bc f339 b03d 61ed 503d ee2e eb3a
000002a0: a788 7cbd 0a09 da3c 6059 f23d 0947 023e
000002b0: b576 a2bd 2460 83bc 6047 4fbc f7f7 f6bd
000002c0: f99a 3a3d 8973 0a3e a647 01be 8ee8 bbbd
000002d0: b160 cdbc 70ee 13bd 3210 ae3c 6175 35bd
000002e0: f363 6b39 edb1 023c 2567 ccbc 6681 853d
000002f0: 6621 bfbd 3db8 dbbd b7ec 763c 272d 80bd
00000300: 96b6 ab3d bd5b efbc a8b9 abbd 277d 99bd
00000310: b667 0fbd da06 e73d 8ea9 ad3d 909f 61bb
00000320: 6cf9 5c3b 0d0a 7a3d 5b18 a6bd 54f5 b1bd
00000330: 2901 f4bd 975b f23d b59d 933b 3aa5 06be
00000340: 8232 9abd 21dd c3bd 288a 543d 61a4 69bc
00000350: 3761 9fbd 6791 9fbd 7515 1a3e fa88 89bd
00000360: 6d6c ac3d 4c9d 00be 5075 243e 28e7 113d
00000370: 642f a03d 186c 3dbd 3ae9 06be fcd4 2bbd
00000380: b75b d73d edba c33d 315b 35bd 2165 bf3d
00000390: 22e3 203d 214b b63d 409a 9ebb cb0c 413d
000003a0: 7f22 0c3c 3a5a 4dbb 833d 67bd f340 c33d
000003b0: 092e 143d bc71 d53d bb52 fabc 3f6d 50bd
000003c0: 9a28 40bd 5691 03bd 3676 91bd 9202 b43c
000003d0: c496 1dbc f386 28bd 6e58 14be d0e3 77bd
000003e0: 00f3 9b3c 94bc 023d f34d a6bd b064 0f3e
000003f0: 0dcf debd 8649 2e3d 45b3 233d 8219 8a3c

encoder.gru.weight_hh_l1 f4 [192, 64]
0.04531211 -0.078348994 -0.03514463 0.10513845 -0.01889851 0.033052564 0.12614542 0.05942132
0.09572033 -0.056268774 0.1386346 0.1443282 0.07423162 -0.07014026 0.09977724 0.065868676
-0.012480706 -0.11263791 -0.046088945 0.11390053 0.13048309 -0.018528774 0.120403975 0.01816884
0.093279324 0.011316444 -0.09658966 -0.038687292 0.09815204 -0.034168653 0.08656128 0.16837741
-0.100819066 0.0025050004 0.15067229 -0.13156351 0.12754278 -0.13892289 -0.12440448 0.022935608
-0.02010751 -0.09134815 0.01281484 0.08003748 0.0441731 0.004620697 0.050669085 0.039873436
0.12972966 0.072230406 0.02808982 -0.16318716 0.06967535 -0.102007 -0.022608072 0.051665965
-0.074735515 -0.029748302 0.11585682 0.0636918 0.1172457 -0.0034518926 0.05206538 0.0852052
-0.03348851 -0.03994796 0.0073370435 0.012475094 0.13584626 -0.054013092 -0.08109619 -0.043270174
-0.1546536 0.051585898 -0.042406972 0.114641756 -0.08103216 0.007637724 0.04462057 0.10629051
-0.14614388 -0.03541235 0.16157615 0.023510726 -0.019103246 0.15412517 0.009328116 -0.055694163
-0.0065575666 -0.054494824 0.11763582 -0.13519579 -0.1458665 -0.13883865 0.047283962 -0.10252181
-0.110203564 -0.017432304 0.022832336 0.06841442 -0.01740997 -0.029916318 -0.1151658 -0.031677574
-0.043255236 0.056220002 0.047137138 -0.07039222 0.030910004 -0.065120436 0.065250866 -0.020267786
-0.041211028 -0.17566538 0.064026676 -0.0005142882 -0.060010053 -0.04304768 -0.11897477 -0.021625249
0.08655949 0.09729732 -0.038256332 -0.10211535 0.056011003 -0.05097593 0.014452007 0.09702456
-0.07605866 0.021416802 0.09077289 0.08552336 0.040171605 0.14800905 0.050700516 -0.0101650935
-0.1608172 0.0874809 -0.083335325 0.18019392 0.054433454 0.123272985 -0.002933385 0.033524547
-0.09951919 0.0017641243 0.05446555 0.017747251 -0.056203403 -0.09831475 -0.032277193 0.14253438
-0.095264204 0.118772656 0.09713154 -0.08013442 0.018278299 -0.0060203266 0.028496645 -0.051875148
0.009423227 0.09049584 0.036489516 0.07322939 -0.14894848 -0.025958171 -0.14960477 -0.047383767
0.016579103 -0.15904309 0.09351316 0.045956347 0.047369957 -0.08303588 0.015303577 0.10613954
0.050218653 -0.021144146 0.13611895 -0.11470078 -0.02519454 0.008663637 0.033077985 0.08731562
0.10506402 0.053963087 -0.054926135 -0.084726006 0.017558537 -0.033737358 0.0052686757 0.09050644
0.05012242 0.025110804 0.12671016 -0.01333982 -0.05895569 0.14160004 0.005321317 7.685198e-05
-0.19677755 0.094411716 0.06347616 0.1690557 0.01614339 0.091725394 -0.080024056 0.028136604
0.043521695 0.17120534 -0.0061326833 0.08484432 0.018472623 0.06850003 0.07366306 0.14659001
-0.039160304 0.06175274 0.08711455 -0.070287816 0.0486709 -0.01035435 0.11659628 0.15472582
0.16910891 -0.12694296 0.087288454 0.07280882 -0.17906494 0.022888178 -0.112648174 0.058817964
-0.045791954 -0.019659832 0.06543516 0.06310189 0.033842992 0.10383297 0.096102335 -0.043807745
0.09383351 0.03717973 0.14466223 0.089816675 0.04711942 -0.056718636 -0.15116787 0.06879825
0.13782169 0.09469383 0.12619445 -0.08713489 -0.022160862 0.06326921 0.043071114 -0.004996281
00000000: 3199 393d 7075 a0bd d1f3 0fbd d452 d73d
00000010: 0cd1 9abc 2062 073d 442c 013e c563 733d
00000020: 0509 c43d 167a 66bd 3bf6 0d3e c6ca 133e
00000030: bf06 983d b2a5 8fbd 0258 cc3d 28e6 863d
00000040: e07b 4cbc b4ae e6bd c3c7 3cbd ae44 e93d
00000050: 5c9d 053e a8c9 97bc 5c96 f63d d2d6 943c
00000060: 3b09 bf3d 9b68 393c cdd0 c5bd 9176 1ebd
00000070: f003 c93d 6ef4 0bbd 0a47 b13d 216b 2c3e
00000080: 3a7a cebd ef2a 243b d649 1a3e 96b8 06be
00000090: 939a 023e cd41 0ebe c7c7 febd 75e3 bb3c
000000a0: 81b8 a4bc bd14 bbbd 56f5 513c b1ea a33d
000000b0: daee 343d 3769 973b 638a 4f3d 5452 233d
000000c0: dad7 043e 89ed 933d 9f1c e63c 891a 27be
000000d0: f3b1 8e3d 0ce9 d0bd 9034 b9bc b19f 533d
000000e0: ef0e 99bd b6b2 f3bc 5746 ed3d d970 823d
000000f0: 831e f03d 2639 62bb 8242 553d 1080 ae3d
00000100: 3f2b 09bd 79a0 23bd 956b f03b 5664 4c3c
00000110: 481b 0b3e d53c 5dbd c215 a6bd 113c 31bd
00000120: 835d 1ebe bc4b 533d efb2 2dbd 4cc9 ea3d
00000130: 30f4 a5bd df45 fa3b 0fc4 363d d7ae d93d
00000140: bea6 15be 8a0c 11bd 3874 253e 9199 c03c
00000150: 697e 9cbc fdd2 1d3e f4d4 183c 901f 64bd
00000160: dbe0 d6bb f735 5fbd 0ceb f03d c470 0abe
00000170: 075e 15be b82b 0ebe d4ac 413d f4f6 d1bd
00000180: 68b2 e1bd 31ce 8ebc e10a bb3c dc1c 8c3d
00000190: 5a9f 8ebc 1113 f5bc 0cdc ebbd 58c0 01bd
000001a0: 672c 31bd f246 663d df12 413d cc29 90bd
000001b0: fa36 fd3c dd5d 85bd 3fa2 853d a108 a6bc
000001c0: e5cc 28bd a0e1 33be 6b20 833d 4cd1 06ba
000001d0: 1acd 75bd c452 30bd 0ba9 f3bd 6f27 b1bc
000001e0: 1a46 b13d d143 c73d acb2 1cbd da21 d1bd
000001f0: cb6b 653d 23cc 50bd 1cc8 6c3c d0b4 c63d
00000200: a5c4 9bbd 4a72 af3c 23e7 b93d df26 af3d
00000210: fb8a 243d af8f 173e 58ab 4f3d 7e8b 26bc
00000220: 44ad 24be 3029 b33d b6ab aabd c184 383e
00000230: 9df5 5e3d 8c76 fc3d 093e 40bb 0951 093d
00000240: b8d0 cbbd 303a e73a 4517 5f3d af62 913c
00000250: 8a35 66bd 3e59 c9bd 1735 04bd 88f4 113e
00000260: e119 c3bd 143f f33d e7ec c63d 841d a4bd
00000270: 5fbc 953c 2946 c5bb cc71 e93c 097b 54bd
00000280: e163 1a3c e255 b93d 0876 153d 4af9 953d
00000290: f385 18be 3ba6 d4bc fe31 19be 7b15 42bd
000002a0: e6d0 873c 31dc 22be d483 bf3d b93c 3c3d
000002b0: 0007 423d b70e aabd dbbb 7a3c b05f d93d
000002c0: 13b2 4d3d 7d36 adbc c462 0b3e 3ee8 eabd
000002d0: c864 cebc edf1 0d3c c87c 073d 88d2 b23d
000002e0: ce2b d73d 6608 5d3d 3afa 60bd d484 adbd
000002f0: ecd6 8f3c 2f30 0abd dba4 ac3b 715b b93d
00000300: 2b4d 4d3d 2cb5 cd3c 4fc0 013e 438f 5abc
00000310: 867b 71bd 9aff 103e 715e ae3b 982b a138
00000320: 0e80 49be ee5a c13d caff 813d f01c 2d3e
00000330: 253f 843c 86da bb3d a7e3 a3bd bc7e e63c
00000340: ce43 323d 7450 2f3e adf4 c8bb dcc2 ad3d
00000350: e653 973c be49 8c3d a9dc 963d b11b 163e
00000360: 8e66 20bd 71f0 7c3d 1d69 b23d 0ff3 8fbd
00000370: 235b 473d 4ba5 29bc 08ca ee3d 7270 1e3e
00000380: e32a 2d3e 56fd 01be 4ac4 b23d ca1c 953d
00000390: cd5c 37be fd7f bb3c 16b4 e6bd 1beb 703d
000003a0: 5890 3bbd a80d a1bc df02 863d 903b 813d
000003b0: f39e 0a3d 61a6 d43d 4dd1 c43d c06f 33bd
000003c0: c92b c03d c649 183d 5622 143e cef1 b73d
000003d0: 4b00 413d cd51 68bd c0cb 1abe 19e6 8c3d
000003e0: 2121 0d3e d7ee c13d 1e39 013e c773 b2bd
000003f0: b28a b5bc 4a93 813d 566b 303d d8b7 a3bb

encoder.gru.bias_ih_l1 f4 [192]
-0.013313679 -0.11693809 -0.0084074 -0.0015083809 -0.092331715 0.08786821 0.071382314 0.006996171
-0.081280544 0.08815254 0.10858028 -0.01986873 -0.06635393 -0.01106046 -0.064948015 -0.0027715443
-0.055868354 0.112245046 0.018273992 -0.039468404 0.16803642 0.12414264 -0.030017236 -0.06117924
0.011072401 0.120821446 -0.117644586 -0.020337788 0.17105235 -0.06093679 -0.083209395 0.02369719
-0.033034965 -0.08565948 0.098425396 -0.08224912 -0.008475991 0.13992976 0.101129785 0.008954736
-0.0066749454 0.0062509184 0.08621843 -0.010125668 0.14467756 0.07531719 -0.03824178 0.06718688
0.07096759 -0.030496592 0.09628639 -0.10715438 0.12459107 -0.029394094 0.06208592 0.00820201
-0.03349774 0.057814814 -0.07958912 0.11021864 -0.07111359 0.12999651 0.13922569 0.013855659
0.016904674 -0.011449693 0.1820295 0.093406714 0.20142688 0.21232502 0.19185647 0.17783988
-0.0040868777 0.13635156 0.050986696 0.12754728 0.15844637 -0.027398398 0.15335104 -0.013930219
0.017355282 -0.051599354 0.18298316 0.076674834 0.115004145 -0.01368597 0.054507207 0.09886026
0.087773636 0.10617856 -0.08803038 0.21140358 0.12763482 0.21310559 0.06500868 0.22532573
0.18249267 0.13383834 0.23287313 0.06268616 0.1671314 0.11177901 0.124661945 0.058296762
0.007930603 0.22729945 0.10821093 0.012728297 0.10562614 0.1755519 0.1199094 0.2068425
0.060231015 0.15523708 0.10444141 0.16925739 0.06742219 0.06809093 0.07798737 0.14608483
0.12758137 0.04166086 0.13577609 0.13912156 0.14062043 0.12826914 0.11152983 0.16570796
0.11229487 0.0660097 0.08756043 0.061326563 0.09686764 -0.036503576 0.011057479 -0.08071911
0.06335246 0.019338083 -0.06324342 0.093476824 -0.11234399 -0.0052279956 -0.12199567 0.026870202
-0.052798796 0.034048498 -0.07772918 -0.021948421 -0.091161706 -0.10673671 0.13868228 0.08914188
0.14820826 -0.016451145 0.03022252 -0.024682846 0.112580255 0.008531218 0.12023139 0.107330106
0.08713313 0.005677832 -0.07072456 0.033658277 0.025613401 -0.07560009 -0.06281297 -0.005989474
0.10801285 -0.00025090622 -0.04463441 0.0950967 0.07466269 0.09795165 0.12408968 0.12526755
0.0011613898 0.10900817 -0.040159885 0.0066460837 0.115085594 -0.007330179 -0.09314664 0.057752937
0.060491733 -0.047390442 0.0802367 0.114851646 -0.042778388 -0.07918355 -0.09113399 0.14770304
00000000: 9e21 5abc 3d7d efbd 31bf 09bc ddb4 c5ba
00000010: 6918 bdbd 40f4 b33d e430 923d 2340 e53b
00000020: 6a76 a6bd 5289 b43d 565f de3d bfc3 a2bc
00000030: 92e4 87bd ee36 35bc 7703 85bd cca2 35bb
00000040: 37d6 64bd bbe0 e53d 57b3 953c 9fa9 21bd
00000050: bd11 2c3e 7f3e fe3d b5e6 f5bc 1597 7abd
00000060: 0469 353c 3c71 f73d a5ef f0bd 6f9b a6bc
00000070: 5928 2f3e db98 79bd b069 aabd 9c20 c23c
00000080: ac4f 07bd 3d6e afbd 4193 c93d 3a72 a8bd
00000090: e2de 0abc bf49 0f3e 221d cf3d e3b6 123c
000000a0: 80b9 dabb 81d4 cc3b 4a93 b03d 21e6 25bc
000000b0: 5b26 143e e63f 9a3d 6aa3 1cbd 4699 893d
000000c0: 7557 913d fdd3 f9bc cd31 c53d c173 dbbd
000000d0: 9a29 ff3d e2cb f0bc ce4d 7e3d b961 063c
000000e0: ed34 09bd 3acf 6c3d 9fff a2bd 4fba e13d
000000f0: 00a4 91bd ce1d 053e 2e91 0e3e d902 633c
00000100: ac7b 8a3c 7e97 3bbc f165 3a3e 054c bf3d
00000110: d942 4e3e bb6b 593e 0676 443e a81b 363e
00000120: 37eb 85bb be9f 0b3e 6dd7 503d c19b 023e
00000130: c43f 223e 9b72 e0bc 0e08 1d3e 933b 64bc
00000140: aa2c 8e3c d859 53bd f05f 3b3e b207 9d3d
00000150: 4b87 eb3d 1e3b 60bc f342 5f3d 3f77 ca3d
00000160: aac2 b33d 2574 d93d 4649 b4bd 2e7a 583e
00000170: b4b2 023e 5a38 5a3e 4523 853d cabb 663e
00000180: 5cdf 3a3e eb0c 093e 4b76 6e3e 9a61 803d
00000190: 7e24 2b3e 65ec e43d c34e ff3d 96c8 6e3d
000001a0: 5cef 013c 30c1 683e b19d dd3d 598a 503c
000001b0: 8552 d83d e1c3 333e 0f93 f53d 85ce 533e
000001c0: ccb4 763d 78f6 1e3e 61e5 d53d cf51 2d3e
000001d0: a514 8a3d 4273 8b3d d8b7 9f3d 4397 153e
000001e0: b1a4 023e 94a4 2a3d e308 0b3e e275 0e3e
000001f0: cdfe 0f3e fc58 033e c069 e43d 59af 293e
00000200: dafa e53d 1830 873d e252 b33d 9031 7b3d
00000210: 8b62 c63d c684 15bd 6e2a 353c 1050 a5bd
00000220: efbe 813d e66a 9e3c c485 81bd c770 bf3d
00000230: 9b14 e6bd 9b4f abbb ded8 f9bd e61e dc3c
00000240: 8d43 58bd 7076 0b3d 7a30 9fbd 2dcd b3bc
00000250: fdb2 babd c798 dabd ba02 0e3e 0590 b63d
00000260: e8c3 173e 8dc4 86bc 3895 f73c ae33 cabc
00000270: 7a90 e63d 86c6 0b3c e03b f63d e3cf db3d
00000280: db72 b23d 1b0d ba3b 0ad8 90bd 43dd 093d
00000290: 32d3 d13c 38d4 9abd 16a4 80bd 5943 c4bb
000002a0: d735 dd3d 108c 83b9 92d2 36bd 0fc2 c23d
000002b0: c1e8 983d e09a c83d bb22 fe3d 2346 003e
000002c0: c639 983a ad3f df3d b17e 24bd 64c7 d93b
000002d0: ffb1 eb3d 0032 f0bb aac3 bebd 588e 6c3d
000002e0: 2ec6 773d 7b1c 42bd 2453 a43d 5737 eb3d
000002f0: 6438 2fbd fc2a a2bd 75a4 babd 773f 173e

encoder.gru.bias_hh_l1 f4 [192]
-0.07910683 -0.0628398 0.055656705 -0.08312593 0.07685355 -0.024432115 0.0049248855 -0.06036897
0.067514874 0.09225852 -0.07525651 0.16563793 0.11524764 0.049344074 0.16426276 0.0260154
0.038297035 0.055474762 -0.0795577 0.0022977062 0.118954375 0.029653456 0.064094774 0.07101591
0.007765655 0.013371833 -0.01169845 -0.048817538 0.055364404 0.032165486 -0.0735431 0.12965086
0.017509667 0.015703581 -0.10096464 0.027333405 -0.14128877 0.15490377 -0.029356789 0.10103445
0.050171923 0.065572 -0.08089406 0.049585626 0.030932385 0.038143177 0.019489573 -0.019956604
-0.037636116 0.07505624 -0.055529132 0.023285184 0.119149305 0.13829863 0.060377855 0.04288735
-0.058716312 0.06652469 0.15222688 0.04136446 -0.00023392473 0.03541522 -0.09799921 0.1322489
-0.015956927 -0.005276378 0.18270329 0.11344106 0.04298197 0.17911126 0.23917644 0.112627074
0.15701851 0.11682785 0.011851969 0.044180494 0.051308375 0.085345104 0.1311192 0.022188872
0.21992218 0.16868499 0.019751547 0.1195051 0.22485746 -0.053739756 -0.11228112 0.16142958
-0.04292202 0.028501209 -0.06379997 0.25757635 0.1889168 0.10478061 0.13743883 0.112179816
0.08088375 0.07284118 0.21798414 0.042192493 -0.02489246 -0.0725902 0.17982878 0.046431404
0.043272115 0.011075989 0.10986102 0.15159371 0.16109696 0.064079255 0.14438933 0.034147833
0.08151279 0.09584423 0.106273316 0.173863 0.19271055 0.091781296 0.048298627 0.1714056
0.0040794904 0.06901719 -0.024199473 0.19165434 0.024920972 0.19752494 0.16136105 0.09591478
0.114836425 0.07566957 -0.019917099 -0.02080678 -0.10824805 0.10280046 0.06945502 -0.044418633
0.0031841116 -0.12337421 0.09919448 0.054054674 0.041142274 0.0022507221 -0.098224655 -0.0017960968
-0.0245539 0.060704526 0.124936186 0.1645881 -0.053842016 0.13173349 0.11646745 0.076541066
-0.02567669 0.09277003 -0.025226671 -0.020371776 0.015983129 0.053939942 0.0351156 -0.11108899
-0.06453968 0.047855146 -0.10371042 -0.026665974 0.032973103 0.04471551 0.018802011 0.04876969
0.063829556 -0.069474444 -0.13296153 0.014172941 0.00032678462 0.070909336 -0.04459693 -0.019008411
0.046403322 -0.120259464 0.11625038 -0.008635652 0.037393216 0.035501696 -0.08486447 0.10281567
0.10669544 -0.046491597 -0.08203132 0.08783715 0.021848708 0.02180445 0.05010636 0.026832266
00000000: c302 a2bd 27b2 80bd 49f8 633d ed3d aabd
00000010: 6565 9d3d dc25 c8bc ef60 a13b 7445 77bd
00000020: 3d45 8a3d 09f2 bc3d 1620 9abd fd9c 293e
00000030: f406 ec3d 031d 4a3d 7f34 283e 401e d53c
00000040: 5add 1c3d 8139 633d 26ef a2bd 1d95 163b
00000050: 5a9e f33d ceeb f23c 1f44 833d ca70 913d
00000060: 0977 fe3b 8815 5b3c dbaa 3fbc e6f4 47bd
00000070: c9c5 623d f5bf 033d c49d 96bd 32c3 043e
00000080: 6f70 8f3c cca4 803c 8dc6 cebd 4eea df3c
00000090: 01ae 10be 189f 1e3e a67d f0bc 26eb ce3d
000000a0: 1381 4d3d 9d4a 863d c9ab a5bd 4c1a 4b3d
000000b0: ea65 fd3c 053c 1c3d 99a8 9f3c 087c a3bc
000000c0: 5428 1abd 16b7 993d 8472 63bd 92c0 be3c
000000d0: 8d04 f43d 289e 0d3e c54e 773d a5aa 2f3d
000000e0: 8480 70bd 193e 883d 5de1 1b3e c86d 293d
000000f0: b149 75b9 8d0f 113d cfb3 c8bd 416c 073e
00000100: 1ab8 82bc 77e5 acbb 9216 3b3e c953 e83d
00000110: dd0d 303d f168 373e abea 743e 06a9 e63d
00000120: 76c9 203e 7143 ef3d c32e 423c 9bf6 343d
00000130: bb28 523d 6ac9 ae3d 1d44 063e 70c5 b53c
00000140: 4833 613e c2bb 2c3e ffcd a13c 17bf f43d
00000150: 0941 663e 381e 5cbd a5f3 e5bd cc4d 253e
00000160: 00cf 2fbd 5e7b e93c 8fa9 82bd 0ce1 833e
00000170: 6873 413e 3797 d63d c4bc 0c3e 88be e53d
00000180: 61a6 a53d c22d 953d 3c37 5f3e 09d2 2c3d
00000190: 46eb cbbc 2caa 94bd 0925 383e db2e 3e3d
000001a0: 1a3e 313d 1178 353c d1fe e03d 623b 1b3e
000001b0: 9af6 243e fc3b 833d ccda 133e 99de 0b3d
000001c0: 2df0 a63d fb49 c43d d3a5 d93d 2409 323e
000001d0: ea55 453e d5f7 bb3d c8d4 453d f384 2f3e
000001e0: 3fad 853b e258 8d3d f93d c6bc 0941 443e
000001f0: 1127 cc3c fa43 4a3e d53b 253e f86e c43d
00000200: 5c2f eb3d a6f8 9a3d 2f29 a3bc fb72 aabc
00000210: 27b1 ddbd 0c89 d23d 6f3e 8e3d 50f0 35bd
00000220: 87ac 503b 9eab fcbd 7a26 cb3d 6f68 5d3d
00000230: cd84 283d da80 133b 022a c9bd 026b ebba
00000240: 4325 c9bc 4fa5 783d 8bde ff3d c889 283e
00000250: 7289 5cbd 25e5 063e 7d86 ee3d 90c1 9c3d
00000260: ec57 d2bc 37fe bd3d 2aa8 cebc b6e2 a6bc
00000270: 0def 823c 21f0 5c3d 60d5 0f3d a082 e3bd
00000280: 612d 84bd c203 443d 2166 d4bd 9a72 dabc
00000290: ce0e 073d 9c27 373d ad06 9a3c bac2 473d
000002a0: 12b9 823d 9e48 8ebd 1127 08be a035 683c
000002b0: 4a54 ab39 ea38 913d 45ab 36bd 87b7 9bbc
000002c0: 6911 3e3d 984a f6bd ae14 ee3d 8d7c 0dbc
000002d0: a129 193d 3a6a 113d 6ccd adbd 0691 d23d
000002e0: 2483 da3d f96d 3ebd 0900 a8bd f7e3 b33d
000002f0: 10fc b23c 3f9f b23c 543c 4d3d 57cf db3c

decoder.gru.weight_ih_l0 f4 [192, 64]
-0.01961705 0.08137153 -0.10050605 -0.054584846 -0.08913462 -0.10847163 0.055279136 -0.037144765
0.052052006 0.090228885 0.055955857 0.02656433 0.081161514 -0.02125217 0.12250912 0.054246515
0.06011635 0.11417875 0.0041036904 0.0841296 -0.10782328 -0.123820156 0.110039756 0.08254874
0.07068515 0.11691271 0.10314919 -0.08888835 -0.013350636 -0.057284445 -0.10050623 0.06034389
0.04994127 -0.081419125 -0.039434373 0.001698345 -0.06631407 0.044299543 0.103859425 0.11367144
0.09235187 0.117691204 -0.0035817027 0.102568254 0.08268745 0.07802698 -0.11136493 0.071844876
0.060138762 -0.029433414 -0.040398076 0.11949012 -0.058251902 -0.028720304 -0.1117139 0.11050646
-0.12337063 -0.01520744 -0.039104417 0.030722648 0.10865891 0.11830574 0.002147004 -0.05237302
-0.066184446 0.11762616 -0.031203315 0.09505564 0.017276242 0.05251178 0.025856882 -0.090209424
0.09954335 -0.039821163 0.091445014 -0.036938116 -0.10501945 -0.06698717 0.08393082 -0.049350724
-0.11326477 0.06812468 0.022236422 0.027863935 -0.032197297 -0.092420444 0.029564932 -0.014313459
0.021907046 0.06116098 0.038677365 -0.04831116 -0.06007774 -0.087796465 0.0030182153 -0.074057326
0.051891148 -0.09779452 0.010782316 -0.025936812 0.012831494 -0.06285103 0.053384826 0.11554231
-0.045873925 0.09031746 0.07906842 -0.020803392 -0.07948497 -0.036817744 -0.09414235 -0.029324949
0.006032884 -0.015838102 0.11918689 -0.08837843 0.049181104 -0.09483415 -0.11127418 -0.07669787
0.052232012 -0.011386231 -0.050328717 -0.040766716 0.0046049803 0.079489276 0.039707318 0.10636526
-0.060464755 -0.0017600954 0.0707746 -0.06768757 -0.103909686 -0.005641386 -0.06742783 -0.020085812
-0.11197901 -0.11884412 0.033819363 0.05629255 0.02272582 0.06124021 0.034519568 0.09402536
0.09241997 0.068310216 0.10848948 0.04123549 0.088459134 -0.0630191 -0.0806479 -0.0787379
0.0949308 -0.0860547 -0.039592728 -0.07007334 -0.0027051568 -0.11826876 0.06613803 -0.030376717
0.04926902 -0.029175982 0.014762834 0.027652487 0.035715923 0.10382749 0.013721153 0.09205751
0.03670393 -0.06996068 0.059623286 -0.03172621 0.08978988 -0.123248205 -0.11313565 0.06534839
-0.016709745 0.042130828 0.12205906 0.018131271 -0.10795416 0.09681234 0.073323 -0.07750589
-0.12355892 -0.11851354 0.07196821 0.056488395 -0.048561335 0.0090684 0.12404215 0.090980634
0.053247005 -0.024830014 -0.07134278 0.088874206 -0.1021346 0.071797386 -0.02020125 0.058641076
-0.0027071238 0.10143529 0.07558128 -0.114188 0.027384564 0.010423988 -0.06383747 -0.094765276
-0.02826862 -0.036091432 -0.032918423 -0.111574605 0.07360613 -0.000995189 0.0011846572 -0.09942275
0.05100763 0.032955065 -0.040820763 -0.09414673 -0.04245846 0.097753584 -0.051571727 0.022823408
-0.11850172 0.008531988 -0.034033254 -0.0008735955 0.08198866 0.09531276 -0.062171534 0.07043204
0.11564024 -0.09806253 -0.080409065 -0.07118045 -0.0538193 0.12392506 -0.04811947 0.12130135
-0.11475845 -0.070587814 -0.06297706 -0.08548516 0.08682163 0.0718835 -0.008601651 0.017647922
0.07778023 0.030696929 -0.03754668 0.02035804 0.09302521 -0.124692425 -0.12453914 -0.082760304
00000000: f0b3 a0bc 1ea6 a63d 1ed6 cdbd 5c94 5fbd
00000010: 368c b6bd 6026 debd 606c 623d 1c25 18bd
00000020: 7c34 553d ecc9 b83d f831 653d 709d d93c
00000030: 0238 a63d 0819 aebc 10e6 fa3d 9831 5e3d
00000040: 903c 763d 8cd6 e93d 4078 863b 244c ac3d
00000050: 74d2 dcbd 6c95 fdbd 865c e13d 500f a93d
00000060: 60c3 903d ee6f ef3d e23f d33d 180b b6bd
00000070: a0bc 5abc 18a3 6abd 36d6 cdbd 282b 773d
00000080: 388f 4c3d 12bf a6bd f085 21bd 009b de3a
00000090: accf 87bd 7073 353d 40b4 d43d 92cc e83d
000000a0: fa22 bd3d 1608 f13d 00bb 6abb 4e0f d23d
000000b0: 0a58 a93d 9ccc 9f3d 4c13 e4bd 6823 933d
000000c0: 1054 763d 581e f1bc 7478 25bd 3cb7 f43d
000000d0: 8c99 6ebd d846 ebbc 42ca e4bd 3651 e23d
000000e0: bea9 fcbd a028 79bc f42b 20bd 10ae fb3c
000000f0: 9088 de3d 484a f23d c0b4 0c3b 1885 56bd
00000100: b68b 87bd fce5 f03d 189e ffbc 88ac c23d
00000110: e886 8d3c 9816 573d d0d1 d33c b8bf b8bd
00000120: 62dd cb3d 841b 23bd 8647 bb3d 6c4c 17bd
00000130: 7014 d7bd 9230 89bd ece3 ab3d fc23 4abd
00000140: 5cf7 e7bd f484 8b3d 2829 b63c e842 e43c
00000150: 50e1 03bd ee46 bdbd 2832 f23c 0083 6abc
00000160: 6876 b33c f083 7a3d 286c 1e3d ece1 45bd
00000170: 1414 76bd a2ce b3bd 40cd 453b 5eab 97bd
00000180: d08b 543d 7e48 c8bd 50a8 303c 7079 d4bc
00000190: 303b 523c 0ab8 80bd 0caa 5a3d 72a1 ec3d
000001a0: 4ce6 3bbd 5cf8 b83d a0ee a13d e06b aabc
000001b0: 04c9 a2bd 34ce 16bd b4cd c0bd e03a f0bc
000001c0: 80af c53b e8be 81bc 4218 f43d c0ff b4bd
000001d0: 2072 493d 6838 c2bd b8e3 e3bd c613 9dbd
000001e0: 3cf1 553d 508d 3abc 7c25 4ebd 00fb 26bd
000001f0: 60e5 963b 46cb a23d 24a4 223d 08d6 d93d
00000200: e4a9 77bd 00b3 e6ba 46f2 903d c89f 8abd
00000210: 9ace d4bd 60db b8bb 9a17 8abd 008b a4bc
00000220: 4055 e5bd 8c64 f3bd 2c86 0a3d 0493 663d
00000230: 802b ba3c 04d7 7a3d 6464 0d3d 5e90 c03d
00000240: ae46 bd3d 3ae6 8b3d bc2f de3d 8ce6 283d
00000250: 102a b53d 2810 81bd ba2a a5bd 5641 a1bd
00000260: 146b c23d 723d b0bd fc2b 22bd 9c82 8fbd
00000270: 0049 31bb e436 f2bd 6073 873d 98d8 f8bc
00000280: 50ce 493d 7802 efbc d0df 713c 7887 e23c
00000290: dc4a 123d 82a3 d43d b0ce 603c a688 bc3d
000002a0: dc56 163d 8c47 8fbd 8c37 743d 58f3 01bd
000002b0: c2e3 b73d 8e69 fcbd aab3 e7bd 60d5 853d
000002c0: e0e2 88bc 6091 2c3d 1afa f93d 0888 943c
000002d0: 1217 ddbd 8c45 c63d 5e2a 963d 68bb 9ebd
000002e0: 760c fdbd 3ab7 f2bd 1264 933d 6060 673d
000002f0: 40e8 46bd a093 143c d009 fe3d 0e54 ba3d
00000300: 8819 5a3d 5068 cbbc 2a1c 92bd ae03 b63d
00000310: f22b d1bd 820a 933d 187d a5bc a031 703d
00000320: 006a 31bb 4ebd cf3d 5cca 9a3d 66db e9bd
00000330: 9855 e03c 60c9 2a3c 38bd 82bd 4c14 c2bd
00000340: 9893 e7bc 9cd4 13bd 78d5 06bd 3a81 e4bd
00000350: d0be 963d 0071 82ba 8046 9b3a 289e cbbd
00000360: 60ed 503d e4fb 063d ac33 27bd 00d0 c0bd
00000370: ece8 2dbd 0833 c83d e03c 53bd 28f8 ba3c
00000380: 08b1 f2bd c0c9 0b3c 7466 0bbd 0002 65ba
00000390: ace9 a73d 5633 c33d 94a7 7ebd ac3e 903d
000003a0: cad4 ec3d 02d5 c8bd 82ad a4bd 0ec7 91bd
000003b0: a071 5cbd 6ccc fd3d ec18 45bd d86c f83d
000003c0: 7a06 ebbd 5890 90bd 1efa 80bd d812 afbd
000003d0: 8acf b13d a837 933d f0ed 0cbc 6092 903c
000003e0: 3e4b 9f3d 2078 fb3c 8cca 19bd e8c5 a63c
000003f0: 0084 be3d be5e ffbd 600e ffbd 3c7e a9bd
