models/gru/GRU_autoencoder.pth (torch, 361488 bytes, 18 tensors)

encoder.gru.weight_ih_l0 f4 [192, 5]
000000 a9 22 12 3e b5 ff 17 3e e0 fb d3 3d ee 95 a3 3d
       0.14271034 0.14843638 0.10350776 0.07987581
000010 a5 86 a1 3e 41 93 b4 b8 2f be d7 bc e4 32 a1 3c
       0.31548038 -8.610497e-05 -0.026335804 0.019677587
000020 b2 21 55 bd de 89 4d 3e 38 10 aa bc 9d 66 e4 3d
       -0.052034087 0.20072123 -0.020759687 0.111523844
000030 d0 af 05 3e 0d c9 e2 3d 0e fe 2a be c2 50 39 3e
       0.13055348 0.11073504 -0.16698477 0.18097213
000040 41 2b e5 3d ce c5 22 3e c8 5c 15 3e f5 e8 e6 bd
       0.11189891 0.15895769 0.14586174 -0.11274902
000050 23 77 07 3e 2c 88 91 bd 3d 46 98 3d fb 44 f6 3d
       0.13229041 -0.07106051 0.07435272 0.12024876
000060 e5 2d f0 3c d4 5d b3 3d b1 cb 76 bd f4 2b 06 3e
       0.02931876 0.08758131 -0.06025285 0.13102704
000070 bc e5 d1 3d 5b ce 03 3e c7 39 fd 3c c9 4b 01 3e
       0.102488965 0.12871687 0.03091134 0.12626566
000080 cd 98 36 bc 05 a2 d5 bd b1 97 96 3e f2 86 48 3b
       -0.011144829 -0.104312934 0.29412606 0.0030598012
000090 1e de 45 bd 63 f1 db 3d 72 05 c6 bd b3 4b 37 3e
       -0.04830753 0.107394 -0.09669007 0.1789997
0000a0 76 08 f4 3c 66 e8 e0 3c 2d d9 4c bd c1 1c 12 bc
       0.02978919 0.027454566 -0.050011802 -0.008917988
0000b0 e6 b0 ab 3c 68 2a bf 3d f2 14 d0 bb 95 6f 9d bd
       0.020958375 0.0933426 -0.006350153 -0.07687298
0000c0 cb d9 c5 3b 30 41 69 3e 01 54 09 3e ec 37 87 bd
       0.006037926 0.22778773 0.13410951 -0.06602463
0000d0 62 6c e9 3d 63 dd b0 3d 7b 14 f6 3d e9 02 98 3d
       0.113976255 0.08635976 0.12015625 0.0742243
0000e0 e1 dd 7e 3d e1 f7 f0 3d e9 24 22 bd 3d 96 9f 3e
       0.06222332 0.11766029 -0.03958598 0.3116931
0000f0 99 57 e7 3a 9b dc e5 3d 15 f4 2c 3e e6 9f 5d bd
       0.0017650008 0.11223718 0.16889985 -0.05410757
000100 9c ee 75 3e ec d7 69 bd 9b ee 3f bb f0 5c 26 3e
       0.24016804 -0.057090685 -0.0029286507 0.1624639
000110 2f 28 bb 3d 29 95 c3 3d 97 3f ae bd dd cb 47 bd
       0.09138524 0.095499344 -0.085082226 -0.048778404
000120 33 87 4b bd 83 76 62 3c 7b 4c 53 3d 67 c0 16 3e
       -0.049689483 0.013822201 0.05158661 0.14721833
000130 9c bb ec 3a f5 52 30 3e 82 5c 04 bd 8b 37 92 3e
       0.0018061283 0.17219146 -0.032314785 0.28558
000140 fe 24 6a 3d 63 0e 30 bd 00 a9 4e 3c 8b 33 8c 3d
       0.057164185 -0.04298247 0.012613535 0.068457685
000150 60 e1 3f 3d 81 0a 05 3e 92 c1 6d 3d 4f ae 92 3d
       0.046845794 0.12992288 0.05804593 0.07162153
000160 f6 4c 36 bd b1 ad 1c 3e 31 01 f0 3c 61 d9 22 bb
       -0.04450699 0.15300633 0.029297443 -0.0024848806
000170 fd 5b b5 bc 72 e4 80 bc 79 48 a3 3e fc ba 5f bd
       -0.02213859 -0.015733931 0.3189123 -0.05462168
000180 d9 83 2d 3e be da f2 3d 32 d8 88 bd 8a 5e 74 3e
       0.16944827 0.11858128 -0.06681861 0.23864189
000190 d5 7a 71 3b 58 7d 0a bc 08 5e 6f bc 0d ba 4f 3d
       0.0036846895 -0.008452736 -0.014609821 0.05071454
0001a0 6a 4b 45 bd 6c 02 ab 3d 00 e8 6e 3d 5b db 98 bd
       -0.048167624 0.08350071 0.05832672 -0.07463714
0001b0 7b 97 61 3d e9 e7 44 3e 20 7f 4a bd 81 00 6f bd
       0.055076104 0.19229092 -0.049437642 -0.05835009
0001c0 19 cd ae 3c f2 bd 69 bd 43 83 e2 3b d9 46 09 3d
       0.021338033 -0.05706591 0.0069126203 0.03351483
0001d0 95 c1 13 3e e7 e5 88 3d e5 9e d1 bc 84 9a 69 3d
       0.14429314 0.066844754 -0.025588462 0.057032123
0001e0 78 8d 54 3d d6 6b 99 3d eb c4 aa 3d eb 05 b2 bd
       0.051892728 0.07491271 0.0833834 -0.08692535
0001f0 4a cf 1c bd 96 80 85 bd 3c a8 bd bd cf 96 17 bd
       -0.038283624 -0.065186664 -0.09260604 -0.037009057
000200 d4 00 15 bd 82 f3 6e 3e 1a ab fe bd 06 82 cb 3d
       -0.036377743 0.23335078 -0.12434979 0.099369094
000210 2c 8b f1 3c 91 b4 b0 bd c8 b9 16 bf 3b 73 0f be
       0.029485308 -0.0862819 -0.5887723 -0.140088
000220 27 6f f1 bd 8e 12 89 bb fa c7 eb bd db f5 66 be
       -0.11788779 -0.00418312 -0.11512752 -0.22554724
000230 2a 9f ac 3d 1e 2c 90 bd dc 14 8c bc bb e5 04 3e
       0.08428796 -0.07039665 -0.01709979 0.1297826
000240 c2 9c 11 3e 0b 31 af 3d d8 ce 20 3e 45 79 58 3d
       0.14219955 0.08554276 0.15703905 0.052850027
000250 b9 3d 11 3e da 5c a2 3d ae 5d 0e 3e b7 71 d2 bc
       0.14183702 0.07927866 0.13902923 -0.02568899
000260 17 63 03 3e 75 27 4e 3d 4e 56 76 3d 99 59 9d 3d
       0.12830769 0.050330598 0.0601409 0.07683105
000270 c2 36 4a bc 57 56 ee 3d 14 3e 93 bd 8f 56 ae bd
       -0.012342157 0.11637562 -0.07189575 -0.085126035
000280 fb 60 b7 3d 20 af 84 3d a0 06 5f bd 70 27 95 3d
       0.089540444 0.06478715 -0.054449677 0.07282913
000290 ab 89 1d 3e c8 04 26 3e fd 00 79 3c e6 ae 51 bd
       0.15384547 0.16212761 0.0151979895 -0.051192187
0002a0 0d 2c ff 3c 82 36 05 3e c9 3d 1a 3e a3 76 88 3d
       0.031148935 0.13009074 0.15062632 0.06663253
0002b0 38 a8 2a 3e d1 b8 5c 3d 50 4a 28 3e 0f b5 23 bd
       0.16665733 0.053887192 0.16434598 -0.039967593
0002c0 a1 7d 33 3d ad 12 96 bd 24 9f 05 3e e1 26 ef bd
       0.04382098 -0.07327781 0.13048989 -0.116773374
0002d0 ce c5 dd 3d a4 c5 99 bd f1 b5 28 3e 0e 7d f9 3b
       0.10828744 -0.075084 0.16475655 0.0076137846
0002e0 d7 7f 83 3d 0f f0 48 bc 73 ed 24 3d 88 fc b4 bc
       0.06420868 -0.012264266 0.04026551 -0.022093073
0002f0 6f 6d 5d bd e1 2b c4 3d d5 0d 02 3e 8a e7 88 3a
       -0.054059442 0.09578682 0.12700589 0.001044498
000300 4a d7 0b bd 2f 50 cb 3d d2 d2 96 3e 61 e6 97 bd
       -0.034140863 0.09927403 0.29457718 -0.07416988
000310 14 ca a2 bd 38 8b ae 3c 89 a5 ac 3d 30 f4 15 3d
       -0.079486996 0.021306619 0.08430011 0.03660983
000320 75 99 82 3c 28 09 d1 bd d6 fa 48 bd 96 1a 6a 3d
       0.015942315 -0.102068245 -0.04906734 0.05715426
000330 17 18 82 3e 46 56 3d bd 1f ae ad bd 58 6c f4 3d
       0.25409004 -0.046224855 -0.084804766 0.119347274
000340 56 7f 90 3d ce e2 47 3e c8 01 33 3d 3b ba ab bc
       0.070555374 0.19520113 0.04370287 -0.020962825
000350 f9 0d 97 3d 52 df 80 3d 81 13 f1 3d 86 0b a8 3d
       0.07375712 0.06292595 0.11771298 0.08205323
000360 53 5a 40 bd ec f4 20 b9 de 3c fb 3d eb ae 49 3e
       -0.04696114 -0.0001535003 0.12267469 0.19695632
000370 f0 9d 26 3d 0e 81 b8 3c d7 c5 bf bc 13 fe 40 bd
       0.040677965 0.022522476 -0.023409767 -0.047117304
000380 cc 8f e4 3c 16 ca bc 3d 44 5e a1 bd bf ec 0e 3c
       0.027900599 0.09218232 -0.07879308 0.008723437
000390 c3 7d a7 bd fa cb 07 3e 74 e0 11 3e b4 88 90 bc
       -0.08178284 0.13261405 0.14245778 -0.01764331
0003a0 20 8a b7 bc 8b f5 1b bd 0a 75 ba 3e c5 e5 8d 3c
       -0.02240473 -0.038075965 0.3641742 0.017321477
0003b0 a5 40 d6 3d 95 64 af bc 83 eb 27 bd e4 87 85 3d
       0.10461549 -0.021410266 -0.040996086 0.0652006
0003c0 21 37 70 bd 23 a1 11 3d aa 26 ae 3d 2c 61 63 bc
       -0.058646325 0.035554063 0.08503468 -0.013878148
0003d0 aa cf 2a 3e ff e3 54 3d 12 6b d8 3b d8 7d 81 bd
       0.1668078 0.051975247 0.0066045607 -0.06322831
0003e0 9f 10 2d bd 7d 2c a1 3c 2a c6 99 bd 07 98 56 3d
       -0.04225218 0.019674534 -0.075085 0.05239108
0003f0 cd db 95 bd cb 3b 82 bc 37 1c d4 3e ce 6a 14 3e
       -0.07317314 -0.015897652 0.41427776 0.14493868

encoder.gru.weight_hh_l0 f4 [192, 64]
000000 fe cc 8d bd 93 5b b3 bc 22 37 30 3d c2 fe ca bc
       -0.06923865 -0.021894252 0.04302133 -0.024779681
000010 0d 25 3a bd 54 0f 65 3d 7f c4 12 be 9f 58 11 3e
       -0.04544549 0.05592282 -0.1433277 0.14193963
000020 40 8b 95 3c eb 2e 33 3d de f8 ad bb 78 07 8c bc
       0.018254876 0.043745916 -0.0053092083 -0.017093405
000030 08 09 e7 3d 3a e4 f6 bc 99 41 20 bd 98 96 2b bd
       0.112810194 -0.030138124 -0.03912506 -0.041891664
000040 8e e6 2a 3d f8 4b 35 3c 9b 83 2e bc 64 5e 5d 3b
       0.04172378 0.011065476 -0.010651494 0.0033778185
000050 1e 47 dd bd 62 8a 98 bd c4 10 36 bd 33 db 8a bd
       -0.1080458 -0.074482694 -0.044449583 -0.0678009
000060 4e a8 9f bd 56 c7 28 bd a0 29 39 bd c6 3e 7c 3d
       -0.077957734 -0.041205727 -0.045205712 0.061583303
000070 60 f9 bf 3c 79 6f 96 bd a3 a3 7b 3d 5f 19 b5 3d
       0.023434341 -0.073454805 0.061435353 0.0884273
000080 b1 22 ab 3c 4f db 1d 3e f3 d6 bc 3d 4c d5 ba 3d
       0.020890566 0.15415691 0.09220686 0.091227144
000090 14 95 9c bd d8 7e a3 3d 58 1f 89 bd 4c 42 10 3e
       -0.07645622 0.07983178 -0.066954315 0.1408779
0000a0 c6 b2 00 3e b6 c1 10 3e 76 2f 41 3b e5 8c a9 bc
       0.12568197 0.14136395 0.0029477752 -0.020697067
0000b0 e3 c6 18 be 12 e8 23 3d 25 6a 96 bd d1 2f 02 3e
       -0.1491962 0.04001624 -0.07344464 0.12713553
0000c0 02 31 14 bb 47 6a 39 3d b6 4c fe 3d 29 29 a4 bd
       -0.0022612219 0.04526737 0.12416975 -0.08015663
0000d0 4a 76 91 bd ce 5d 81 3c 5e 9f aa bc a3 ec 6d bd
       -0.0710264 0.0157918 -0.020827945 -0.058087002
0000e0 37 cf 82 3d c5 c7 c1 bd 6b 09 05 3d e2 0e c6 bc
       0.06387179 -0.09461931 0.032479685 -0.024177019
0000f0 34 55 c7 bc 1d 4b d0 3c 8b 0f f5 bd f7 4b b8 3d
       -0.02433262 0.025426442 -0.11965855 0.08998864
000100 11 bc 8f bd e1 30 75 3c 99 d5 58 bd 70 3a 18 be
       -0.07018293 0.014965267 -0.052938078 -0.14866042
000110 27 7a 1b 3e 92 44 2c 3d 63 5d 6f bc cd 42 2d 3e
       0.15183316 0.04205758 -0.0146096675 0.16920014
000120 b8 33 03 be 06 73 71 3d fc 2f 99 3c a8 6d 96 3d
       -0.12812698 0.058947586 0.018699639 0.07345134
000130 98 37 d9 3c 4a 9b 09 bd 52 94 13 be a0 da 26 bd
       0.026515767 -0.03359536 -0.14412048 -0.04073584
000140 06 17 20 bd 06 38 0f be 81 55 d0 bd ba 89 aa bd
       -0.039084457 -0.13986215 -0.101725586 -0.083270505
000150 ad 51 db bd e8 30 4d 3c 87 23 49 bc 16 07 28 bd
       -0.10708938 0.012523867 -0.012276537 -0.041022383
000160 d3 14 d9 bd a8 2b 19 bd 52 db e4 bd 48 cc 8d 3d
       -0.10599675 -0.03739515 -0.111746445 0.06923729
000170 95 c2 0e 3e e1 2b 6c 3b 19 a6 b6 bd e3 bc a7 bd
       0.13941415 0.0036036896 -0.08918399 -0.08190324
000180 92 9d a0 bd 33 f6 a0 bd 2b df cb 3d d2 a5 16 bc
       -0.07842554 -0.07859459 0.09954675 -0.009194808
000190 7a b4 9e bc 5d 3b 89 3d 96 08 ca bd a8 f5 14 bd
       -0.019373167 0.06700776 -0.09864919 -0.03636709
0001a0 52 4d 4a bd 06 1f a9 bd 09 ba dd bd c5 20 44 bd
       -0.049390145 -0.082578704 -0.10826499 -0.047882814
0001b0 a3 24 00 3d 03 2e 84 3d bb 69 cd 3d 89 44 40 bd
       0.03128494 0.064540885 0.10029932 -0.04694036
0001c0 57 23 01 3e 98 4e 25 3d dc fd 81 bc 8b 29 69 bd
       0.12611137 0.040358156 -0.01586812 -0.056924384
0001d0 d9 f7 00 3b 30 73 7c bd ff fe 97 3d 49 db 0a 3e
       0.0019678979 -0.06163329 0.074216835 0.13560213
0001e0 c6 5f 67 bd 6c 13 89 3c b1 a7 67 3d 3c d8 04 bd
       -0.05648782 0.016732894 0.056556407 -0.03243278
0001f0 d6 bb df 3c 20 ef cc 3c 46 a9 d7 bd ea e5 19 3e
       0.027311247 0.025016367 -0.10530333 0.15029112
000200 34 89 74 3d fa e9 3c be 9b 2e 82 bd c5 c9 8a bd
       0.05970116 -0.1844863 -0.063565455 -0.06776766
000210 2c 19 1c 3d 3f 12 f5 bd 7e 15 fa bd 8b aa 9f 3d
       0.038109943 -0.11966371 -0.122111306 0.077962
000220 34 ea 26 3c 0a 40 df 3a 13 0a 8a 3d be 94 27 3e
       0.010187674 0.0017032635 0.06740203 0.16365334
000230 fa d3 d9 3d 66 ea 06 bd 2d 42 0a 3c e0 41 11 be
       0.106361344 -0.032938384 0.008438629 -0.14185286
000240 e5 e6 cd 3d 0b 5f 20 bd 40 78 22 be 28 ce 10 3e
       0.10053805 -0.03915314 -0.15866184 0.14141142
000250 cd a2 d0 bc fa 60 4c be 94 2d 3a 3d 94 c2 ff 3d
       -0.025468254 -0.19958869 0.045453623 0.12488285
000260 6f 5d 89 3d 03 5e 4c 3e 55 00 57 3b 4b cf 36 bd
       0.06707274 0.19957738 0.0032806594 -0.044631284
000270 69 11 0c 3d 07 7e 0c be 73 28 4a be 95 66 16 be
       0.03419629 -0.1371995 -0.19741993 -0.1468757
000280 50 66 2d be c5 81 61 3e 18 b0 49 3e 4e 6c 8d ba
       -0.1693356 0.2202216 0.1969608 -0.0010789724
000290 68 21 19 3e b8 18 c0 3c a4 3b 7b 3c 51 44 ee 3d
       0.1495415 0.023449287 0.015334044 0.11634124
0002a0 b9 e9 35 3e 92 1a ae bc 51 6a 1b bc 58 b6 2a be
       0.1776494 -0.021252904 -0.009485797 -0.16671121
0002b0 0c 25 cf 3b fa da 61 be 47 e8 b5 ba b6 74 14 3e
       0.006321555 -0.22056189 -0.0013878428 0.14497647
0002c0 c8 2c 42 3e 7e 4a 0a 3e 62 4f a6 3d 26 e1 14 3d
       0.18962395 0.13504979 0.0812061 0.03634753
0002d0 17 f7 d7 bc c4 6e 57 3e f6 7a 26 be 7c 64 67 3d
       -0.026362939 0.21038347 -0.16257843 0.056492314
0002e0 b5 aa 46 be 7d e4 4f 3d d6 9e 5c bd 29 ca e9 bc
       -0.19401057 0.050755013 -0.053862415 -0.02853878
0002f0 86 a0 58 be a6 24 af bd 96 a4 66 bc df 90 67 3d
       -0.21154985 -0.08551912 -0.014077326 0.056534644
000300 3e 49 0d 3e 8f a7 3c 3d 5b 36 45 3d d1 5c 1e bc
       0.13797471 0.046058234 0.04814754 -0.009665684
000310 f3 9b 2f 3e 01 8b a4 3d e2 06 09 be e4 63 94 3d
       0.17149334 0.080343254 -0.13381532 0.07245615
000320 27 50 42 bd 81 f4 a6 bd 54 e1 cc 3d 57 ac 64 3c
       -0.04743972 -0.08152104 0.100039154 0.013957105
000330 b3 6c 19 3e 90 e2 b5 bd 99 2f 8d 3c 1b c2 ba 3c
       0.14982872 -0.08881104 0.01723461 0.022797635
000340 3d 4c a7 3d 79 82 31 be 53 5b 62 bb 95 18 ef 3d
       0.08168838 -0.17334928 -0.0034539297 0.116746105
000350 d9 b3 14 be 6e 72 0b be 29 ed 56 3c 4a 2c 06 3e
       -0.14521731 -0.1361787 0.013118067 0.13102832
000360 2c 0c 1e 3d 2b a9 d3 3d f2 3e 07 bd 4c 95 5a 3d
       0.038585827 0.103350006 -0.033019014 0.053365037
000370 80 59 c8 bb 81 75 80 3c 5c 04 80 3d 3f de 8f bd
       -0.006114185 0.01568103 0.062508315 -0.07024812
000380 c0 0d 10 be 5c 18 00 bc 52 12 6d 3d 8e ed ed bd
       -0.14067745 -0.007818308 0.0578788 -0.116175756
000390 71 55 6d bd 26 00 73 3d d4 39 65 3d 0a 8c e0 3d
       -0.05794281 0.059326313 0.055963352 0.1096421
0003a0 72 dd 48 3c 93 c5 2b 3e c6 8e 09 3c 36 f8 2b 3d
       0.012259828 0.16774587 0.008395856 0.04198476
0003b0 4b 54 61 bd 64 f7 ba bc 79 6e 37 bd e8 7b 22 3e
       -0.05501203 -0.022823043 -0.04478309 0.15867579
0003c0 da 7e 9c 3d b5 87 ce bc 1f d0 89 bd 8f ea e2 3c
       0.076413825 -0.025211195 -0.06729149 0.027699737
0003d0 18 3a 27 3e 42 cc 6a 3d d4 ff 87 bd 8d dc 42 bd
       0.16330755 0.0573237 -0.06640592 -0.047573615
0003e0 37 5f 8b bd 9c 17 1f bd 56 03 56 3d 6f 5b 11 3e
       -0.0680527 -0.038840875 0.052249275 0.14195035
0003f0 18 8e 28 be 68 12 00 be 8d 89 c8 bd 24 d9 3f bd
       -0.16460454 -0.12507021 -0.09791861 -0.04683794

encoder.gru.bias_ih_l0 f4 [192]
000000 bb 73 a7 bd 06 6a 72 3d 91 a6 24 3e 9c 9f 85 bd
       -0.08176371 0.059183143 0.16079165 -0.06524584
000010 0d f6 90 bd 51 3b 3d 3d a9 db a0 3d c2 00 b1 bd
       -0.070781805 0.046199147 0.07854397 -0.08642723
000020 0a 1b b4 3d ac a9 17 3d 33 b1 37 3d a9 f9 9f 3c
       0.0879422 0.037027046 0.044846725 0.019528227
000030 1b c7 2e bd e8 33 d2 3c d4 f6 12 3d e7 ec 5b bd
       -0.04267035 0.025659516 0.035879925 -0.053692725
000040 fc 47 a5 bd bd 22 33 bd 2f 28 a6 3d 45 70 dd 3d
       -0.080703706 -0.0437343 0.08113133 0.10812429
000050 a0 05 d1 bd eb eb ab bc 9b 38 a9 3d e8 57 ad bd
       -0.10206151 -0.020986518 0.0826275 -0.084640324
000060 9f f7 cf 3c 53 28 d5 3d af 51 b6 3d 1e 0c 1e bb
       0.02538663 0.10408082 0.08902299 -0.002411611
000070 c7 ce 8a bc 89 4b 07 3e eb 74 6f bd 7a 2b f8 3d
       -0.016944302 0.13212408 -0.05846111 0.121176675
000080 32 cb b5 3d e5 f6 a0 bd 6a 35 bf 3d dd 15 c5 3d
       0.08876647 -0.078595914 0.0933636 0.09623311
000090 93 9d 92 bd 87 ac 09 bd 87 bd c8 bc 72 f9 39 bd
       -0.07158961 -0.0336118 -0.024504436 -0.045403905
0000a0 1a 49 38 3c 3a 96 1f bd 8a 24 dd 3d f9 f3 75 bd
       0.0112478975 -0.038961627 0.10797985 -0.060047124
0000b0 cb e8 e7 bc 2e 99 4e bd 4f ed 0f 3e de 4a e1 3c
       -0.028309247 -0.050439052 0.1405537 0.02750152
0000c0 a5 cc 5d bd 8f 23 a2 3d 4d 84 09 3e cf 5f bb 3c
       -0.054150242 0.079169385 0.13429375 0.022872834
0000d0 b8 a7 ba 3d 94 f8 69 3d 28 ad 80 bb 90 1b 0e 3d
       0.09114021 0.05712183 -0.003926892 0.034694254
0000e0 03 16 cd 3d a1 72 9e bc aa 78 e8 3c c6 1b 61 bd
       0.10013964 -0.019341769 0.02837785 -0.054958127
0000f0 e1 05 a6 3c 34 f2 09 bd d0 14 b5 bc 0e ac 4c 3d
       0.020266475 -0.03367825 -0.02210465 0.04996877
000100 80 48 f9 3d f7 37 64 3d 1a 98 eb 3d 69 e0 1f 3e
       0.121720314 0.055717435 0.115036204 0.1561295
000110 b9 ac bf 3d ea 2f 67 3d c1 19 4e 3e 7a c3 0c 3e
       0.09359116 0.05644218 0.20127012 0.13746443
000120 2c 0c c9 3d db 2c 1f 3e f9 33 56 3e aa 5e a0 3d
       0.09816775 0.15544455 0.20918263 0.07830556
000130 c8 c9 b2 3d 31 99 61 3d 18 da 6e 3d a5 e1 41 3e
       0.08729893 0.055077735 0.05831346 0.18933733
000140 f1 e6 1c 3e 54 e7 18 3e e6 a4 9f 3d a7 ef 1d 3e
       0.15322472 0.14931995 0.07795124 0.15423451
000150 1f 51 0d 3e ec 6d e5 3d 29 b7 99 3e ab 3c 0b 3e
       0.13800476 0.112026066 0.30022553 0.13597362
000160 2e ff 6b 3d dc fe 79 3e aa fc 39 3d 2c dd 43 3e
       0.057616405 0.24413627 0.045406975 0.19127339
000170 d6 8a 08 3e de f5 68 3d 43 34 9e 3d 3c e1 30 3e
       0.13334212 0.056875102 0.07724812 0.1727342
000180 c4 42 ce 3d c6 b1 0e 3e b2 5e 61 3e c9 7d 7e 3e
       0.10071328 0.13935003 0.2200878 0.2485267
000190 02 07 2f 3e f9 f9 1c 3e 22 c0 4b 3e 21 b3 a1 bc
       0.17092517 0.15329732 0.19897512 -0.019738736
0001a0 d6 ad 12 3e 4d b8 41 3c 8c 3e 46 bd 14 51 b5 3d
       0.14324126 0.011823726 -0.048399493 0.08853355
0001b0 af cb 85 3d fe b9 29 3e c2 07 1f 3e 3d a7 ab 3d
       0.0653299 0.16574857 0.15530303 0.083815075
0001c0 89 ef ad 3d 00 cb 9a 3d bc 91 9d 3d 09 b6 04 3e
       0.08492953 0.075582504 0.07693812 0.12960066
0001d0 58 17 8f 3e 08 f0 06 3e 23 98 be 3d 10 68 04 3e
       0.27947497 0.13177502 0.093063615 0.12930322
0001e0 21 1d e4 bc e2 76 b5 3d b0 7f e8 3c de 51 5b 3e
       -0.027845921 0.08860566 0.028381199 0.21417949
0001f0 4e d3 49 3e 44 f6 46 3e 9a 2e b0 bc ec eb f3 3d
       0.19709513 0.1942988 -0.021506596 0.11910233
000200 0f 6e ab bd 79 74 17 bc e5 dd 78 bd d6 dc c6 bd
       -0.083706014 -0.009244078 -0.06075849 -0.0971009
000210 06 25 6e bb 61 38 a5 3d 0c 41 bd bc 72 15 e6 bd
       -0.0036337986 0.08067394 -0.023102306 -0.11234559
000220 f0 70 09 be 97 5e 9c 3d b1 80 1c 3d a8 72 a6 bd
       -0.13421988 0.07635229 0.038208667 -0.08127338
000230 71 15 75 bd a1 0b a7 3c 11 79 7f 3c f7 09 55 bd
       -0.0598349 0.020391287 0.015592829 -0.052011456
000240 61 99 80 bc 39 39 3c 3d ac 9b 88 3d d2 18 00 be
       -0.015698137 0.04595301 0.06670317 -0.12509468
000250 c8 47 cc 3d cc f2 e1 3d 59 ec 0e bd c0 20 c5 3d
       0.09974629 0.11032638 -0.034893367 0.09625387
000260 1a bf ac 3d 68 b8 06 3c e5 ad be 3d 37 30 cf 3d
       0.08434887 0.008222677 0.093105115 0.10116618
000270 b2 09 cc 3d 2c f8 99 3c 15 f6 c7 3d 87 34 73 bc
       0.09962787 0.018795095 0.09763733 -0.014844066
000280 74 b3 b5 3d 2c e4 89 3c 6b 0f 56 bd 59 f2 e5 bd
       0.088721186 0.016832434 -0.052260797 -0.11227865
000290 10 93 b0 3d b4 58 67 bd 41 f5 b7 bc 2b b2 81 3d
       0.086218 -0.05648108 -0.022455813 0.06332811
0002a0 e0 f0 a0 bd 9a 28 95 bd d4 17 ed 3c ef 3f 32 bc
       -0.07858443 -0.07283135 0.028942026 -0.010879501
0002b0 6a fd de 3d 29 73 02 bd f4 d9 ef 3d bc 68 a9 3c
       0.10888179 -0.031848107 0.11711493 0.020679824
0002c0 48 8a b9 3d 62 01 a2 3d 88 5e bc 3d c1 f0 67 3c
       0.09059578 0.0791042 0.09197718 0.014156521
0002d0 d4 0a d0 3c 9c 9c 5f 3c 63 86 fb bd d0 29 23 3c
       0.025395788 0.013648178 -0.122814916 0.009958699
0002e0 b4 0c 8e bc 73 7e 83 bd f9 15 79 3d bd 51 96 bd
       -0.017340042 -0.06420603 0.06081197 -0.07339809
0002f0 6f 48 64 bd 23 e7 13 3d 3d ae 09 3c 16 5c 3e bd
       -0.05573314 0.0361091 0.008403358 -0.04647454

encoder.gru.bias_hh_l0 f4 [192]
000000 dc 18 cb 3d 60 59 c8 3d 7c 92 07 3d aa bf 39 3d
       0.09916851 0.09782672 0.033098683 0.0453488
000010 21 8f c6 3d d1 42 b3 bc ad 16 bd 3d f5 a0 62 bd
       0.096952684 -0.021882446 0.09232841 -0.05532928
000020 1a 7e bd 3d 67 b2 6a 3e 27 0b ff 3b ce b0 33 3d
       0.092525676 0.22919618 0.007783312 0.043869786
000030 fd 23 04 be e8 48 0a 3e 0a 5a 2a bd 58 b4 2b 3e
       -0.12904353 0.13504374 -0.041589774 0.16768014
000040 75 52 b8 bd 5d 91 e8 bd 82 e2 a6 bd 18 4d 84 3d
       -0.090001024 -0.11355851 -0.08148672 0.06460017
000050 dc ed 08 3d 28 40 23 3d dd f4 5a 3d 59 fa ce 3d
       0.033429965 0.039856106 0.053456176 0.10106344
000060 40 33 1c 3e 38 21 66 3d 9d f3 00 bd c0 69 02 3e
       0.15253925 0.056184024 -0.031482328 0.12735653
000070 b8 d0 87 bd 82 bb 85 bc ad c6 52 bd 96 8a ed 3d
       -0.06631607 -0.016324762 -0.051459003 0.11598699
000080 ba b4 1e 3d 07 97 39 bc 23 49 84 bc aa 8a 8b 3d
       0.038746573 -0.011327512 -0.016148156 0.068135574
000090 71 ab 92 bd ed 87 dc 3d aa 73 b0 3d d8 ab 29 bd
       -0.07161606 0.10768113 0.08615811 -0.04142365
0000a0 04 f4 f8 3c ea ad a5 bd 5b eb f5 3c 26 8f 90 bd
       0.030389793 -0.08089812 0.030019453 -0.070585534
0000b0 b9 1b d6 bd 39 cf 8b 3d 5e be fe 3d 3e ec 11 3e
       -0.104545064 0.06826634 0.124386534 0.14250275
0000c0 85 df 85 3d 93 fd 2a 3e 07 93 a8 bd 79 4f 4c bd
       0.065367736 0.16698293 -0.08231168 -0.04988048
0000d0 6d 6f fd 3d 26 70 07 3d 9e 2e 42 bd 80 6f 95 3d
       0.123747684 0.033065937 -0.04740774 0.072966576
0000e0 c0 85 03 3e 45 90 ed 3d 54 f5 af 3c d5 b1 d7 bc
       0.1284399 0.11599783 0.021479286 -0.026329914
0000f0 fa c0 25 bc 47 3e ae bd 9b 8e 02 3e 3f 1e a1 3d
       -0.01011681 -0.08507972 0.12749712 0.07867097
000100 f3 f7 2d 3e 9a 14 37 3e e0 1e 28 3e 24 c3 0f 3e
       0.16989116 0.17878953 0.16418028 0.14039284
000110 4d 71 ff 3c 3e da 9e 3d ac fa 46 3d 92 b4 39 3d
       0.031181956 0.0775647 0.048578903 0.04533822
000120 8a bb 7e 3d c5 6e 9e 3d 17 e4 d1 3d 70 10 50 3e
       0.06219057 0.07735971 0.10248583 0.2031877
000130 98 06 6b 3d 3c 99 b8 3d 90 40 da 3d 69 86 9a 3d
       0.057379335 0.09013602 0.106568456 0.07545168
000140 02 5a 14 3c 3d ab c0 3c 9c a4 3c 3e ae 19 d1 3b
       0.009054663 0.023519153 0.18422168 0.006381235
000150 82 b5 43 3e c8 3f 9e 3e 72 a4 9f 3e 57 42 32 3d
       0.19112208 0.30908036 0.3118015 0.043520298
000160 9f 22 a2 3d 9a 77 bd 3e b6 00 3b bd e1 34 c6 3c
       0.0791676 0.3700531 -0.045654975 0.024195137
000170 29 08 03 3e a1 63 82 3e 8d c7 86 3e fc 03 c2 3d
       0.12796082 0.25466636 0.2632412 0.09473416
000180 29 f8 8b 3e 34 cd b7 3d 4d b3 04 3e d4 fd 8d 3e
       0.2733777 0.08974686 0.12959023 0.27732718
000190 59 d5 97 3e a1 1a 56 3d a4 03 81 3c 08 39 9e bd
       0.2965496 0.05227149 0.015748806 -0.077257216
0001a0 8f 15 06 3e 66 f5 f7 3c 37 a1 e3 3d 16 d6 0e 3e
       0.13094161 0.030268382 0.11114734 0.13948855
0001b0 38 66 ee 3d 55 6e 22 3e 10 97 69 3e d7 9d 82 3d
       0.116405904 0.15862401 0.22811532 0.06377762
0001c0 56 31 ea 3d ba 74 bd 3d 05 12 ec 3d d8 86 b2 3a
       0.11435191 0.092507794 0.115268745 0.0013620509
0001d0 87 96 e2 3d 5e cd 55 3d 13 f2 e4 3d bc 78 36 3e
       0.11063867 0.052197807 0.111789845 0.17819494
0001e0 93 f1 eb 3d e8 53 a2 3c bc 76 c3 3d cc d7 c4 bc
       0.11520686 0.0198154 0.09544131 -0.024028681
0001f0 fe cb 97 3d ea aa 1a 3c 7f 48 cd bd e7 11 32 3d
       0.07411955 0.009440163 -0.10023593 0.043474104
000200 f7 5d 80 3d a0 a9 a1 bc b9 df 02 3e 73 40 6e bd
       0.06267922 -0.019734204 0.12780656 -0.058166932
000210 fb 04 ae bd 53 c7 9a bc 10 84 07 3c c0 7e 9c 3d
       -0.08497044 -0.018893873 0.008271232 0.07641363
000220 76 de a0 3d 6f 7d 45 3d be 8d 94 bd f6 1e db 3d
       0.07854931 0.048215326 -0.07253598 0.10699265
000230 c3 b8 ac 3d b1 60 48 3d 8e 68 a9 3d 16 d2 cb bc
       0.08433678 0.048920337 0.08271895 -0.02488045
000240 28 19 e1 3d fe f1 d4 3c 19 60 b0 bd 68 32 a3 3d
       0.10991126 0.025994297 -0.08612079 0.079685986
000250 3c 14 ca bd 90 b8 9b bb fa 02 4a 3d 0a 9f 24 bd
       -0.09867141 -0.004752226 0.049319245 -0.040190734
000260 a0 cd 11 bd d7 41 de 3d e8 8f 10 3d 56 80 fc bd
       -0.03559649 0.10852402 0.03529349 -0.12329166
000270 aa 7f 16 3d 1f cf 2d bd e2 2f b5 bd 2f 85 8e bd
       0.036742844 -0.042433854 -0.088470235 -0.069589965
000280 23 75 af bd 96 3b af bd 8a 18 0e 3e 9a 16 70 bd
       -0.08567264 -0.08556287 0.13876548 -0.058615305
000290 ab 2a 7b bd 9c 95 09 3d 48 23 1a 3c f6 ca 9b 3d
       -0.06131999 0.033589944 0.009407826 0.07607071
0002a0 20 17 8a bd 8e 06 b3 3c d9 2e 25 bd e4 0c 3e 3d
       -0.06742692 0.021853711 -0.04032788 0.046399012
0002b0 ef 2d 05 be 76 16 6c bc 79 75 94 bc 9f 6b 46 3c
       -0.13005804 -0.014409652 -0.018122422 0.01211062
0002c0 fb 6f 62 3c 9e fc a0 bd 0b 2c 2f bc 59 94 c7 3d
       0.013820644 -0.07860683 -0.010691653 0.09745092
0002d0 98 5f a4 bc 65 fd 3a 3d 50 fb 18 3d 00 1c 8c bd
       -0.020065114 0.045651812 0.037349045 -0.06841278
0002e0 37 c2 43 3c 6e e1 48 bd 74 09 ef bc e5 53 87 bc
       0.01194816 -0.04904311 -0.029179312 -0.016519496
0002f0 62 31 f7 bc 91 94 0c bd 63 e1 01 bc c1 e8 73 3d
       -0.030174915 -0.03432137 -0.007927272 0.059548143

encoder.gru.weight_ih_l1 f4 [192, 64]
000000 f1 97 a6 3d a3 54 35 3d 8c 1f 5b bb fc 4c e8 bd
       0.08134449 0.04427017 -0.0033435551 -0.113428086
000010 54 72 9f bd ab f1 04 be 0b 81 b0 bd e3 74 ab 3d
       -0.07785478 -0.12982814 -0.08618363 0.08371904
000020 90 41 7b 3d d1 34 1d be 3d ce da 3d af d8 bb 3d
       0.061341822 -0.15352179 0.10683868 0.091721885
000030 8e 84 3c 3e f5 81 70 bb 9b df 05 be 62 9b 80 bd
       0.1840994 -0.0036698554 -0.1307358 -0.06279637
000040 5e 09 3a 3d fc 5f f5 3d 1c 42 25 bd 0c 61 74 bc
       0.04541909 0.11981198 -0.04034625 -0.014915716
000050 a8 d9 ad bd c7 fe 21 3b dc 81 d7 3d 72 a1 12 bc
       -0.0848878 0.002471851 0.105228156 -0.008949624
000060 49 49 b2 3d 97 32 9e bc 96 de 8e 3d 73 47 46 3d
       0.08705384 -0.019311232 0.06976049 0.048407983
000070 68 fa dd 3d 40 40 ca bd 8a eb d5 bd 2b 3a d7 3d
       0.10838777 -0.09875536 -0.10445316 0.105091415
000080 78 0e 08 bd d7 88 09 3e 9d d8 10 bd 21 31 b8 3d
       -0.033216923 0.13431107 -0.03536283 0.089937456
000090 15 cc 2c bd 94 a8 6a bb 5d da 80 3c 95 71 77 3c
       -0.042186815 -0.0035806047 0.015729124 0.015102764
0000a0 ab 4d 31 bd e9 d7 83 bb 7a b9 ab 3d 90 ff dc bd
       -0.04328696 -0.004023541 0.08384986 -0.10790932
0000b0 b7 b1 9e 3d 68 b0 cd bc 31 4a b5 bd e2 80 14 3d
       0.0774874 -0.025108531 -0.088520415 0.036255725
0000c0 2c 96 41 3d 40 00 82 ba 2b a5 ca bc 2b fb 9a 3d
       0.047262356 -0.0009918287 -0.024736961 0.07567438
0000d0 8c 07 34 bc b8 7a ff 3c be 57 b3 3d e3 bf 08 3e
       -0.010988127 0.031186447 0.0875697 0.13354449
0000e0 5e 23 90 3d 07 0c ba bd e5 e2 cb 3b 95 58 99 bd
       0.07037996 -0.09084325 0.0062221163 -0.07487599
0000f0 cf be ba bd 35 04 bc bc 8d 7e 5c 3b 4d 97 10 3d
       -0.09118425 -0.022951225 0.0033644766 0.03530054
000100 9a 25 fa bc 4c a9 0a bd 1f 96 66 bc 6d 14 95 3d
       -0.030535508 -0.03385286 -0.014073878 0.072792865
000110 d1 4c a7 bd 82 59 bd 3d 10 fc c9 bd 17 a2 fe 3c
       -0.081689484 0.09245588 -0.0986253 0.03108315
000120 45 e7 3f bb f3 94 7f 3d ae 32 46 3b 5a c6 cb bd
       -0.0029282134 0.06239791 0.003024261 -0.09949942
000130 1d f4 8a 3d 5f fa 30 3b a2 90 59 3d 04 fe 7c bd
       0.06784842 0.0027004702 0.05311645 -0.061765686
000140 56 67 cf 3d 14 a0 bb bd 24 b2 b2 bc fc 2d a7 bc
       0.10127132 -0.09161392 -0.02181346 -0.02040767
000150 00 cc 8c bd 8b d1 e7 bc 14 97 f5 bd 9f cb 02 3c
       -0.068748474 -0.02829816 -0.119917065 0.007983117
000160 6b ea dc 3d 48 3c 90 3d ce 9e 26 3e 74 28 99 bd
       0.10786899 0.07042748 0.16271517 -0.07478419
000170 c1 30 12 3e 36 07 c9 bd a8 6f 02 3c 99 f2 7f bd
       0.1427641 -0.098158285 0.007961191 -0.06248722
000180 90 90 32 bd c0 12 5d 3d e4 9c df bc ab 82 93 bd
       -0.043594897 0.05397296 -0.027296491 -0.07202657
000190 b8 3f f6 bc 4e 12 60 bd 4b 92 50 bd 1d ba 93 3d
       -0.03005968 -0.054704957 -0.050920766 0.07213233
0001a0 f9 eb 0f 3d e8 5f 9b bd 01 ca a3 bc 7e b4 d6 bc
       0.03513715 -0.07586652 -0.019993784 -0.026209112
0001b0 d0 95 22 3a bc dd ae bd 0e ba 48 3d 53 1a 96 3d
       0.00062021334 -0.08538386 0.04900556 0.0732924
0001c0 f4 bc fa bc 65 e5 01 3e 48 e8 ee 3c d9 d8 aa bc
       -0.030607678 0.12685163 0.029163495 -0.020855354
0001d0 13 f2 a4 3c 8b 33 da bb 8b 69 bb 3b 7f 61 d9 3d
       0.020134961 -0.0066589764 0.005719369 0.10614299
0001e0 ae ee a0 3d e2 b0 78 3c d2 94 d7 bc fa 53 d2 3d
       0.078580245 0.015178891 -0.02631608 0.102699235
0001f0 df 67 df bd 6c cd 3e 3d 70 f3 a9 3d 4e 77 f4 bb
       -0.10908484 0.046582624 0.08298385 -0.0074605113
000200 95 19 03 3e 5e 46 b0 bd ff 40 cd bd f5 df bb 3d
       0.12802728 -0.086071715 -0.10022163 0.09173576
000210 fa 0e 95 3d e2 61 8e 3d 0a ba 68 3d 8e 27 a1 bd
       0.07278247 0.069522634 0.056818046 -0.078688726
000220 16 0d ad 3d ae 84 c8 3d e3 89 96 3d e8 04 7c bd
       0.084497616 0.09790932 0.073505186 -0.061528116
000230 7c 9c 38 3e 00 4f d5 bb 7c 0c 00 3c 67 18 c6 bc
       0.18028444 -0.0065096617 0.0078154765 -0.024181558
000240 83 fb c6 bc ae 60 0f be 8c d3 5a 3d 17 2b 87 bd
       -0.024289852 -0.14001724 0.053424403 -0.066000156
000250 52 19 48 3d f2 4b 10 3d e4 ba 9f 3d f7 5b 76 3d
       0.048852272 0.035228677 0.077993184 0.0601463
000260 5d 26 cb 3d 85 3a 5e 3d b2 91 bf 3d 0c e6 95 bd
       0.099194266 0.054255027 0.09353961 -0.073192686
000270 1f 36 b2 bd a8 0f 85 3d 88 20 5a bc b1 1c e4 bd
       -0.08701729 0.06497127 -0.01331342 -0.11138285
000280 e1 32 b3 bc 14 2f d6 bd bf 49 03 3d 5a e2 41 3d
       -0.021874847 -0.10458198 0.03205275 0.047335006
000290 49 e8 3f bd 73 c9 8a 3c ba 70 d9 bb 3a 14 3e bd
       -0.046852384 0.016941762 -0.0066357525 -0.04640601
0002a0 7d da ed bc f4 4c c0 3d 8b 65 b5 3d b6 81 b3 3d
       -0.029034847 0.09389678 0.088572584 0.08764975
0002b0 8f 96 8f 3d 78 57 e8 3d 6c 73 b3 3d 44 b8 01 bd
       0.07011139 0.11344808 0.08762249 -0.03166987
0002c0 8a 59 2f 3d 6c 4e a7 3d 5d 39 90 3b eb 40 a7 3d
       0.04281 0.08169255 0.0044013695 0.08166679
0002d0 41 e5 0c bd 3f bf ee bd 97 3d ad 3c 5d 14 ad bb
       -0.03439832 -0.11657571 0.021147532 -0.0052819685
0002e0 75 f6 d6 bb f0 4b 38 bd 7d 05 cb 3d 76 88 5c 3d
       -0.0065601417 -0.044994295 0.09913156 0.053841077
0002f0 e8 83 fc 3d ce a2 e7 3d 99 95 9c bc 7f d4 cf 3d
       0.123298466 0.113103494 -0.019114302 0.10147952
000300 aa 4a 4c bd 4a 86 2c 3d e3 71 4e 3d b4 58 71 3d
       -0.049875893 0.042120256 0.05040158 0.058922485
000310 fa 4d 2d 3c 18 d9 c7 bd 5d 18 8e bd ba 27 81 bc
       0.010577673 -0.09758204 -0.06938241 -0.015766013
000320 ec 51 b9 bd 0a 4b 14 3d d8 ec 36 3d 1e c0 1f 3d
       -0.090488285 0.036204375 0.044659466 0.039001577
000330 32 4e 88 bd dc 9c fb 3d ba 47 d3 bd 10 33 f7 bc
       -0.066555396 0.12285778 -0.10316415 -0.030175716
000340 61 5f ce 3d 5a ff 4b 3d 61 9e 2e 3d 80 f0 48 bd
       0.10076786 0.04980407 0.04263151 -0.049057484
000350 8a ff 88 3d 85 7c aa 3c 9d 7d c4 3d 37 1c e8 3b
       0.06689365 0.020811329 0.09594271 0.0070834416
000360 eb 2f 3d bc 6f 4e 8e 3c 07 53 1b 3e fc 97 aa bd
       -0.011547069 0.017371384 0.15168391 -0.0832977
000370 ac f3 2f 3d 56 c3 0e 3d 0d bd 5a bd 89 10 0c be
       0.042956993 0.034854256 -0.05340295 -0.13678183
000380 d5 68 f6 3d c8 2d 39 3d 24 85 52 3d 81 8f 84 bd
       0.12031714 0.045209676 0.051396504 -0.06472684
000390 61 39 51 bd 72 59 dc 3d a4 68 17 be a3 66 91 3d
       -0.05108011 0.10759248 -0.14786011 0.070996545
0003a0 d6 94 bf 3d a8 64 c4 bc f6 28 f5 3d c9 a8 ac bc
       0.0935456 -0.023973778 0.11970703 -0.021076577
0003b0 9a 08 f5 3d fd 4e 40 be d4 83 6c 3d 60 c3 8b 3d
       0.11964531 -0.18780132 0.05774291 0.06824374
0003c0 3d 34 74 3d 79 52 33 3c 9c 87 a8 3d 8e cf bd 3d
       0.05962013 0.010944956 0.082289904 0.092681035
0003d0 6e fe 5f 3d b9 ac 3a 3d c4 f8 88 bd aa 80 f9 3d
       0.054686002 0.045574877 -0.06688073 0.12182744
0003e0 b2 c6 19 bd 83 4a 6e 3d cc ad ec 3d 73 bf b8 3d
       -0.037543006 0.05817653 0.115565866 0.09020891
0003f0 7f 82 23 bd 30 cb 0e be 9e 62 a9 3d d8 c0 0c bd
       -0.039919373 -0.13944697 0.08270763 -0.034363598

encoder.gru.weight_hh_l1 f4 [192, 64]
000000 bd 40 e1 3d 88 c3 ae bd 9e d2 c7 bc 60 3b cf bd
       0.10998676 -0.085333884 -0.024392422 -0.10118747
000010 ff 23 0a be 7d 64 f5 3d 01 9f cc 3d 6a c0 ad bd
       -0.13490294 0.11982057 0.09991265 -0.08483966
000020 5d c2 0e 3e 61 a0 aa 3c e3 0a 2e be df d0 0b bd
       0.13941331 0.020828428 -0.1699634 -0.034134742
000030 aa 6e e8 3d f7 d3 5b 3d 05 e3 b9 38 e3 c7 db 3d
       0.113492325 0.053668942 8.863773e-05 0.10731485
000040 43 72 8f bd f4 1d bc 3d 8d be 47 3e 03 7d 54 3d
       -0.070042156 0.091854006 0.19506283 0.051877033
000050 7c 6b bb bd 80 b5 65 3d 19 f8 aa bd b1 e9 b0 bd
       -0.091513604 0.056081295 -0.08348102 -0.08638323
000060 3e ed d5 bc 46 f3 15 3d af ed 5f 3d bb f4 93 3d
       -0.026114102 0.036608957 0.054670032 0.07224413
000070 19 fa a1 3d 10 2e 44 bd eb 91 1f be 31 f9 e3 ba
       0.079090305 -0.04789549 -0.15583007 -0.001739299
000080 ec f4 e8 bb 85 a6 86 3d d6 27 ea bd c8 07 32 bd
       -0.007109275 0.0657473 -0.11433379 -0.043464452
000090 3c d3 10 bd 87 84 0a be e3 2b 42 3e 63 40 17 be
       -0.0353577 -0.13527118 0.18962054 -0.14770655
0000a0 00 9d b4 3b 70 45 6a 3d 3c fa 7a bd b2 5b f3 3d
       0.00551188 0.057195127 -0.0612738 0.11882724
0000b0 e3 a2 f0 bc 9e eb 9c 3d fc 1e 01 bd fa 05 94 3d
       -0.029374545 0.07662128 -0.03152369 0.072277024
0000c0 8d c6 b4 3d a2 c1 d4 bd ef 68 2a bd ad 0e 91 bd
       0.08826933 -0.10388495 -0.04160398 -0.07082877
0000d0 1f 62 8a bd 2a ff d6 bd c5 16 95 bc 3e 7d 5e 3d
       -0.06756996 -0.104978874 -0.018199334 0.05431866
0000e0 ff eb de bd 14 37 9b bc be 64 18 3d 41 e9 a9 3d
       -0.108848564 -0.018947162 0.03720545 0.08296443
0000f0 b2 5c 2f 3d 3d c1 d8 3c 91 7c ad 3d 1a 51 be bd
       0.04281301 0.02645933 0.08471025 -0.09292813
000100 85 35 db bd 09 1b 62 3c a2 ab 66 3d 54 9d 85 bd
       -0.107035674 0.013800391 0.056316026 -0.065241486
000110 5c 2b 34 be 2e a1 9a 3d 88 53 27 3d 53 88 6a 3d
       -0.17594665 0.07550274 0.040851146 0.057258915
000120 bb 64 a0 bd 5a cd cb 3d ee c0 ee 3d ff 4a 22 be
       -0.07831713 0.09951277 0.11657892 -0.15848921
000130 3b 03 60 bd af 05 bc bc 88 00 85 3d 72 11 10 3c
       -0.05469058 -0.022951929 0.06494242 0.008793222
000140 2d e4 ef bb 29 bc 44 bd b2 5d e0 bd 3d 55 18 be
       -0.007320902 -0.048031006 -0.10955371 -0.14876266
000150 32 2d 02 be 04 c7 6a bd 9b 7b 15 be 23 7e 06 3c
       -0.12712553 -0.057318702 -0.14597933 0.008208784
000160 e5 3a b9 bd 07 1f ab 3c 8c 17 a2 3d ff 81 15 3d
       -0.09044436 0.020888818 0.079146475 0.036500927
000170 80 ea e8 bd 31 7a bb 3d b0 a4 a3 3d 6c de 06 3c
       -0.11372852 0.091541655 0.07990396 0.00823174
000180 e9 72 60 3c f4 9d 9b 3d f5 ee 25 3c 76 af 29 3e
       0.013699272 0.075984865 0.010127773 0.1657084
000190 f5 7d 7d 3d 60 8e f4 3d 5c 85 8b bd 1c 16 17 be
       0.0618877 0.119412184 -0.06812546 -0.14754528
0001a0 02 29 47 bd 0f 8d 10 be db 46 aa bd 7e c0 da 3d
       -0.048623092 -0.1411631 -0.08314296 0.10681246
0001b0 8d e9 43 3d cb 9b ff bb b1 ca 8f 3d 97 7d 86 3d
       0.047830153 -0.0078005544 0.07021082 0.06566923
0001c0 33 a4 a9 3c 56 86 4e bd 09 d2 86 3d 14 9c 15 3b
       0.02070818 -0.05042108 0.0658303 0.0022828626
0001d0 d2 1b 64 3e 14 4e d2 3d 92 07 95 3d 08 d4 db bd
       0.22276238 0.102687985 0.072768345 -0.10733801
0001e0 7e 94 58 bb b4 4e ec bc 09 3b 7b 3d 2c 8a a6 bd
       -0.0033047493 -0.028846122 0.061335597 -0.08131823
0001f0 b5 11 43 bd 3e 2f 1d be 34 8d ca 3d ad f0 77 3c
       -0.04762431 -0.15350053 0.098902136 0.015133065
000200 a0 d0 ca bd da f2 df bd b3 83 cd 3d 87 e6 2f bd
       -0.09903073 -0.10934992 0.10034885 -0.042944457
000210 9d c5 89 3d 35 56 b0 3c fc 27 e2 bd 67 04 2c be
       0.06727145 0.021525482 -0.11042783 -0.16798554
000220 aa 96 9b bd fd a8 df b9 ad 8b 07 be fc 51 ca 3c
       -0.07597096 -0.0004265978 -0.13236876 0.024697296
000230 51 17 4f bd f6 85 51 bd 4f 4c 8c bd 3d d6 33 3d
       -0.050559346 -0.051153146 -0.06850492 0.043905485
000240 bb 44 21 3e d5 e0 6d bd 33 40 cf 3d 33 b8 32 bc
       0.15748875 -0.058075745 0.10119667 -0.010908174
000250 a7 c1 06 3d 83 d4 03 3e 8f b4 96 3d 92 46 40 3d
       0.032899525 0.12874036 0.073586576 0.0469423
000260 f1 90 ba bd af b3 6d bd 90 75 e3 3d a1 38 8e bc
       -0.09109677 -0.058032688 0.11106408 -0.017360987
000270 b9 a9 9a bc 1f c8 c9 3d ea df 03 be b8 07 3f 3d
       -0.018879758 0.09852623 -0.12878385 0.04663822
000280 08 c7 e9 3d 96 25 35 3c d2 3b 32 3c 66 51 17 3e
       0.11414915 0.0110563245 0.01087852 0.14777145
000290 d5 ac 09 bd 70 73 9a 3d 01 9c c0 bd ba 7e 19 be
       -0.03361209 0.07541549 -0.094047554 -0.14989749
0002a0 58 70 3e 3c 28 00 80 3c 48 31 16 3a 39 ba e0 3d
       0.0116234645 0.015625075 0.00057293894 0.10973019
0002b0 34 77 52 bd 3f af bb 3d 16 b9 38 3c 90 c2 03 bd
       -0.051383212 0.09164285 0.011274597 -0.03216797
0002c0 64 34 7e bd 52 f4 90 bd a3 09 12 be 4c 50 bd bd
       -0.062061682 -0.070778504 -0.14261489 -0.09243831
0002d0 81 e1 f7 3b 5d 55 29 bd 10 0f 1c 3c 0b 39 2f 3d
       0.007564724 -0.041341174 0.009525076 0.04277901
0002e0 20 c3 06 be 03 3a bd 3d f4 22 8e 3d 7e 6b 8c 3d
       -0.13160372 0.092395805 0.069402605 0.0685644
0002f0 d1 0b e3 bd c2 58 fc bd d1 d7 cc 3d 66 ca 12 3e
       -0.11086238 -0.12321617 0.10002101 0.14335021
000300 f6 5d 99 bc f9 97 76 3d 8a c5 83 bd 40 7a 04 be
       -0.018721562 0.060203526 -0.06434162 -0.1293726
000310 c3 23 68 bc 62 76 4f bd eb 34 22 be 9b a4 e7 3c
       -0.0141686825 -0.050650008 -0.15840499 0.028276732
000320 c0 0f 09 be 3f 54 3c 3c eb 54 71 bd d9 c1 f4 bd
       -0.13384914 0.011494695 -0.058918875 -0.11951036
000330 6b 80 24 bd 38 4b 2b be 64 fe 63 3d bc d0 91 bd
       -0.04016153 -0.16727912 0.055662528 -0.07119891
000340 79 c3 03 bd f2 52 d4 bd 63 07 06 3d 23 7e 2d 3d
       -0.03216884 -0.10367383 0.03272189 0.04235662
000350 79 2c b3 3c 5d 03 10 3e e2 4f 65 bc 41 f7 28 3c
       0.021871792 0.14063783 -0.013996096 0.010312856
000360 e3 82 03 be f0 e8 3b bd 39 55 e8 3d a5 6e ee bd
       -0.12842898 -0.045876443 0.1134438 -0.116421975
000370 ee a5 6d 3c 7e 34 4b bd 18 be 30 bd 3d be 05 3e
       0.014504893 -0.049610607 -0.043150038 0.13060851
000380 05 81 89 bd 55 50 62 bc c6 f5 cf 3d e9 77 9d bd
       -0.06714062 -0.013813098 0.101542994 -0.07688887
000390 b7 75 d9 3b cd 97 e8 bd 5c aa b7 3c 9c cb e6 3d
       0.006636347 -0.11357079 0.0224201 0.11269304
0003a0 8a cb c6 bd 99 44 87 3d e6 f2 30 bd 20 09 1c 3e
       -0.09706791 0.06604881 -0.043200396 0.15237856
0003b0 65 e0 d4 bd 27 b1 82 bc 43 cf 8c 3d 45 e4 13 3d
       -0.10394362 -0.015953613 0.068754695 0.036106367
0003c0 29 bf 79 bd 28 25 34 3e b4 a0 0a 3d 51 ab 6a 3d
       -0.06097332 0.17592299 0.033844665 0.057292286
0003d0 a3 99 4c 3d 15 bd 8e bc 26 e1 3a 3d 7b b8 c0 3d
       0.049951207 -0.017424146 0.045624875 0.09410187
0003e0 ba 4e 67 bd d7 0b bc bd 83 ff a2 3d ee 8e 13 3c
       -0.056471564 -0.09181946 0.07958891 0.009006245
0003f0 64 bf 92 3d eb 60 88 bd 5c 65 30 3d 59 8c 0e bd
       0.07165411 -0.06659111 0.043065414 -0.034801815

encoder.gru.bias_ih_l1 f4 [192]
000000 b9 48 60 bd 7e 96 09 3e 63 7d b4 3d 94 2d f2 3d
       -0.054756854 0.13436314 0.08812978 0.118250996
000010 1e e2 9b 3d 16 c8 df 3d 1a d0 e0 3d 82 28 32 bd
       0.07611488 0.10926835 0.10977192 -0.043495663
000020 46 ef 0d 3d 7e 57 71 3d d1 99 63 bd fa 55 94 3d
       0.034652017 0.05892133 -0.055566613 0.07242961
000030 09 8a 1a 3e e9 2f a2 3d 38 e8 05 3d dd 54 d5 3d
       0.15091719 0.079192944 0.032692164 0.10416577
000040 03 a1 a1 bd ee b8 11 be 1c 70 90 bd 7b 09 14 3d
       -0.07892039 -0.14230701 -0.07052633 0.036141854
000050 66 0a dc bc 68 37 07 3d c7 d6 09 bc 4f 66 ab 3d
       -0.026860427 0.033011824 -0.008413023 0.08369123
000060 6f 8a 8c bd 04 4c a0 bc 45 27 d3 3d 27 8c ca bd
       -0.068623416 -0.019567497 0.103102244 -0.09890013
000070 5e 21 f3 3b d1 cc 97 3b 71 92 ce bd 6d 32 3a 3e
       0.007419749 0.0046325703 -0.10086525 0.18183298
000080 5f 61 bc 3d f4 ee 86 3d ad da 81 3d fb dc fd 3c
       0.091982596 0.065885454 0.06340537 0.03098916
000090 a2 88 a1 3d 20 6f 7a 3c 98 37 8f 3d f3 9a af bc
       0.07887389 0.015285283 0.069930255 -0.02143619
0000a0 f6 ab 51 3d b9 20 24 3e f6 e0 71 bd 14 90 bc 3d
       0.051189385 0.16028108 -0.05905243 0.09207168
0000b0 d9 8b 92 bd 87 81 e7 3d 25 7a 72 3d 2c b3 57 3d
       -0.0715558 0.11304002 0.059198517 0.052661106
0000c0 41 53 4f 3c 23 3d bc 3c 57 40 91 bd 77 eb a2 3d
       0.012654127 0.022978371 -0.0709235 0.079550676
0000d0 32 5e 18 3e 17 e3 70 bd 30 ff 89 bd 6b 4f b4 bd
       0.14879683 -0.05881032 -0.06738126 -0.0880421
0000e0 ab 84 df 3d b3 9e d8 3d 27 32 ad bc 98 92 86 bd
       0.10913976 0.105771445 -0.021142079 -0.06570929
0000f0 fe 47 be 3d d2 6c 07 3e e2 90 48 bd 3a b1 13 3d
       0.09291075 0.13225105 -0.048966296 0.03605769
000100 5b dd bf 3d 36 19 ca 3d 59 be 65 3e 25 40 c0 3c
       0.09368392 0.0986809 0.22435893 0.023468086
000110 bd 3f 03 3c d0 c5 e2 3c 00 d1 4a 3e 57 18 50 3e
       0.008010802 0.027682215 0.1980629 0.20321785
000120 f0 52 ed 3b dc e0 0f bd 77 88 2e 3e cc f5 14 3e
       0.007242553 -0.035126552 0.17044245 0.14546889
000130 e4 a4 6f 3e 0f 37 53 3e 60 73 e0 3d f3 a7 b4 3d
       0.23402745 0.20626472 0.10959506 0.08821096
000140 6f c7 20 3e f3 41 06 3e d0 61 de bc e0 dc 82 3e
       0.15701078 0.13111095 -0.02714625 0.2555914
000150 7b 44 c3 3d c2 99 54 3e 17 b4 53 3d 01 3d 6b 3e
       0.09534546 0.20761779 0.05168542 0.2297249
000160 d7 01 65 3e 1a ba 0b 3d 10 30 11 3e 85 cf d8 3d
       0.22363983 0.034113027 0.1417849 0.10586456
000170 68 38 f8 3d 71 3e a0 bb 67 6e 98 3d 0c d4 5f 3d
       0.12120134 -0.004890256 0.074429326 0.054645583
000180 68 e8 db 3d b3 ac 3c 3e cc 86 76 3d ad 90 5a 3e
       0.10737687 0.18425255 0.060187146 0.21344252
000190 2c 0c 5a 3e de 73 06 3e 23 57 35 3e ef 8b 1b 3e
       0.21293706 0.13130137 0.17709021 0.15190099
0001a0 3b 07 52 3e 1b 83 49 3e f3 0b 53 3e bc 29 f7 3d
       0.2051057 0.19678919 0.20610027 0.12068507
0001b0 14 3b be 3d 28 d9 fc 3b 68 70 cb 3d 95 44 24 3e
       0.09288612 0.0077163167 0.09933549 0.16041787
0001c0 97 79 32 3e 03 9e 06 be b7 cb be 3d 49 71 15 3e
       0.17429195 -0.13146214 0.09316199 0.14593996
0001d0 e5 58 4c 3e 09 19 81 bb b8 ce fb 3d 0f f6 fa 3d
       0.19955786 -0.003939752 0.12295288 0.12253963
0001e0 a4 c3 3a 3e 9a 4c 08 3e 5f c9 0d 3e ab 4a 07 3d
       0.18238693 0.13310471 0.13846348 0.033030193
0001f0 63 06 fe 3c 32 93 45 3d 2c db 84 3e 3f 2d df 3c
       0.031008905 0.04823608 0.25948465 0.027243255
000200 2d 5e a5 bd aa d8 1d be 5b 88 c4 3d 1a 48 7f bd
       -0.08074603 -0.15414682 0.0959632 -0.06232462
000210 1b c1 d5 3d d4 fa 7d 3d 6c 78 12 be 3b d3 9d bc
       0.104372226 0.062006786 -0.1430375 -0.019265762
000220 a3 75 69 bd ae a2 94 3d 74 6c 06 bd af 69 c8 bd
       -0.056996953 0.07257591 -0.032818273 -0.097857825
000230 d8 28 be 3d 5f 88 80 bd 83 5e ed 3d e7 1c 2b 3d
       0.09285134 -0.06276011 0.11590292 0.04177561
000240 e2 7a 64 3c 2e 3c 91 bd fd d0 bd bd 7a 89 e1 bd
       0.013945313 -0.070915565 -0.09268377 -0.1101255
000250 0f e7 f8 bd f1 ce f6 3d 8e 6d a4 3c 0e ad 80 bd
       -0.12153446 0.1205119 0.020071771 -0.062830076
000260 df 33 a9 bd 3f d2 c5 3b 2e 88 98 3d dd 06 37 3d
       -0.08261847 0.006037026 0.07447849 0.04468428
000270 c6 64 e8 bd 68 18 89 3c 05 dc 9d 3d 04 1b c7 3a
       -0.11347346 0.01673527 0.07707981 0.0015190546
000280 f8 cb e7 3d 8d 6c d2 3d 79 87 b4 3c ac 93 ae 3d
       0.11318201 0.10274611 0.022037255 0.0852426
000290 60 3a e0 3d a5 55 68 bd 52 f1 d6 3d 90 c2 18 3d
       0.10948634 -0.056722302 0.10495247 0.037294924
0002a0 b5 7e cd 3d 60 3c a8 bd e0 9a 00 be d8 7d eb 3d
       0.10033933 -0.082146406 -0.1255908 0.11498612
0002b0 1b b7 62 bd 43 2e 74 3d 8b d5 f5 3c 9f 4b e3 bc
       -0.055350404 0.05961443 0.030009052 -0.02774602
0002c0 4e 75 92 bd ee a7 85 3d fc 3a fa bd 4e 09 8e bc
       -0.0715128 0.06526171 -0.122182816 -0.017338421
0002d0 58 64 c0 bc cd 7f 36 3d d6 d2 8e bd 5c 20 3a 3d
       -0.023485348 0.044555474 -0.069738075 0.045441017
0002e0 7c 1d 6e 3d b9 fc 6c bd 7a ab 66 3c 1e 71 a6 bc
       0.058133587 -0.057858203 0.014078969 -0.02031761
0002f0 53 01 3f bd c7 34 10 be 41 b7 96 3d ea bd fd 3d
       -0.046632122 -0.14082633 0.07359172 0.12389739

encoder.gru.bias_hh_l1 f4 [192]
000000 fb 03 e2 bd 32 9e cc 3d c0 e0 e6 3d dd 09 57 3b
       -0.110359155 0.09991111 0.112733364 0.0032812275
000010 81 e8 41 3e 6c f9 d8 bb 3f 38 7a bd 53 b1 10 3e
       0.1893635 -0.0066215303 -0.061088797 0.14130144
000020 03 e1 3d 3d 0b 6a 33 3a e8 7d 66 bc 65 ff da bd
       0.046357166 0.000684411 -0.014068104 -0.10693244
000030 6c b9 54 3d 40 ea 82 bd 0b 33 b3 3c 03 92 4b 3d
       0.051934645 -0.06392336 0.021874925 0.049699795
000040 64 57 2e bd 3f af e2 bc eb 2b 88 3c b7 70 96 3d
       -0.04256381 -0.027671454 0.016622504 0.073457174
000050 e6 d4 e1 3d 24 8a f4 bd 2d 1d 91 3d 64 51 37 bd
       0.11026935 -0.11940411 0.07085643 -0.044755355
000060 b7 50 00 3e 72 b4 16 be 9c 97 90 3c d0 66 03 3d
       0.1253079 -0.14717272 0.017650418 0.03208047
000070 c3 7e 0a bd 6b 41 c0 3c 3d 77 ad 3c a4 d7 f2 3c
       -0.033812296 0.023468694 0.021175021 0.029643841
000080 85 a4 8e bd 3c ec c8 bd 22 cd 88 3b 50 4f c3 bd
       -0.06964973 -0.09810683 0.0041748444 -0.09536612
000090 1e 02 a9 bd b5 10 54 bd a4 eb 90 bd 2d fd 0b 3e
       -0.08252357 -0.051773746 -0.07076195 0.13670798
0000a0 31 09 03 be ae e7 06 3e 09 52 5e bd 87 94 d5 3d
       -0.12796475 0.13174316 -0.054277454 0.1042872
0000b0 5b c6 07 3e 43 11 c1 bc 3f 8b 17 3d 9e 0c 03 3e
       0.1325926 -0.023567801 0.03699803 0.12797782
0000c0 57 a0 c2 bd 05 39 aa bb 5e b2 86 bd ed f0 c2 3d
       -0.09503239 -0.0051947855 -0.065769896 0.09518609
0000d0 d1 7e c6 3d c7 82 5f 3d 89 77 72 bd 1a ca 76 bd
       0.09692157 0.05456808 -0.05919603 -0.060251333
0000e0 08 7f 1c 3c 7d 13 d2 3d 9f 27 c1 3d fa c6 1c 3e
       0.009551771 0.10257623 0.09431385 0.15310279
0000f0 f6 ae 73 3b 1e 36 d5 bd af 7b e2 bd 91 35 84 3d
       0.0037183142 -0.10410713 -0.11058747 0.064555295
000100 df 6c 19 3e d9 78 06 3e 0c 03 27 3d 0f c8 65 3e
       0.14982937 0.13132037 0.04077439 0.22439598
000110 38 0f 73 3e d3 f5 94 3d c1 7c 38 bc 54 71 3c 3e
       0.23736274 0.0727345 -0.011260212 0.18402606
000120 8b 45 2c 3e 1a 3f b2 bd 2a 6b cb 3d 6f 3d 9f 3d
       0.16823404 -0.08703442 0.09932549 0.077753894
000130 fd a0 78 3e f5 bc f1 3c 92 c1 70 3e 3c 6e b9 bc
       0.24280162 0.029509047 0.23511341 -0.022635572
000140 e4 2a 4e 3e b1 7d 7a 3d c1 b9 f3 3d 90 fd 83 3e
       0.20133549 0.061155025 0.11900664 0.2577939
000150 81 08 ee 3d e1 ab df 3d ce 72 bd 3d a6 2e 2e 3e
       0.11622716 0.10921455 0.09250413 0.17009982
000160 78 c4 fb 3d 52 70 23 3e b8 7d 3c 3e 74 36 fa 3d
       0.12293333 0.15960816 0.18407333 0.12217417
000170 c2 57 3c 3e 1e 75 f4 3d 1b eb 6d 3e 63 59 49 3e
       0.18392852 0.11936401 0.23234217 0.19663005
000180 aa 18 a4 3d 61 f2 57 bd b6 0e 51 3e 1c ff 26 3e
       0.08012517 -0.052721385 0.20415768 0.16308254
000190 c5 56 9c 3d 47 af 40 3e 92 05 06 bc 30 68 99 3c
       0.076337375 0.18816863 -0.008180039 0.018726438
0001a0 14 7b b7 3d c9 41 c4 3d c7 2e eb 3d a6 a0 ca 3d
       0.08959022 0.0958286 0.114835314 0.098939225
0001b0 13 32 b8 bc 33 2b 84 3d de 44 b5 3d 7c 97 4b 3e
       -0.022484815 0.06453552 0.08851026 0.19882005
0001c0 6e 6b 94 3e 0b 69 f6 bc 3b b7 24 3e 4e fa 0c 3e
       0.28988212 -0.030079385 0.16085522 0.13767359
0001d0 f0 1b 71 3e f4 d4 5d 3e b2 8e 5f 3e 4f c8 ee 3b
       0.23545814 0.21663266 0.21831778 0.0072870622
0001e0 aa 82 47 3c 28 6e 8e 3b 57 c5 2d 3e 9c 57 81 3d
       0.012177149 0.0043466277 0.1696981 0.06315538
0001f0 d6 07 1f 3e 33 95 dd 3d 33 d5 39 3d 47 3c 59 3e
       0.15530333 0.10819473 0.04536934 0.212144
000200 cd 36 ce bb 22 94 19 bd ba 6a 74 3d e5 b0 e1 bd
       -0.006293154 -0.037494786 0.059672095 -0.11020068
000210 db 9b 99 3d 1c b8 a5 b9 f2 5b fe bc c2 e4 94 bd
       0.0750043 -0.00031608425 -0.031049702 -0.072701946
000220 0c 87 70 bd b3 d4 96 bc ca ca 19 bd 46 22 31 3c
       -0.05872254 -0.01841197 -0.03754691 0.010811394
000230 92 cc 63 3d b1 e2 85 3d b2 3c e3 bc 19 51 33 bb
       0.055615015 0.065373786 -0.027738903 -0.002736157
000240 64 42 85 3d 3d 71 99 3d 58 00 2e bd e9 43 9b 3d
       0.06506804 0.074923016 -0.042480797 0.07581312
000250 fc ea 6d bd 2c 8e 2a 3d a3 8f ea bd 90 8a 9a 3c
       -0.058085427 0.041639492 -0.11453178 0.0188649
000260 6b 10 06 bd 72 1a a0 bc 34 5e 55 bd e8 01 6f 3b
       -0.0327305 -0.01954386 -0.052091792 0.0036469642
000270 83 6a 81 3d b2 ff 0e 3d 98 51 bb 3d f2 29 b8 3d
       0.063191436 0.03491182 0.09146422 0.089923754
000280 96 94 c8 3d 2b 79 cb bd fc 9f f1 bd 1c 6f d5 bc
       0.097939655 -0.0993522 -0.11798093 -0.026053958
000290 e3 a7 9c bd 28 97 ae bc aa 14 fd 3b cf 62 fa bd
       -0.07649209 -0.021312311 0.0077234106 -0.122258775
0002a0 75 ee 40 3d d1 53 cb bd e8 13 97 3d 02 49 83 3c
       0.04710241 -0.09928096 0.07376844 0.016026024
0002b0 62 76 9d bc 28 93 c6 bd 71 1a dc 3d 36 23 fb 3b
       -0.019221488 -0.096960366 0.10747231 0.0076641096
0002c0 b7 cd 25 3d 06 d9 cb bc 86 cf 71 bd fd 56 e1 3d
       0.040479388 -0.024883758 -0.0590358 0.1100292
0002d0 69 11 45 3b 36 f5 a9 3d 23 ce 11 3d f7 08 00 be
       0.0030070192 0.082987234 0.035596978 -0.1250342
0002e0 a6 0e 69 bd 5f d7 2e 3d a4 c2 3d 3d 31 ed 79 3c
       -0.056898735 0.042685863 0.046328202 0.015254305
0002f0 1c 46 06 3c 6f b7 ba bd 92 15 97 3c 7c c1 fe 3d
       0.008195426 -0.091170184 0.018442903 0.12439248
